pz_risk/mini_0/0.pt (torch, 18513 bytes, 26 tensors)

policy_network.emb1.transform.weight f4 [20, 2]
-0.06914151 0.17593262 -0.038182743 -0.7543752 -0.00736235 -0.33152986 -0.17211372 -0.33369017
-0.10167685 0.24515298 -0.515854 0.496339 -0.20322648 -0.069727324 -0.28760484 -0.28284267
0.01835569 0.03787536 -0.057138912 0.22376458 -0.1462185 0.02526007 -0.10246018 0.3579274
0.25129274 -0.3953189 -0.36778352 0.24698555 0.07770279 -0.028730609 -0.74575245 0.24050364
-0.606854 -0.22983083 -0.42675307 -0.38731995 -0.12916788 0.009715758 -0.30898038 -0.2977888
00000000: 109a 8dbd ae27 343e 8265 1cbd bc1e 41bf
00000010: de3f f1bb 48be a9be 943e 30be 70d9 aabe
00000020: f43b d0bd 6209 7b3e 020f 04bf 2520 fe3e
00000030: 9a1a 50be 33cd 8ebd f140 93be c1d0 90be
00000040: ac5e 963c 3223 1b3d 7e0a 6abd 8b22 653e
00000050: 4dba 15be 35ee ce3c a5d6 d1bd 4342 b73e
00000060: 71a9 803e 3d67 cabe 1f4e bcbe c8e9 7c3e
00000070: a422 9f3d 745c ebbc a2e9 3ebf 9646 763e
00000080: c95a 1bbf c658 6bbe 617f dabe cd4e c6be
00000090: 9644 04be d82e 1f3c ad32 9ebe c677 98be

policy_network.emb1.transform.bias f4 [20]
-0.19999707 -0.10563181 0.0 0.0 -0.20407173 0.0 0.0 0.0
-0.09999999 -0.12287148 0.0 0.07399702 -0.14322114 -0.099999934 -0.09999997 0.0
0.0 0.0 -0.09999999 0.0
00000000: 08cc 4cbe 7e55 d8bd 0000 0000 0000 0000
00000010: 2ef8 50be 0000 0000 0000 0000 0000 0000
00000020: cbcc ccbd 0ba4 fbbd 0000 0000 c08b 973d
00000030: 90a8 12be c4cc ccbd c9cc ccbd 0000 0000
00000040: 0000 0000 0000 0000 cbcc ccbd 0000 0000

policy_network.emb2.transform.weight f4 [20, 2]
0.051698953 0.13670455 1.8323634 -5.829215 -0.28624037 0.032117296 -0.048597015 -0.10264552
0.30430955 -0.1630272 -0.30428582 0.8385626 3.5953255 4.654021 -0.1839956 0.14332345
4.4000936 6.459984 0.5068358 -0.27045223 0.626034 -0.3680638 -0.8660892 -0.18435353
-0.045449816 0.043153413 -0.37628067 0.23789534 -0.74394155 1.4761815 -0.46251625 1.4929953
-0.5990113 0.10322409 0.37483186 -1.0954969 -0.090905674 -0.1213615 -0.01602418 0.005323641
00000000: 48c2 533d 47fc 0b3e e28a ea3f ee88 bac0
00000010: 198e 92be 6d8d 033d aa0d 47bd d037 d2bd
00000020: 76ce 9b3e 9af0 26be 5acb 9bbe 0aac 563f
00000030: d019 6640 bded 9440 5869 3cbe 62c3 123e
00000040: 91cd 8c40 30b8 ce40 febf 013f b778 8abe
00000050: c443 203f dc72 bcbe 06b8 5dbf 2cc7 3cbe
00000060: 9629 3abd a2c1 303d dca7 c0be d69a 733e
00000070: f472 3ebf 84f3 bc3f eece ecbe 781a bf3f
00000080: ce58 19bf 2767 d33d f6e9 bf3e 3e39 8cbf
00000090: c12c babd 618c f8bd 2445 83bc f071 ae3b

policy_network.emb2.transform.bias f4 [20]
-0.1950635 1.2160165 0.0 0.0 -0.24553329 0.10386662 4.5006595 -0.10720453
5.4518676 -0.10126926 0.4958593 0.0 -0.02471394 -0.18445149 0.31184444 0.102363214
0.0 0.22593999 0.0 -0.09999999
00000000: babe 47be 6ea6 9b3f 0000 0000 0000 0000
00000010: 146d 7bbe 06b8 d43d 6705 9040 0c8e dbbd
00000020: b375 ae40 4266 cfbd 45e1 fd3e 0000 0000
00000030: e474 cabc dae0 3cbe 13aa 9f3e cea3 d13d
00000040: 0000 0000 d05c 673e 0000 0000 cbcc ccbd

policy_network.emb3.transform.weight f4 [20, 2]
-0.5239777 -0.21700567 -0.29466254 -0.051396992 -0.25354666 -0.057620674 0.10716027 0.29482737
0.5859213 -0.038486578 -1.0920937 0.7817093 0.0014927126 0.35737202 -0.041638933 -0.2787128
-0.48187298 0.34466875 0.029938772 -0.29219773 -0.06748154 -0.40162408 -0.62196475 0.2265113
-0.14486243 0.011244424 0.13897374 0.06286506 -0.20429619 -0.14116806 -1.1920967 0.6619296
0.36095 -0.65551466 0.055575468 -0.27610132 0.02120673 0.06665477 0.1833538 0.1320559
00000000: 6723 06bf bc36 5ebe 02de 96be a785 52bd
00000010: ded0 81be a803 6cbd d876 db3d 9df3 963e
00000020: f0fe 153f 1aa4 1dbd bac9 8bbf 1a1e 483f
00000030: 20a7 c33a 77f9 b63e 968d 2abd 72b3 8ebe
00000040: 0eb8 f6be 6c78 b03e 2842 f53c f19a 95be
00000050: c333 8abd aca1 cdbe 1539 1fbf 94f2 673e
00000060: d156 14be 883a 383c 224f 0e3e 66bf 803d
00000070: 0533 51be 5c8e 10be a096 98bf 3874 293f
00000080: 70ce b83e cfcf 27bf 1aa3 633d 275d 8dbe
00000090: bcb9 ad3c 4c82 883d 19c1 3b3e a939 073e

policy_network.emb3.transform.bias f4 [20]
0.0 0.0 0.0 -0.401667 -0.48366293 0.68313456 -0.35060287 -0.10497463
-0.23480138 -0.057720304 0.0 -0.099886514 -0.14106289 -0.19037412 0.0 0.73013484
-0.39777854 -0.1451916 -0.09999989 -0.28040332
00000000: 0000 0000 0000 0000 0000 0000 4ca7 cdbe
00000010: aba2 f7be e8e1 2e3f 3882 b3be f0fc d6bd
00000020: c66f 70be 206c 6cbd 0000 0000 4d91 ccbd
00000030: ca72 10be 6ff1 42be 0000 0000 1eea 3a3f
00000040: a1a9 cbbe 1bad 14be becc ccbd 0691 8fbe

policy_network.emb4.transform.weight f4 [20, 2]
0.13299707 0.06599863 -0.015121296 -0.29053542 0.12119565 -0.13615288 -0.44915596 0.2650656
0.17426749 -0.2281752 -0.041577764 0.28491223 0.1372992 -0.14623249 -0.21015364 -0.25646433
-0.30247685 -0.36348313 -0.13190795 0.07253701 -0.017163947 -0.35979912 0.050735846 0.0578631
-0.052126274 0.0386676 -0.00094450265 0.0178672 -0.22947617 0.19917609 0.26123136 -0.6120489
0.0875088 -0.023748338 -0.6924728 0.5924827 -0.903271 0.07267179 -0.5195791 -0.5107055
00000000: 6230 083e 4a2a 873d 50bf 77bc 0fc1 94be
00000010: 6d35 f83d a96b 0bbe c5f7 e5be aeb6 873e
00000020: 2d73 323e c2a6 69be 724d 2abd 04e0 913e
00000030: 2998 0c3e f8bd 15be 8432 57be 4b4f 83be
00000040: 3fde 9abe 761a babe e112 07be 498e 943d
00000050: 689b 8cbc 9737 b8be 64d0 4f3d dc01 6d3d
00000060: 5c82 55bd eb61 1e3d 8098 77ba 3c5e 923c
00000070: cdfb 6abe d1f4 4b3e 1ec0 853e 3daf 1cbf
00000080: d037 b33d e08b c2bc e645 31bf f2ac 173f
00000090: c53c 67bf f3d4 943d 2303 05bf 98bd 02bf

policy_network.emb4.transform.bias f4 [20]
-0.23810312 -0.09999549 -0.2774425 -0.23186055 -0.11562555 -0.5043596 -0.10691322 0.0
0.0 -0.06920636 0.0 -0.09999982 -0.049748644 -0.06975683 -0.13908511 -0.15898347
-0.09999999 0.6788002 -0.099999785 0.0
00000000: 4ed1 73be 6fca ccbd f20c 8ebe da6c 6dbe
00000010: 17cd ecbd b61d 01bf 51f5 dabd 0000 0000
00000020: 0000 0000 10bc 8dbd 0000 0000 b5cc ccbd
00000030: 3cc5 4bbd abdc 8ebd 546c 0ebe 90cc 22be
00000040: cbcc ccbd dac5 2d3f b0cc ccbd 0000 0000

policy_network.h2.transform.weight f4 [20, 20]
-0.02246803 -0.14666668 -0.38981783 0.07508734 -0.10159567 0.39345965 -0.7112988 -0.8095202
-0.26043063 -0.37638324 0.4036581 0.15780509 0.11086556 0.103932254 -0.24143308 -0.30451152
-0.32218495 -0.16120064 -0.4166489 -0.4517211 -0.07209303 1.514324 -0.39749998 0.22270706
2.0985775 2.6996152 -0.19832122 -0.36758327 -0.4064433 0.77554464 1.0289764 0.04280588
-0.28591555 -0.4560836 -0.13235763 2.9463668 -0.13810308 0.7831738 -0.116787665 0.043428108
-0.5087973 -0.010998197 -0.40015754 -0.48882923 -0.36919323 -0.21376522 -0.43449032 0.04611034
0.06297767 0.1410807 -0.05980386 -0.054411855 0.22480947 -0.18842465 0.2225009 -0.52380323
0.4369655 -0.26232305 -0.6688457 0.31430596 -0.1360028 1.9159327 0.21822283 0.013821901
2.4264765 3.1072652 -0.1925875 -0.13440146 -0.48889178 1.0638089 1.0734403 -0.00013537332
-0.105671585 -0.050441906 1.1007524 3.223688 0.04869572 0.50652504 0.3374053 0.056043528
-0.18928955 -0.6092999 -0.48448986 0.37889144 -0.620462 -0.1994617 -0.52796495 0.1460484
0.17522453 0.23615313 0.2414926 -0.036724947 -0.1535961 0.23113114 -0.4116504 0.15449052
0.032041445 0.26660687 0.37349752 0.18263821 0.010853648 0.14185445 -0.028547622 0.5258877
-0.14699174 0.2979876 -0.37939057 0.18697527 -0.30113032 -0.0040378273 0.16127282 -0.55707186
-0.3725518 -0.32472435 0.3119331 -0.3300053 0.3909272 -0.29290295 0.040649824 -0.062114466
0.05388277 -0.21587618 -0.3910732 0.61655945 0.12267359 -0.19991456 -0.2903229 0.38431337
0.20709866 -0.52064276 -0.75878 0.19797714 0.0016263042 -0.3154572 -0.5806474 -0.44477573
-0.079682015 -0.3793098 -0.1715608 0.18720125 -0.3529287 -0.39587235 -0.28669813 0.0067201927
-0.008530341 -0.63684064 -0.14788716 -0.26858032 0.07002054 0.10176427 -0.32576555 -0.0004053265
-0.020415507 -0.30197677 -0.35143742 -0.35351104 0.5124226 -0.6067854 0.2179099 -0.8832263
0.5339484 -0.7419512 -0.17478898 -0.29790324 -0.5712097 -0.0071539134 0.0674568 -0.01127629
-0.43519893 -0.262496 -0.21385936 0.055828005 -0.03630457 -0.1424997 -0.008988082 -0.5116983
0.26030207 -0.5056254 0.32022357 0.09893117 0.068687566 -0.47735724 0.31673744 -0.3362426
-2.1064365 3.2136788 0.32824844 -0.22300984 0.74229586 -0.88133097 0.21276939 0.14991426
0.33061862 -0.8685894 0.39162305 4.0676603 0.14490956 0.17653179 -0.05469846 0.13709712
-0.054435123 -0.5622689 0.24930257 0.15288466 0.63885605 -0.4985065 -0.2335386 -0.2688556
-0.08066022 -0.25162458 0.39428 0.12069308 -0.07481041 0.33648896 0.1058351 -0.2800184
0.2820431 -0.34163868 0.036370806 0.41912726 -0.03423729 -0.6335644 -0.51498026 -0.37102288
0.35563144 0.19933893 0.063381135 -0.2525042 0.07076248 0.08944765 0.003748768 -0.65397024
0.31066197 -0.21619098 -0.46884647 -0.40008315 -0.14475402 -0.31498882 0.24832302 0.06410838
0.3160315 -0.051840167 -0.11658781 -0.51560926 0.06323943 -0.40423578 -0.5942428 0.17899896
0.016879775 -0.41691542 0.32685155 0.22040612 -0.544048 -0.4669507 -0.07092723 -0.6155865
00000000: e00e b8bc ca2f 16be 3496 c7be 64c7 993d
00000010: 6411 d0bd 8b73 c93e ae17 36bf b73c 4fbf
00000020: 2a57 85be 4eb5 c0be 46ac ce3e a897 213e
00000030: 7c0d e33d 6fda d43d 3c3a 77be efe8 9bbe
00000040: 6df5 a4be c811 25be 0153 d5be fd47 e7be
00000050: 83a5 93bd 5ed5 c13f 1e85 cbbe 520d 643e
00000060: 184f 0640 7fc6 2c40 b814 4bbe e033 bcbe
00000070: 5619 d0be 188a 463f 80b5 833f 3855 2f3d
00000080: 8663 92be ca83 e9be c288 07be 4691 3c40
00000090: e56a 0dbe 147e 483f 5f2e efbd ace1 313d
000000a0: 8a40 02bf c831 34bc 73e1 ccbe d347 fabe
000000b0: e506 bdbe 45e5 5abe 8475 debe 32de 3c3d
000000c0: 70fa 803d 7677 103e e4f4 74bd f7de 5ebd
000000d0: 7434 663e 64f2 40be 47d7 633e f817 06bf
000000e0: f1b9 df3e 354f 86be 7939 2bbf b6ec a03e
000000f0: 5144 0bbe 483d f53f ce75 5f3e 4175 623c
00000100: 644b 1b40 6fdd 4640 a835 45be 89a0 09be
00000110: 0650 fabe e42a 883f 7e66 893f 00f3 0db9
00000120: 586a d8bd 2c9c 4ebd 74e5 8c3f e750 4e40
00000130: 2a75 473d a0ab 013f 63c0 ac3e e68d 653d
00000140: 1fd5 41be 14fb 1bbf 0e0f f8be 0ffe c13e
00000150: 99d6 1ebf b03f 4cbe b628 07bf b68d 153e
00000160: 0f6e 333e 20d2 713e d649 773e e66c 16bd
00000170: 4c48 1dbe a4ad 6c3e d7c3 d2be c332 1e3e
00000180: e43d 033d b280 883e 113b bf3e 8305 3b3e
00000190: 80d3 313c 4b42 113e b4dc e9bc 94a0 063f
000001a0: 0185 16be d591 983e 7b3f c2be 7276 3f3e
000001b0: c12d 9abe c04f 84bb b424 253e 439c 0ebf
000001c0: 1cbf bebe 4542 a6be b2b5 9f3e 74f6 a8be
000001d0: 9c27 c83e 60f7 95be 6e80 263d bd6b 7ebd
000001e0: 2eb4 5c3d a50e 5dbe bf3a c8be d7d6 1d3f
000001f0: 4b3c fb3d 67b6 4cbe 34a5 94be b9c4 c43e
00000200: ac11 543e d848 05bf 683f 42bf 85ba 4a3e
00000210: b729 d53a 9b83 a1be 4fa5 14bf a5b9 e3be
00000220: 5330 a3bd e534 c2be a2ad 2fbe afb1 3f3e
00000230: 12b3 b4be c8af cabe 19ca 92be 1035 dc3b
00000240: d8c2 0bbc fd07 23bf bb6f 17be 5c83 89be
00000250: ee66 8f3d c969 d03d beca a6be 0082 d4b9
00000260: 6c3e a7bc b39c 9abe 9bef b3be 66ff b4be
00000270: 212e 033f 4a56 1bbf c623 5f3e 1e1b 62bf
00000280: d8b0 083f 84f0 3dbf e2fb 32be c686 98be
00000290: cd3a 12bf 606b eabb ca26 8a3d 30c0 38bc
000002a0: 65d2 debe e065 86be f3fd 5abe e8ab 643d
000002b0: 1ab4 14bd 71eb 11be c042 13bc a9fe 02bf
000002c0: 5046 853e ab70 01bf 58f4 a33e 6d9c ca3d
000002d0: 11ac 8c3d 2b68 f4be 692b a23e fd27 acbe
000002e0: dbcf 06c0 eaac 4d40 2e10 a83e b15c 64be
000002f0: 1a07 3e3f e89e 61bf 38e0 593e 2083 193e
00000300: d846 a93e e05b 5ebf d182 c83e 462a 8240
00000310: 2c63 143e c0c4 343e 7e0b 60bd 3063 0c3e
00000320: 5df7 5ebd dbf0 0fbf 2c49 7f3e cc8d 1c3e
00000330: 128c 233f 3e3c ffbe be24 6fbe 71a7 89be
00000340: 2f31 a5bd f0d4 80be 11df c93e ef2d f73d
00000350: 3336 99bd 4848 ac3e 13c0 d83d 925e 8fbe
00000360: f467 903e 44eb aebe 8ef9 143d d997 d63e
00000370: 673c 0cbd 4731 22bf bfd5 03bf b6f6 bdbe
00000380: 5315 b63e 811f 4c3e f8cd 813d 3b48 81be
00000390: ebeb 903d 5430 b73d e4ad 753b 986a 27bf
000003a0: 160f 9f3e 2b61 5dbe a50c f0be b3d7 ccbe
000003b0: 663a 14be 3746 a1be 6448 7e3e 414b 833d
000003c0: e1ce a13e 5b56 54bd 97c5 eebd f8fe 03bf
000003d0: ad83 813d fef7 cebe 4c20 18bf 814b 373e
000003e0: 7447 8a3c f075 d5be 1659 a73e 24b2 613e
000003f0: bb46 0bbf 2a14 efbe 4c42 91bd 1497 1dbf

policy_network.h2.transform.bias f4 [20]
-0.0999999 0.7581693 -0.09999999 0.8114463 -0.23927253 -0.16579545 -0.1999982 -0.40767038
-0.09999999 0.021705067 -0.18393153 -0.2614313 -0.34534428 -0.11547969 -0.19999954 -0.16547045
-0.11761288 -0.20128201 -0.18422806 -0.30898145
00000000: bfcc ccbd 6217 423f cbcc ccbd f2ba 4f3f
00000010: dc03 75be 48c6 29be 54cc 4cbe 2cba d0be
00000020: cbcc ccbd d3ce b13c 8c58 3cbe 53da 85be
00000030: f7d0 b0be 9e80 ecbd aecc 4cbe 1671 29be
00000040: 06df f0bd df1c 4ebe 48a6 3cbe d132 9ebe

policy_network.h3.transform.weight f4 [20, 20]
0.017902294 2.616991 0.68250346 2.6551583 0.2213672 -0.47884423 -0.20010242 0.26997578
0.24879035 0.68443096 0.028872006 0.3569966 -0.19845867 0.27647224 0.12858015 -0.31724906
0.019677563 -0.17221056 -0.46128327 -0.09903491 -0.17054598 -0.50427794 -0.18295717 -0.1256287
-0.2185545 0.05860601 0.8501563 -0.12028004 0.07961169 -0.21020426 -0.1461665 0.61820066
-0.25925386 -0.06370484 -0.13784152 -0.018551389 -0.33739603 0.19214912 -0.20083869 0.37836325
0.51378804 0.055510744 -0.024812995 -0.33055782 -0.53999215 -0.14317907 0.15770659 0.4623047
0.36704654 -0.14438117 -0.15979293 -0.07041016 0.17911977 -0.08964564 0.013048895 -0.48349816
-0.18408592 0.41828883 0.03529057 -0.043751337 0.24725507 0.36260474 0.26408988 -0.7578726
0.25498343 -0.11183211 0.22447734 -0.14813158 -0.13103281 -1.4157107 0.19332142 -0.06789131
-0.18179044 0.16164997 -0.31460893 -0.034407906 -0.5444649 -0.16018581 0.3430351 -0.16024968
0.10444299 3.2691243 -0.17479238 3.0862267 -0.2739896 -0.24076325 0.2672316 -0.38824373
0.8060868 0.98420894 0.3473731 -0.29159442 -0.44439298 0.4487255 0.03297396 0.19914456
0.56299615 0.012354061 0.3563834 0.086072735 -0.11869249 0.3850596 0.43335226 -0.09566618
0.05974329 0.07714689 0.63184565 -0.08759337 0.027549058 -0.17786378 0.33171603 0.044622794
0.19914968 -0.7192224 0.2893982 0.052294746 0.0772894 0.24184194 -0.23407988 0.054926213
-0.14131328 17.147974 0.5383855 15.685183 -0.17193311 0.44732046 -0.036915146 0.1732863
-0.13015965 0.25742278 0.44437778 0.03145086 -0.65730953 7.710563 0.41824806 0.13021442
0.050621167 -0.06561514 0.3285082 0.118228436 0.1631252 -2.8760495 0.07476804 -3.3156261
-0.23808146 -0.5823574 0.074795485 0.1422335 -0.33448243 -0.3906401 -0.18845484 0.27499068
-0.0844805 0.91592383 -0.2970925 -0.19430327 0.6211582 -0.119468674 0.4236821 -0.11235354
0.33039457 -0.98523414 -0.26345575 -0.6765987 0.58213776 0.092052095 0.15212274 0.6425513
0.2542541 -0.47728196 0.6621268 -0.025895588 -0.1634672 0.2539421 0.027699605 0.39672074
0.4651314 0.46383 -0.2394758 -0.010616543 -0.18675125 0.06532425 -0.16288629 -0.26434493
0.2494646 0.53183967 0.017955951 0.37667695 0.26001543 -0.36650348 -0.028800912 0.008400194
0.11708152 -0.33295396 0.0777237 -0.6402546 0.51107705 -0.16378373 0.35843855 0.48149475
0.21496852 3.4339955 0.025260411 2.8058698 0.4811967 -0.6201847 0.36736628 -0.47011793
-0.07247021 1.6490569 -1.0893084 -0.26101267 0.34790412 1.7806133 0.07470359 -0.12089743
-0.52825123 0.1009873 -0.04233046 -0.121636435 0.12351984 0.09581122 0.3730036 -0.43026203
0.049634304 -0.1462497 0.009974326 0.3258323 0.39925262 -0.08394629 -0.72773683 -0.109878294
0.08565993 -0.26986843 -0.056824405 0.8255473 -0.023587568 0.014597772 0.11328781 0.18583821
0.27106568 -0.43427876 0.16532888 -0.11025341 -0.55916464 -0.18962085 0.053962536 0.14942408
-0.1003444 -0.591436 0.49469942 -0.1090849 0.6430774 -0.45087576 0.18378034 0.2208073
00000000: d5a7 923c c87c 2740 8cb8 2e3f 1dee 2940
00000010: 15ae 623e 122b f5be a6e7 4cbe 443a 8a3e
00000020: e6c2 7e3e de36 2f3f fc84 ec3c 42c8 b63e
00000030: c038 4bbe c58d 8d3e 84aa 033e 786e a2be
00000040: d732 a13c f757 30be 522d ecbe d1d2 cabd
00000050: 9ba3 2ebe 5c18 01bf 2059 3bbe cfa4 00be
00000060: c0cc 5fbe db0c 703d d8a3 593f 6255 f6bd
00000070: 740b a33d c93f 57be acac 15be 6642 1e3f
00000080: ecbc 84be af77 82bd 5426 0dbe 15f9 97bc
00000090: 2cbf acbe bdc2 443e a8a8 4dbe d4b8 c13e
000000a0: 9d87 033f 3c5f 633d 9f44 cbbc e03e a9be
000000b0: ed3c 0abf 899d 12be d67d 213e 34b3 ec3e
000000c0: 86ed bb3e a8d8 13be c2a0 23be 3433 90bd
000000d0: 2c6b 373e 2298 b7bd 08cb 553c 128d f7be
000000e0: 0581 3cbe f429 d63e d88c 103d 9a34 33bd
000000f0: 6f30 7d3e 54a7 b93e ca36 873e f003 42bf
00000100: 308d 823e 3c08 e5bd 63dd 653e ceaf 17be
00000110: 772d 06be 0236 b5bf 0df6 453e 990a 8bbd
00000120: 4627 3abe 9287 253e 6c14 a1be 4eef 0cbd
00000130: 0d62 0bbf c007 24be 4ca2 af3e 7e18 24be
00000140: 35e6 d53d 5539 5140 c6fc 32be bd84 4540
00000150: 5d48 8cbe a48a 76be 95d2 883e e2c7 c6be
00000160: b45b 4e3f 1ef5 7b3f e3da b13e dd4b 95be
00000170: 7a87 e3be 59bf e53e b40f 073d 8dec 4b3e
00000180: 8420 103f b068 4a3c e377 b63e e746 b03d
00000190: 0c15 f3bd 8826 c53e 59e0 dd3e a1ec c3bd
000001a0: 61b5 743d 30ff 9d3d a3c0 213f 2764 b3bd
000001b0: 90ae e13c ec21 36be afd6 a93e 64c6 363d
000001c0: e5ed 4b3e f61e 38bf 002c 943e 0433 563d
000001d0: e849 9e3d 6aa5 773e a3b2 6fbe 4ffa 603d
000001e0: 6eb4 10be 0d2f 8941 a2d3 093f 82f6 7a41
000001f0: 3c0f 30be 3007 e53e 5634 17bd f771 313e
00000200: 9248 05be ebcc 833e 7c85 e33e 9ed2 003d
00000210: 7045 28bf efbc f640 9c24 d63e ee56 053e
00000220: 2458 4f3d 3b61 86bd 3a32 a83e c021 f23d
00000230: 4b0a 273e 3211 38c0 fc1f 993d 3833 54c0
00000240: a0cb 73be 6015 15bf 602e 993d a9a5 113e
00000250: 4841 abbe fb01 c8be 4efa 40be 94cb 8c3e
00000260: 1d04 adbd fc79 6a3f 821c 98be 70f7 46be
00000270: 3904 1f3f feab f4bd dcec d83e 9d19 e6bd
00000280: 7a29 a93e 4e38 7cbf ace3 86be 9335 2dbf
00000290: fb06 153f cf85 bc3d 10c6 1b3e 3e7e 243f
000002a0: 982d 823e 4d5e f4be 2481 293f fc22 d4bc
000002b0: f263 27be b304 823e 48ea e23c fb1e cb3e
000002c0: b425 ee3e 207b ed3e 2539 75be 02f1 2dbc
000002d0: b83b 3fbe b8c8 853d aacb 26be 3858 87be
000002e0: a673 7f3e a526 083f 5c18 933c cddb c03e
000002f0: be20 853e 58a6 bbbe e4ef ebbc f8a0 093c
00000300: 70c8 ef3d f178 aabe 9a2d 9f3d bae7 23bf
00000310: f2d5 023f ecb6 27be 4285 b73e 7b86 f63e
00000320: b520 5c3e 95c6 5b40 ecee ce3c 5f93 3340
00000330: 6a5f f63e 6dc4 1ebf 6f17 bc3e 4cb3 f0be
00000340: 436b 94bd 4c14 d33f 756e 8bbf 74a3 85be
00000350: 7d20 b23e 23eb e33f 32fe 983d 1299 f7bd
00000360: 793b 07bf 6ed2 ce3d b462 2dbd 861c f9bd
00000370: f8f7 fc3d ac38 c43d 54fa be3e 4e4b dcbe
00000380: 574d 4b3d 7bc2 15be 5b6b 233c 7ed3 a63e
00000390: d76a cc3e 08ec abbd f64c 3abf df07 e1bd
000003a0: 796e af3d 322c 8abe b5c0 68bd 1157 533f
000003b0: b73a c1bc 7e2b 6f3c 7003 e83d 5f4c 3e3e
000003c0: 1fc9 8a3e c959 debe f94b 293e 8acc e1bd
000003d0: 6a25 0fbf f82b 42be d207 5d3d a002 193e
000003e0: 5d81 cdbd 5a68 17bf 3e49 fd3e e767 dfbd
000003f0: b8a0 243f 30d9 e6be ea30 3c3e 4f1b 623e

policy_network.h3.transform.bias f4 [20]
0.6266128 0.0 -0.55056596 -0.38513115 0.75457627 -0.783938 30.408844 -3.38243
-0.77092326 -0.036726505 7.874418 0.0 -0.002433449 0.5703572 0.0 -0.09999982
-0.14204982 -0.35569072 -0.24424759 24.103794
00000000: b269 203f 0000 0000 e4f1 0cbf e92f c5be
00000010: e92b 413f 29b0 48bf 5045 f341 bc79 58c0
00000020: 3a5b 45bf 886e 16bd 3bfb fb40 0000 0000
00000030: 807a 1fbb ee02 123f 0000 0000 b5cc ccbd
00000040: 8275 11be 181d b6be 0a1c 7abe 92d4 c041

policy_network.critic_linear.weight f4 [1, 20]
-1.3580682 -0.40534517 0.052108653 0.011287931 -1.1031823 -0.05756466 -0.10229001 0.5318934
0.6372631 0.28201032 -0.6085448 0.026877224 -0.3250046 -1.7874343 -0.67207855 -0.030244999
0.03709556 -0.15305755 0.11262299 -0.7275611
00000000: 2ed5 adbf 6789 cfbe e26f 553d 04f1 383c
00000010: 1435 8dbf ecc8 6bbd 6d7d d1bd 2a2a 083f
00000020: ad23 233f a863 903e 98c9 1bbf a02d dc3c
00000030: 0167 a6be a6ca e4bf 570d 2cbf 5cc4 f7bc
00000040: 84f1 173d 1ebb 1cbe e2a6 e63d 7241 3abf

target_network.emb1.transform.weight f4 [20, 2]
-0.06914151 0.17593262 -0.038182743 -0.7543752 -0.00736235 -0.33152986 -0.17211372 -0.33369017
-0.10167685 0.24515298 -0.515854 0.496339 -0.20322648 -0.069727324 -0.28760484 -0.28284267
0.01835569 0.03787536 -0.057138912 0.22376458 -0.1462185 0.02526007 -0.09246017 0.36792743
0.25129274 -0.3953189 -0.36778352 0.24698555 0.07770279 -0.028730609 -0.74575245 0.24050364
-0.606854 -0.22983083 -0.42675307 -0.38731995 -0.12916788 0.009715758 -0.30898038 -0.2977888
00000000: 109a 8dbd ae27 343e 8265 1cbd bc1e 41bf
00000010: de3f f1bb 48be a9be 943e 30be 70d9 aabe
00000020: f43b d0bd 6209 7b3e 020f 04bf 2520 fe3e
00000030: 9a1a 50be 33cd 8ebd f140 93be c1d0 90be
00000040: ac5e 963c 3223 1b3d 7e0a 6abd 8b22 653e
00000050: 4dba 15be 35ee ce3c c25b bdbd fc60 bc3e
00000060: 71a9 803e 3d67 cabe 1f4e bcbe c8e9 7c3e
00000070: a422 9f3d 745c ebbc a2e9 3ebf 9646 763e
00000080: c95a 1bbf c658 6bbe 617f dabe cd4e c6be
00000090: 9644 04be d82e 1f3c ad32 9ebe c677 98be

target_network.emb1.transform.bias f4 [20]
-0.19999707 -0.10563181 0.0 0.0 -0.20407173 0.0 0.0 0.0
-0.09999999 -0.12287148 0.0 0.08399703 -0.14322114 -0.099999934 -0.09999997 0.0
0.0 0.0 -0.09999999 0.0
00000000: 08cc 4cbe 7e55 d8bd 0000 0000 0000 0000
00000010: 2ef8 50be 0000 0000 0000 0000 0000 0000
00000020: cbcc ccbd 0ba4 fbbd 0000 0000 a306 ac3d
00000030: 90a8 12be c4cc ccbd c9cc ccbd 0000 0000
00000040: 0000 0000 0000 0000 cbcc ccbd 0000 0000

target_network.emb2.transform.weight f4 [20, 2]
0.051698953 0.13670455 1.8423634 -5.819215 -0.28624037 0.032117296 -0.048597015 -0.10264552
0.30430955 -0.1630272 -0.2942858 0.8485626 3.5853255 4.6466103 -0.1839956 0.14332345
4.3900933 6.4499836 0.5168358 -0.2604522 0.636034 -0.3580638 -0.8660892 -0.18435353
-0.045449816 0.043153413 -0.37628067 0.23789534 -0.73394156 1.4861815 -0.45251623 1.5029953
-0.5990113 0.10322409 0.38483188 -1.0854969 -0.090905674 -0.1213615 -0.01602418 0.005323641
00000000: 48c2 533d 47fc 0b3e 90d2 eb3f 0237 bac0
00000010: 198e 92be 6d8d 033d aa0d 47bd d037 d2bd
00000020: 76ce 9b3e 9af0 26be a1ac 96be 663b 593f
00000030: f975 6540 08b1 9440 5869 3cbe 62c3 123e
00000040: a57b 8c40 4466 ce40 5a4f 043f fe59 85be
00000050: 20d3 223f 2354 b7be 06b8 5dbf 2cc7 3cbe
00000060: 9629 3abd a2c1 303d dca7 c0be d69a 733e
00000070: 98e3 3bbf 323b be3f 35b0 e7be 2662 c03f
00000080: ce58 19bf 2767 d33d af08 c53e 90f1 8abf
00000090: c12c babd 618c f8bd 2445 83bc f071 ae3b

target_network.emb2.transform.bias f4 [20]
-0.1950635 1.2260165 0.0 0.0 -0.24553329 0.113866635 4.490659 -0.10720453
5.4418674 -0.09126925 0.5058593 0.0 -0.02471394 -0.18445149 0.32184446 0.11236323
0.0 0.23594001 0.0 -0.09999999
00000000: babe 47be 1cee 9c3f 0000 0000 0000 0000
00000010: 146d 7bbe e932 e93d 7bb3 8f40 0c8e dbbd
00000020: c723 ae40 5feb babd ff7f 013f 0000 0000
00000030: e474 cabc dae0 3cbe ccc8 a43e b11e e63d
00000040: 0000 0000 429a 713e 0000 0000 cbcc ccbd

target_network.emb3.transform.weight f4 [20, 2]
-0.5239777 -0.21700567 -0.29466254 -0.051396992 -0.25354666 -0.057620674 0.10716027 0.29482737
0.5859213 -0.038486578 -1.0820937 0.7917093 0.0014927126 0.35737202 -0.041638933 -0.2787128
-0.48187298 0.34466875 0.029938772 -0.29219773 -0.06748154 -0.40162408 -0.62196475 0.2265113
-0.14486243 0.011244424 0.13897374 0.06286506 -0.20429619 -0.14116806 -1.1820967 0.6719296
0.36095 -0.65551466 0.055575468 -0.27610132 0.02120673 0.06665477 0.1833538 0.1320559
00000000: 6723 06bf bc36 5ebe 02de 96be a785 52bd
00000010: ded0 81be a803 6cbd d876 db3d 9df3 963e
00000020: f0fe 153f 1aa4 1dbd 0c82 8abf 76ad 4a3f
00000030: 20a7 c33a 77f9 b63e 968d 2abd 72b3 8ebe
00000040: 0eb8 f6be 6c78 b03e 2842 f53c f19a 95be
00000050: c333 8abd aca1 cdbe 1539 1fbf 94f2 673e
00000060: d156 14be 883a 383c 224f 0e3e 66bf 803d
00000070: 0533 51be 5c8e 10be f24e 97bf 9403 2c3f
00000080: 70ce b83e cfcf 27bf 1aa3 633d 275d 8dbe
00000090: bcb9 ad3c 4c82 883d 19c1 3b3e a939 073e

target_network.emb3.transform.bias f4 [20]
0.0 0.0 0.0 -0.401667 -0.48366293 0.69313455 -0.35060287 -0.10497463
-0.23480138 -0.057720304 0.0 -0.099886514 -0.14106289 -0.19037412 0.0 0.74013484
-0.39777854 -0.1451916 -0.09999989 -0.28040332
00000000: 0000 0000 0000 0000 0000 0000 4ca7 cdbe
00000010: aba2 f7be 4471 313f 3882 b3be f0fc d6bd
00000020: c66f 70be 206c 6cbd 0000 0000 4d91 ccbd
00000030: ca72 10be 6ff1 42be 0000 0000 7a79 3d3f
00000040: a1a9 cbbe 1bad 14be becc ccbd 0691 8fbe

target_network.emb4.transform.weight f4 [20, 2]
0.13299707 0.06599863 -0.015121296 -0.29053542 0.12119565 -0.13615288 -0.44915596 0.2650656
0.17426749 -0.2281752 -0.041577764 0.28491223 0.1372992 -0.14623249 -0.21015364 -0.25646433
-0.30247685 -0.36348313 -0.13190795 0.07253701 -0.017163947 -0.35979912 0.050735846 0.0578631
-0.052126274 0.0386676 -0.00094450265 0.0178672 -0.22947617 0.19917609 0.26123136 -0.6120489
0.0875088 -0.023748338 -0.6824728 0.6024827 -0.903271 0.07267179 -0.5195791 -0.5107055
00000000: 6230 083e 4a2a 873d 50bf 77bc 0fc1 94be
00000010: 6d35 f83d a96b 0bbe c5f7 e5be aeb6 873e
00000020: 2d73 323e c2a6 69be 724d 2abd 04e0 913e
00000030: 2998 0c3e f8bd 15be 8432 57be 4b4f 83be
00000040: 3fde 9abe 761a babe e112 07be 498e 943d
00000050: 689b 8cbc 9737 b8be 64d0 4f3d dc01 6d3d
00000060: 5c82 55bd eb61 1e3d 8098 77ba 3c5e 923c
00000070: cdfb 6abe d1f4 4b3e 1ec0 853e 3daf 1cbf
00000080: d037 b33d e08b c2bc 8ab6 2ebf 4e3c 1a3f
00000090: c53c 67bf f3d4 943d 2303 05bf 98bd 02bf

target_network.emb4.transform.bias f4 [20]
-0.23810312 -0.09999549 -0.2774425 -0.23186055 -0.11562555 -0.5043596 -0.10691322 0.0
0.0 -0.06920636 0.0 -0.09999982 -0.049748644 -0.06975683 -0.13908511 -0.15898347
-0.09999999 0.6888002 -0.099999785 0.0
00000000: 4ed1 73be 6fca ccbd f20c 8ebe da6c 6dbe
00000010: 17cd ecbd b61d 01bf 51f5 dabd 0000 0000
00000020: 0000 0000 10bc 8dbd 0000 0000 b5cc ccbd
00000030: 3cc5 4bbd abdc 8ebd 546c 0ebe 90cc 22be
00000040: cbcc ccbd 3655 303f b0cc ccbd 0000 0000

target_network.h2.transform.weight f4 [20, 20]
-0.02246803 -0.14666668 -0.38981783 0.07508734 -0.10159567 0.39345965 -0.7112988 -0.8095202
-0.26043063 -0.37638324 0.4036581 0.15780509 0.11086556 0.103932254 -0.24143308 -0.30451152
-0.32218495 -0.16120064 -0.4166489 -0.4517211 -0.07209303 1.5243239 -0.39749998 0.22270706
2.0985775 2.7096152 -0.1883212 -0.36758327 -0.39644328 0.78554463 1.0389764 0.052805893
-0.28591555 -0.4560836 -0.122357614 2.9564362 -0.13810308 0.7931738 -0.116787665 0.043428108
-0.5087973 -0.010998197 -0.40015754 -0.48882923 -0.36919323 -0.21376522 -0.43449032 0.04611034
0.06297767 0.1410807 -0.05980386 -0.054411855 0.22480947 -0.18842465 0.2225009 -0.52380323
0.4369655 -0.26232305 -0.6688457 0.31430596 -0.1360028 1.9259326 0.21822283 0.013821901
2.4264765 3.1172652 -0.18258747 -0.13440146 -0.47889176 1.0738089 1.0834403 0.009864641
-0.105671585 -0.050441906 1.1107523 3.2337675 0.04869572 0.51652503 0.3374053 0.056043528
-0.18928955 -0.6092999 -0.48448986 0.37889144 -0.620462 -0.1994617 -0.52796495 0.1460484
0.17522453 0.23615313 0.2414926 -0.036724947 -0.1535961 0.23113114 -0.4116504 0.15449052
0.032041445 0.26660687 0.37349752 0.18263821 0.010853648 0.14185445 -0.028547622 0.5258877
-0.14699174 0.2979876 -0.37939057 0.18697527 -0.30113032 -0.0040378273 0.16127282 -0.55707186
-0.3725518 -0.32472435 0.3119331 -0.3300053 0.3909272 -0.29290295 0.040649824 -0.062114466
0.05388277 -0.21587618 -0.3910732 0.61655945 0.12267359 -0.19991456 -0.2903229 0.38431337
0.20709866 -0.52064276 -0.75878 0.19797714 0.0016263042 -0.3154572 -0.5806474 -0.44477573
-0.079682015 -0.3793098 -0.1715608 0.18720125 -0.3529287 -0.39587235 -0.28669813 0.0067201927
-0.008530341 -0.63684064 -0.14788716 -0.26858032 0.07002054 0.10176427 -0.32576555 -0.0004053265
-0.020415507 -0.30197677 -0.35143742 -0.35351104 0.5124226 -0.6067854 0.2179099 -0.8832263
0.5339484 -0.7419512 -0.17478898 -0.29790324 -0.5712097 -0.0071539134 0.0674568 -0.01127629
-0.43519893 -0.262496 -0.21385936 0.055828005 -0.03630457 -0.1424997 -0.008988082 -0.5116983
0.26030207 -0.5056254 0.32022357 0.09893117 0.068687566 -0.46735722 0.31673744 -0.3362426
-2.1064365 3.2236788 0.33824846 -0.22300984 0.75229585 -0.871331 0.22276941 0.15991428
0.33061862 -0.8685894 0.40162307 4.0751224 0.14490956 0.18653181 -0.05469846 0.13709712
-0.054435123 -0.5622689 0.24930257 0.15288466 0.63885605 -0.4985065 -0.2335386 -0.2688556
-0.08066022 -0.25162458 0.39428 0.12069308 -0.07481041 0.33648896 0.1058351 -0.2800184
0.2820431 -0.34163868 0.036370806 0.41912726 -0.03423729 -0.6335644 -0.51498026 -0.37102288
0.35563144 0.19933893 0.063381135 -0.2525042 0.07076248 0.08944765 0.003748768 -0.65397024
0.31066197 -0.21619098 -0.46884647 -0.40008315 -0.14475402 -0.31498882 0.24832302 0.06410838
0.3160315 -0.051840167 -0.11658781 -0.51560926 0.06323943 -0.40423578 -0.5942428 0.17899896
0.016879775 -0.41691542 0.32685155 0.22040612 -0.544048 -0.4669507 -0.07092723 -0.6155865
00000000: e00e b8bc ca2f 16be 3496 c7be 64c7 993d
00000010: 6411 d0bd 8b73 c93e ae17 36bf b73c 4fbf
00000020: 2a57 85be 4eb5 c0be 46ac ce3e a897 213e
00000030: 7c0d e33d 6fda d43d 3c3a 77be efe8 9bbe
00000040: 6df5 a4be c811 25be 0153 d5be fd47 e7be
00000050: 83a5 93bd 0c1d c33f 1e85 cbbe 520d 643e
00000060: 184f 0640 566a 2d40 46d7 40be e033 bcbe
00000070: 9dfa cabe 7419 493f 2efd 843f fe4a 583d
00000080: 8663 92be ca83 e9be a196 fabd 4036 3d40
00000090: e56a 0dbe 700d 4b3f 5f2e efbd ace1 313d
000000a0: 8a40 02bf c831 34bc 73e1 ccbe d347 fabe
000000b0: e506 bdbe 45e5 5abe 8475 debe 32de 3c3d
000000c0: 70fa 803d 7677 103e e4f4 74bd f7de 5ebd
000000d0: 7434 663e 64f2 40be 47d7 633e f817 06bf
000000e0: f1b9 df3e 354f 86be 7939 2bbf b6ec a03e
000000f0: 5144 0bbe f684 f63f ce75 5f3e 4175 623c
00000100: 644b 1b40 4681 4740 36f8 3abe 89a0 09be
00000110: 4d31 f5be 9272 893f 2cae 8a3f 4e9f 213c
00000120: 586a d8bd 2c9c 4ebd 222d 8e3f 0cf6 4e40
00000130: 2a75 473d fc3a 043f 63c0 ac3e e68d 653d
00000140: 1fd5 41be 14fb 1bbf 0e0f f8be 0ffe c13e
00000150: 99d6 1ebf b03f 4cbe b628 07bf b68d 153e
00000160: 0f6e 333e 20d2 713e d649 773e e66c 16bd
00000170: 4c48 1dbe a4ad 6c3e d7c3 d2be c332 1e3e
00000180: e43d 033d b280 883e 113b bf3e 8305 3b3e
00000190: 80d3 313c 4b42 113e b4dc e9bc 94a0 063f
000001a0: 0185 16be d591 983e 7b3f c2be 7276 3f3e
000001b0: c12d 9abe c04f 84bb b424 253e 439c 0ebf
000001c0: 1cbf bebe 4542 a6be b2b5 9f3e 74f6 a8be
000001d0: 9c27 c83e 60f7 95be 6e80 263d bd6b 7ebd
000001e0: 2eb4 5c3d a50e 5dbe bf3a c8be d7d6 1d3f
000001f0: 4b3c fb3d 67b6 4cbe 34a5 94be b9c4 c43e
00000200: ac11 543e d848 05bf 683f 42bf 85ba 4a3e
00000210: b729 d53a 9b83 a1be 4fa5 14bf a5b9 e3be
00000220: 5330 a3bd e534 c2be a2ad 2fbe afb1 3f3e
00000230: 12b3 b4be c8af cabe 19ca 92be 1035 dc3b
00000240: d8c2 0bbc fd07 23bf bb6f 17be 5c83 89be
00000250: ee66 8f3d c969 d03d beca a6be 0082 d4b9
00000260: 6c3e a7bc b39c 9abe 9bef b3be 66ff b4be
00000270: 212e 033f 4a56 1bbf c623 5f3e 1e1b 62bf
00000280: d8b0 083f 84f0 3dbf e2fb 32be c686 98be
00000290: cd3a 12bf 606b eabb ca26 8a3d 30c0 38bc
000002a0: 65d2 debe e065 86be f3fd 5abe e8ab 643d
000002b0: 1ab4 14bd 71eb 11be c042 13bc a9fe 02bf
000002c0: 5046 853e ab70 01bf 58f4 a33e 6d9c ca3d
000002d0: 11ac 8c3d 7249 efbe 692b a23e fd27 acbe
000002e0: dbcf 06c0 c150 4e40 e72e ad3e b15c 64be
000002f0: 7696 403f 8c0f 5fbf aa1d 643e 92c0 233e
00000300: d846 a93e e05b 5ebf 8aa1 cd3e 6767 8240
00000310: 2c63 143e 3202 3f3e 7e0b 60bd 3063 0c3e
00000320: 5df7 5ebd dbf0 0fbf 2c49 7f3e cc8d 1c3e
00000330: 128c 233f 3e3c ffbe be24 6fbe 71a7 89be
00000340: 2f31 a5bd f0d4 80be 11df c93e ef2d f73d
00000350: 3336 99bd 4848 ac3e 13c0 d83d 925e 8fbe
00000360: f467 903e 44eb aebe 8ef9 143d d997 d63e
00000370: 673c 0cbd 4731 22bf bfd5 03bf b6f6 bdbe
00000380: 5315 b63e 811f 4c3e f8cd 813d 3b48 81be
00000390: ebeb 903d 5430 b73d e4ad 753b 986a 27bf
000003a0: 160f 9f3e 2b61 5dbe a50c f0be b3d7 ccbe
000003b0: 663a 14be 3746 a1be 6448 7e3e 414b 833d
000003c0: e1ce a13e 5b56 54bd 97c5 eebd f8fe 03bf
000003d0: ad83 813d fef7 cebe 4c20 18bf 814b 373e
000003e0: 7447 8a3c f075 d5be 1659 a73e 24b2 613e
000003f0: bb46 0bbf 2a14 efbe 4c42 91bd 1497 1dbf

target_network.h2.transform.bias f4 [20]
-0.0999999 0.7681693 -0.09999999 0.8214463 -0.23927253 -0.16579545 -0.1999982 -0.40767038
-0.09999999 0.03170508 -0.18393153 -0.2614313 -0.34534428 -0.10547968 -0.19999954 -0.16547045
-0.11761288 -0.20128201 -0.18422806 -0.30898145
00000000: bfcc ccbd bea6 443f cbcc ccbd 4e4a 523f
00000010: dc03 75be 48c6 29be 54cc 4cbe 2cba d0be
00000020: cbcc ccbd 30dd 013d 8c58 3cbe 53da 85be
00000030: f7d0 b0be bb05 d8bd aecc 4cbe 1671 29be
00000040: 06df f0bd df1c 4ebe 48a6 3cbe d132 9ebe

target_network.h3.transform.weight f4 [20, 20]
0.017902294 2.626991 0.68250346 2.6651583 0.2213672 -0.47884423 -0.20010242 0.26997578
0.24879035 0.69443095 0.028872006 0.3569966 -0.19845867 0.28651932 0.12858015 -0.31724906
0.019677563 -0.17221056 -0.46128327 -0.09903491 -0.17054598 -0.50427794 -0.18295717 -0.1256287
-0.2185545 0.05860601 0.8501563 -0.12028004 0.07961169 -0.21020426 -0.1461665 0.61820066
-0.25925386 -0.06370484 -0.13784152 -0.018551389 -0.33739603 0.19214912 -0.20083869 0.37836325
0.51378804 0.055510744 -0.024812995 -0.33055782 -0.53999215 -0.14317907 0.15770659 0.4623047
0.36704654 -0.14438117 -0.15979293 -0.07041016 0.17911977 -0.08964564 0.013048895 -0.48349816
-0.18408592 0.41828883 0.03529057 -0.043751337 0.24725507 0.36260474 0.26408988 -0.7578726
0.25498343 -0.11183211 0.22447734 -0.14813158 -0.13103281 -1.4157107 0.19332142 -0.06789131
-0.18179044 0.16164997 -0.31460893 -0.034407906 -0.5444649 -0.16018581 0.3430351 -0.16024968
0.10444299 3.2791243 -0.17479238 3.0962267 -0.2739896 -0.24076325 0.2672316 -0.38824373
0.8060868 0.99420893 0.3473731 -0.29159442 -0.44439298 0.45877996 0.03297396 0.19914456
0.56299615 0.012354061 0.3563834 0.086072735 -0.11869249 0.3850596 0.43335226 -0.09566618
0.05974329 0.07714689 0.63184565 -0.08759337 0.027549058 -0.17786378 0.33171603 0.044622794
0.19914968 -0.7192224 0.2893982 0.052294746 0.0772894 0.24184194 -0.23407988 0.054926213
-0.14131328 17.11146 0.5383855 15.657932 -0.17193311 0.44732046 -0.036915146 0.1732863
-0.13015965 0.2674228 0.44437778 0.03145086 -0.65730953 7.687798 0.41824806 0.13021442
0.050621167 -0.06561514 0.3285082 0.118228436 0.1631252 -2.8760495 0.07476804 -3.3156261
-0.23808146 -0.5823574 0.074795485 0.1422335 -0.33448243 -0.3906401 -0.18845484 0.27499068
-0.0844805 0.91592383 -0.2970925 -0.19430327 0.6211582 -0.119468674 0.4236821 -0.11235354
0.33039457 -0.98523414 -0.26345575 -0.6765987 0.58213776 0.092052095 0.15212274 0.6425513
0.2542541 -0.47728196 0.6621268 -0.025895588 -0.1634672 0.2539421 0.027699605 0.39672074
0.4651314 0.46383 -0.2394758 -0.010616543 -0.18675125 0.06532425 -0.16288629 -0.26434493
0.2494646 0.53183967 0.017955951 0.37667695 0.26001543 -0.36650348 -0.028800912 0.008400194
0.11708152 -0.33295396 0.0777237 -0.6402546 0.51107705 -0.16378373 0.35843855 0.48149475
0.21496852 3.4439955 0.025260411 2.8158698 0.4811967 -0.6201847 0.36736628 -0.47011793
-0.07247021 1.6590569 -1.0893084 -0.26101267 0.34790412 1.7906779 0.07470359 -0.12089743
-0.52825123 0.1009873 -0.04233046 -0.121636435 0.12351984 0.09581122 0.3730036 -0.43026203
0.049634304 -0.1462497 0.009974326 0.3258323 0.39925262 -0.08394629 -0.72773683 -0.109878294
0.08565993 -0.26986843 -0.056824405 0.8255473 -0.023587568 0.014597772 0.11328781 0.18583821
0.27106568 -0.43427876 0.16532888 -0.11025341 -0.55916464 -0.18962085 0.053962536 0.14942408
-0.1003444 -0.591436 0.49469942 -0.1090849 0.6430774 -0.45087576 0.18378034 0.2208073
00000000: d5a7 923c 9f20 2840 8cb8 2e3f f491 2a40
00000010: 15ae 623e 122b f5be a6e7 4cbe 443a 8a3e
00000020: e6c2 7e3e 3ac6 313f fc84 ec3c 42c8 b63e
00000030: c038 4bbe a9b2 923e 84aa 033e 786e a2be
00000040: d732 a13c f757 30be 522d ecbe d1d2 cabd
00000050: 9ba3 2ebe 5c18 01bf 2059 3bbe cfa4 00be
00000060: c0cc 5fbe db0c 703d d8a3 593f 6255 f6bd
00000070: 740b a33d c93f 57be acac 15be 6642 1e3f
00000080: ecbc 84be af77 82bd 5426 0dbe 15f9 97bc
00000090: 2cbf acbe bdc2 443e a8a8 4dbe d4b8 c13e
000000a0: 9d87 033f 3c5f 633d 9f44 cbbc e03e a9be
000000b0: ed3c 0abf 899d 12be d67d 213e 34b3 ec3e
000000c0: 86ed bb3e a8d8 13be c2a0 23be 3433 90bd
000000d0: 2c6b 373e 2298 b7bd 08cb 553c 128d f7be
000000e0: 0581 3cbe f429 d63e d88c 103d 9a34 33bd
000000f0: 6f30 7d3e 54a7 b93e ca36 873e f003 42bf
00000100: 308d 823e 3c08 e5bd 63dd 653e ceaf 17be
00000110: 772d 06be 0236 b5bf 0df6 453e 990a 8bbd
00000120: 4627 3abe 9287 253e 6c14 a1be 4eef 0cbd
00000130: 0d62 0bbf c007 24be 4ca2 af3e 7e18 24be
00000140: 35e6 d53d 2cdd 5140 c6fc 32be 9428 4640
00000150: 5d48 8cbe a48a 76be 95d2 883e e2c7 c6be
00000160: b45b 4e3f 7a84 7e3f e3da b13e dd4b 95be
00000170: 7a87 e3be 35e5 ea3e b40f 073d 8dec 4b3e
00000180: 8420 103f b068 4a3c e377 b63e e746 b03d
00000190: 0c15 f3bd 8826 c53e 59e0 dd3e a1ec c3bd
000001a0: 61b5 743d 30ff 9d3d a3c0 213f 2764 b3bd
000001b0: 90ae e13c ec21 36be afd6 a93e 64c6 363d
000001c0: e5ed 4b3e f61e 38bf 002c 943e 0433 563d
000001d0: e849 9e3d 6aa5 773e a3b2 6fbe 4ffa 603d
000001e0: 6eb4 10be 45e4 8841 a2d3 093f e486 7a41
000001f0: 3c0f 30be 3007 e53e 5634 17bd f771 313e
00000200: 9248 05be a4eb 883e 7c85 e33e 9ed2 003d
00000210: 7045 28bf 7102 f640 9c24 d63e ee56 053e
00000220: 2458 4f3d 3b61 86bd 3a32 a83e c021 f23d
00000230: 4b0a 273e 3211 38c0 fc1f 993d 3833 54c0
00000240: a0cb 73be 6015 15bf 602e 993d a9a5 113e
00000250: 4841 abbe fb01 c8be 4efa 40be 94cb 8c3e
00000260: 1d04 adbd fc79 6a3f 821c 98be 70f7 46be
00000270: 3904 1f3f feab f4bd dcec d83e 9d19 e6bd
00000280: 7a29 a93e 4e38 7cbf ace3 86be 9335 2dbf
00000290: fb06 153f cf85 bc3d 10c6 1b3e 3e7e 243f
000002a0: 982d 823e 4d5e f4be 2481 293f fc22 d4bc
000002b0: f263 27be b304 823e 48ea e23c fb1e cb3e
000002c0: b425 ee3e 207b ed3e 2539 75be 02f1 2dbc
000002d0: b83b 3fbe b8c8 853d aacb 26be 3858 87be
000002e0: a673 7f3e a526 083f 5c18 933c cddb c03e
000002f0: be20 853e 58a6 bbbe e4ef ebbc f8a0 093c
00000300: 70c8 ef3d f178 aabe 9a2d 9f3d bae7 23bf
00000310: f2d5 023f ecb6 27be 4285 b73e 7b86 f63e
00000320: b520 5c3e 6c6a 5c40 ecee ce3c 3637 3440
00000330: 6a5f f63e 6dc4 1ebf 6f17 bc3e 4cb3 f0be
00000340: 436b 94bd fa5b d43f 756e 8bbf 74a3 85be
00000350: 7d20 b23e ef34 e53f 32fe 983d 1299 f7bd
00000360: 793b 07bf 6ed2 ce3d b462 2dbd 861c f9bd
00000370: f8f7 fc3d ac38 c43d 54fa be3e 4e4b dcbe
00000380: 574d 4b3d 7bc2 15be 5b6b 233c 7ed3 a63e
00000390: d76a cc3e 08ec abbd f64c 3abf df07 e1bd
000003a0: 796e af3d 322c 8abe b5c0 68bd 1157 533f
000003b0: b73a c1bc 7e2b 6f3c 7003 e83d 5f4c 3e3e
000003c0: 1fc9 8a3e c959 debe f94b 293e 8acc e1bd
000003d0: 6a25 0fbf f82b 42be d207 5d3d a002 193e
000003e0: 5d81 cdbd 5a68 17bf 3e49 fd3e e767 dfbd
000003f0: b8a0 243f 30d9 e6be ea30 3c3e 4f1b 623e

target_network.h3.transform.bias f4 [20]
0.6366128 0.0 -0.55056596 -0.38513115 0.76440245 -0.783938 30.362585 -3.38243
-0.77092326 -0.036726505 7.869106 0.0 -0.002433449 0.5803572 0.0 -0.09999982
-0.14204982 -0.35569072 -0.24424759 24.10568
00000000: 0ef9 223f 0000 0000 e4f1 0cbf e92f c5be
00000010: e1af 433f 29b0 48bf 93e6 f241 bc79 58c0
00000020: 3a5b 45bf 886e 16bd b7cf fb40 0000 0000
00000030: 807a 1fbb 4a92 143f 0000 0000 b5cc ccbd
00000040: 8275 11be 181d b6be 0a1c 7abe 6fd8 c041

target_network.critic_linear.weight f4 [1, 20]
-1.3680682 -0.40534517 0.052108653 0.011287931 -1.1131823 -0.05756466 -0.112290025 0.5318934
0.6372631 0.28201032 -0.6185448 0.026877224 -0.3250046 -1.7974343 -0.67207855 -0.030244999
0.03709556 -0.15305755 0.11262299 -0.7375611
00000000: dc1c afbf 6789 cfbe e26f 553d 04f1 383c
00000010: c27c 8ebf ecc8 6bbd 50f8 e5bd 2a2a 083f
00000020: ad23 233f a863 903e f458 1ebf a02d dc3c
00000030: 0167 a6be 5412 e6bf 570d 2cbf 5cc4 f7bc
00000040: 84f1 173d 1ebb 1cbe e2a6 e63d ced0 3cbf
