pz_risk/mini_0/15.pt (torch, 18513 bytes, 26 tensors)

policy_network.emb1.transform.weight f4 [20, 2]
0.12167685 0.45230785 0.0572149 -0.6041272 -0.00736235 -0.33152986 -0.17211372 -0.33369017
0.0037009378 0.3122843 -0.6100881 0.39981577 -0.20322648 -0.069727324 -0.28760484 -0.28284267
0.16283365 0.25301513 -0.051713318 0.22570533 -0.1462185 0.02526007 -0.04148875 0.5071193
0.28742504 -0.35163572 -0.29615667 0.29741776 0.23511823 0.24018314 -0.74575245 0.24050364
-0.606854 -0.22983083 -0.42675307 -0.38731995 -0.051602125 0.081241556 -0.30898038 -0.2977888
00000000: b631 f93d e594 e73e 2c5a 6a3d 15a8 1abf
00000010: de3f f1bb 48be a9be 943e 30be 70d9 aabe
00000020: 6f8b 723b bae3 9f3e bc2e 1cbf a7b4 cc3e
00000030: 9a1a 50be 33cd 8ebd f140 93be c1d0 90be
00000040: ddbd 263e 338b 813e 58d1 53bd 4c1f 673e
00000050: 4dba 15be 35ee ce3c 1cf0 29bd 92d2 013f
00000060: 6029 933e 9909 b4be d9a1 97be 2447 983e
00000070: d5c2 703e 92f2 753e a2e9 3ebf 9646 763e
00000080: c95a 1bbf c658 6bbe 617f dabe cd4e c6be
00000090: c05c 53bd f961 a63d ad32 9ebe c677 98be

policy_network.emb1.transform.bias f4 [20]
0.034888692 -0.013758851 0.0 0.0 -0.129359 -0.09423403 0.0 0.0
0.039289154 -0.12608472 0.0 0.15588461 -0.109072275 -0.046992246 0.05830574 0.0
0.0 0.0 -0.020319093 0.0
00000000: 72e7 0e3d ce6c 61bc 0000 0000 0000 0000
00000010: b076 04be c5fd c0bd 0000 0000 0000 0000
00000020: aaed 203d 5a1c 01be 0000 0000 37a0 1f3e
00000030: 4961 dfbd f17a 40bd 00d2 6e3d 0000 0000
00000040: 0000 0000 0000 0000 3a74 a6bc 0000 0000

policy_network.emb2.transform.weight f4 [20, 2]
-0.04563499 0.5497668 0.12486914 0.51331604 -0.28624037 0.032117296 -0.048597015 -0.10264552
0.37442464 -0.21363309 -0.085346244 0.35720623 0.15335912 0.073202506 -0.332444 0.568436
-0.37284648 0.5216737 0.36637852 -0.18415911 0.10673969 -0.5591687 -0.8660892 -0.18435353
-0.0528562 0.05690128 -0.33453217 0.24175863 -0.12017855 0.89865535 -0.32184362 0.40428928
-0.5990113 0.10322409 0.124184385 -0.5376281 -0.090905674 -0.1213615 0.039800942 0.06014897
00000000: c1eb 3abd 84bd 0c3f 64bb ff3d ae68 033f
00000010: 198e 92be 6d8d 033d aa0d 47bd d037 d2bd
00000020: 96b4 bf3e a2c2 5abe 03ca aebd bce3 b63e
00000030: 2c0a 1d3e 32eb 953d 1a36 aabe 0685 113f
00000040: bce5 bebe 688c 053f f795 bb3e 3594 3cbe
00000050: 579a da3d ae25 0fbf 06b8 5dbf 2cc7 3cbe
00000060: be7f 58bd 5111 693d cd47 abbe 938f 773e
00000070: 2c20 f6bd 470e 663f b0c8 a4be 01ff ce3e
00000080: ce58 19bf 2767 d33d 6254 fe3d ffa1 09bf
00000090: c12c babd 618c f8bd 5006 233d c45e 763d

policy_network.emb2.transform.bias f4 [20]
-0.11833815 -0.015734395 0.0 0.0 -0.13483553 -0.082176454 0.012895934 -0.045205344
-0.027961453 -0.17312993 -0.04223875 0.0 -0.03343839 -0.16304015 -0.13666156 -0.017328283
0.0 -0.047698703 0.0 -0.05136282
00000000: 465b f2bd 6be5 80bc 0000 0000 0000 0000
00000010: 5312 0abe 214c a8bd 7849 533c 3d29 39bd
00000020: 6b0f e5bc f948 31be 8a02 2dbd 0000 0000
00000030: b1f6 08bd fff3 26be 02f1 0bbe 0bf4 8dbc
00000040: 0000 0000 b75f 43bd 0000 0000 d261 52bd

policy_network.emb3.transform.weight f4 [20, 2]
-0.5239777 -0.21700567 -0.29466254 -0.051396992 -0.25354666 -0.057620674 0.34069562 0.16797435
0.19344178 0.33585304 -0.43609786 0.42451674 0.17197728 0.490653 0.044741385 -0.20215155
-0.48348036 0.5517928 0.066507764 -0.27321073 -0.06748154 -0.40162408 -0.6148405 0.2592601
0.07284749 0.14013657 0.44400868 0.23699288 -0.20429619 -0.14116806 -0.3785557 0.18423514
0.74260324 -0.3244973 0.084186025 -0.22280058 -0.029378906 0.05969824 0.30497435 0.16890879
00000000: 6723 06bf bc36 5ebe 02de 96be a785 52bd
00000010: ded0 81be a803 6cbd a86f ae3e 7801 2c3e
00000020: 9a15 463e eef4 ab3e 3848 dfbe 425a d93e
00000030: d01a 303e df36 fb3e be42 373d d100 4fbe
00000040: bd8a f7be 4b42 0d3f 3935 883d 47e2 8bbe
00000050: c333 8abd aca1 cdbe 3066 1dbf bdbd 843e
00000060: 1131 953d f67f 0f3e 1b55 e33e 43ae 723e
00000070: 0533 51be 5c8e 10be 0dd2 c1be 23a8 3c3e
00000080: 3f1b 3e3f 8324 a6be b969 ac3d d625 64be
00000090: 08ac f0bc 2486 743d 9925 9c3e 6df6 2c3e

policy_network.emb3.transform.bias f4 [20]
0.0 0.0 0.0 0.00920241 -0.07861767 -0.02866059 -0.008203829 -0.025967713
-0.07631408 -0.01874803 0.0 -0.09713388 0.04079595 -0.04160414 0.0 0.04775868
-0.041753884 -0.13862783 -0.14192063 -0.050500054
00000000: 0000 0000 0000 0000 0000 0000 b4c5 163c
00000010: 4d02 a1bd 9dc9 eabc 5a69 06bc 3eba d4bc
00000020: 8e4a 9cbd 7895 99bc 0000 0000 21ee c6bd
00000030: a719 273d 1a69 2abd 0000 0000 9b9e 433d
00000040: 1f06 2bbd 74f4 0dbe a453 11be 25d9 4ebd

policy_network.emb4.transform.weight f4 [20, 2]
0.17287591 0.22147736 0.062482033 -0.20621358 0.25570375 0.10400648 -0.4065257 0.33593175
0.18003301 -0.23183799 0.13202202 0.4408281 0.27040365 -0.0021759588 -0.21015364 -0.25646433
-0.30247685 -0.36348313 -0.33890483 0.17575042 -0.017163947 -0.35979912 0.21063073 0.27390772
-0.055610824 0.04382745 0.020361144 0.042177714 -0.33667263 0.33135733 0.2958544 -0.55717605
0.11401783 0.013971452 -0.62017816 0.54834616 -0.8032723 0.17267153 -0.5195791 -0.5107055
00000000: 6206 313e f6ca 623e 29ed 7f3d a729 53be
00000010: 9aeb 823e 5901 d53d 2324 d0be 3fff ab3e
00000020: 935a 383e f066 6dbe c830 073e 39b4 e13e
00000030: 5972 8a3e 889a 0ebb 8432 57be 4b4f 83be
00000040: 3fde 9abe 761a babe ef84 adbe ebf7 333e
00000050: 689b 8cbc 9737 b8be 95af 573e a23d 8c3e
00000060: 2dc8 63bd 6a84 333d 6acc a63c 8ac2 2c3d
00000070: 5b60 acbe aba7 a93e 3a7a 973e 17a3 0ebf
00000080: 2e82 e93d 84e8 643c ffc3 1ebf 6a60 0c3f
00000090: 41a3 4dbf ced0 303e 2303 05bf 98bd 02bf

policy_network.emb4.transform.bias f4 [20]
-0.024038581 -0.021092052 -0.2202825 -0.1571898 -0.10563452 0.020946767 0.039787404 0.0
0.0 0.039507773 0.0 0.18666142 -0.05474933 -0.05764426 -0.021901164 -0.14232486
-0.12833486 -0.0063658035 0.0 0.0
00000000: 8fec c4bc 3dc9 acbc bc91 61be 5df6 20be
00000010: e956 d8bd 8e98 ab3c 1ef8 223d 0000 0000
00000020: 0000 0000 e7d2 213d 0000 0000 2c24 3f3e
00000030: d540 60bd 631c 6cbd 126a b3bc 9cbd 11be
00000040: 376a 03be 3b98 d0bb 0000 0000 0000 0000

policy_network.h2.transform.weight f4 [20, 20]
0.043621704 -0.08320914 -0.27572906 0.03868195 -0.0891329 0.4692397 -0.7006551 -0.7555095
-0.19795577 -0.27898702 0.38672885 0.19152525 0.09778317 0.066270754 -0.18711057 -0.2821994
-0.41053084 -0.11830093 -0.33099717 -0.48849317 0.05181462 0.035965208 -0.39747164 0.22634518
0.004733473 -0.66259277 0.13843688 -0.44600156 -0.65032727 0.39499086 0.07534883 -0.19147937
-0.27655256 -0.4454334 -0.48498678 -0.2485193 -0.21705054 -0.012107105 -0.24056838 0.039959084
-0.45322448 0.019071793 -0.33255327 -0.4683507 -0.3210247 -0.13258421 -0.39664677 0.14598499
0.12654607 0.22498657 0.024829248 -0.07560792 0.2711252 -0.15267138 0.1251051 -0.4303739
0.45709088 -0.18735838 -0.699235 0.3670845 -0.11606237 -0.0078069577 0.29551223 -0.14909635
0.2316895 0.2711013 -0.3895951 0.15613389 -0.17589498 0.8283478 -0.25236732 0.39644417
-0.045879047 -0.054870922 -0.62615484 -0.18503883 -0.09457242 -0.32233542 0.113164164 0.029441096
-0.14089939 -0.58234495 -0.48357043 0.23170748 -0.60903305 -0.07501429 -0.4955346 0.1368076
0.2656585 0.3774643 0.30904973 -0.10659796 -0.21369256 0.07537348 -0.477529 0.2888459
-0.039193276 0.41697365 0.36926794 0.13096818 0.02398517 0.27651662 0.010064801 0.5421556
-0.05710577 0.45111442 -0.31631508 -0.0184924 -0.27453017 0.11913575 0.025921047 -0.5836114
-0.21550518 -0.39352614 0.32657114 -0.16765407 0.37903357 -0.21012196 0.13204466 -0.1375219
-0.0015249888 -0.24836057 -0.44751474 0.4778239 0.07748399 -0.03101799 -0.23058134 0.39222255
0.35522324 -0.5676512 -0.541286 0.25104353 -0.12526423 -0.45103717 -0.4770502 -0.27337453
-0.20159727 -0.18984124 -0.2109585 0.05390446 -0.3342823 -0.069726124 -0.27336103 -0.015390201
0.04110803 -0.44126678 0.08189264 -0.4134516 0.40547705 0.11196116 0.03794486 0.19581519
-0.076360844 -0.31773993 -0.07349797 -0.09943296 0.49866268 -0.2924975 0.2842243 -0.86384916
0.6304358 -0.58801895 -0.08916747 -0.572544 -0.76167583 0.112031296 -0.009687094 0.65178597
-0.1441516 -0.04539082 -0.112243444 0.23906787 -0.2051943 -0.44925055 0.16300856 -0.05497249
-0.12606706 -0.12891576 0.40301988 -0.18807362 0.0076722335 -0.34130788 0.56349605 -0.10845592
-0.3592839 0.12429904 0.11339653 0.056359805 0.11536451 0.12313272 0.22841047 0.30395222
0.32582805 -1.2147249 0.043311648 0.566278 -0.2980618 0.75585455 -0.2587619 -0.19865009
0.0019720308 -0.35768652 0.2602762 0.07982538 0.5342708 -0.33743742 -0.13011499 0.047009643
-0.04366639 -0.06430452 0.46830723 0.02492354 0.08005153 0.2875366 0.051677976 -0.1988357
0.22142799 -0.12275409 -0.0550583 0.2727198 -0.16094863 -0.63084567 -0.5505276 -0.39863795
0.4794851 0.7241926 0.27523115 -0.10440202 0.52620184 0.17065604 0.21112552 -0.72145075
0.17476574 -0.27932838 -0.56878155 0.114337154 -0.29754475 -0.110813655 0.13975325 -0.018339626
0.38415194 0.3647281 0.12921727 -0.6147009 0.08451703 -0.086143985 -0.4110825 0.80348474
0.48182914 -0.04659648 0.4579301 0.1876022 -0.66141856 -0.7694444 0.15492478 0.012158894
00000000: acac 323d 8e69 aabd 5c2c 8dbe f770 1e3d
00000010: 4f8b b6bd 3040 f03e 225e 33bf 1269 41bf
00000020: ebb4 4abe 63d7 8ebe 5301 c63e 321f 443e
00000030: 8b42 c83d f6b8 873d ea99 3fbe 717c 90be
00000040: 1931 d2be c247 f2bd 7678 a9be c71b fabe
00000050: 913b 543d 4150 133d 6781 cbbe 08c7 673e
00000060: 401b 9b3b ae9f 29bf 66c2 0d3e 515a e4be
00000070: d97b 26bf 3e3c ca3e 7d50 9a3d 2b13 44be
00000080: 4c98 8dbe d90f e4be 3050 f8be d87b 7ebe
00000090: 7f42 5ebe e15c 46bc 8f57 76be 23ac 233d
000000a0: 0a0d e8be 733c 9c3c 6c44 aabe aacb efbe
000000b0: 595d a4be 28c4 07be 4915 cbbe 177d 153e
000000c0: 4b95 013e e162 663e b566 cb3c 53d8 9abd
000000d0: ecd0 8a3e e355 1cbe 8d1b 003e f859 dcbe
000000e0: d107 ea3e e0da 3fbe 1101 33bf 80f2 bb3e
000000f0: 1cb2 edbd 82d1 ffbb 614d 973e b7ac 18be
00000100: 0340 6d3e cacd 8a3e 0279 c7be 90e1 1f3e
00000110: d01d 34be 9a0e 543f 4a36 81be bbfa ca3e
00000120: abeb 3bbd 55c0 60bd af4b 20bf d27a 3dbe
00000130: 2faf c1bd 2609 a5be 9dc2 e73d 742e f13c
00000140: ee47 10be 8f14 15bf 8b96 f7be ba44 6d3e
00000150: 97e9 1bbf 18a1 99bd b6b6 fdbe 4b17 0c3e
00000160: 6404 883e 0043 c13e c43b 9e3e 0850 dabd
00000170: 39d2 5abe 695d 9a3d ae7e f4be 9ce3 933e
00000180: 2189 20bd 927d d53e b010 bd3e 861c 063e
00000190: 8c7c c43c 9693 8d3e d6e6 243c b6ca 0a3f
000001a0: bde7 69bd 78f8 e63e 0df4 a1be 607d 97bc
000001b0: 388f 8cbe 72fd f33d 6058 d43c 8f67 15bf
000001c0: 64ad 5cbe 427c c9be 5534 a73e 82ad 2bbe
000001d0: b010 c23e 362a 57be b736 073e 8ad2 0cbe
000001e0: 22e2 c7ba 3c52 7ebe a720 e5be 56a5 f43e
000001f0: edaf 9e3d 7119 febc 841d 6cbe 65d1 c83e
00000200: d2df b53e 9751 11bf b891 0abf c788 803e
00000210: 4445 00be 58ee e6be ec3f f4be bff7 8bbe
00000220: 846f 4ebe be65 42be 8105 58be ecca 5c3d
00000230: 0d27 abbe 92cc 8ebd faf5 8bbe 2e27 7cbc
00000240: e560 283d b8ed e1be 54b7 a73d eeaf d3be
00000250: b09a cf3e e54b e53d 126c 1b3d c783 483e
00000260: 1363 9cbd cfae a2be 1b86 96bd 82a3 cbbd
00000270: b750 ff3e 3bc2 95be d985 913e 3825 5dbf
00000280: 3e64 213f 6988 16bf 6f9d b6bd 3e92 12bf
00000290: 30fd 42bf aa70 e53d 9eb6 1ebc 72db 263f
000002a0: 7a9c 13be b9eb 39bd e4df e5bd 35ce 743e
000002b0: 741e 52be 2b04 e6be b7eb 263e d52a 61bd
000002c0: b917 01be 7e02 04be 9f58 ce3e 5f96 40be
000002d0: 5c67 fb3b e8bf aebe 4741 103f 231e debd
000002e0: 0ff4 b7be 7f90 fe3d 713c e83d 8ad9 663d
000002f0: 3a44 ec3d 022d fc3d 6fe4 693e a09f 9b3e
00000300: efd2 a63e 1b7c 9bbf 8e67 313d 98f7 103f
00000310: 8e9b 98be af7f 413f 717c 84be ee6a 4bbe
00000320: 303d 013b b022 b7be ec42 853e 7d7b a33d
00000330: f9c5 083f 99c4 acbe dd3c 05be 2f8d 403d
00000340: 87db 32bd 17b2 83bd f7c5 ef3e 742c cc3c
00000350: 0ef2 a33d ff37 933e 49ac 533d 969b 4bbe
00000360: 05be 623e 7f66 fbbd d084 61bd eea1 8b3e
00000370: b8cf 24be 1a7f 21bf 60ef 0cbf 461a ccbe
00000380: 127f f53e b064 393f 19eb 8c3e bad0 d5bd
00000390: 2ab5 063f 75c0 2e3e 4a31 583e ffb0 38bf
000003a0: caf5 323e 2104 8fbe ab9b 11bf 9929 ea3d
000003b0: c957 98be 45f2 e2bd 7a1b 0f3e fc3c 96bc
000003c0: 90af c43e a4bd ba3e 8851 043e 0a5d 1dbf
000003d0: 4417 ad3d 426c b0bd 6879 d2be 2db1 4d3f
000003e0: 4fb2 f63e f3db 3ebd d075 ea3e cb1a 403e
000003f0: ba52 29bf 4ffa 44bf 9aa4 1e3e 1936 473c

policy_network.h2.transform.bias f4 [20]
-0.11019307 -0.10975982 -0.08794677 -0.10706843 -0.20207727 -0.15521772 -0.13466562 -0.12921312
-0.033436652 0.014469534 -0.02574241 -0.007860409 0.16832516 -0.06851615 0.09154839 0.0
-0.1505205 -0.12204358 -0.011129351 -0.17621753
00000000: e7ac e1bd c2c9 e0bd 701d b4bd b146 dbbd
00000010: 58ed 4ebe 65f1 1ebe c9e5 09be 7250 04be
00000020: dff4 08bd a011 6d3c bfe1 d2bc f2c8 00bc
00000030: 6e5d 2c3e 3252 8cbd b97d bb3d 0000 0000
00000040: 0c22 1abe fcf1 f9bd e257 36bc 5e72 34be

policy_network.h3.transform.weight f4 [20, 20]
0.017902294 -0.09524867 0.5825035 -0.015189221 0.09943525 -0.60171574 -0.49017286 0.26194638
0.24879035 -0.2642395 -0.113983326 0.06493776 -0.36368692 -0.5109185 0.12785871 -0.43678236
-0.14944074 -0.2719477 -0.56128323 -0.08583272 -0.17054598 -0.50792706 -0.12723836 -0.097608775
-0.1265501 0.050694473 0.8427357 -0.10651559 0.08691528 -0.19967894 -0.20926148 0.6265168
-0.25975603 0.017389322 -0.16459762 -0.018551389 -0.22509302 0.1802765 -0.38013712 0.3894077
0.37818465 0.1615207 0.011611606 -0.033347007 -0.44117144 -0.026791232 0.14768298 0.6655738
0.42488113 0.6991088 -0.14594705 0.010272937 0.5887265 0.3577988 0.4956015 -0.48349816
0.098638274 0.4727481 0.25130776 -0.0930415 0.11266362 0.46747398 0.30328062 -0.36920062
0.3813811 0.0480151 0.2114464 -0.039422438 -0.08405816 -0.35274795 0.26523986 0.056547366
0.2365564 0.5247391 0.1512484 -0.034407906 -0.26428244 -0.09986115 0.5400825 -0.21099232
0.024273528 0.19474521 -0.28893623 -0.09034314 -0.31673372 -0.40244815 0.05496025 -0.5430204
0.6639088 -0.18270098 0.18578427 -0.3688699 -0.6075133 -0.5563157 -0.22469915 0.09160256
0.36414152 -0.09803839 0.124127686 0.07870448 -0.01885 0.80554765 0.48973265 0.32671538
-0.036646515 -0.19297865 0.6281632 -0.18172665 -0.011001635 0.18499914 0.06494726 0.026819132
0.29879716 -0.369725 0.22535647 0.052936774 -0.05350049 0.12270223 -0.18479335 0.20477267
0.010514945 -0.26186416 0.60366416 -0.40111512 -0.29226342 0.19939248 -0.03533258 0.054871775
-0.18417907 0.27414525 0.29664811 -0.0077758906 -1.0240136 0.15927203 -0.0091864 0.13166818
-0.13642618 -0.13962187 0.18811318 0.24787095 0.3012349 -0.15320882 0.17476803 0.29161432
-0.11245514 -0.8014628 0.2745005 -0.053525306 -0.5835455 -0.02005578 -0.54622304 0.23765936
-0.08254106 0.2691263 -0.5738375 -0.08931448 0.58514756 -0.26231351 0.27036667 0.07260213
0.46912608 -0.31525654 -0.19978043 0.07017875 0.57045215 -0.10781188 0.14431095 0.39100698
0.28465283 -0.27696222 0.61526006 -0.10064073 -0.21007565 0.27890173 -0.23159932 0.39944863
0.25791213 0.3968332 -0.23367938 0.1303961 -0.08693627 0.14047578 -0.09585887 -0.27181467
0.2177074 0.3427897 -0.019815844 0.18574323 0.096981555 -0.44342342 -0.17783456 0.008141757
0.18056554 -0.36807355 -0.0568979 -0.6395516 0.48877144 -0.25938484 0.30285305 0.6022755
0.2138741 -0.28227472 0.025260411 -0.7957286 0.375234 -0.4250493 0.16758147 -0.4748266
-0.11018589 0.2835151 -0.0073980317 -0.4234121 0.32532832 -0.22307865 -0.09017944 -0.40408248
-0.022592232 0.20085058 -0.09410329 -0.0012224283 0.12351984 0.09581122 0.3730036 -0.43026203
0.049634304 -0.1462497 0.009974326 0.3258323 0.39925262 -0.08394629 -0.72773683 -0.109878294
0.08565993 -0.26986843 -0.056824405 0.8255473 -0.023587568 0.014597772 0.11328781 0.18583821
0.18358257 -0.4154012 0.20237511 0.02032723 -0.3924644 -0.010616083 0.043715656 0.052327648
-0.3117507 -0.7120384 0.57751405 0.0065350225 0.50219834 -0.5263119 -0.11504479 0.2208073
00000000: d5a7 923c bc11 c3bd f31e 153f 36dc 78bc
00000010: b5a4 cb3d 0b0a 1abf f0f7 fabe d61d 863e
00000020: e6c2 7e3e 664a 87be 1770 e9bd 17fe 843d
00000030: 2c35 babe 8ecb 02bf 65ed 023e f0a1 dfbe
00000040: fe06 19be bb3c 8bbe 42b0 0fbf 11c9 afbd
00000050: 9ba3 2ebe 8207 02bf c64a 02be 1ce7 c7bd
00000060: 5996 01be 02a5 4f3d 87bd 573f d824 dabd
00000070: a300 b23d a378 4cbe a448 56be 6863 203f
00000080: befe 84be 0d74 8e3c 478c 28be 15f9 97bc
00000090: c97e 66be 679a 383e 55a1 c2be 7260 c73e
000000a0: 6ba1 c13e af65 253e 9b3e 3e3c df96 08bd
000000b0: 39e1 e1be 4979 dbbc 353a 173e 0b63 2a3f
000000c0: 058a d93e cbf8 323f 2573 15be d24f 283c
000000d0: c8b6 163f 6831 b73e 7bbf fd3e 128d f7be
000000e0: dd02 ca3d 0a0c f23e 69ab 803e 8b8c bebd
000000f0: 2fbc e63d c058 ef3e 9947 9b3e dd07 bdbe
00000100: 6244 c33e 7bab 443d 6885 583e 6c79 21bd
00000110: af26 acbd 619b b4be 85cd 873e 369e 673d
00000120: d73b 723e 4d55 063f dce0 1a3e 4eef 0cbd
00000130: 0750 87be 0184 ccbd d942 0a3f 5f0e 58be
00000140: 47d9 c63c 4a6b 473e 73ef 93be d305 b9bd
00000150: ec2a a2be af0d cebe 001e 613d 6303 0bbf
00000160: edf5 293f f715 3bbe 3b3e 3e3e 84dc bcbe
00000170: fe85 1bbf b56a 0ebf 8917 66be 1f9a bb3d
00000180: c270 ba3e 5ac8 c8bd a836 fe3d d02f a13d
00000190: 516b 9abc 5f38 4e3f 3dbe fa3e 3d47 a73e
000001a0: a81a 16bd 329c 45be 4ecf 203f 8d16 3abe
000001b0: 3440 34bc 6a70 3d3e 1203 853d ccb3 db3c
000001c0: f1fb 983e 984c bdbe d9c3 663e 3bd4 583d
000001d0: 5423 5bbd 4f4b fb3d 783a 3dbe edaf 513e
000001e0: e046 2c3c 0f13 86be bc89 1a3f f65e cdbe
000001f0: 8da3 95be 8b2d 4c3e e5b8 10bd 3ac1 603d
00000200: 7099 3cbe c45c 8c3e 43e2 973e e6cc febb
00000210: e112 83bf 3518 233e 8e82 16bc 06d4 063e
00000220: 4eb3 0bbe 09f9 0ebe bea0 403e e2d1 7d3e
00000230: 763b 9a3e c6e2 1cbe 64f6 323e 794e 953e
00000240: e14e e6bd ab2c 4dbf 548b 8c3e 5a3d 5bbd
00000250: 3d63 15bf 054c a4bc 46d5 0bbf fa5c 733e
00000260: 4a0b a9bd ecca 893e 04e7 12bf 83ea b6bd
00000270: 3bcc 153f f54d 86be 806d 8a3e 6db0 943d
00000280: 4b31 f03e 4e69 a1be 3e93 4cbe e0b9 8f3d
00000290: 2709 123f 7acc dcbd 40c6 133e 1132 c83e
000002a0: 04be 913e fecd 8dbe af81 1d3f ba1c cebd
000002b0: 121e 57be 35cc 8e3e 5f28 6dbe 8884 cc3e
000002c0: 0f0d 843e b92d cb3e a649 6fbe 8e86 053e
000002d0: a50b b2bd e2d8 0f3e a851 c4bd 4b2b 8bbe
000002e0: b0ee 5e3e 2282 af3e d654 a2bc 7933 3e3e
000002f0: 449e c63d 6508 e3be 431a 36be 0165 053c
00000300: 2ce6 383e 2374 bcbe c60d 69bd a7b9 23bf
00000310: 4040 fa3e 17ce 84be 8e0f 9b3e ba2e 1a3f
00000320: d001 5b3e 5086 90be ecee ce3c dfb4 4bbf
00000330: ac1e c03e 10a0 d9be 7a9a 2b3e 791c f3be
00000340: 24a9 e1bd e428 913e 306b f2bb 79c9 d8be
00000350: 6f91 a63e bb6e 64be 00b0 b8bd e6e3 cebe
00000360: 5813 b9bc c6ab 4d3e 3ab9 c0bd e339 a0ba
00000370: f8f7 fc3d ac38 c43d 54fa be3e 4e4b dcbe
00000380: 574d 4b3d 7bc2 15be 5b6b 233c 7ed3 a63e
00000390: d76a cc3e 08ec abbd f64c 3abf df07 e1bd
000003a0: 796e af3d 322c 8abe b5c0 68bd 1157 533f
000003b0: b73a c1bc 7e2b 6f3c 7003 e83d 5f4c 3e3e
000003c0: 12fd 3b3e 77af d4be 6c3b 4f3e 4b85 a63c
000003d0: 18f1 c8be 14ef 2dbc 300f 333d 8455 563d
000003e0: ca9d 9fbe 2648 36bf f6d7 133f be23 d63b
000003f0: 1290 003f 60bc 06bf 9a9c ebbd 4f1b 623e

policy_network.h3.transform.bias f4 [20]
-0.18896633 0.048371613 -0.05545553 -0.05109817 -0.18997228 -0.19718927 -0.0518984 -0.17112158
0.0032874662 -0.104017965 -0.04226879 0.0 -0.16323185 -0.28135267 0.0 -0.11505793
-0.10247866 -0.017672617 -0.21054357 -0.12278735
00000000: 6480 41be 5021 463d 5625 63bd 514c 51bd
00000010: 1888 42be fceb 49be 6b93 54bd 7f3a 2fbe
00000020: 8872 573b 5f07 d5bd 0a22 2dbd 0000 0000
00000030: 4026 27be 750d 90be 0000 0000 7ea3 ebbd
00000040: 55e0 d1bd 2ac6 90bc bc98 57be ef77 fbbd

policy_network.critic_linear.weight f4 [1, 20]
-0.22033572 -0.24969484 -0.34597957 -0.1713418 -0.34049803 0.17552121 0.22586593 0.4440377
0.5249074 0.19952399 0.047118198 0.026877224 -0.30403325 -0.02918497 -0.67207855 -0.054710023
-0.023356877 -0.17410669 0.2538802 0.15855402
00000000: b09f 61be 01b0 7fbe 3c24 b1be 3a74 2fbe
00000010: c255 aebe d5bb 333e 6649 673e e958 e33e
00000020: 5560 063f 0450 4c3e 03ff 403d a02d dc3c
00000030: 3faa 9bbe 5115 efbc 570d 2cbf 9e17 60bd
00000040: ec56 bfbc 0649 32be 96fc 813e fc5b 223e

target_network.emb1.transform.weight f4 [20, 2]
0.12167685 0.45230785 0.0572149 -0.6041272 -0.00736235 -0.33152986 -0.17211372 -0.33369017
0.0037009378 0.3122843 -0.6100881 0.39981577 -0.20322648 -0.069727324 -0.28760484 -0.28284267
0.16283365 0.25301513 -0.051713318 0.22570533 -0.1462185 0.02526007 -0.04148875 0.5071193
0.28742504 -0.35163572 -0.29615667 0.29741776 0.23511823 0.24018314 -0.74575245 0.24050364
-0.606854 -0.22983083 -0.42675307 -0.38731995 -0.051602125 0.081241556 -0.30898038 -0.2977888
00000000: b631 f93d e594 e73e 2c5a 6a3d 15a8 1abf
00000010: de3f f1bb 48be a9be 943e 30be 70d9 aabe
00000020: 6f8b 723b bae3 9f3e bc2e 1cbf a7b4 cc3e
00000030: 9a1a 50be 33cd 8ebd f140 93be c1d0 90be
00000040: ddbd 263e 338b 813e 58d1 53bd 4c1f 673e
00000050: 4dba 15be 35ee ce3c 1cf0 29bd 92d2 013f
00000060: 6029 933e 9909 b4be d9a1 97be 2447 983e
00000070: d5c2 703e 92f2 753e a2e9 3ebf 9646 763e
00000080: c95a 1bbf c658 6bbe 617f dabe cd4e c6be
00000090: c05c 53bd f961 a63d ad32 9ebe c677 98be

target_network.emb1.transform.bias f4 [20]
0.034888692 -0.013758851 0.0 0.0 -0.129359 -0.09423403 0.0 0.0
0.039289154 -0.12608472 0.0 0.15588461 -0.109072275 -0.046992246 0.05830574 0.0
0.0 0.0 -0.020319093 0.0
00000000: 72e7 0e3d ce6c 61bc 0000 0000 0000 0000
00000010: b076 04be c5fd c0bd 0000 0000 0000 0000
00000020: aaed 203d 5a1c 01be 0000 0000 37a0 1f3e
00000030: 4961 dfbd f17a 40bd 00d2 6e3d 0000 0000
00000040: 0000 0000 0000 0000 3a74 a6bc 0000 0000

target_network.emb2.transform.weight f4 [20, 2]
-0.04563499 0.5497668 0.12486914 0.51331604 -0.28624037 0.032117296 -0.048597015 -0.10264552
0.37442464 -0.21363309 -0.085346244 0.35720623 0.15335912 0.073202506 -0.332444 0.568436
-0.37284648 0.5216737 0.36637852 -0.18415911 0.10673969 -0.5591687 -0.8660892 -0.18435353
-0.0528562 0.05690128 -0.33453217 0.24175863 -0.12017855 0.89865535 -0.32184362 0.40428928
-0.5990113 0.10322409 0.124184385 -0.5376281 -0.090905674 -0.1213615 0.039800942 0.06014897
00000000: c1eb 3abd 84bd 0c3f 64bb ff3d ae68 033f
00000010: 198e 92be 6d8d 033d aa0d 47bd d037 d2bd
00000020: 96b4 bf3e a2c2 5abe 03ca aebd bce3 b63e
00000030: 2c0a 1d3e 32eb 953d 1a36 aabe 0685 113f
00000040: bce5 bebe 688c 053f f795 bb3e 3594 3cbe
00000050: 579a da3d ae25 0fbf 06b8 5dbf 2cc7 3cbe
00000060: be7f 58bd 5111 693d cd47 abbe 938f 773e
00000070: 2c20 f6bd 470e 663f b0c8 a4be 01ff ce3e
00000080: ce58 19bf 2767 d33d 6254 fe3d ffa1 09bf
00000090: c12c babd 618c f8bd 5006 233d c45e 763d

target_network.emb2.transform.bias f4 [20]
-0.11833815 -0.015734395 0.0 0.0 -0.13483553 -0.082176454 0.012895934 -0.045205344
-0.027961453 -0.17312993 -0.04223875 0.0 -0.03343839 -0.16304015 -0.13666156 -0.017328283
0.0 -0.047698703 0.0 -0.05136282
00000000: 465b f2bd 6be5 80bc 0000 0000 0000 0000
00000010: 5312 0abe 214c a8bd 7849 533c 3d29 39bd
00000020: 6b0f e5bc f948 31be 8a02 2dbd 0000 0000
00000030: b1f6 08bd fff3 26be 02f1 0bbe 0bf4 8dbc
00000040: 0000 0000 b75f 43bd 0000 0000 d261 52bd

target_network.emb3.transform.weight f4 [20, 2]
-0.5239777 -0.21700567 -0.29466254 -0.051396992 -0.25354666 -0.057620674 0.34069562 0.16797435
0.19344178 0.33585304 -0.43609786 0.42451674 0.17197728 0.490653 0.044741385 -0.20215155
-0.48348036 0.5517928 0.066507764 -0.27321073 -0.06748154 -0.40162408 -0.6148405 0.2592601
0.07284749 0.14013657 0.44400868 0.23699288 -0.20429619 -0.14116806 -0.3785557 0.18423514
0.74260324 -0.3244973 0.084186025 -0.22280058 -0.029378906 0.05969824 0.30497435 0.16890879
00000000: 6723 06bf bc36 5ebe 02de 96be a785 52bd
00000010: ded0 81be a803 6cbd a86f ae3e 7801 2c3e
00000020: 9a15 463e eef4 ab3e 3848 dfbe 425a d93e
00000030: d01a 303e df36 fb3e be42 373d d100 4fbe
00000040: bd8a f7be 4b42 0d3f 3935 883d 47e2 8bbe
00000050: c333 8abd aca1 cdbe 3066 1dbf bdbd 843e
00000060: 1131 953d f67f 0f3e 1b55 e33e 43ae 723e
00000070: 0533 51be 5c8e 10be 0dd2 c1be 23a8 3c3e
00000080: 3f1b 3e3f 8324 a6be b969 ac3d d625 64be
00000090: 08ac f0bc 2486 743d 9925 9c3e 6df6 2c3e

target_network.emb3.transform.bias f4 [20]
0.0 0.0 0.0 0.00920241 -0.07861767 -0.02866059 -0.008203829 -0.025967713
-0.07631408 -0.01874803 0.0 -0.09713388 0.04079595 -0.04160414 0.0 0.04775868
-0.041753884 -0.13862783 -0.14192063 -0.050500054
00000000: 0000 0000 0000 0000 0000 0000 b4c5 163c
00000010: 4d02 a1bd 9dc9 eabc 5a69 06bc 3eba d4bc
00000020: 8e4a 9cbd 7895 99bc 0000 0000 21ee c6bd
00000030: a719 273d 1a69 2abd 0000 0000 9b9e 433d
00000040: 1f06 2bbd 74f4 0dbe a453 11be 25d9 4ebd

target_network.emb4.transform.weight f4 [20, 2]
0.17287591 0.22147736 0.062482033 -0.20621358 0.25570375 0.10400648 -0.4065257 0.33593175
0.18003301 -0.23183799 0.13202202 0.4408281 0.27040365 -0.0021759588 -0.21015364 -0.25646433
-0.30247685 -0.36348313 -0.33890483 0.17575042 -0.017163947 -0.35979912 0.21063073 0.27390772
-0.055610824 0.04382745 0.020361144 0.042177714 -0.33667263 0.33135733 0.2958544 -0.55717605
0.11401783 0.013971452 -0.62017816 0.54834616 -0.8032723 0.17267153 -0.5195791 -0.5107055
00000000: 6206 313e f6ca 623e 29ed 7f3d a729 53be
00000010: 9aeb 823e 5901 d53d 2324 d0be 3fff ab3e
00000020: 935a 383e f066 6dbe c830 073e 39b4 e13e
00000030: 5972 8a3e 889a 0ebb 8432 57be 4b4f 83be
00000040: 3fde 9abe 761a babe ef84 adbe ebf7 333e
00000050: 689b 8cbc 9737 b8be 95af 573e a23d 8c3e
00000060: 2dc8 63bd 6a84 333d 6acc a63c 8ac2 2c3d
00000070: 5b60 acbe aba7 a93e 3a7a 973e 17a3 0ebf
00000080: 2e82 e93d 84e8 643c ffc3 1ebf 6a60 0c3f
00000090: 41a3 4dbf ced0 303e 2303 05bf 98bd 02bf

target_network.emb4.transform.bias f4 [20]
-0.024038581 -0.021092052 -0.2202825 -0.1571898 -0.10563452 0.020946767 0.039787404 0.0
0.0 0.039507773 0.0 0.18666142 -0.05474933 -0.05764426 -0.021901164 -0.14232486
-0.12833486 -0.0063658035 0.0 0.0
00000000: 8fec c4bc 3dc9 acbc bc91 61be 5df6 20be
00000010: e956 d8bd 8e98 ab3c 1ef8 223d 0000 0000
00000020: 0000 0000 e7d2 213d 0000 0000 2c24 3f3e
00000030: d540 60bd 631c 6cbd 126a b3bc 9cbd 11be
00000040: 376a 03be 3b98 d0bb 0000 0000 0000 0000

target_network.h2.transform.weight f4 [20, 20]
0.043621704 -0.08320914 -0.27572906 0.03868195 -0.0891329 0.4692397 -0.7006551 -0.7555095
-0.19795577 -0.27898702 0.38672885 0.19152525 0.09778317 0.066270754 -0.18711057 -0.2821994
-0.41053084 -0.11830093 -0.33099717 -0.48849317 0.05181462 0.035965208 -0.39747164 0.22634518
0.004733473 -0.66259277 0.13843688 -0.44600156 -0.65032727 0.39499086 0.07534883 -0.19147937
-0.27655256 -0.4454334 -0.48498678 -0.2485193 -0.21705054 -0.012107105 -0.24056838 0.039959084
-0.45322448 0.019071793 -0.33255327 -0.4683507 -0.3210247 -0.13258421 -0.39664677 0.14598499
0.12654607 0.22498657 0.024829248 -0.07560792 0.2711252 -0.15267138 0.1251051 -0.4303739
0.45709088 -0.18735838 -0.699235 0.3670845 -0.11606237 -0.0078069577 0.29551223 -0.14909635
0.2316895 0.2711013 -0.3895951 0.15613389 -0.17589498 0.8283478 -0.25236732 0.39644417
-0.045879047 -0.054870922 -0.62615484 -0.18503883 -0.09457242 -0.32233542 0.113164164 0.029441096
-0.14089939 -0.58234495 -0.48357043 0.23170748 -0.60903305 -0.07501429 -0.4955346 0.1368076
0.2656585 0.3774643 0.30904973 -0.10659796 -0.21369256 0.07537348 -0.477529 0.2888459
-0.039193276 0.41697365 0.36926794 0.13096818 0.02398517 0.27651662 0.010064801 0.5421556
-0.05710577 0.45111442 -0.31631508 -0.0184924 -0.27453017 0.11913575 0.025921047 -0.5836114
-0.21550518 -0.39352614 0.32657114 -0.16765407 0.37903357 -0.21012196 0.13204466 -0.1375219
-0.0015249888 -0.24836057 -0.44751474 0.4778239 0.07748399 -0.03101799 -0.23058134 0.39222255
0.35522324 -0.5676512 -0.541286 0.25104353 -0.12526423 -0.45103717 -0.4770502 -0.27337453
-0.20159727 -0.18984124 -0.2109585 0.05390446 -0.3342823 -0.069726124 -0.27336103 -0.015390201
0.04110803 -0.44126678 0.08189264 -0.4134516 0.40547705 0.11196116 0.03794486 0.19581519
-0.076360844 -0.31773993 -0.07349797 -0.09943296 0.49866268 -0.2924975 0.2842243 -0.86384916
0.6304358 -0.58801895 -0.08916747 -0.572544 -0.76167583 0.112031296 -0.009687094 0.65178597
-0.1441516 -0.04539082 -0.112243444 0.23906787 -0.2051943 -0.44925055 0.16300856 -0.05497249
-0.12606706 -0.12891576 0.40301988 -0.18807362 0.0076722335 -0.34130788 0.56349605 -0.10845592
-0.3592839 0.12429904 0.11339653 0.056359805 0.11536451 0.12313272 0.22841047 0.30395222
0.32582805 -1.2147249 0.043311648 0.566278 -0.2980618 0.75585455 -0.2587619 -0.19865009
0.0019720308 -0.35768652 0.2602762 0.07982538 0.5342708 -0.33743742 -0.13011499 0.047009643
-0.04366639 -0.06430452 0.46830723 0.02492354 0.08005153 0.2875366 0.051677976 -0.1988357
0.22142799 -0.12275409 -0.0550583 0.2727198 -0.16094863 -0.63084567 -0.5505276 -0.39863795
0.4794851 0.7241926 0.27523115 -0.10440202 0.52620184 0.17065604 0.21112552 -0.72145075
0.17476574 -0.27932838 -0.56878155 0.114337154 -0.29754475 -0.110813655 0.13975325 -0.018339626
0.38415194 0.3647281 0.12921727 -0.6147009 0.08451703 -0.086143985 -0.4110825 0.80348474
0.48182914 -0.04659648 0.4579301 0.1876022 -0.66141856 -0.7694444 0.15492478 0.012158894
00000000: acac 323d 8e69 aabd 5c2c 8dbe f770 1e3d
00000010: 4f8b b6bd 3040 f03e 225e 33bf 1269 41bf
00000020: ebb4 4abe 63d7 8ebe 5301 c63e 321f 443e
00000030: 8b42 c83d f6b8 873d ea99 3fbe 717c 90be
00000040: 1931 d2be c247 f2bd 7678 a9be c71b fabe
00000050: 913b 543d 4150 133d 6781 cbbe 08c7 673e
00000060: 401b 9b3b ae9f 29bf 66c2 0d3e 515a e4be
00000070: d97b 26bf 3e3c ca3e 7d50 9a3d 2b13 44be
00000080: 4c98 8dbe d90f e4be 3050 f8be d87b 7ebe
00000090: 7f42 5ebe e15c 46bc 8f57 76be 23ac 233d
000000a0: 0a0d e8be 733c 9c3c 6c44 aabe aacb efbe
000000b0: 595d a4be 28c4 07be 4915 cbbe 177d 153e
000000c0: 4b95 013e e162 663e b566 cb3c 53d8 9abd
000000d0: ecd0 8a3e e355 1cbe 8d1b 003e f859 dcbe
000000e0: d107 ea3e e0da 3fbe 1101 33bf 80f2 bb3e
000000f0: 1cb2 edbd 82d1 ffbb 614d 973e b7ac 18be
00000100: 0340 6d3e cacd 8a3e 0279 c7be 90e1 1f3e
00000110: d01d 34be 9a0e 543f 4a36 81be bbfa ca3e
00000120: abeb 3bbd 55c0 60bd af4b 20bf d27a 3dbe
00000130: 2faf c1bd 2609 a5be 9dc2 e73d 742e f13c
00000140: ee47 10be 8f14 15bf 8b96 f7be ba44 6d3e
00000150: 97e9 1bbf 18a1 99bd b6b6 fdbe 4b17 0c3e
00000160: 6404 883e 0043 c13e c43b 9e3e 0850 dabd
00000170: 39d2 5abe 695d 9a3d ae7e f4be 9ce3 933e
00000180: 2189 20bd 927d d53e b010 bd3e 861c 063e
00000190: 8c7c c43c 9693 8d3e d6e6 243c b6ca 0a3f
000001a0: bde7 69bd 78f8 e63e 0df4 a1be 607d 97bc
000001b0: 388f 8cbe 72fd f33d 6058 d43c 8f67 15bf
000001c0: 64ad 5cbe 427c c9be 5534 a73e 82ad 2bbe
000001d0: b010 c23e 362a 57be b736 073e 8ad2 0cbe
000001e0: 22e2 c7ba 3c52 7ebe a720 e5be 56a5 f43e
000001f0: edaf 9e3d 7119 febc 841d 6cbe 65d1 c83e
00000200: d2df b53e 9751 11bf b891 0abf c788 803e
00000210: 4445 00be 58ee e6be ec3f f4be bff7 8bbe
00000220: 846f 4ebe be65 42be 8105 58be ecca 5c3d
00000230: 0d27 abbe 92cc 8ebd faf5 8bbe 2e27 7cbc
00000240: e560 283d b8ed e1be 54b7 a73d eeaf d3be
00000250: b09a cf3e e54b e53d 126c 1b3d c783 483e
00000260: 1363 9cbd cfae a2be 1b86 96bd 82a3 cbbd
00000270: b750 ff3e 3bc2 95be d985 913e 3825 5dbf
00000280: 3e64 213f 6988 16bf 6f9d b6bd 3e92 12bf
00000290: 30fd 42bf aa70 e53d 9eb6 1ebc 72db 263f
000002a0: 7a9c 13be b9eb 39bd e4df e5bd 35ce 743e
000002b0: 741e 52be 2b04 e6be b7eb 263e d52a 61bd
000002c0: b917 01be 7e02 04be 9f58 ce3e 5f96 40be
000002d0: 5c67 fb3b e8bf aebe 4741 103f 231e debd
000002e0: 0ff4 b7be 7f90 fe3d 713c e83d 8ad9 663d
000002f0: 3a44 ec3d 022d fc3d 6fe4 693e a09f 9b3e
00000300: efd2 a63e 1b7c 9bbf 8e67 313d 98f7 103f
00000310: 8e9b 98be af7f 413f 717c 84be ee6a 4bbe
00000320: 303d 013b b022 b7be ec42 853e 7d7b a33d
00000330: f9c5 083f 99c4 acbe dd3c 05be 2f8d 403d
00000340: 87db 32bd 17b2 83bd f7c5 ef3e 742c cc3c
00000350: 0ef2 a33d ff37 933e 49ac 533d 969b 4bbe
00000360: 05be 623e 7f66 fbbd d084 61bd eea1 8b3e
00000370: b8cf 24be 1a7f 21bf 60ef 0cbf 461a ccbe
00000380: 127f f53e b064 393f 19eb 8c3e bad0 d5bd
00000390: 2ab5 063f 75c0 2e3e 4a31 583e ffb0 38bf
000003a0: caf5 323e 2104 8fbe ab9b 11bf 9929 ea3d
000003b0: c957 98be 45f2 e2bd 7a1b 0f3e fc3c 96bc
000003c0: 90af c43e a4bd ba3e 8851 043e 0a5d 1dbf
000003d0: 4417 ad3d 426c b0bd 6879 d2be 2db1 4d3f
000003e0: 4fb2 f63e f3db 3ebd d075 ea3e cb1a 403e
000003f0: ba52 29bf 4ffa 44bf 9aa4 1e3e 1936 473c

target_network.h2.transform.bias f4 [20]
-0.11019307 -0.10975982 -0.08794677 -0.10706843 -0.20207727 -0.15521772 -0.13466562 -0.12921312
-0.033436652 0.014469534 -0.02574241 -0.007860409 0.16832516 -0.06851615 0.09154839 0.0
-0.1505205 -0.12204358 -0.011129351 -0.17621753
00000000: e7ac e1bd c2c9 e0bd 701d b4bd b146 dbbd
00000010: 58ed 4ebe 65f1 1ebe c9e5 09be 7250 04be
00000020: dff4 08bd a011 6d3c bfe1 d2bc f2c8 00bc
00000030: 6e5d 2c3e 3252 8cbd b97d bb3d 0000 0000
00000040: 0c22 1abe fcf1 f9bd e257 36bc 5e72 34be

target_network.h3.transform.weight f4 [20, 20]
0.017902294 -0.09524867 0.5825035 -0.015189221 0.09943525 -0.60171574 -0.49017286 0.26194638
0.24879035 -0.2642395 -0.113983326 0.06493776 -0.36368692 -0.5109185 0.12785871 -0.43678236
-0.14944074 -0.2719477 -0.56128323 -0.08583272 -0.17054598 -0.50792706 -0.12723836 -0.097608775
-0.1265501 0.050694473 0.8427357 -0.10651559 0.08691528 -0.19967894 -0.20926148 0.6265168
-0.25975603 0.017389322 -0.16459762 -0.018551389 -0.22509302 0.1802765 -0.38013712 0.3894077
0.37818465 0.1615207 0.011611606 -0.033347007 -0.44117144 -0.026791232 0.14768298 0.6655738
0.42488113 0.6991088 -0.14594705 0.010272937 0.5887265 0.3577988 0.4956015 -0.48349816
0.098638274 0.4727481 0.25130776 -0.0930415 0.11266362 0.46747398 0.30328062 -0.36920062
0.3813811 0.0480151 0.2114464 -0.039422438 -0.08405816 -0.35274795 0.26523986 0.056547366
0.2365564 0.5247391 0.1512484 -0.034407906 -0.26428244 -0.09986115 0.5400825 -0.21099232
0.024273528 0.19474521 -0.28893623 -0.09034314 -0.31673372 -0.40244815 0.05496025 -0.5430204
0.6639088 -0.18270098 0.18578427 -0.3688699 -0.6075133 -0.5563157 -0.22469915 0.09160256
0.36414152 -0.09803839 0.124127686 0.07870448 -0.01885 0.80554765 0.48973265 0.32671538
-0.036646515 -0.19297865 0.6281632 -0.18172665 -0.011001635 0.18499914 0.06494726 0.026819132
0.29879716 -0.369725 0.22535647 0.052936774 -0.05350049 0.12270223 -0.18479335 0.20477267
0.010514945 -0.26186416 0.60366416 -0.40111512 -0.29226342 0.19939248 -0.03533258 0.054871775
-0.18417907 0.27414525 0.29664811 -0.0077758906 -1.0240136 0.15927203 -0.0091864 0.13166818
-0.13642618 -0.13962187 0.18811318 0.24787095 0.3012349 -0.15320882 0.17476803 0.29161432
-0.11245514 -0.8014628 0.2745005 -0.053525306 -0.5835455 -0.02005578 -0.54622304 0.23765936
-0.08254106 0.2691263 -0.5738375 -0.08931448 0.58514756 -0.26231351 0.27036667 0.07260213
0.46912608 -0.31525654 -0.19978043 0.07017875 0.57045215 -0.10781188 0.14431095 0.39100698
0.28465283 -0.27696222 0.61526006 -0.10064073 -0.21007565 0.27890173 -0.23159932 0.39944863
0.25791213 0.3968332 -0.23367938 0.1303961 -0.08693627 0.14047578 -0.09585887 -0.27181467
0.2177074 0.3427897 -0.019815844 0.18574323 0.096981555 -0.44342342 -0.17783456 0.008141757
0.18056554 -0.36807355 -0.0568979 -0.6395516 0.48877144 -0.25938484 0.30285305 0.6022755
0.2138741 -0.28227472 0.025260411 -0.7957286 0.375234 -0.4250493 0.16758147 -0.4748266
-0.11018589 0.2835151 -0.0073980317 -0.4234121 0.32532832 -0.22307865 -0.09017944 -0.40408248
-0.022592232 0.20085058 -0.09410329 -0.0012224283 0.12351984 0.09581122 0.3730036 -0.43026203
0.049634304 -0.1462497 0.009974326 0.3258323 0.39925262 -0.08394629 -0.72773683 -0.109878294
0.08565993 -0.26986843 -0.056824405 0.8255473 -0.023587568 0.014597772 0.11328781 0.18583821
0.18358257 -0.4154012 0.20237511 0.02032723 -0.3924644 -0.010616083 0.043715656 0.052327648
-0.3117507 -0.7120384 0.57751405 0.0065350225 0.50219834 -0.5263119 -0.11504479 0.2208073
00000000: d5a7 923c bc11 c3bd f31e 153f 36dc 78bc
00000010: b5a4 cb3d 0b0a 1abf f0f7 fabe d61d 863e
00000020: e6c2 7e3e 664a 87be 1770 e9bd 17fe 843d
00000030: 2c35 babe 8ecb 02bf 65ed 023e f0a1 dfbe
00000040: fe06 19be bb3c 8bbe 42b0 0fbf 11c9 afbd
00000050: 9ba3 2ebe 8207 02bf c64a 02be 1ce7 c7bd
00000060: 5996 01be 02a5 4f3d 87bd 573f d824 dabd
00000070: a300 b23d a378 4cbe a448 56be 6863 203f
00000080: befe 84be 0d74 8e3c 478c 28be 15f9 97bc
00000090: c97e 66be 679a 383e 55a1 c2be 7260 c73e
000000a0: 6ba1 c13e af65 253e 9b3e 3e3c df96 08bd
000000b0: 39e1 e1be 4979 dbbc 353a 173e 0b63 2a3f
000000c0: 058a d93e cbf8 323f 2573 15be d24f 283c
000000d0: c8b6 163f 6831 b73e 7bbf fd3e 128d f7be
000000e0: dd02 ca3d 0a0c f23e 69ab 803e 8b8c bebd
000000f0: 2fbc e63d c058 ef3e 9947 9b3e dd07 bdbe
00000100: 6244 c33e 7bab 443d 6885 583e 6c79 21bd
00000110: af26 acbd 619b b4be 85cd 873e 369e 673d
00000120: d73b 723e 4d55 063f dce0 1a3e 4eef 0cbd
00000130: 0750 87be 0184 ccbd d942 0a3f 5f0e 58be
00000140: 47d9 c63c 4a6b 473e 73ef 93be d305 b9bd
00000150: ec2a a2be af0d cebe 001e 613d 6303 0bbf
00000160: edf5 293f f715 3bbe 3b3e 3e3e 84dc bcbe
00000170: fe85 1bbf b56a 0ebf 8917 66be 1f9a bb3d
00000180: c270 ba3e 5ac8 c8bd a836 fe3d d02f a13d
00000190: 516b 9abc 5f38 4e3f 3dbe fa3e 3d47 a73e
000001a0: a81a 16bd 329c 45be 4ecf 203f 8d16 3abe
000001b0: 3440 34bc 6a70 3d3e 1203 853d ccb3 db3c
000001c0: f1fb 983e 984c bdbe d9c3 663e 3bd4 583d
000001d0: 5423 5bbd 4f4b fb3d 783a 3dbe edaf 513e
000001e0: e046 2c3c 0f13 86be bc89 1a3f f65e cdbe
000001f0: 8da3 95be 8b2d 4c3e e5b8 10bd 3ac1 603d
00000200: 7099 3cbe c45c 8c3e 43e2 973e e6cc febb
00000210: e112 83bf 3518 233e 8e82 16bc 06d4 063e
00000220: 4eb3 0bbe 09f9 0ebe bea0 403e e2d1 7d3e
00000230: 763b 9a3e c6e2 1cbe 64f6 323e 794e 953e
00000240: e14e e6bd ab2c 4dbf 548b 8c3e 5a3d 5bbd
00000250: 3d63 15bf 054c a4bc 46d5 0bbf fa5c 733e
00000260: 4a0b a9bd ecca 893e 04e7 12bf 83ea b6bd
00000270: 3bcc 153f f54d 86be 806d 8a3e 6db0 943d
00000280: 4b31 f03e 4e69 a1be 3e93 4cbe e0b9 8f3d
00000290: 2709 123f 7acc dcbd 40c6 133e 1132 c83e
000002a0: 04be 913e fecd 8dbe af81 1d3f ba1c cebd
000002b0: 121e 57be 35cc 8e3e 5f28 6dbe 8884 cc3e
000002c0: 0f0d 843e b92d cb3e a649 6fbe 8e86 053e
000002d0: a50b b2bd e2d8 0f3e a851 c4bd 4b2b 8bbe
000002e0: b0ee 5e3e 2282 af3e d654 a2bc 7933 3e3e
000002f0: 449e c63d 6508 e3be 431a 36be 0165 053c
00000300: 2ce6 383e 2374 bcbe c60d 69bd a7b9 23bf
00000310: 4040 fa3e 17ce 84be 8e0f 9b3e ba2e 1a3f
00000320: d001 5b3e 5086 90be ecee ce3c dfb4 4bbf
00000330: ac1e c03e 10a0 d9be 7a9a 2b3e 791c f3be
00000340: 24a9 e1bd e428 913e 306b f2bb 79c9 d8be
00000350: 6f91 a63e bb6e 64be 00b0 b8bd e6e3 cebe
00000360: 5813 b9bc c6ab 4d3e 3ab9 c0bd e339 a0ba
00000370: f8f7 fc3d ac38 c43d 54fa be3e 4e4b dcbe
00000380: 574d 4b3d 7bc2 15be 5b6b 233c 7ed3 a63e
00000390: d76a cc3e 08ec abbd f64c 3abf df07 e1bd
000003a0: 796e af3d 322c 8abe b5c0 68bd 1157 533f
000003b0: b73a c1bc 7e2b 6f3c 7003 e83d 5f4c 3e3e
000003c0: 12fd 3b3e 77af d4be 6c3b 4f3e 4b85 a63c
000003d0: 18f1 c8be 14ef 2dbc 300f 333d 8455 563d
000003e0: ca9d 9fbe 2648 36bf f6d7 133f be23 d63b
000003f0: 1290 003f 60bc 06bf 9a9c ebbd 4f1b 623e

target_network.h3.transform.bias f4 [20]
-0.18896633 0.048371613 -0.05545553 -0.05109817 -0.18997228 -0.19718927 -0.0518984 -0.17112158
0.0032874662 -0.104017965 -0.04226879 0.0 -0.16323185 -0.28135267 0.0 -0.11505793
-0.10247866 -0.017672617 -0.21054357 -0.12278735
00000000: 6480 41be 5021 463d 5625 63bd 514c 51bd
00000010: 1888 42be fceb 49be 6b93 54bd 7f3a 2fbe
00000020: 8872 573b 5f07 d5bd 0a22 2dbd 0000 0000
00000030: 4026 27be 750d 90be 0000 0000 7ea3 ebbd
00000040: 55e0 d1bd 2ac6 90bc bc98 57be ef77 fbbd

target_network.critic_linear.weight f4 [1, 20]
-0.22033572 -0.24969484 -0.34597957 -0.1713418 -0.34049803 0.17552121 0.22586593 0.4440377
0.5249074 0.19952399 0.047118198 0.026877224 -0.30403325 -0.02918497 -0.67207855 -0.054710023
-0.023356877 -0.17410669 0.2538802 0.15855402
00000000: b09f 61be 01b0 7fbe 3c24 b1be 3a74 2fbe
00000010: c255 aebe d5bb 333e 6649 673e e958 e33e
00000020: 5560 063f 0450 4c3e 03ff 403d a02d dc3c
00000030: 3faa 9bbe 5115 efbc 570d 2cbf 9e17 60bd
00000040: ec56 bfbc 0649 32be 96fc 813e fc5b 223e
