pz_risk/mini_0/2.pt (torch, 18513 bytes, 26 tensors)

policy_network.emb1.transform.weight f4 [20, 2]
0	0x3de4bd79	0.111689515
1	0x3ec38c53	0.38192996
2	0x3d8dabcf	0.069175355
3	0xbf184bda	-0.5949074
4	0xbbf13fde	-0.00736235
5	0xbea9be48	-0.33152986
6	0xbe303e94	-0.17211372
7	0xbeaad970	-0.33369017
8	0x3bd9cf9a	0.0066470625
9	0x3ea4127c	0.32045352
10	0xbf0b2f50	-0.5436907
11	0x3eedc9fa	0.46443158
12	0xbe501a9a	-0.20322648
13	0xbd8ecd33	-0.069727324
14	0xbe9340f1	-0.28760484
15	0xbe90d0c1	-0.28284267
16	0x3e047e53	0.12938814
17	0x3e314c08	0.1731416
18	0xbc28f897	-0.010313175
19	0x3e8e65f0	0.27812147
20	0xbe15ba4d	-0.1462185
21	0x3cceee35	0.02526007
22	0xbdf9c524	-0.12195805
23	0x3eb2d815	0.34930483
24	0x3ea844fe	0.32865137
25	0xbea1dcca	-0.3161376
26	0xbe977449	-0.29580906
27	0x3e989907	0.2980425
28	0x3e62f6ca	0.22164455
29	0x3e2ea77e	0.1705608
30	0xbf3ee9a2	-0.74575245
31	0x3e764696	0.24050364
32	0xbf1b5ac9	-0.606854
33	0xbe6b58c6	-0.22983083
34	0xbeda7f61	-0.42675307
35	0xbec64ecd	-0.38731995
36	0xbd534bd0	-0.051585972
37	0x3da6712e	0.08127056
38	0xbe9e32ad	-0.30898038
39	0xbe9877c6	-0.2977888

policy_network.emb1.transform.bias f4 [20]
0	0xbc2d384f	-0.010572507
1	0xbb100d10	-0.0021980442
2	0x00000000	0.0
3	0x00000000	0.0
4	0xbe00ee63	-0.12590937
5	0xbce4096e	-0.027836528
6	0x00000000	0.0
7	0x00000000	0.0
8	0xbb3800f8	-0.002807675
9	0xbdad62e8	-0.084661305
10	0x00000000	0.0
11	0x3d9911d2	0.07474102
12	0xbd83050d	-0.06397448
13	0xbd3ca329	-0.04605404
14	0x3d3406a9	0.043951664
15	0x00000000	0.0
16	0x00000000	0.0
17	0x00000000	0.0
18	0xbca6525b	-0.020302942
19	0x00000000	0.0

policy_network.emb2.transform.weight f4 [20, 2]
0	0x3e0ca151	0.13733412
1	0x3e9a20af	0.3010306
2	0x3e518491	0.20460726
3	0x3efc3c0a	0.49264556
4	0xbe928e19	-0.28624037
5	0x3d038d6d	0.032117296
6	0xbd470daa	-0.048597015
7	0xbdd237d0	-0.10264552
8	0x3ec4a573	0.38407478
9	0xbe4373eb	-0.19087188
10	0x3b829aee	0.003985754
11	0x3e9b806a	0.3037141
12	0x3d2d2fd5	0.042281944
13	0x3e9f680f	0.31134078
14	0xbe21378f	-0.1574385
15	0x3e9c0cfd	0.3047866
16	0xbe5700da	-0.20996419
17	0x3e8c4ba2	0.27401453
18	0x3ec6f0c6	0.3885557
19	0xbe2990ab	-0.16559093
20	0x3dda9a57	0.10673969
21	0xbf0f25ae	-0.5591687
22	0xbf5db806	-0.8660892
23	0xbe3cc72c	-0.18435353
24	0xbd587fbe	-0.0528562
25	0x3d691151	0.05690128
26	0xbe8eef3c	-0.27916896
27	0x3e9a8008	0.30175805
28	0x3e22df5f	0.15905522
29	0x3f4903c2	0.7852136
30	0xbe2c5ee3	-0.16833071
31	0x3e58b1f2	0.21161631
32	0xbf1958ce	-0.5990113
33	0x3dd36727	0.10322409
34	0x3dfd97bd	0.123824574
35	0xbf09a529	-0.5376764
36	0xbdba2cc1	-0.090905674
37	0xbdf88c61	-0.1213615
38	0x3d230650	0.039800942
39	0x3d765ec4	0.06014897

policy_network.emb2.transform.bias f4 [20]
0	0xbdc1ff44	-0.09472516
1	0x3d10b622	0.035329945
2	0x00000000	0.0
3	0x00000000	0.0
4	0xbe031f14	-0.12804824
5	0xbd8cebf8	-0.06880945
6	0x39b46350	0.0003440627
7	0xbce12388	-0.027482763
8	0xbc97bb51	-0.018521937
9	0xbe0abd5e	-0.135488
10	0xbd2d028a	-0.04223875
11	0x00000000	0.0
12	0xbd08f6b1	-0.03343839
13	0xbdd5f222	-0.10446574
14	0x3d3a69e3	0.045511138
15	0xbcc2ed6b	-0.02379485
16	0x00000000	0.0
17	0xbd45d57e	-0.048299305
18	0x00000000	0.0
19	0xbd5261d2	-0.05136282

policy_network.emb3.transform.weight f4 [20, 2]
0	0xbf062367	-0.5239777
1	0xbe5e36bc	-0.21700567
2	0xbe96de02	-0.29466254
3	0xbd5285a7	-0.051396992
4	0xbe81d0de	-0.25354666
5	0xbd6c03a8	-0.057620674
6	0x3e628c1c	0.2212376
7	0x3e1b713e	0.15179917
8	0x3e26d8c6	0.1629363
9	0x3ec3dd09	0.38254574
10	0xbebd2261	-0.36940292
11	0x3ed1d707	0.40984365
12	0x3dd09126	0.10183935
13	0x3efbd34a	0.49184638
14	0x3d3742be	0.044741385
15	0xbe4f00d1	-0.20215155
16	0xbea1f147	-0.31629393
17	0x3f029788	0.5101247
18	0x3d883539	0.066507764
19	0xbe8be247	-0.27321073
20	0xbd8a33c3	-0.06748154
21	0xbecda1ac	-0.40162408
22	0xbf11cf7b	-0.56957215
23	0x3e8fb92c	0.28070962
24	0xbcee72d1	-0.029107483
25	0x3e103db8	0.14086044
26	0x3e9333a9	0.2875035
27	0x3e3c06c5	0.18361957
28	0xbe513305	-0.20429619
29	0xbe108e5c	-0.14116806
30	0xbe6eddf5	-0.23326857
31	0x3e0e6c79	0.13908567
32	0x3f2df114	0.6794598
33	0xbebe2abf	-0.37141988
34	0x3e20bfe3	0.15698199
35	0xbe50f0be	-0.20404336
36	0x3d61d3ed	0.05513375
37	0x3dd09919	0.10185451
38	0x3e6f5311	0.23371531
39	0x3e1cf702	0.15328601

policy_network.emb3.transform.bias f4 [20]
0	0x00000000	0.0
1	0x00000000	0.0
2	0x00000000	0.0
3	0xbcbd9965	-0.023144433
4	0xbd8b1c0f	-0.06792461
5	0xbd91d0da	-0.071199134
6	0xbd5553ae	-0.052081756
7	0xbcd4ba3e	-0.025967713
8	0xbdacb9d8	-0.084338844
9	0xbc999578	-0.01874803
10	0x00000000	0.0
11	0xbd8a1ff1	-0.067443736
12	0x3ae24838	0.0017263955
13	0xbd844559	-0.064585395
14	0x00000000	0.0
15	0xbc1f548d	-0.009724748
16	0xbda06abe	-0.078328595
17	0xbd559b61	-0.052150134
18	0xbd9c9640	-0.076458454
19	0xbd9ee825	-0.07759122

policy_network.emb4.transform.weight f4 [20, 2]
0	0x3e8b8a5d	0.27254
1	0x3e83d928	0.25751615
2	0x3d7fed29	0.062482033
3	0xbe5329a7	-0.20621358
4	0x3eb8de97	0.36107323
5	0x3e5eda2f	0.21762918
6	0xbeb8d14b	-0.36097178
7	0x3ed8f9f7	0.42378208
8	0x3e5011e6	0.20319328
9	0xbe63052b	-0.2216994
10	0x3e1b7e14	0.15184814
11	0x3ee50191	0.44727758
12	0x3e7bc0b7	0.24585234
13	0xbbbf59c4	-0.0058395583
14	0xbe573284	-0.21015364
15	0xbe834f4b	-0.25646433
16	0xbe9ade3f	-0.30247685
17	0xbeba1a76	-0.36348313
18	0xbe201624	-0.15633446
19	0x3de977e2	0.11399819
20	0xbc8c9b68	-0.017163947
21	0xbeb83797	-0.35979912
22	0x3e55046d	0.2080247
23	0x3e625f20	0.221066
24	0xbd63c82d	-0.055610824
25	0x3d33846a	0.04382745
26	0x3ca6cc6a	0.020361144
27	0x3d2cc28a	0.042177714
28	0xbe096240	-0.13416386
29	0x3eb5b1ff	0.35487363
30	0x3eb92f43	0.3616887
31	0xbefd3ef0	-0.4946208
32	0x3de80015	0.11328141
33	0x3c54e92b	0.012995045
34	0xbee2d60d	-0.44303933
35	0x3ef9cbc0	0.4878826
36	0xbf4da341	-0.8032723
37	0x3e30d0ce	0.17267153
38	0xbf050323	-0.5195791
39	0xbf02bd98	-0.5107055

policy_network.emb4.transform.bias f4 [20]
0	0xbce4900c	-0.027900718
1	0xbcacc93d	-0.021092052
2	0xbd5548ea	-0.05207149
3	0xbd896d13	-0.067102574
4	0xbda4ee78	-0.08053297
5	0xbcd7ce0e	-0.026343372
6	0x3d5f9c9c	0.054592714
7	0x00000000	0.0
8	0x00000000	0.0
9	0xbcd67036	-0.026176553
10	0x00000000	0.0
11	0x3df3515c	0.118807524
12	0xbd6040d5	-0.05474933
13	0xbd6c1c63	-0.05764426
14	0x3d07d02a	0.033157505
15	0xbda94c38	-0.08266491
16	0xbdb26834	-0.087112814
17	0xbde05f23	-0.10955646
18	0x00000000	0.0
19	0x00000000	0.0

policy_network.h2.transform.weight f4 [20, 20]
0	0x3d777949	0.0604184
1	0xbd435136	-0.04768487
2	0xbe9d1b20	-0.30684757
3	0x3e31d86e	0.17367718
4	0xbcba20f3	-0.02272079
5	0x3efc147e	0.49234384
6	0xbf21d571	-0.6321631
7	0xbf389985	-0.7210925
8	0xbe3607b8	-0.17776382
9	0xbe907157	-0.2821147
10	0x3ec60153	0.38672885
11	0x3e73f40b	0.23823564
12	0x3e418851	0.18899657
13	0x3e504fd6	0.20342955
14	0xbe1d4b5b	-0.15360777
15	0xbe699207	-0.22809611
16	0xbe63fc03	-0.22264104
17	0xbd9d47c6	-0.07679705
18	0xbea97876	-0.33099717
19	0xbeb59f4c	-0.35473096
20	0x3d543b91	0.05181462
21	0x3d135041	0.035965208
22	0xbecb8167	-0.39747164
23	0x3e67c708	0.22634518
24	0x3b9b1b40	0.004733473
25	0xbf299fae	-0.66259277
26	0x3e0dc266	0.13843688
27	0xbee45a51	-0.44600156
28	0xbf267bd9	-0.65032727
29	0x3eca3c3e	0.39499086
30	0x3d9a507d	0.07534883
31	0xbe44132b	-0.19147937
32	0xbe8d984c	-0.27655256
33	0xbee40fd9	-0.4454334
34	0xbef85030	-0.48498678
35	0xbe7e7bd8	-0.2485193
36	0xbe5e427f	-0.21705054
37	0xbc465ce1	-0.012107105
38	0xbe76578f	-0.24056838
39	0x3d23ac23	0.039959084
40	0xbee80aee	-0.4532084
41	0x3d9219d4	0.071338326
42	0xbeaa446c	-0.33255327
43	0xbedd0554	-0.43168128
44	0xbe9b47a0	-0.30328083
45	0xbe07c3bd	-0.13258262
46	0xbebf07b0	-0.37310553
47	0x3e157bb2	0.14597967
48	0x3e01956f	0.1265466
49	0x3e6661ca	0.22498241
50	0x3ccb66b5	0.024829248
51	0xbd9ad853	-0.07560792
52	0x3e93870a	0.28813964
53	0xbe0090a2	-0.12555173
54	0x3e3bbc1d	0.18333478
55	0xbedc59f8	-0.4303739
56	0x3f005cac	0.50141406
57	0xbe3fdadf	-0.18735836
58	0xbf330111	-0.699235
59	0x3ec2d99b	0.38056645
60	0xbd6cc0cf	-0.057801064
61	0x3c917e49	0.017760413
62	0x3eb2d0da	0.34924966
63	0xbe16c4d6	-0.14723524
64	0x3e6c9a25	0.23105676
65	0x3e9dab33	0.30794677
66	0xbeb5b47e	-0.35489267
67	0x3e31bf75	0.17358191
68	0xbe165ecf	-0.14684604
69	0x3f545a4a	0.8295027
70	0xbe81364a	-0.25236732
71	0x3f00dac1	0.5033379
72	0xbd03247c	-0.032017216
73	0xbd618ee2	-0.055067904
74	0xbf0c78dd	-0.5487192
75	0xbe393473	-0.18086414
76	0xbdc45e4c	-0.09588298
77	0xbea4bd4c	-0.32175672
78	0x3de7bfa8	0.113158524
79	0x3ce87fd9	0.028381275
80	0xbe0ff360	-0.14057684
81	0xbef891c4	-0.4854871
82	0xbef7968b	-0.48357043
83	0x3ebcb47a	0.36856443
84	0xbf00926d	-0.5022343
85	0xbd88beef	-0.06677043
86	0xbec94691	-0.3931165
87	0x3e0f7326	0.1400877
88	0x3e8f6682	0.28007895
89	0x3ec179d5	0.37788263
90	0x3e9e3bc4	0.30904973
91	0xbdda5008	-0.10659796
92	0xbdaf8c6b	-0.085717045
93	0x3e578b06	0.21049127
94	0xbec28017	-0.3798835
95	0x3e9d154e	0.30680317
96	0x3dc3609e	0.09539913
97	0x3ed57d99	0.41697386
98	0x3ebd10b0	0.36926794
99	0x3e80f600	0.25187683
100	0x3dbc10df	0.091829054
101	0x3eaa4caa	0.33261615
102	0x3d864036	0.06555216
103	0x3f2ea8fa	0.6822659
104	0x3d65f45b	0.05614124
105	0x3f049658	0.51791906
106	0xbe5913e2	-0.21198991
107	0x3d881b5d	0.06645844
108	0xbe665d5a	-0.22496548
109	0x3e28b58f	0.16475509
110	0x3cd45860	0.025921047
111	0xbf03bdbf	-0.51461405
112	0xbdfa08d6	-0.122087166
113	0xbe887f06	-0.2665941
114	0x3eda369c	0.4261979
115	0xbdd48a1d	-0.103779055
116	0x3ef6adbe	0.4817943
117	0xbe44dd45	-0.19225033
118	0x3e015031	0.12628247
119	0xbc93e769	-0.01805468
120	0xbac7e222	-0.0015249888
121	0xbe7e523c	-0.24836057
122	0xbee520a7	-0.44751474
123	0x3ef4a556	0.4778239
124	0x3d9eafed	0.07748399
125	0xbcfe1971	-0.03101799
126	0xbe6c1d84	-0.23058134
127	0x3ec8d165	0.39222255
128	0x3eb5dfd2	0.35522324
129	0xbf115197	-0.5676512
130	0xbf0a91b8	-0.541286
131	0x3e8088c7	0.25104353
132	0xbe004544	-0.12526423
133	0xbee6ee58	-0.45103717
134	0xbef43fec	-0.4770502
135	0xbe8bf7bf	-0.27337453
136	0xbe4e6f84	-0.20159727
137	0xbe4265be	-0.18984124
138	0xbe580581	-0.2109585
139	0x3d5ccaec	0.05390446
140	0xbe91772a	-0.28411227
141	0xbcf40cae	-0.029791202
142	0xbe66cb2a	-0.22538438
143	0x3d1b254f	0.037877377
144	0x3d6c1260	0.05763471
145	0xbec20a46	-0.37898463
146	0x3e217263	0.15766291
147	0xbebe5002	-0.37170416
148	0x3ee5a80b	0.4485477
149	0x3e374c7c	0.1790027
150	0x3d1b6c12	0.03794486
151	0x3e8a9fcb	0.27075037
152	0x3d4b152f	0.04958075
153	0xbe880b11	-0.26570943
154	0xbc8a4436	-0.016878229
155	0xbd14fe69	-0.036375437
156	0x3f0d9fcb	0.5532195
157	0xbe8a811e	-0.27051634
158	0x3e9186e5	0.2842323
159	0xbf585982	-0.8451158
160	0x3f2241d8	0.6338172
161	0xbf21dd2c	-0.63228106
162	0xbd8a4d8e	-0.06753074
163	0xbe92d103	-0.28675088
164	0xbf1389ee	-0.5763234
165	0x3dfb0b5d	0.12258027
166	0x3dd91557	0.105997734
167	0x3e9a5edb	0.30150494
168	0xbe971686	-0.29509372
169	0xbe2096d9	-0.15682544
170	0xbde5dfe4	-0.112243444
171	0x3e810b31	0.2520385
172	0x3c8a133b	0.016854873
173	0xbe1336ad	-0.14376326
174	0x3df35b05	0.11882595
175	0xbec238ef	-0.37934062
176	0x3e6d8016	0.23193392
177	0xbebe094c	-0.37116468
178	0x3ed0f1f5	0.408096
179	0x3dd470be	0.10373066
180	0x3c4887cf	0.012239411
181	0xbea7e363	-0.3279067
182	0x3ee778d3	0.4520937
183	0x3db11cfd	0.08648107
184	0xbe4b3efc	-0.19848245
185	0x3de3a27f	0.11114978
186	0x3e021bc4	0.12705904
187	0xbe88a719	-0.26689985
188	0x3ada0f58	0.0016636653
189	0xbcf18a28	-0.029484823
190	0x3e69e46f	0.22841047
191	0x3e8507bf	0.25982472
192	0x3edd837b	0.43264374
193	0xbf7c49ba	-0.9855
194	0x38c8be40	9.57218e-05
195	0x3e6c895a	0.2309927
196	0xbd351678	-0.04421088
197	0x3efa6b04	0.4890977
198	0xbe8e77f0	-0.2782588
199	0x3d473132	0.0486309
200	0xbd0d5c44	-0.03451182
201	0xbef0dafe	-0.47042078
202	0x3ea3b8b6	0.3197686
203	0x3e00fe29	0.12596954
204	0x3f39cc68	0.72577524
205	0xbebb1813	-0.36541805
206	0xbdc6099e	-0.09669803
207	0xbcfb8988	-0.030705228
208	0xbbeb17c3	-0.0071744635
209	0xbe2afaad	-0.16697188
210	0x3eefc5f7	0.46830723
211	0x3d9cf046	0.07663016
212	0x3d50f59b	0.051015478
213	0x3ea5522a	0.3228925
214	0x3da6e671	0.08149422
215	0x3c3df05b	0.01159295
216	0x3e5ffd46	0.2187396
217	0xbe5095d9	-0.20369662
218	0xbd9f8f8c	-0.07791051
219	0x3ec32578	0.38114524
220	0xbd4d54ba	-0.05012963
221	0xbef806de	-0.4844274
222	0xbee04981	-0.4380608
223	0xbec2393c	-0.3793429
224	0x3ef63c9b	0.48093113
225	0x3f04597f	0.5169906
226	0x3e91cf32	0.2847839
227	0xbd99e40e	-0.07514201
228	0x3e9dfbf5	0.3085629
229	0x3e2fb6d1	0.17159583
230	0x3e58314a	0.21112552
231	0xbf49458e	-0.7862176
232	0x3e435b36	0.19077763
233	0xbe808812	-0.25103813
234	0xbeda9c9d	-0.4269761
235	0xbe5c882e	-0.21536323
236	0xbe687b1d	-0.22703214
237	0xbcc7f87b	-0.024410477
238	0x3e0fb7b4	0.14034921
239	0x3c41804f	0.011810376
240	0x3ee084ec	0.4385141
241	0x3ebebd98	0.37254024
242	0x3dc265e4	0.0949209
243	0xbea7d9bb	-0.32783303
244	0x3e87a1ec	0.26490724
245	0xbdb573cb	-0.088599764
246	0xbec3165e	-0.38103002
247	0x3eb6d5de	0.35710043
248	0x3ec27a96	0.3798415
249	0xbe4a977e	-0.19784352
250	0x3eea75d0	0.4579301
251	0x3e31efcc	0.17376631
252	0xbee22f53	-0.4417673
253	0xbee0a39b	-0.4387482
254	0x3dde2c48	0.1084829
255	0xbedecc7a	-0.43515378

policy_network.h2.transform.bias f4 [20]
0	0xbb36fba0	-0.0027920976
1	0xbde0c9c2	-0.10975982
2	0xbd04fabb	-0.032465678
3	0xbd67c0d2	-0.056580372
4	0xbd67a2a4	-0.05655159
5	0xbd704c34	-0.058666423
6	0xbe09e5c9	-0.13466562
7	0xbd8b7164	-0.06808737
8	0x3ab5b94a	0.0013864425
9	0xbd25b8e2	-0.04045952
10	0xbd71e71a	-0.059058286
11	0xbd1c6d58	-0.038190216
12	0x3e0f1996	0.13974604
13	0xbdbca5d8	-0.0921132
14	0x3d82f99d	0.06395266
15	0x00000000	0.0
16	0xbe039534	-0.12849885
17	0xbd785a4f	-0.060633
18	0xbcc88bd8	-0.024480745
19	0xbe046858	-0.12930429

policy_network.h3.transform.weight f4 [20, 20]
0	0x3c92a7d5	0.017902294
1	0xbdc311bc	-0.09524867
2	0x3f151ef3	0.5825035
3	0xbc78dc36	-0.015189221
4	0x3dcba4b5	0.09943525
5	0xbf1a0a0b	-0.60171574
6	0xbefaf7f0	-0.49017286
7	0x3e861dd6	0.26194638
8	0x3e7ec2e6	0.24879035
9	0xbe874a66	-0.2642395
10	0xbcd4810c	-0.02594044
11	0x3e1d417a	0.15357009
12	0xbeba352c	-0.36368692
13	0xbed46601	-0.41484073
14	0x3e02ed65	0.12785871
15	0xbedfa1f0	-0.43678236
16	0xbe1906fe	-0.14944074
17	0xbe8b3cbb	-0.2719477
18	0xbf0fb042	-0.56128323
19	0xbdafc911	-0.08583272
20	0xbe2ea39b	-0.17054598
21	0xbf020782	-0.50792706
22	0xbe024ac6	-0.12723836
23	0xbdc7e71c	-0.097608775
24	0xbe019659	-0.1265501
25	0x3d4cd363	0.05000628
26	0x3f57bd87	0.8427357
27	0xbdda883f	-0.10670518
28	0x3d5c2711	0.053748194
29	0xbe5b0435	-0.21388324
30	0xbe1dff95	-0.15429528
31	0x3f1b7b10	0.60734653
32	0xbe84fa30	-0.25972128
33	0xbd963756	-0.07334773
34	0xbe1e7d61	-0.15477516
35	0xbc97f915	-0.018551389
36	0xbe667fc0	-0.2250967
37	0x3e389a67	0.1802765
38	0xbe9002cf	-0.28127143
39	0x3ec76072	0.3894077
40	0x3ed3e76a	0.41387492
41	0x3e2565af	0.1615207
42	0x3cd20b0a	0.02564003
43	0xbd1d2e7b	-0.038374405
44	0xbee91d48	-0.45530152
45	0xbccdeeb6	-0.02513824
46	0x3e173a35	0.14768298
47	0x3f287b5d	0.6581324
48	0x3ed5aafd	0.41732016
49	0x3f12cddd	0.5734537
50	0xbd415f93	-0.047210287
51	0x3c286e05	0.010280137
52	0x3ea92125	0.330331
53	0x3eb53c7e	0.35397714
54	0x3e8e6bd1	0.27816632
55	0xbef78d12	-0.48349816
56	0x3ca75887	0.020427955
57	0x3efe0822	0.4961558
58	0x3dcbb6a8	0.09946948
59	0xbdd9c344	-0.10632947
60	0x3e19818b	0.14990823
61	0x3eef58c0	0.46747398
62	0x3ea2402d	0.31689587
63	0xbebf3a05	-0.37348953
64	0x3eac7946	0.33686274
65	0x3bf69e57	0.0075262
66	0x3e588568	0.2114464
67	0xbd55477b	-0.052070122
68	0xbda85692	-0.08219637
69	0xbeeff5db	-0.4686726
70	0x3e9ed992	0.31025368
71	0x3bd66ac6	0.00654349
72	0xbc213cc0	-0.009841144
73	0x3f0c05ed	0.5469654
74	0xbd64ae4f	-0.055830296
75	0xbd0cef4e	-0.034407906
76	0xbeadf3c4	-0.3397504
77	0xbda2fd84	-0.079585105
78	0x3ecc8647	0.39946195
79	0xbe63d2f9	-0.22248448
80	0x3cc263cf	0.023729233
81	0x3e476b4a	0.19474521
82	0xbe8e849d	-0.2783555
83	0xbdb905d3	-0.09034314
84	0xbedb76f6	-0.42864197
85	0xbed8e277	-0.4236028
86	0x3d611e00	0.05496025
87	0xbf0ae67b	-0.54257935
88	0x3f2d7c58	0.6776786
89	0xbddca52c	-0.107736915
90	0x3e469f63	0.19396739
91	0xbedff1ef	-0.43739268
92	0xbf1b5c3b	-0.6068761
93	0xbe9c7f76	-0.30565995
94	0xbe62164d	-0.2207882
95	0x3dbb9a1f	0.09160256
96	0x3eba647d	0.3640479
97	0xbdc8c562	-0.09803273
98	0x3e01de02	0.12682346
99	0x3da12fd0	0.07870448
100	0xbc99acf9	-0.018759238
101	0x3f4e385f	0.80554765
102	0x3efa7c87	0.48923132
103	0x3ea7473d	0.32671538
104	0xbcae998d	-0.021313453
105	0xbe14a870	-0.14517379
106	0x3f20cf4e	0.6281632
107	0xbe3a1f11	-0.18175913
108	0xbc366542	-0.01113254
109	0x3e3ce784	0.18447691
110	0x3e22354a	0.1584064
111	0x3d26ce97	0.040724363
112	0x3e98fbf1	0.29879716
113	0xbeac1651	-0.33610776
114	0x3e66c3d9	0.22535647
115	0x3d58d43b	0.052936774
116	0xbd693548	-0.05693558
117	0x3dfb43f9	0.12268824
118	0xbe3d3a78	-0.18479335
119	0x3e51afed	0.20477267
120	0xbd5fd6d6	-0.054648243
121	0xbe86130f	-0.26186416
122	0x3f179d17	0.59224075
123	0xbecd8023	-0.40136823
124	0xbe7e5ccb	-0.24840085
125	0x3e82cb80	0.25545883
126	0xbd10b8e5	-0.03533258
127	0x3d8a39b7	0.067492895
128	0xbe576b82	-0.21037105
129	0x3eb919c5	0.36152473
130	0x3ea7bbc1	0.32760432
131	0x3d702347	0.058627393
132	0xbf4238a7	-0.75867695
133	0x3e2896ed	0.16463824
134	0x3df276a4	0.11839035
135	0x3e06d406	0.13166818
136	0xbd662c25	-0.056194443
137	0xbe247ab2	-0.1606243
138	0x3ea6c0d6	0.32568997
139	0x3e856707	0.26055166
140	0x3e86b773	0.26311836
141	0xbe1ce2c6	-0.15320882
142	0x3e32f664	0.17476803
143	0x3e954e79	0.29161432
144	0xbde64ee1	-0.11245514
145	0xbf4b4160	-0.7939663
146	0x3e8c8b54	0.2745005
147	0xbd5b3d5a	-0.053525306
148	0xbf128e32	-0.5724822
149	0xbdd772f4	-0.105199724
150	0xbed666a6	-0.4187519
151	0x3e0db556	0.13838705
152	0x3aaed4b9	0.0013338543
153	0x3e866dc2	0.26255614
154	0xbf0578bf	-0.5213737
155	0xbdb6ea83	-0.08931448
156	0x3f15cc3b	0.58514756
157	0xbe864df5	-0.26231351
158	0x3ea3108e	0.31848568
159	0x3d94b06d	0.07260213
160	0x3edbb090	0.42908144
161	0xbea1694e	-0.31525654
162	0xbe5a3e61	-0.21312858
163	0x3d91cbc5	0.07118944
164	0x3f1e45c7	0.6182522
165	0xbd884f30	-0.06655729
166	0x3e13c640	0.14431095
167	0x3ec281d5	0.3798968
168	0x3e48c868	0.19607699
169	0xbe916e8a	-0.28404647
170	0x3f1265ed	0.57186776
171	0xbd02e2a1	-0.03195441
172	0xbe0af1d0	-0.13568807
173	0x3e541cee	0.20714161
174	0xbe5ea550	-0.21742749
175	0x3ecc8488	0.39944863
176	0x3eaa1c33	0.3322464
177	0x3ebd1b68	0.36934972
178	0xbe94f60d	-0.29093972
179	0x3e143717	0.1447414
180	0xbdb20ba5	-0.08693627
181	0x3e0fd8e2	0.14047578
182	0xbdd94f43	-0.10610821
183	0xbe8b2b4b	-0.27181467
184	0x3e5ea06e	0.21740887
185	0x3ec5b27f	0.38612744
186	0xbca254d6	-0.019815844
187	0x3e78fa4a	0.24314228
188	0x3e18a4f4	0.14906675
189	0xbec4f58a	-0.3846858
190	0xbe0ce636	-0.13759694
191	0x3c056501	0.008141757
192	0x3defc870	0.11708152
193	0xbea23b02	-0.31685644
194	0xbd802964	-0.06257895
195	0xbf23b9a7	-0.6395516
196	0x3ef9f976	0.48823136
197	0xbe96045d	-0.29300204
198	0x3e9a1da1	0.3010073
199	0x3f2140e6	0.6298965
200	0x3e5c20b5	0.21496852
201	0xbe908650	-0.28227472
202	0x3cceeeec	0.025260411
203	0xbf4b09bf	-0.79311746
204	0x3ec031fc	0.37538135
205	0xbed8a9a3	-0.42316923
206	0x3e2b9a7a	0.16758147
207	0xbef31c79	-0.4748266
208	0xbd946b43	-0.07247021
209	0x3eb5c836	0.3550431
210	0x3cb9ae1a	0.022666026
211	0xbeb944a8	-0.36185193
212	0x3ec19c79	0.37814692
213	0xbe57a209	-0.21057905
214	0xbce648fe	-0.028110977
215	0xbecee3e6	-0.40408248
216	0xbdf8c3a6	-0.12146692
217	0x3e4dabc6	0.20085058
218	0xbd2d62b4	-0.04233046
219	0xbaa039e3	-0.0012224283
220	0x3dfcf7f8	0.12351984
221	0x3dc438ac	0.09581122
222	0x3ebefa54	0.3730036
223	0xbedc4b4e	-0.43026203
224	0x3d4b4d57	0.049634304
225	0xbe15c27b	-0.1462497
226	0x3c236b5b	0.009974326
227	0x3ea6d37e	0.3258323
228	0x3ecc6ad7	0.39925262
229	0xbdabec08	-0.08394629
230	0xbf3a4cf6	-0.72773683
231	0xbde107df	-0.109878294
232	0x3daf6e79	0.08565993
233	0xbe8a2c32	-0.26986843
234	0xbd68c0b5	-0.056824405
235	0x3f535711	0.8255473
236	0xbcc13ab7	-0.023587568
237	0x3c6f2b7e	0.014597772
238	0x3de80370	0.11328781
239	0x3e3e4c5f	0.18583821
240	0x3e8ac91f	0.27106568
241	0xbed4af77	-0.4154012
242	0x3e6187a4	0.22024399
243	0x3cad8178	0.0211799
244	0xbee505db	-0.4473103
245	0xbd63d978	-0.055627316
246	0x3d330f30	0.043715656
247	0x3d361080	0.04444933
248	0xbe085198	-0.13312376
249	0xbf10e9c6	-0.5660671
250	0x3f1f6475	0.6226266
251	0xbcd23c9a	-0.025663663
252	0x3f24a0b8	0.6430774
253	0xbeb8f8fa	-0.36127454
254	0x3d3f544c	0.04671125
255	0x3e621b4f	0.2208073

policy_network.h3.transform.bias f4 [20]
0	0xbdcd163d	-0.10014007
1	0x3c6531ec	0.013988953
2	0x3d35f929	0.04442707
3	0x3d1de70c	0.03855042
4	0xbdf1d81e	-0.11808799
5	0xbddf5109	-0.10904128
6	0xbdbf1019	-0.09329242
7	0xbe10b975	-0.14133246
8	0xbd807fe9	-0.06274397
9	0xbd7403ab	-0.05957381
10	0xb9192e9b	-0.00014608579
11	0x00000000	0.0
12	0xbb28af58	-0.0025739279
13	0xbd486dfa	-0.048933007
14	0x00000000	0.0
15	0xbb3bf5d6	-0.0028680465
16	0xbd49a51c	-0.049229726
17	0x3d01aa3c	0.03165649
18	0xbdf4f09c	-0.11959955
19	0xbd890b38	-0.06691593

policy_network.critic_linear.weight f4 [1, 20]
0	0xbe93e6c5	-0.28887
1	0xbeb2daf1	-0.34932664
2	0xbe7c8829	-0.24661316
3	0xbe452188	-0.19251072
4	0xbef00f22	-0.46886545
5	0x3e897934	0.26850283
6	0x3e60562e	0.21907875
7	0x3ecda897	0.40167686
8	0x3ee6e0e7	0.45093462
9	0x3e83f9a2	0.25776392
10	0x3d5b2a35	0.05350705
11	0x3cdc2da0	0.026877224
12	0xbe8c4f53	-0.2740427
13	0xbd700b1f	-0.058604356
14	0xbf2c0d57	-0.67207855
15	0xbe0a4171	-0.13501526
16	0xbd1a19c8	-0.037622243
17	0xbe55cba3	-0.20878462
18	0x3e6c9a09	0.23105635
19	0x3e322506	0.17396936

target_network.emb1.transform.weight f4 [20, 2]
0	0x3dcc2f8e	0.09970008
1	0x3ebdaf24	0.37047684
2	0x3d8dabcf	0.069175355
3	0xbf184bda	-0.5949074
4	0xbbf13fde	-0.00736235
5	0xbea9be48	-0.33152986
6	0xbe303e94	-0.17211372
7	0xbeaad970	-0.33369017
8	0x3bd9cf9a	0.0066470625
9	0x3ea4127c	0.32045352
10	0xbf0b2f50	-0.5436907
11	0x3eedc9fa	0.46443158
12	0xbe501a9a	-0.20322648
13	0xbd8ecd33	-0.069727324
14	0xbe9340f1	-0.28760484
15	0xbe90d0c1	-0.28284267
16	0x3df09a5c	0.11748192
17	0x3e25f581	0.16206934
18	0xbc27953a	-0.0102284495
19	0x3e8e76c3	0.27824983
20	0xbe15ba4d	-0.1462185
21	0x3cceee35	0.02526007
22	0xbe0a17f6	-0.13485703
23	0x3eac708a	0.3367961
24	0x3ea88fd7	0.3292224
25	0xbea1b54e	-0.31583637
26	0xbe977449	-0.29580906
27	0x3e989907	0.2980425
28	0x3e597734	0.21236879
29	0x3e25030e	0.16114447
30	0xbf3ee9a2	-0.74575245
31	0x3e764696	0.24050364
32	0xbf1b5ac9	-0.606854
33	0xbe6b58c6	-0.22983083
34	0xbeda7f61	-0.42675307
35	0xbec64ecd	-0.38731995
36	0xbd534bd0	-0.051585972
37	0x3da6712e	0.08127056
38	0xbe9e32ad	-0.30898038
39	0xbe9877c6	-0.2977888

target_network.emb1.transform.bias f4 [20]
0	0xbcb9de1d	-0.02268892
1	0xbb100d10	-0.0021980442
2	0x00000000	0.0
3	0x00000000	0.0
4	0xbe00ee63	-0.12590937
5	0xbce4096e	-0.027836528
6	0x00000000	0.0
7	0x00000000	0.0
8	0xbc731fd8	-0.014839135
9	0xbdad364b	-0.08457621
10	0x00000000	0.0
11	0x3d7d400a	0.06182865
12	0xbd817353	-0.063208245
13	0xbd3ca329	-0.04605404
14	0x3d0e0843	0.034675848
15	0x00000000	0.0
16	0x00000000	0.0
17	0x00000000	0.0
18	0xbca6525b	-0.020302942
19	0x00000000	0.0

target_network.emb2.transform.weight f4 [20, 2]
0	0x3e08aa93	0.13346319
1	0x3e962933	0.29328308
2	0x3e5478cc	0.20749205
3	0x3efebb4e	0.49752277
4	0xbe928e19	-0.28624037
5	0x3d038d6d	0.032117296
6	0xbd470daa	-0.048597015
7	0xbdd237d0	-0.10264552
8	0x3ec4a573	0.38407478
9	0xbe4373eb	-0.19087188
10	0xbb7849be	-0.003788575
11	0x3e9885eb	0.2978967
12	0x3d5e3262	0.054247268
13	0x3ea6c073	0.32568702
14	0xbe275ad0	-0.16343236
15	0x3e97313e	0.29529756
16	0xbe5a54f6	-0.21321473
17	0x3e893bb0	0.2680335
18	0x3ec6f0c6	0.3885557
19	0xbe2990ab	-0.16559093
20	0x3dda9a57	0.10673969
21	0xbf0f25ae	-0.5591687
22	0xbf5db806	-0.8660892
23	0xbe3cc72c	-0.18435353
24	0xbd587fbe	-0.0528562
25	0x3d691151	0.05690128
26	0xbe8eef3c	-0.27916896
27	0x3e9a8008	0.30175805
28	0x3e1e2538	0.15443885
29	0x3f472b52	0.77800477
30	0xbe2d640c	-0.16932696
31	0x3e56f44e	0.20991632
32	0xbf1958ce	-0.5990113
33	0x3dd36727	0.10322409
34	0x3dfd97bd	0.123824574
35	0xbf09a529	-0.5376764
36	0xbdba2cc1	-0.090905674
37	0xbdf88c61	-0.1213615
38	0x3d230650	0.039800942
39	0x3d765ec4	0.06014897

target_network.emb2.transform.bias f4 [20]
0	0xbdcc8306	-0.09985928
1	0x3d21b984	0.039483562
2	0x00000000	0.0
3	0x00000000	0.0
4	0xbe031f14	-0.12804824
5	0xbd998d0b	-0.07497605
6	0x3c677a34	0.014128257
7	0xbd1426e4	-0.0361699
8	0xbcc6981e	-0.024242457
9	0xbe0abd5e	-0.135488
10	0xbd2d028a	-0.04223875
11	0x00000000	0.0
12	0xbd08f6b1	-0.03343839
13	0xbdd5f222	-0.10446574
14	0x3d246af2	0.040141053
15	0xbcd14c0a	-0.025548954
16	0x00000000	0.0
17	0xbd45d57e	-0.048299305
18	0x00000000	0.0
19	0xbd5261d2	-0.05136282

target_network.emb3.transform.weight f4 [20, 2]
0	0xbf062367	-0.5239777
1	0xbe5e36bc	-0.21700567
2	0xbe96de02	-0.29466254
3	0xbd5285a7	-0.051396992
4	0xbe81d0de	-0.25354666
5	0xbd6c03a8	-0.057620674
6	0x3e5f7276	0.21821007
7	0x3e1c43b6	0.15260205
8	0x3e2a3bbf	0.16624354
9	0x3ec900de	0.39258474
10	0xbeb3d2eb	-0.35121855
11	0x3ed80744	0.42193043
12	0x3dd81f66	0.10552864
13	0x3efc69d1	0.49299482
14	0x3d3742be	0.044741385
15	0xbe4f00d1	-0.20215155
16	0xbe9930bd	-0.29919997
17	0x3f057a19	0.5213943
18	0x3d883539	0.066507764
19	0xbe8be247	-0.27321073
20	0xbd8a33c3	-0.06748154
21	0xbecda1ac	-0.40162408
22	0xbf1135c1	-0.56722647
23	0x3e91a5c1	0.28446773
24	0xbcc2161b	-0.023692181
25	0x3e124893	0.14285497
26	0x3e93599a	0.28779298
27	0x3e451bd4	0.19248897
28	0xbe513305	-0.20429619
29	0xbe108e5c	-0.14116806
30	0xbe6ec2a9	-0.23316444
31	0x3e0ee10f	0.1395304
32	0x3f2d078c	0.6758964
33	0xbebe52b6	-0.37172478
34	0x3e20bfe3	0.15698199
35	0xbe50f0be	-0.20404336
36	0x3d63e67e	0.055639736
37	0x3dd19970	0.10234344
38	0x3e741518	0.23836172
39	0x3e289122	0.16461614

target_network.emb3.transform.bias f4 [20]
0	0x00000000	0.0
1	0x00000000	0.0
2	0x00000000	0.0
3	0xbc890236	-0.016724687
4	0xbd7a041c	-0.061039075
5	0xbd6dbc5f	-0.058040973
6	0xbd441969	-0.047875796
7	0xbcd4ba3e	-0.025967713
8	0xbd91133a	-0.07083745
9	0xbc999578	-0.01874803
10	0x00000000	0.0
11	0xbd82b11b	-0.063814364
12	0x3b6cfcb4	0.0036161365
13	0xbd611776	-0.054954015
14	0x00000000	0.0
15	0xbc1b5892	-0.009481566
16	0xbda4f9ae	-0.08055435
17	0xbd559b61	-0.052150134
18	0xbd9b5452	-0.07584442
19	0xbd90a429	-0.07062561

target_network.emb4.transform.weight f4 [20, 2]
0	0x3e8bed0c	0.2732929
1	0x3e8297c6	0.2550642
2	0x3d7fed29	0.062482033
3	0xbe5329a7	-0.20621358
4	0x3eb6ca35	0.35701147
5	0x3e5bd147	0.21466552
6	0xbeb9121d	-0.36146632
7	0x3ed93c21	0.42428687
8	0x3e4ec3e1	0.2019191
9	0xbe63cbc0	-0.22245693
10	0x3e248d53	0.16069536
11	0x3ee9106e	0.45520347
12	0x3e7eb144	0.24872309
13	0xbbb37940	-0.0054771006
14	0xbe573284	-0.21015364
15	0xbe834f4b	-0.25646433
16	0xbe9ade3f	-0.30247685
17	0xbeba1a76	-0.36348313
18	0xbe201035	-0.15631182
19	0x3de99650	0.11405623
20	0xbc8c9b68	-0.017163947
21	0xbeb83797	-0.35979912
22	0x3e55253c	0.20814985
23	0x3e5ddc1d	0.21665998
24	0xbd63c82d	-0.055610824
25	0x3d33846a	0.04382745
26	0x3ca6cc6a	0.020361144
27	0x3d2cc28a	0.042177714
28	0xbe05538e	-0.13020155
29	0x3eb51996	0.35371083
30	0x3eba80bc	0.36426342
31	0xbefc08c5	-0.4922544
32	0x3ddfda0a	0.109302595
33	0x3c0f6dd6	0.008754214
34	0xbee17c49	-0.44040135
35	0x3efb41cb	0.49073634
36	0xbf4da341	-0.8032723
37	0x3e30d0ce	0.17267153
38	0xbf050323	-0.5195791
39	0xbf02bd98	-0.5107055

target_network.emb4.transform.bias f4 [20]
0	0xbd1d96dd	-0.038473953
1	0xbcacc93d	-0.021092052
2	0xbd43540d	-0.04768758
3	0xbd837409	-0.06418616
4	0xbda6e725	-0.08149556
5	0xbcbc99ee	-0.023022618
6	0x3d71e5f4	0.05905719
7	0x00000000	0.0
8	0x00000000	0.0
9	0xbcd62d27	-0.026144577
10	0x00000000	0.0
11	0x3ddd351a	0.10801144
12	0xbd6040d5	-0.05474933
13	0xbd6c1c63	-0.05764426
14	0x3ccde0ae	0.02513155
15	0xbda568f1	-0.080766566
16	0xbdb889b1	-0.090106376
17	0xbddba70d	-0.10725222
18	0x00000000	0.0
19	0x00000000	0.0

target_network.h2.transform.weight f4 [20, 20]
0	0x3d777949	0.0604184
1	0xbd435136	-0.04768487
2	0xbe9d1b20	-0.30684757
3	0x3e31d86e	0.17367718
4	0xbcba20f3	-0.02272079
5	0x3efc147e	0.49234384
6	0xbf21d571	-0.6321631
7	0xbf389985	-0.7210925
8	0xbe3607b8	-0.17776382
9	0xbe907157	-0.2821147
10	0x3ec60153	0.38672885
11	0x3e73f40b	0.23823564
12	0x3e418851	0.18899657
13	0x3e504fd6	0.20342955
14	0xbe1d4b5b	-0.15360777
15	0xbe699207	-0.22809611
16	0xbe63fc03	-0.22264104
17	0xbd9d47c6	-0.07679705
18	0xbea97876	-0.33099717
19	0xbeb59f4c	-0.35473096
20	0x3d543b91	0.05181462
21	0x3d135041	0.035965208
22	0xbecb8167	-0.39747164
23	0x3e67c708	0.22634518
24	0x3b9b1b40	0.004733473
25	0xbf299fae	-0.66259277
26	0x3e0dc266	0.13843688
27	0xbee45a51	-0.44600156
28	0xbf267bd9	-0.65032727
29	0x3eca3c3e	0.39499086
30	0x3d9a507d	0.07534883
31	0xbe44132b	-0.19147937
32	0xbe8d984c	-0.27655256
33	0xbee40fd9	-0.4454334
34	0xbef85030	-0.48498678
35	0xbe7e7bd8	-0.2485193
36	0xbe5e427f	-0.21705054
37	0xbc465ce1	-0.012107105
38	0xbe76578f	-0.24056838
39	0x3d23ac23	0.039959084
40	0xbee80aee	-0.4532084
41	0x3d9219d4	0.071338326
42	0xbeaa446c	-0.33255327
43	0xbedd0554	-0.43168128
44	0xbe9b47a0	-0.30328083
45	0xbe07c3bd	-0.13258262
46	0xbebf07b0	-0.37310553
47	0x3e157bb2	0.14597967
48	0x3e01956f	0.1265466
49	0x3e6661ca	0.22498241
50	0x3ccb66b5	0.024829248
51	0xbd9ad853	-0.07560792
52	0x3e93870a	0.28813964
53	0xbe0090a2	-0.12555173
54	0x3e3bbc1d	0.18333478
55	0xbedc59f8	-0.4303739
56	0x3f005cac	0.50141406
57	0xbe3fdadf	-0.18735836
58	0xbf330111	-0.699235
59	0x3ec2d99b	0.38056645
60	0xbd68ce6a	-0.056837477
61	0x3c947b02	0.018125061
62	0x3eb3938b	0.35073504
63	0xbe16b894	-0.14718848
64	0x3e6c9ecc	0.23107451
65	0x3e9dfa46	0.30855006
66	0xbeb573f2	-0.35440022
67	0x3e31bf9c	0.1735825
68	0xbe163365	-0.14668043
69	0x3f545a4a	0.8295027
70	0xbe81364a	-0.25236732
71	0x3f018852	0.50598633
72	0xbd0319cc	-0.032007024
73	0xbd617d8d	-0.055051375
74	0xbf0bfd16	-0.54683053
75	0xbe393473	-0.18086414
76	0xbdc45dd4	-0.09588209
77	0xbea4bd4c	-0.32175672
78	0x3de7bfa8	0.113158524
79	0x3ce880d6	0.028381746
80	0xbe0ff360	-0.14057684
81	0xbef891c4	-0.4854871
82	0xbef7968b	-0.48357043
83	0x3ebd8d9b	0.370221
84	0xbf00502c	-0.5012233
85	0xbd88beef	-0.06677043
86	0xbec8bb31	-0.39205316
87	0x3e0f7326	0.1400877
88	0x3e8f6682	0.28007895
89	0x3ec179d5	0.37788263
90	0x3e9e3bc4	0.30904973
91	0xbdda5008	-0.10659796
92	0xbdaf7134	-0.08566514
93	0x3e58ed92	0.21184376
94	0xbec28017	-0.3798835
95	0x3e9d154e	0.30680317
96	0x3dc73c87	0.097283415
97	0x3ed57d99	0.41697386
98	0x3ebd10b0	0.36926794
99	0x3e8155c1	0.25260738
100	0x3db96e27	0.09054213
101	0x3ea89997	0.3292968
102	0x3d880ca6	0.066430375
103	0x3f2ee704	0.6832125
104	0x3d6747c6	0.056464933
105	0x3f042ef0	0.5163412
106	0xbe59abac	-0.21256894
107	0x3d8ce252	0.06879105
108	0xbe65c629	-0.22438873
109	0x3e28b581	0.16475488
110	0x3cd45860	0.025921047
111	0xbf03628e	-0.5132226
112	0xbe088a9b	-0.13334124
113	0xbe8872a6	-0.2664997
114	0x3edaa619	0.42704847
115	0xbdd2e7e4	-0.10298136
116	0x3ef5c304	0.48000348
117	0xbe44db50	-0.19224286
118	0x3e01493a	0.1262559
119	0xbc8cf234	-0.017205335
120	0xbac7e222	-0.0015249888
121	0xbe7e523c	-0.24836057
122	0xbee520a7	-0.44751474
123	0x3ef4a556	0.4778239
124	0x3d9eafed	0.07748399
125	0xbcfe1971	-0.03101799
126	0xbe6c1d84	-0.23058134
127	0x3ec8d165	0.39222255
128	0x3eb5dfd2	0.35522324
129	0xbf115197	-0.5676512
130	0xbf0a91b8	-0.541286
131	0x3e8088c7	0.25104353
132	0xbe004544	-0.12526423
133	0xbee6ee58	-0.45103717
134	0xbef43fec	-0.4770502
135	0xbe8bf7bf	-0.27337453
136	0xbe4e6f84	-0.20159727
137	0xbe4265be	-0.18984124
138	0xbe580581	-0.2109585
139	0x3d5ccaec	0.05390446
140	0xbe925943	-0.28583726
141	0xbd0ba7bd	-0.034095515
142	0xbe689d93	-0.2271636
143	0x3d152837	0.036415305
144	0x3d66f3d2	0.05638487
145	0xbec2c286	-0.38039035
146	0x3e20213a	0.15637675
147	0xbebe49d5	-0.37165704
148	0x3ee54da1	0.4478579
149	0x3e374c7c	0.1790027
150	0x3d1b6c12	0.03794486
151	0x3e89afd4	0.2689196
152	0x3d4157d3	0.047202896
153	0xbe88ca4f	-0.2671685
154	0xbca3639f	-0.019944964
155	0xbd15ded5	-0.036589462
156	0x3f0d3612	0.5516063
157	0xbe8a811e	-0.27051634
158	0x3e9186e5	0.2842323
159	0xbf58b042	-0.8464395
160	0x3f1f5106	0.62233007
161	0xbf24668a	-0.6421896
162	0xbd9e91ca	-0.07742651
163	0xbe91e651	-0.2849603
164	0xbf1397b4	-0.57653356
165	0x3de74fda	0.11294527
166	0x3dcf6da3	0.101283334
167	0x3e96689c	0.29376686
168	0xbe9c3904	-0.3051225
169	0xbe2095e8	-0.15682185
170	0xbde5dfe4	-0.112243444
171	0x3e71c020	0.23608446
172	0x3c84f0b1	0.016228052
173	0xbe10d22e	-0.14142677
174	0x3dd192a2	0.10233046
175	0xbec26432	-0.37967068
176	0x3e7507a0	0.2392869
177	0xbebde83b	-0.3709124
178	0x3ed0f4d8	0.408118
179	0x3dd82e58	0.10555714
180	0x3c893d7d	0.016752953
181	0xbea52921	-0.3225794
182	0x3ee8c5d1	0.45463422
183	0x3dcb3561	0.099222906
184	0xbe415fce	-0.18884203
185	0x3debb547	0.11509185
186	0x3e071bce	0.131942
187	0xbe88ff37	-0.26757213
188	0x3bb3e1af	0.00548955
189	0xbcf17c8d	-0.029478336
190	0x3e69e46f	0.22841047
191	0x3e85d4f7	0.26139042
192	0x3ee261e0	0.44215298
193	0xbf78ee79	-0.9723888
194	0x3b058163	0.002037131
195	0x3e6d08f7	0.23147951
196	0xbcd1d537	-0.025614364
197	0x3efad86a	0.48993236
198	0xbe8e595b	-0.27802548
199	0x3d75f419	0.060047243
200	0xbd30037e	-0.04297208
201	0xbef4417f	-0.4770622
202	0x3ea195fa	0.31559736
203	0x3e06d1c2	0.13165954
204	0x3f3b6d49	0.7321363
205	0xbebf2a4f	-0.37336966
206	0xbdc0623c	-0.09393737
207	0xbcfc39a2	-0.0307892
208	0xbc1dc4e0	-0.009629458
209	0xbe2afb3a	-0.16697398
210	0x3eefc5f7	0.46830723
211	0x3d930841	0.07179309
212	0x3d379cea	0.04482738
213	0x3ea7b34e	0.32753986
214	0x3d9e5903	0.077318214
215	0x3c3ea47d	0.011635897
216	0x3e5ca7c0	0.21548367
217	0xbe50c1de	-0.20386454
218	0xbd9fb36f	-0.07797896
219	0x3ec5d949	0.38642338
220	0xbd49c08d	-0.049255896
221	0xbeed2828	-0.463197
222	0xbedfa2b8	-0.43678832
223	0xbec36a5e	-0.3816709
224	0x3ef5c7d2	0.48004013
225	0x3f056062	0.52100194
226	0x3e92343e	0.28555483
227	0xbd9830a9	-0.07431156
228	0x3e9e8a79	0.3096502
229	0x3e2fb6d1	0.17159583
230	0x3e58314a	0.21112552
231	0xbf481d6e	-0.78169906
232	0x3e4b770a	0.19869629
233	0xbe80a151	-0.25123075
234	0xbed4e22b	-0.41578802
235	0xbe5e0415	-0.21681245
236	0xbe62b43a	-0.22139063
237	0xbcc7f87b	-0.024410477
238	0x3e0fbcc7	0.14036857
239	0x3c470d54	0.012149174
240	0x3ea1f95f	0.31635568
241	0x3e8c083c	0.27350032
242	0xbc879ef1	-0.016555281
243	0xbed57b5b	-0.41695675
244	0x3e3e65d6	0.18593535
245	0xbe398a7a	-0.18119231
246	0xbefbebd9	-0.49203375
247	0x3e374b81	0.17899896
248	0x3e807844	0.25091755
249	0xbe4a9731	-0.19784237
250	0x3eea75d0	0.4579301
251	0x3d448b24	0.047984257
252	0xbf0b35c1	-0.54378897
253	0xbeef1175	-0.46693006
254	0xbc3ad981	-0.011404396
255	0xbefa70a3	-0.4891406

target_network.h2.transform.bias f4 [20]
0	0xbb36fba0	-0.0027920976
1	0xbde0c9c2	-0.10975982
2	0xbd04fabb	-0.032465678
3	0xbd63da4b	-0.055628102
4	0xbd55b719	-0.05217657
5	0xbd66117a	-0.05616901
6	0xbe09e5c9	-0.13466562
7	0xbd8eedf8	-0.06978983
8	0xbc6a7b5c	-0.014311638
9	0xbd2100fc	-0.03930758
10	0xbd62bd7a	-0.05535648
11	0xbd3480a4	-0.044067994
12	0x3a5b9166	0.0008375853
13	0xbdaf03a7	-0.085456185
14	0x3d69919b	0.057023626
15	0x00000000	0.0
16	0xbe039534	-0.12849885
17	0xbd59d851	-0.05318481
18	0xbcce50c4	-0.025184996
19	0xbe046858	-0.12930429

target_network.h3.transform.weight f4 [20, 20]
0	0x3c92a7d5	0.017902294
1	0xbdc311bc	-0.09524867
2	0x3f151ef3	0.5825035
3	0xbc78dc36	-0.015189221
4	0x3dcba4b5	0.09943525
5	0xbf1a0a0b	-0.60171574
6	0xbefaf7f0	-0.49017286
7	0x3e861dd6	0.26194638
8	0x3e7ec2e6	0.24879035
9	0xbe874a66	-0.2642395
10	0xbcd4810c	-0.02594044
11	0x3e1d417a	0.15357009
12	0xbeba352c	-0.36368692
13	0xbed46601	-0.41484073
14	0x3e02ed65	0.12785871
15	0xbedfa1f0	-0.43678236
16	0xbe1906fe	-0.14944074
17	0xbe8b3cbb	-0.2719477
18	0xbf0fb042	-0.56128323
19	0xbdafc911	-0.08583272
20	0xbe2ea39b	-0.17054598
21	0xbf020782	-0.50792706
22	0xbe024ac6	-0.12723836
23	0xbdc7e71c	-0.097608775
24	0xbe019659	-0.1265501
25	0x3d54acf8	0.05192277
26	0x3f57bd87	0.8427357
27	0xbdda883f	-0.10670518
28	0x3d5c2711	0.053748194
29	0xbe5b0435	-0.21388324
30	0xbe141432	-0.14460829
31	0x3f1d00ff	0.61329645
32	0xbe84fa30	-0.25972128
33	0xbd8d6974	-0.06904879
34	0xbe1ea051	-0.15490843
35	0xbc97f915	-0.018551389
36	0xbe667fc0	-0.2250967
37	0x3e39c515	0.18141587
38	0xbe9002cf	-0.28127143
39	0x3ec76072	0.3894077
40	0x3ed3e76a	0.41387492
41	0x3e2565af	0.1615207
42	0x3cd20b0a	0.02564003
43	0xbd1fa2a7	-0.038973477
44	0xbee92a1f	-0.45539948
45	0xbcbb52b6	-0.022866588
46	0x3e173a35	0.14768298
47	0x3f28a01c	0.6586931
48	0x3ed45cbd	0.41477004
49	0x3f105914	0.5638592
50	0xbd46f21c	-0.048570737
51	0x3c48b066	0.012249088
52	0x3e379e2f	0.17931436
53	0x3eb47fb1	0.3525367
54	0x3e8a9224	0.2706462
55	0xbef78d12	-0.48349816
56	0x3ca75887	0.020427955
57	0x3efeccf5	0.49765745
58	0x3dba5a03	0.090991996
59	0xbdd9c344	-0.10632947
60	0x3e19818b	0.14990823
61	0x3eef58c0	0.46747398
62	0x3ea2402d	0.31689587
63	0xbebf7cbf	-0.3739986
64	0x3eac6eb0	0.33678198
65	0x3c26b134	0.010174084
66	0x3e588568	0.2114464
67	0xbd531907	-0.05153754
68	0xbdac7efa	-0.08422656
69	0xbef48a79	-0.47761896
70	0x3e9e93d8	0.3097217
71	0x3c0c67c4	0.0085696615
72	0xbe39e0b8	-0.1815213
73	0x3f0bcd89	0.54610497
74	0xbd801e57	-0.06255787
75	0xbd0cef4e	-0.034407906
76	0xbeadf3c4	-0.3397504
77	0xbda0136a	-0.07816203
78	0x3ec8c48d	0.39212456
79	0xbe63d2f9	-0.22248448
80	0x3cc263cf	0.023729233
81	0x3e476b4a	0.19474521
82	0xbe8e849d	-0.2783555
83	0xbdb905d3	-0.09034314
84	0xbedb76f6	-0.42864197
85	0xbed41709	-0.41423824
86	0x3d611e00	0.05496025
87	0xbf0ae67b	-0.54257935
88	0x3f2d7c58	0.6776786
89	0xbddca52c	-0.107736915
90	0x3e543902	0.20724872
91	0xbede473c	-0.43413723
92	0xbf1b5c3b	-0.6068761
93	0xbe9a020a	-0.3007968
94	0xbe62164d	-0.2207882
95	0x3dbb9a1f	0.09160256
96	0x3eba647d	0.3640479
97	0xbdc74915	-0.09730736
98	0x3e01de02	0.12682346
99	0x3da12fd0	0.07870448
100	0xbc99acf9	-0.018759238
101	0x3f4e385f	0.80554765
102	0x3efa7c87	0.48923132
103	0x3ea7473d	0.32671538
104	0xbcae2e7a	-0.021262396
105	0xbe0cfd2e	-0.13768455
106	0x3f20cf4e	0.6281632
107	0xbe39c436	-0.18141255
108	0xbc367528	-0.011136331
109	0x3e3ce784	0.18447691
110	0x3e2d981b	0.16952555
111	0x3d2eba1f	0.042657968
112	0x3e98fbf1	0.29879716
113	0xbea9983b	-0.33123955
114	0x3e66c3d9	0.22535647
115	0x3d58d43b	0.052936774
116	0xbd693548	-0.05693558
117	0x3dfd8766	0.12379341
118	0xbe3d3a78	-0.18479335
119	0x3e51afed	0.20477267
120	0xbd5fd6d6	-0.054648243
121	0xbe86130f	-0.26186416
122	0x3f179d17	0.59224075
123	0xbecd4018	-0.40087962
124	0xbe7e452b	-0.24831073
125	0x3e82b7cc	0.2553085
126	0xbd10b8e5	-0.03533258
127	0x3d89314d	0.066988565
128	0xbe52afff	-0.2057495
129	0x3ebed95e	0.37275213
130	0x3ea9ac98	0.3313949
131	0x3d6e0faf	0.058120426
132	0xbf0ef58d	-0.5584343
133	0x3e2c11b1	0.16803624
134	0x3e039cfd	0.12852855
135	0x3e06d406	0.13166818
136	0xbd662c25	-0.056194443
137	0xbe255f80	-0.16149712
138	0x3eab8c59	0.33505514
139	0x3e856707	0.26055166
140	0x3e86b773	0.26311836
141	0xbe1ce2c6	-0.15320882
142	0x3e32f664	0.17476803
143	0x3e954e79	0.29161432
144	0xbde64ee1	-0.11245514
145	0xbf4b4160	-0.7939663
146	0x3e8c8b54	0.2745005
147	0xbd5b3d5a	-0.053525306
148	0xbf128e32	-0.5724822
149	0xbdd772f4	-0.105199724
150	0xbed666a6	-0.4187519
151	0x3e0db556	0.13838705
152	0x3aaed4b9	0.0013338543
153	0x3e866dc2	0.26255614
154	0xbf0578bf	-0.5213737
155	0xbdb6ea83	-0.08931448
156	0x3f15cc3b	0.58514756
157	0xbe864df5	-0.26231351
158	0x3ea3108e	0.31848568
159	0x3d94b06d	0.07260213
160	0x3edbb090	0.42908144
161	0xbea1694e	-0.31525654
162	0xbe5a3e61	-0.21312858
163	0x3d924ac4	0.07143167
164	0x3f1e4de7	0.6183762
165	0xbd8a17f8	-0.06742853
166	0x3e13c640	0.14431095
167	0x3ec23617	0.37931892
168	0x3e48a853	0.1959546
169	0xbe8ee11d	-0.27906123
170	0x3f128955	0.572408
171	0xbd073f51	-0.033019368
172	0xbd83673a	-0.06416173
173	0x3e553bb3	0.20823555
174	0xbe5d16f3	-0.21590786
175	0x3ecc8488	0.39944863
176	0x3eaa1c33	0.3322464
177	0x3ebc6533	0.3679596
178	0xbe923cd9	-0.28562048
179	0x3e143717	0.1447414
180	0xbdb20ba5	-0.08693627
181	0x3e0fd8e2	0.14047578
182	0xbdd94f43	-0.10610821
183	0xbe8b2b4b	-0.27181467
184	0x3e5ec9ae	0.21756622
185	0x3ec860c2	0.3913632
186	0xbca254d6	-0.019815844
187	0x3e79e831	0.2440498
188	0x3e1894b7	0.1490048
189	0xbec4f58a	-0.3846858
190	0xbe06d3da	-0.13166752
191	0x3c056501	0.008141757
192	0x3defc870	0.11708152
193	0xbea21020	-0.31652927
194	0xbd802964	-0.06257895
195	0xbf23b9a7	-0.6395516
196	0x3ef9f976	0.48823136
197	0xbe952163	-0.29127035
198	0x3e9a1da1	0.3010073
199	0x3f2140e6	0.6298965
200	0x3e5c20b5	0.21496852
201	0xbe908650	-0.28227472
202	0x3cceeeec	0.025260411
203	0xbf4b09bf	-0.79311746
204	0x3ec031fc	0.37538135
205	0xbed8a9a3	-0.42316923
206	0x3e2b9a7a	0.16758147
207	0xbef31c79	-0.4748266
208	0xbd946b43	-0.07247021
209	0x3eb5c836	0.3550431
210	0x3cb9ae1a	0.022666026
211	0xbeb944a8	-0.36185193
212	0x3ec19c79	0.37814692
213	0xbe57a209	-0.21057905
214	0xbce648fe	-0.028110977
215	0xbecee3e6	-0.40408248
216	0xbdf8c3a6	-0.12146692
217	0x3e4dabc6	0.20085058
218	0xbd2d62b4	-0.04233046
219	0xbaa039e3	-0.0012224283
220	0x3dfcf7f8	0.12351984
221	0x3dc438ac	0.09581122
222	0x3ebefa54	0.3730036
223	0xbedc4b4e	-0.43026203
224	0x3d4b4d57	0.049634304
225	0xbe15c27b	-0.1462497
226	0x3c236b5b	0.009974326
227	0x3ea6d37e	0.3258323
228	0x3ecc6ad7	0.39925262
229	0xbdabec08	-0.08394629
230	0xbf3a4cf6	-0.72773683
231	0xbde107df	-0.109878294
232	0x3daf6e79	0.08565993
233	0xbe8a2c32	-0.26986843
234	0xbd68c0b5	-0.056824405
235	0x3f535711	0.8255473
236	0xbcc13ab7	-0.023587568
237	0x3c6f2b7e	0.014597772
238	0x3de80370	0.11328781
239	0x3e3e4c5f	0.18583821
240	0x3e8ac91f	0.27106568
241	0xbed4af77	-0.4154012
242	0x3e6187a4	0.22024399
243	0x3cad8178	0.0211799
244	0xbee51779	-0.4474447
245	0xbd6964c0	-0.05698085
246	0x3d330f30	0.043715656
247	0x3d369c22	0.044582494
248	0xbe01b04e	-0.12664911
249	0xbf0ed608	-0.55795336
250	0x3f1e8810	0.61926365
251	0xbcc012c5	-0.02344645
252	0x3f24a0b8	0.6430774
253	0xbeb803be	-0.35940355
254	0x3d71423a	0.05890105
255	0x3e621b4f	0.2208073

target_network.h3.transform.bias f4 [20]
0	0xbdcd163d	-0.10014007
1	0x3c6edf93	0.014579671
2	0x3d19c233	0.03753872
3	0x3d0609e2	0.03272427
4	0xbdd99015	-0.106231846
5	0xbdc75f11	-0.09734929
6	0xbdab8c31	-0.08376349
7	0xbe10b975	-0.14133246
8	0xbd6784da	-0.05652318
9	0xbd55cb34	-0.052195743
10	0xb9192e9b	-0.00014608579
11	0x00000000	0.0
12	0xbbef3866	-0.0073004244
13	0xbd552af5	-0.05204292
14	0x00000000	0.0
15	0xbc07240b	-0.008248339
16	0xbd25b4fd	-0.040455807
17	0x3ca3610a	0.019943733
18	0xbdf0dbe2	-0.11760689
19	0xbd890b38	-0.06691593

target_network.critic_linear.weight f4 [1, 20]
0	0xbe93e6c5	-0.28887
1	0xbeb66dbb	-0.35630593
2	0xbe787e7c	-0.24267
3	0xbe456175	-0.19275458
4	0xbef12f09	-0.47106197
5	0x3e8a4ca6	0.27011603
6	0x3e603a8c	0.21897334
7	0x3ecda897	0.40167686
8	0x3ee5ce1a	0.44883806
9	0x3e848e69	0.258899
10	0x3d5b2a35	0.05350705
11	0x3cdc2da0	0.026877224
12	0xbe8a04a4	-0.26956666
13	0xbd635472	-0.055500455
14	0xbf2c0d57	-0.67207855
15	0xbe083abd	-0.13303657
16	0xbd7cbae5	-0.061701674
17	0xbe554e50	-0.20830655
18	0x3e68b64f	0.22725795
19	0x3e322506	0.17396936
