pz_risk/mini_0/3.pt (torch, 18513 bytes, 26 tensors)

policy_network.emb1.transform.weight f4 [20, 2]
00000000: ffeb ad3d e2fb c23e 7c0c 8e3d dbd1 18bf
00000010: de3f f1bb 48be a9be 943e 30be 70d9 aabe
00000020: 6f8b 723b bae3 9f3e bc2e 1cbf a7b4 cc3e
00000030: 9a1a 50be 33cd 8ebd f140 93be c1d0 90be
00000040: 5174 013e a2fe 433e 11d3 97bc bdf4 893e
00000050: 4dba 15be 35ee ce3c 87bd 9ebd 66cf de3e
00000060: 6029 933e 9909 b4be 4974 97be 0799 983e
00000070: 8ae3 553e 6c25 383e a2e9 3ebf 9646 763e
00000080: c95a 1bbf c658 6bbe 617f dabe cd4e c6be
00000090: d04b 53bd 2e71 a63d ad32 9ebe c677 98be
0.08492278 0.38082796 0.06935975 -0.59695214 -0.00736235 -0.33152986 -0.17211372 -0.33369017
0.0037009378 0.3122843 -0.6100881 0.39981577 -0.20322648 -0.069727324 -0.28760484 -0.28284267
0.12642027 0.19140103 -0.018533261 0.26944533 -0.1462185 0.02526007 -0.07750993 0.43517607
0.28742504 -0.35163572 -0.29580906 0.2980425 0.2088758 0.17983025 -0.74575245 0.24050364
-0.606854 -0.22983083 -0.42675307 -0.38731995 -0.051585972 0.08127056 -0.30898038 -0.2977888

policy_network.emb1.transform.bias f4 [20]
00000000: 97c0 00bd da84 d3ba 0000 0000 0000 0000
00000010: b076 04be c5fd c0bd 0000 0000 0000 0000
00000020: 3a01 eabb 7743 bebd 0000 0000 feef f53d
00000030: 4961 dfbd 29a3 3cbd 51d4 033d 0000 0000
00000040: 0000 0000 0000 0000 5b52 a6bc 0000 0000
-0.031433668 -0.0016137615 0.0 0.0 -0.129359 -0.09423403 0.0 0.0
-0.0071412595 -0.09290212 0.0 0.120086655 -0.109072275 -0.04605404 0.032184903 0.0
0.0 0.0 -0.020302942 0.0

policy_network.emb2.transform.weight f4 [20, 2]
00000000: a1e8 9c3d e403 d33e 4100 2d3e c73b 0b3f
00000010: 198e 92be 6d8d 033d aa0d 47bd d037 d2bd
00000020: 96b4 bf3e a2c2 5abe a79e ebbb 45f6 9f3e
00000030: e51a fd3d 5080 443e f341 5fbe 50ec d63e
00000040: 97e6 6fbe 0fa3 d83e f795 bb3e 3594 3cbe
00000050: 579a da3d ae25 0fbf 06b8 5dbf 2cc7 3cbe
00000060: be7f 58bd 5111 693d cd47 abbe 938f 773e
00000070: 9e7c c93d b3db 663f a0d4 32be 5da0 8b3e
00000080: ce58 19bf 2767 d33d 6254 fe3d ffa1 09bf
00000090: c12c babd 618c f8bd 5006 233d c45e 763d
0.07661558 0.41213906 0.16894628 0.5438809 -0.28624037 0.032117296 -0.048597015 -0.10264552
0.37442464 -0.21363309 -0.0071905437 0.31242576 0.12358645 0.19189572 -0.21802501 0.41977167
-0.23427807 0.42311904 0.36637852 -0.18415911 0.10673969 -0.5591687 -0.8660892 -0.18435353
-0.0528562 0.05690128 -0.33453217 0.24175863 0.09838222 0.90178984 -0.17463923 0.27270785
-0.5990113 0.10322409 0.124184385 -0.5376281 -0.090905674 -0.1213615 0.039800942 0.06014897

policy_network.emb2.transform.bias f4 [20]
00000000: 6eb2 eabd dba5 6f3c 0000 0000 0000 0000
00000010: 5312 0abe db33 95bd 08e6 1d3d 8b4f 56bd
00000020: f93b 713b f948 31be 8a02 2dbd 0000 0000
00000030: b1f6 08bd fff3 26be ebd6 653c b266 d9bb
00000040: 0000 0000 b75f 43bd 0000 0000 d261 52bd
-0.11459814 0.014626945 0.0 0.0 -0.13483553 -0.07285281 0.038549453 -0.05232195
0.0036809428 -0.17312993 -0.04223875 0.0 -0.03343839 -0.16304015 0.014028291 -0.0066345567
0.0 -0.047698703 0.0 -0.05136282

policy_network.emb3.transform.weight f4 [20, 2]
00000000: 6723 06bf bc36 5ebe 02de 96be a785 52bd
00000010: ded0 81be a803 6cbd aca6 6f3e 6be3 053e
00000020: 1351 143e 24c3 b03e 923f bebe 2a62 de3e
00000030: 44a6 0a3e fc28 f73e be42 373d d100 4fbe
00000040: 8b33 b8be cf34 083f 3935 883d 47e2 8bbe
00000050: c333 8abd aca1 cdbe 2757 05bf 51e5 b73e
00000060: 6c19 083d 67ed 3b3e 4127 ac3e c76c 3c3e
00000070: 0533 51be 5c8e 10be 02c7 61be 8bd0 313e
00000080: 0eea 263f f4eb d0be 4057 203e 070e 51be
00000090: 08ac f0bc 2486 743d 148b 7d3e 8b76 293e
-0.5239777 -0.21700567 -0.29466254 -0.051396992 -0.25354666 -0.057620674 0.23403424 0.13075034
0.14484052 0.3452388 -0.37157875 0.43434268 0.13539988 0.48273456 0.044741385 -0.20215155
-0.35976824 0.5320558 0.066507764 -0.27321073 -0.06748154 -0.40162408 -0.5208611 0.35917142
0.03322737 0.1835228 0.33623698 0.1840087 -0.20429619 -0.14116806 -0.22048572 0.17364709
0.6520089 -0.40805018 0.15658283 -0.20415507 -0.029378906 0.05969824 0.24760085 0.16549127

policy_network.emb3.transform.bias f4 [20]
00000000: 0000 0000 0000 0000 0000 0000 183e a9bc
00000010: 0fb8 d8bd 6870 4bbd aec9 55bd 3eba d4bc
00000020: 69e2 b0bd 7895 99bc 0000 0000 533f 1dbb
00000030: 5a98 3d3d 4cb2 88bd 0000 0000 077e b23c
00000040: 4b6a bdbd 7cbc 58bd a453 11be 81d4 94bd
0.0 0.0 0.0 -0.020659491 -0.105819814 -0.049667746 -0.05219429 -0.025967713
-0.08636934 -0.01874803 0.0 -0.0023994043 0.046287872 -0.066746324 0.0 0.02178861
-0.092487894 -0.052914128 -0.14192063 -0.072670944

policy_network.emb4.transform.weight f4 [20, 2]
00000000: f759 563e 4bc5 6d3e 29ed 7f3d a729 53be
00000010: 6b3b ab3e dccc 413e 2324 d0be 3fff ab3e
00000020: 0d0c 513e ee1c 62be 1a8a 223e cb66 f43e
00000030: 9b7a 953e 52d3 f93c 8432 57be 4b4f 83be
00000040: 3fde 9abe 761a babe 3bd5 22be a457 1d3e
00000050: 689b 8cbc 9737 b8be b973 733e 8205 893e
00000060: 2dc8 63bd 6a84 333d 6acc a63c 8ac2 2c3d
00000070: bed1 4abe 24be ae3e 517b ad3e 0501 05bf
00000080: 763b e83d 11be 743c 6c09 debe b71a 0e3f
00000090: 41a3 4dbf ced0 303e 2303 05bf 98bd 02bf
0.20932756 0.23219793 0.062482033 -0.20621358 0.3344377 0.18925804 -0.4065257 0.33593175
0.20414753 -0.22081348 0.15872994 0.47734675 0.29195103 0.030496273 -0.21015364 -0.25646433
-0.30247685 -0.36348313 -0.15901653 0.15365463 -0.017163947 -0.35979912 0.23774613 0.26762015
-0.055610824 0.04382745 0.020361144 0.042177714 -0.19806573 0.3412944 0.33883145 -0.5195468
0.11339466 0.0149378935 -0.43366563 0.55509514 -0.8032723 0.17267153 -0.5195791 -0.5107055

policy_network.emb4.transform.bias f4 [20]
00000000: 19ee 5cbd 3dc9 acbc dd73 c9bd 5df6 20be
00000010: b2bc a3bd 9679 acbc 3846 b43d 0000 0000
00000020: 0000 0000 d548 7e3b 0000 0000 f835 253e
00000030: d540 60bd 631c 6cbd 4f82 e5bb b76e dabd
00000040: 0d55 b1bd 3e45 2abd 0000 0000 0000 0000
-0.053938005 -0.021092052 -0.09836552 -0.1571898 -0.07994975 -0.02105407 0.08802456 0.0
0.0 0.0038800735 0.0 0.16133869 -0.05474933 -0.05764426 -0.0070040594 -0.106656484
-0.086588 -0.04156994 0.0 0.0

policy_network.h2.transform.weight f4 [20, 20]
00000000: f887 773d 014f 43bd 7119 9dbe 17d5 313e
00000010: bd23 babc 6b16 fc3e 7ed5 21bf 3299 38bf
00000020: 4304 36be 5771 90be 5301 c63e d9f8 733e
00000030: 3282 413e 454c 503e 2148 1dbe 06c2 69be
00000040: d3fd 63be a23f 9dbd 7678 a9be b89f b5be
00000050: 913b 543d 4150 133d 6781 cbbe 08c7 673e
00000060: 401b 9b3b ae9f 29bf 66c2 0d3e 515a e4be
00000070: d97b 26bf 3e3c ca3e 7d50 9a3d 2b13 44be
00000080: 4c98 8dbe d90f e4be 3050 f8be d87b 7ebe
00000090: 7f42 5ebe e15c 46bc 8f57 76be 23ac 233d
000000a0: 0a0d e8be 07cc 9b3c 6c44 aabe bad9 efbe
000000b0: 016c a4be 28c4 07be be17 cbbe 177d 153e
000000c0: 4b95 013e e162 663e b566 cb3c 53d8 9abd
000000d0: 75ca 8a3e 796f 1cbe 3f0d 003e f859 dcbe
000000e0: 6bfc e93e e0da 3fbe 1101 33bf 39e5 bb3e
000000f0: 2091 d5bd 50c8 9b3a 8a7b 9b3e 21af 15be
00000100: 0340 6d3e 7d8c 903e f569 c2be 90e1 1f3e
00000110: ce6b 28be 3b51 543f 4a36 81be 8dd4 d03e
00000120: 9731 19bd 608b 5cbd ac5c 1dbf c3df 3bbe
00000130: ac90 c0bd 2609 a5be 9dc2 e73d 742e f13c
00000140: a230 10be 27e0 f9be 8b96 f7be 2050 a63e
00000150: 4f79 05bf b4cf 88bd 1184 e0be 4b17 0c3e
00000160: bb55 8f3e 0043 c13e c43b 9e3e 0850 dabd
00000170: 945a 01be 695b 2c3e 4031 c8be e50d 9d3e
00000180: 9872 543d 927d d53e b010 bd3e 41ee 653e
00000190: 29ef 433d 16de a83e de2c 863c dc8d 193f
000001a0: 410a b6bb 438c ee3e e689 8fbe 4af4 043d
000001b0: 0174 7ebe 72fd f33d 6058 d43c be31 13bf
000001c0: b260 33be ab4a acbe d21d c33e 4bd1 00be
000001d0: 675d da3e 532d 57be b736 073e 2a2e a0bd
000001e0: 22e2 c7ba 3c52 7ebe a720 e5be 56a5 f43e
000001f0: edaf 9e3d 7119 febc 841d 6cbe 65d1 c83e
00000200: d2df b53e 9751 11bf b891 0abf c788 803e
00000210: 4445 00be 58ee e6be ec3f f4be bff7 8bbe
00000220: 846f 4ebe be65 42be 8105 58be ecca 5c3d
00000230: 0d27 abbe 92cc 8ebd faf5 8bbe 2e27 7cbc
00000240: e560 283d b8ed e1be 54b7 a73d eeaf d3be
00000250: b09a cf3e e54b e53d 126c 1b3d c783 483e
00000260: 1363 9cbd cfae a2be 1b86 96bd 82a3 cbbd
00000270: b750 ff3e 3bc2 95be d985 913e 3825 5dbf
00000280: ef64 253f 7db0 19bf 6842 a7bd 0cbd bdbe
00000290: 39a9 25bf 6171 0b3e cc3b 253d 11ef e33e
000002a0: eaf0 52be 6e15 35be e4df e5bd ae65 733e
000002b0: 4341 94bd 6541 6fbe 4353 013e c1b2 77be
000002c0: 2589 133e 8d6b 87be 9f58 ce3e 5e07 3e3c
000002d0: 928c 363d bf95 9cbe 2297 f63e e223 1f3d
000002e0: 9431 77be 3e97 1d3e a388 f63d f7c6 34be
000002f0: a2f7 be3d e9e5 663d 6fe4 693e 32ce 953e
00000300: 17da d23e 8815 85bf 479b d83c da40 bc3e
00000310: 06fd c6bd 7dd5 223f 6f7c 84be 70b1 15bd
00000320: 3a17 09bd 7655 e4be 072c 973e d30f c33d
00000330: 3735 283f a5c1 bfbe 728f e0bd a337 52bc
00000340: f8e8 c2bc ad4c 39be f7c5 ef3e 3f88 8f3d
00000350: 389d 7d3d c9fb 993e d70b 943d 60d9 dd3c
00000360: a296 533e 3c85 56be 8185 61bd df9d ab3e
00000370: 0287 69bd d982 04bf 5cb6 e3be 2f63 cabe
00000380: 4a5a ef3e 8806 083f 9d52 8a3e 3e80 c7bd
00000390: d348 a93e d99f 2f3e 4a31 583e 9cc8 3cbf
000003a0: aafe 3f3e 8827 8abe 24b1 e8be 62dc 18be
000003b0: 0003 85be 004f cabc 7a1b 0f3e de79 f4bb
000003c0: 1345 d93e e1d8 cd3e 8781 b23d b261 d8be
000003d0: fbaa 573e d915 6fbd f0e8 cdbe cc28 143f
000003e0: 2094 e73e daf2 f5bd d075 ea3e 2f72 2a3e
000003f0: 7cfa 07bf ce7a 0dbf 0271 033e d60d 51be
0.060432404 -0.047682766 -0.30683473 0.17366444 -0.02272212 0.49235854 -0.6321639 -0.7210876
-0.17775063 -0.2821147 0.38672885 0.23825397 0.18897322 0.20341595 -0.15359546 -0.2282792
-0.22264795 -0.076781526 -0.33099717 -0.35473418 0.05181462 0.035965208 -0.39747164 0.22634518
0.004733473 -0.66259277 0.13843688 -0.44600156 -0.65032727 0.39499086 0.07534883 -0.19147937
-0.27655256 -0.4454334 -0.48498678 -0.2485193 -0.21705054 -0.012107105 -0.24056838 0.039959084
-0.45322448 0.019018186 -0.33255327 -0.468458 -0.3211365 -0.13258421 -0.3966655 0.14598499
0.12654607 0.22498657 0.024829248 -0.07560792 0.27107587 -0.15276898 0.12505053 -0.4303739
0.45700392 -0.18735838 -0.699235 0.3669832 -0.10428071 0.0011885259 0.3036769 -0.14617588
0.2316895 0.28232184 -0.37971464 0.15613389 -0.16447374 0.8293645 -0.25236732 0.40787163
-0.03740081 -0.053843856 -0.6146953 -0.18347077 -0.09402594 -0.32233542 0.113164164 0.029441096
-0.14081052 -0.48803827 -0.48357043 0.32483006 -0.5213823 -0.06680241 -0.4385076 0.1368076
0.27995095 0.3774643 0.30904973 -0.10659796 -0.12632209 0.16831745 -0.39100075 0.30674663
0.051867098 0.41697365 0.36926794 0.22454168 0.047835503 0.32981938 0.016378816 0.59982085
-0.0055554216 0.46591386 -0.28034896 0.032459535 -0.2484894 0.11913575 0.025921047 -0.57497776
-0.17517355 -0.33650717 0.3810869 -0.12579839 0.42649385 -0.21013384 0.13204466 -0.07821305
-0.0015249888 -0.24836057 -0.44751474 0.4778239 0.07748399 -0.03101799 -0.23058134 0.39222255
0.35522324 -0.5676512 -0.541286 0.25104353 -0.12526423 -0.45103717 -0.4770502 -0.27337453
-0.20159727 -0.18984124 -0.2109585 0.05390446 -0.3342823 -0.069726124 -0.27336103 -0.015390201
0.04110803 -0.44126678 0.08189264 -0.4134516 0.40547705 0.11196116 0.03794486 0.19581519
-0.076360844 -0.31773993 -0.07349797 -0.09943296 0.49866268 -0.2924975 0.2842243 -0.86384916
0.6460714 -0.60034925 -0.08166963 -0.37058294 -0.6471134 0.1361747 0.04034023 0.4451833
-0.20599714 -0.17683956 -0.112243444 0.23769256 -0.0723901 -0.2336479 0.12629418 -0.24189283
0.14407785 -0.26449242 0.40301988 0.011598436 0.044567652 -0.30582997 0.4816218 0.03885258
-0.24140006 0.15389726 0.1203778 -0.17654024 0.09324576 0.056371603 0.22841047 0.29258877
0.41182014 -1.0397196 0.02644123 0.36768228 -0.09716229 0.6360701 -0.25876185 -0.03654617
-0.033469416 -0.44596452 0.29525778 0.095245026 0.657062 -0.37452427 -0.1096486 -0.012830648
-0.023792729 -0.18095656 0.46830723 0.07008409 0.061917514 0.3007491 0.07228821 0.027081192
0.2066293 -0.20949262 -0.05505896 0.33518884 -0.05701352 -0.5176216 -0.44475067 -0.39528796
0.46748573 0.53134966 0.27016154 -0.09741257 0.33063373 0.17150821 0.21112552 -0.73743606
0.1874949 -0.26983285 -0.45447648 -0.1492782 -0.2597885 -0.024695873 0.13975325 -0.0074608168
0.42435512 0.40204528 0.08716112 -0.42262036 0.21061318 -0.058370445 -0.4021678 0.5787475
0.45230198 -0.12009211 0.4579301 0.1664512 -0.53116584 -0.5526551 0.12836078 -0.20415434

policy_network.h2.transform.bias f4 [20]
00000000: a1eb 3bbb c2c9 e0bd 1549 b4bd 716d c5bd
00000010: 7dae d9bd be6a cdbd c9e5 09be 7250 04be
00000020: b188 11bd 1d18 c6bc 4c2b 61bd 814d 33bd
00000030: 9e3c fd3d 33e4 bdbd aea4 6b3d 0000 0000
00000040: 0c22 1abe 4202 f8bd 0537 3cbd 5e72 34be
-0.0028674381 -0.10975982 -0.08803002 -0.09640015 -0.10628984 -0.10030125 -0.13466562 -0.12921312
-0.03553075 -0.02418142 -0.05497293 -0.043775085 0.123650774 -0.09272041 0.057530098 0.0
-0.1505205 -0.12109806 -0.04595091 -0.17621753

policy_network.h3.transform.weight f4 [20, 20]
00000000: d5a7 923c bc11 c3bd f31e 153f 36dc 78bc
00000010: b5a4 cb3d 0b0a 1abf f0f7 fabe d61d 863e
00000020: e6c2 7e3e 664a 87be 0c81 d4bc 7a41 1d3e
00000030: 2c35 babe 0166 d4be 65ed 023e f0a1 dfbe
00000040: fe06 19be bb3c 8bbe 42b0 0fbf 11c9 afbd
00000050: 9ba3 2ebe 8207 02bf c64a 02be 1ce7 c7bd
00000060: 5996 01be df6c 4f3d 87bd 573f d824 dabd
00000070: 1127 5c3d 7eeb 5cbe a3bc 1ebe 4085 1c3f
00000080: 30fa 84be 8cc8 91bd 617d 1ebe 15f9 97bc
00000090: c97e 66be 679a 383e cf02 90be 7260 c73e
000000a0: 71e7 d33e af65 253e 9b3e 3e3c 9657 0abd
000000b0: 19e4 ebbe f18a 57bc 353a 173e 0b63 2a3f
000000c0: f16c d73e 799c 1b3f b864 babd ce59 1f3c
000000d0: 1fbd db3e 8ca5 b33e c199 b83e 128d f7be
000000e0: dd02 ca3d 0a0c f23e cbba 2a3e 8b8c bebd
000000f0: e281 193e c058 ef3e 4547 9b3e 082b bdbe
00000100: 79e0 ae3e 847c 053d 6885 583e 6c79 21bd
00000110: bf51 a2bd 0fb0 ddbe e99c 913e 5ff8 a33c
00000120: 6860 b83d 0993 0b3f 7c44 dc3c 4eef 0cbd
00000130: 0750 87be b986 ccbd 508a ed3e 5f0e 58be
00000140: cf63 c23c 4a6b 473e 73ef 93be d305 b9bd
00000150: 0cae d0be 607b e6be 001e 613d 6303 0bbf
00000160: ccf2 293f a41a 3bbe 1f9b 2f3e 56b7 cbbe
00000170: fe85 1bbf c8c6 c5be 8917 66be 1f9a bb3d
00000180: c270 ba3e 5ac8 c8bd a836 fe3d d02f a13d
00000190: f9ac 99bc 5f38 4e3f 3dbe fa3e 3d47 a73e
000001a0: ee44 bcbc 8be7 30be 4ecf 203f 8d16 3abe
000001b0: 3440 34bc 6a70 3d3e ee13 fa3d 6253 ae3c
000001c0: f1fb 983e 2c87 b9be d9c3 663e 3bd4 583d
000001d0: 5423 5bbd 4f4b fb3d 783a 3dbe edaf 513e
000001e0: 4fd8 5fbd 0f13 86be ed89 1a3f f65e cdbe
000001f0: 78da 81be 8066 623e e5b8 10bd 3ac1 603d
00000200: 118d 59be 283a a83e 932a ac3e ae37 213d
00000210: d097 5bbf 89b9 283e 238b 2b3d 06d4 063e
00000220: 4eb3 0bbe 70f7 0ebe c880 8b3e e2d1 7d3e
00000230: 73b7 863e c6e2 1cbe 64f6 323e 794e 953e
00000240: e14e e6bd ab2c 4dbf 548b 8c3e 5a3d 5bbd
00000250: ad0a 19bf 3cee 99bc 9cbc c7be 2573 0d3e
00000260: 7080 06bd 818d 9a3e c856 0ebf 83ea b6bd
00000270: 3bcc 153f f54d 86be e3b2 953e 6db0 943d
00000280: 34b0 db3e 4e69 a1be 7f92 4cbe e0b9 8f3d
00000290: f6a2 1c3f e406 b1bd 40c6 133e 1132 c83e
000002a0: 07fc 563e 2b10 90be 4ae1 153f e45b 56bd
000002b0: 88c4 34be 4220 713e a565 7dbe 8884 cc3e
000002c0: 0f0d 843e bf2e cb3e 8b37 9dbe 8e86 053e
000002d0: a50b b2bd e2d8 0f3e a851 c4bd 4b2b 8bbe
000002e0: b0ee 5e3e 2282 af3e d654 a2bc 7933 3e3e
000002f0: 449e c63d 6508 e3be 431a 36be 0165 053c
00000300: 2ce6 383e 2374 bcbe c60d 69bd a7b9 23bf
00000310: 4040 fa3e 17ce 84be 8e0f 9b3e ba2e 1a3f
00000320: 9b1f 5c3e 5086 90be ecee ce3c dfb4 4bbf
00000330: 0a2b c03e 4679 d9be 7a9a 2b3e 791c f3be
00000340: 24a9 e1bd e428 913e ea4b 523c 79c9 d8be
00000350: 6f91 a63e 436c 64be 00b0 b8bd e6e3 cebe
00000360: 5813 b9bc c6ab 4d3e 3ab9 c0bd e339 a0ba
00000370: f8f7 fc3d ac38 c43d 54fa be3e 4e4b dcbe
00000380: 574d 4b3d 7bc2 15be 5b6b 233c 7ed3 a63e
00000390: d76a cc3e 08ec abbd f64c 3abf df07 e1bd
000003a0: 796e af3d 322c 8abe b5c0 68bd 1157 533f
000003b0: b73a c1bc 7e2b 6f3c 7003 e83d 5f4c 3e3e
000003c0: 57c9 8a3e 77af d4be c13a 4f3e 4b85 a63c
000003d0: 3197 e1be f58d 0ebd 300f 333d 8455 563d
000003e0: 37a3 61be bd7d 2cbf 75b7 173f fb50 0dbc
000003f0: 0b49 0e3f b309 d3be d123 a4bd 4f1b 623e
0.017902294 -0.09524867 0.5825035 -0.015189221 0.09943525 -0.60171574 -0.49017286 0.26194638
0.24879035 -0.2642395 -0.02594044 0.15357009 -0.36368692 -0.41484073 0.12785871 -0.43678236
-0.14944074 -0.2719477 -0.56128323 -0.08583272 -0.17054598 -0.50792706 -0.12723836 -0.097608775
-0.1265501 0.050640937 0.8427357 -0.10651559 0.053748194 -0.21574208 -0.15501647 0.61140823
-0.25972128 -0.071183294 -0.15477516 -0.018551389 -0.22509302 0.1802765 -0.28127143 0.3894077
0.41387513 0.1615207 0.011611606 -0.033774935 -0.46072462 -0.013155685 0.14768298 0.6655738
0.42075303 0.60785633 -0.09101242 0.009726001 0.42917725 0.3508724 0.36054805 -0.48349816
0.098638274 0.4727481 0.16672818 -0.0930415 0.14990953 0.46747398 0.30327812 -0.36946893
0.34155634 0.03258945 0.2114464 -0.039422438 -0.07925748 -0.43298385 0.28440025 0.020015894
0.09002763 0.5452123 0.026888125 -0.034407906 -0.26428244 -0.09986634 0.46394587 -0.21099232
0.023729233 0.19474521 -0.28893623 -0.09034314 -0.40757787 -0.45016003 0.05496025 -0.5430204
0.66386104 -0.18271881 0.17149018 -0.39788312 -0.6075133 -0.3862822 -0.22469915 0.09160256
0.36414152 -0.09803839 0.124127686 0.07870448 -0.018759238 0.80554765 0.48973265 0.32671538
-0.022982087 -0.17275827 0.6281632 -0.18172665 -0.011001635 0.18499914 0.122108325 0.021279994
0.29879716 -0.3623594 0.22535647 0.052936774 -0.05350049 0.12270223 -0.18479335 0.20477267
-0.054649647 -0.26186416 0.6036671 -0.40111512 -0.2536199 0.22109413 -0.03533258 0.054871775
-0.21245219 0.3285687 0.33626232 0.03935974 -0.8577852 0.16477026 0.041880738 0.13166818
-0.13642618 -0.13961577 0.2724669 0.24787095 0.26311836 -0.15320882 0.17476803 0.29161432
-0.11245514 -0.8014628 0.2745005 -0.053525306 -0.59781915 -0.018790357 -0.39011085 0.13813455
-0.03283733 0.30186084 -0.5560117 -0.08931448 0.58514756 -0.26231351 0.29238042 0.07260213
0.4290787 -0.31525654 -0.19977759 0.07017875 0.6118616 -0.086438924 0.14431095 0.39100698
0.20994578 -0.28137335 0.5854689 -0.052333727 -0.17653096 0.23547462 -0.24745806 0.39944863
0.25791213 0.39684102 -0.30706438 0.1303961 -0.08693627 0.14047578 -0.09585887 -0.27181467
0.2177074 0.3427897 -0.019815844 0.18574323 0.096981555 -0.44342342 -0.17783456 0.008141757
0.18056554 -0.36807355 -0.0568979 -0.6395516 0.48877144 -0.25938484 0.30285305 0.6022755
0.21496432 -0.28227472 0.025260411 -0.7957286 0.37532836 -0.42475337 0.16758147 -0.4748266
-0.11018589 0.2835151 0.012835482 -0.4234121 0.32532832 -0.22306924 -0.09017944 -0.40408248
-0.022592232 0.20085058 -0.09410329 -0.0012224283 0.12351984 0.09581122 0.3730036 -0.43026203
0.049634304 -0.1462497 0.009974326 0.3258323 0.39925262 -0.08394629 -0.72773683 -0.109878294
0.08565993 -0.26986843 -0.056824405 0.8255473 -0.023587568 0.014597772 0.11328781 0.18583821
0.27106735 -0.4154012 0.20237257 0.02032723 -0.44060662 -0.03480335 0.043715656 0.052327648
-0.22034918 -0.6737936 0.5926431 -0.008625264 0.55580205 -0.41218337 -0.08014644 0.2208073

policy_network.h3.transform.bias f4 [20]
00000000: 3d16 cdbd 5243 083d 1400 27bc b8c4 3fbc
00000010: ba99 42be f1e4 10be f95b 6ebd 92e7 0ebe
00000020: a2e0 79bc 5f07 d5bd b0eb c1bc 0000 0000
00000030: e8cd aebd 68da 13be 0000 0000 06d2 5ebd
00000040: 87b9 99bd 9d3c e2bc 3adb 1fbe 1880 dcbd
-0.10014007 0.033267327 -0.01019289 -0.011704616 -0.19003955 -0.14149834 -0.05819318 -0.13955525
-0.015251311 -0.104017965 -0.023671955 0.0 -0.08535367 -0.14438784 0.0 -0.054399513
-0.0750609 -0.027616793 -0.15610972 -0.107666194

policy_network.critic_linear.weight f4 [1, 20]
00000000: c5e6 93be 4561 b6be d095 86be af6a 42be
00000010: 78d1 adbe 234f 573e f714 6c3e 5a56 cf3e
00000020: ce3b ed3e 0450 4c3e f9a6 443d a02d dc3c
00000030: d121 8dbe e20b e4bc 570d 2cbf cacf 03be
00000040: 1ea1 cdbc e52c 1dbe 9ed2 583e af9a 223e
-0.28887 -0.35621086 -0.26286173 -0.18986009 -0.33948874 0.21026282 0.23054872 0.4049557
0.4633469 0.19952399 0.0480108 0.026877224 -0.27564862 -0.027837697 -0.67207855 -0.12872234
-0.02510124 -0.15349157 0.21174094 0.1587932

target_network.emb1.transform.weight f4 [20, 2]
00000000: ffeb ad3d e2fb c23e 7c0c 8e3d dbd1 18bf
00000010: de3f f1bb 48be a9be 943e 30be 70d9 aabe
00000020: 6f8b 723b bae3 9f3e bc2e 1cbf a7b4 cc3e
00000030: 9a1a 50be 33cd 8ebd f140 93be c1d0 90be
00000040: 5174 013e a2fe 433e 11d3 97bc bdf4 893e
00000050: 4dba 15be 35ee ce3c 87bd 9ebd 66cf de3e
00000060: 6029 933e 9909 b4be 4974 97be 0799 983e
00000070: 8ae3 553e 6c25 383e a2e9 3ebf 9646 763e
00000080: c95a 1bbf c658 6bbe 617f dabe cd4e c6be
00000090: d04b 53bd 2e71 a63d ad32 9ebe c677 98be
0.08492278 0.38082796 0.06935975 -0.59695214 -0.00736235 -0.33152986 -0.17211372 -0.33369017
0.0037009378 0.3122843 -0.6100881 0.39981577 -0.20322648 -0.069727324 -0.28760484 -0.28284267
0.12642027 0.19140103 -0.018533261 0.26944533 -0.1462185 0.02526007 -0.07750993 0.43517607
0.28742504 -0.35163572 -0.29580906 0.2980425 0.2088758 0.17983025 -0.74575245 0.24050364
-0.606854 -0.22983083 -0.42675307 -0.38731995 -0.051585972 0.08127056 -0.30898038 -0.2977888

target_network.emb1.transform.bias f4 [20]
00000000: 97c0 00bd da84 d3ba 0000 0000 0000 0000
00000010: b076 04be c5fd c0bd 0000 0000 0000 0000
00000020: 3a01 eabb 7743 bebd 0000 0000 feef f53d
00000030: 4961 dfbd 29a3 3cbd 51d4 033d 0000 0000
00000040: 0000 0000 0000 0000 5b52 a6bc 0000 0000
-0.031433668 -0.0016137615 0.0 0.0 -0.129359 -0.09423403 0.0 0.0
-0.0071412595 -0.09290212 0.0 0.120086655 -0.109072275 -0.04605404 0.032184903 0.0
0.0 0.0 -0.020302942 0.0

target_network.emb2.transform.weight f4 [20, 2]
00000000: a1e8 9c3d e403 d33e 4100 2d3e c73b 0b3f
00000010: 198e 92be 6d8d 033d aa0d 47bd d037 d2bd
00000020: 96b4 bf3e a2c2 5abe a79e ebbb 45f6 9f3e
00000030: e51a fd3d 5080 443e f341 5fbe 50ec d63e
00000040: 97e6 6fbe 0fa3 d83e f795 bb3e 3594 3cbe
00000050: 579a da3d ae25 0fbf 06b8 5dbf 2cc7 3cbe
00000060: be7f 58bd 5111 693d cd47 abbe 938f 773e
00000070: 9e7c c93d b3db 663f a0d4 32be 5da0 8b3e
00000080: ce58 19bf 2767 d33d 6254 fe3d ffa1 09bf
00000090: c12c babd 618c f8bd 5006 233d c45e 763d
0.07661558 0.41213906 0.16894628 0.5438809 -0.28624037 0.032117296 -0.048597015 -0.10264552
0.37442464 -0.21363309 -0.0071905437 0.31242576 0.12358645 0.19189572 -0.21802501 0.41977167
-0.23427807 0.42311904 0.36637852 -0.18415911 0.10673969 -0.5591687 -0.8660892 -0.18435353
-0.0528562 0.05690128 -0.33453217 0.24175863 0.09838222 0.90178984 -0.17463923 0.27270785
-0.5990113 0.10322409 0.124184385 -0.5376281 -0.090905674 -0.1213615 0.039800942 0.06014897

target_network.emb2.transform.bias f4 [20]
00000000: 6eb2 eabd dba5 6f3c 0000 0000 0000 0000
00000010: 5312 0abe db33 95bd 08e6 1d3d 8b4f 56bd
00000020: f93b 713b f948 31be 8a02 2dbd 0000 0000
00000030: b1f6 08bd fff3 26be ebd6 653c b266 d9bb
00000040: 0000 0000 b75f 43bd 0000 0000 d261 52bd
-0.11459814 0.014626945 0.0 0.0 -0.13483553 -0.07285281 0.038549453 -0.05232195
0.0036809428 -0.17312993 -0.04223875 0.0 -0.03343839 -0.16304015 0.014028291 -0.0066345567
0.0 -0.047698703 0.0 -0.05136282

target_network.emb3.transform.weight f4 [20, 2]
00000000: 6723 06bf bc36 5ebe 02de 96be a785 52bd
00000010: ded0 81be a803 6cbd aca6 6f3e 6be3 053e
00000020: 1351 143e 24c3 b03e 923f bebe 2a62 de3e
00000030: 44a6 0a3e fc28 f73e be42 373d d100 4fbe
00000040: 8b33 b8be cf34 083f 3935 883d 47e2 8bbe
00000050: c333 8abd aca1 cdbe 2757 05bf 51e5 b73e
00000060: 6c19 083d 67ed 3b3e 4127 ac3e c76c 3c3e
00000070: 0533 51be 5c8e 10be 02c7 61be 8bd0 313e
00000080: 0eea 263f f4eb d0be 4057 203e 070e 51be
00000090: 08ac f0bc 2486 743d 148b 7d3e 8b76 293e
-0.5239777 -0.21700567 -0.29466254 -0.051396992 -0.25354666 -0.057620674 0.23403424 0.13075034
0.14484052 0.3452388 -0.37157875 0.43434268 0.13539988 0.48273456 0.044741385 -0.20215155
-0.35976824 0.5320558 0.066507764 -0.27321073 -0.06748154 -0.40162408 -0.5208611 0.35917142
0.03322737 0.1835228 0.33623698 0.1840087 -0.20429619 -0.14116806 -0.22048572 0.17364709
0.6520089 -0.40805018 0.15658283 -0.20415507 -0.029378906 0.05969824 0.24760085 0.16549127

target_network.emb3.transform.bias f4 [20]
00000000: 0000 0000 0000 0000 0000 0000 183e a9bc
00000010: 0fb8 d8bd 6870 4bbd aec9 55bd 3eba d4bc
00000020: 69e2 b0bd 7895 99bc 0000 0000 533f 1dbb
00000030: 5a98 3d3d 4cb2 88bd 0000 0000 077e b23c
00000040: 4b6a bdbd 7cbc 58bd a453 11be 81d4 94bd
0.0 0.0 0.0 -0.020659491 -0.105819814 -0.049667746 -0.05219429 -0.025967713
-0.08636934 -0.01874803 0.0 -0.0023994043 0.046287872 -0.066746324 0.0 0.02178861
-0.092487894 -0.052914128 -0.14192063 -0.072670944

target_network.emb4.transform.weight f4 [20, 2]
00000000: f759 563e 4bc5 6d3e 29ed 7f3d a729 53be
00000010: 6b3b ab3e dccc 413e 2324 d0be 3fff ab3e
00000020: 0d0c 513e ee1c 62be 1a8a 223e cb66 f43e
00000030: 9b7a 953e 52d3 f93c 8432 57be 4b4f 83be
00000040: 3fde 9abe 761a babe 3bd5 22be a457 1d3e
00000050: 689b 8cbc 9737 b8be b973 733e 8205 893e
00000060: 2dc8 63bd 6a84 333d 6acc a63c 8ac2 2c3d
00000070: bed1 4abe 24be ae3e 517b ad3e 0501 05bf
00000080: 763b e83d 11be 743c 6c09 debe b71a 0e3f
00000090: 41a3 4dbf ced0 303e 2303 05bf 98bd 02bf
0.20932756 0.23219793 0.062482033 -0.20621358 0.3344377 0.18925804 -0.4065257 0.33593175
0.20414753 -0.22081348 0.15872994 0.47734675 0.29195103 0.030496273 -0.21015364 -0.25646433
-0.30247685 -0.36348313 -0.15901653 0.15365463 -0.017163947 -0.35979912 0.23774613 0.26762015
-0.055610824 0.04382745 0.020361144 0.042177714 -0.19806573 0.3412944 0.33883145 -0.5195468
0.11339466 0.0149378935 -0.43366563 0.55509514 -0.8032723 0.17267153 -0.5195791 -0.5107055

target_network.emb4.transform.bias f4 [20]
00000000: 19ee 5cbd 3dc9 acbc dd73 c9bd 5df6 20be
00000010: b2bc a3bd 9679 acbc 3846 b43d 0000 0000
00000020: 0000 0000 d548 7e3b 0000 0000 f835 253e
00000030: d540 60bd 631c 6cbd 4f82 e5bb b76e dabd
00000040: 0d55 b1bd 3e45 2abd 0000 0000 0000 0000
-0.053938005 -0.021092052 -0.09836552 -0.1571898 -0.07994975 -0.02105407 0.08802456 0.0
0.0 0.0038800735 0.0 0.16133869 -0.05474933 -0.05764426 -0.0070040594 -0.106656484
-0.086588 -0.04156994 0.0 0.0

target_network.h2.transform.weight f4 [20, 20]
00000000: f887 773d 014f 43bd 7119 9dbe 17d5 313e
00000010: bd23 babc 6b16 fc3e 7ed5 21bf 3299 38bf
00000020: 4304 36be 5771 90be 5301 c63e d9f8 733e
00000030: 3282 413e 454c 503e 2148 1dbe 06c2 69be
00000040: d3fd 63be a23f 9dbd 7678 a9be b89f b5be
00000050: 913b 543d 4150 133d 6781 cbbe 08c7 673e
00000060: 401b 9b3b ae9f 29bf 66c2 0d3e 515a e4be
00000070: d97b 26bf 3e3c ca3e 7d50 9a3d 2b13 44be
00000080: 4c98 8dbe d90f e4be 3050 f8be d87b 7ebe
00000090: 7f42 5ebe e15c 46bc 8f57 76be 23ac 233d
000000a0: 0a0d e8be 07cc 9b3c 6c44 aabe bad9 efbe
000000b0: 016c a4be 28c4 07be be17 cbbe 177d 153e
000000c0: 4b95 013e e162 663e b566 cb3c 53d8 9abd
000000d0: 75ca 8a3e 796f 1cbe 3f0d 003e f859 dcbe
000000e0: 6bfc e93e e0da 3fbe 1101 33bf 39e5 bb3e
000000f0: 2091 d5bd 50c8 9b3a 8a7b 9b3e 21af 15be
00000100: 0340 6d3e 7d8c 903e f569 c2be 90e1 1f3e
00000110: ce6b 28be 3b51 543f 4a36 81be 8dd4 d03e
00000120: 9731 19bd 608b 5cbd ac5c 1dbf c3df 3bbe
00000130: ac90 c0bd 2609 a5be 9dc2 e73d 742e f13c
00000140: a230 10be 27e0 f9be 8b96 f7be 2050 a63e
00000150: 4f79 05bf b4cf 88bd 1184 e0be 4b17 0c3e
00000160: bb55 8f3e 0043 c13e c43b 9e3e 0850 dabd
00000170: 945a 01be 695b 2c3e 4031 c8be e50d 9d3e
00000180: 9872 543d 927d d53e b010 bd3e 41ee 653e
00000190: 29ef 433d 16de a83e de2c 863c dc8d 193f
000001a0: 410a b6bb 438c ee3e e689 8fbe 4af4 043d
000001b0: 0174 7ebe 72fd f33d 6058 d43c be31 13bf
000001c0: b260 33be ab4a acbe d21d c33e 4bd1 00be
000001d0: 675d da3e 532d 57be b736 073e 2a2e a0bd
000001e0: 22e2 c7ba 3c52 7ebe a720 e5be 56a5 f43e
000001f0: edaf 9e3d 7119 febc 841d 6cbe 65d1 c83e
00000200: d2df b53e 9751 11bf b891 0abf c788 803e
00000210: 4445 00be 58ee e6be ec3f f4be bff7 8bbe
00000220: 846f 4ebe be65 42be 8105 58be ecca 5c3d
00000230: 0d27 abbe 92cc 8ebd faf5 8bbe 2e27 7cbc
00000240: e560 283d b8ed e1be 54b7 a73d eeaf d3be
00000250: b09a cf3e e54b e53d 126c 1b3d c783 483e
00000260: 1363 9cbd cfae a2be 1b86 96bd 82a3 cbbd
00000270: b750 ff3e 3bc2 95be d985 913e 3825 5dbf
00000280: ef64 253f 7db0 19bf 6842 a7bd 0cbd bdbe
00000290: 39a9 25bf 6171 0b3e cc3b 253d 11ef e33e
000002a0: eaf0 52be 6e15 35be e4df e5bd ae65 733e
000002b0: 4341 94bd 6541 6fbe 4353 013e c1b2 77be
000002c0: 2589 133e 8d6b 87be 9f58 ce3e 5e07 3e3c
000002d0: 928c 363d bf95 9cbe 2297 f63e e223 1f3d
000002e0: 9431 77be 3e97 1d3e a388 f63d f7c6 34be
000002f0: a2f7 be3d e9e5 663d 6fe4 693e 32ce 953e
00000300: 17da d23e 8815 85bf 479b d83c da40 bc3e
00000310: 06fd c6bd 7dd5 223f 6f7c 84be 70b1 15bd
00000320: 3a17 09bd 7655 e4be 072c 973e d30f c33d
00000330: 3735 283f a5c1 bfbe 728f e0bd a337 52bc
00000340: f8e8 c2bc ad4c 39be f7c5 ef3e 3f88 8f3d
00000350: 389d 7d3d c9fb 993e d70b 943d 60d9 dd3c
00000360: a296 533e 3c85 56be 8185 61bd df9d ab3e
00000370: 0287 69bd d982 04bf 5cb6 e3be 2f63 cabe
00000380: 4a5a ef3e 8806 083f 9d52 8a3e 3e80 c7bd
00000390: d348 a93e d99f 2f3e 4a31 583e 9cc8 3cbf
000003a0: aafe 3f3e 8827 8abe 24b1 e8be 62dc 18be
000003b0: 0003 85be 004f cabc 7a1b 0f3e de79 f4bb
000003c0: 1345 d93e e1d8 cd3e 8781 b23d b261 d8be
000003d0: fbaa 573e d915 6fbd f0e8 cdbe cc28 143f
000003e0: 2094 e73e daf2 f5bd d075 ea3e 2f72 2a3e
000003f0: 7cfa 07bf ce7a 0dbf 0271 033e d60d 51be
0.060432404 -0.047682766 -0.30683473 0.17366444 -0.02272212 0.49235854 -0.6321639 -0.7210876
-0.17775063 -0.2821147 0.38672885 0.23825397 0.18897322 0.20341595 -0.15359546 -0.2282792
-0.22264795 -0.076781526 -0.33099717 -0.35473418 0.05181462 0.035965208 -0.39747164 0.22634518
0.004733473 -0.66259277 0.13843688 -0.44600156 -0.65032727 0.39499086 0.07534883 -0.19147937
-0.27655256 -0.4454334 -0.48498678 -0.2485193 -0.21705054 -0.012107105 -0.24056838 0.039959084
-0.45322448 0.019018186 -0.33255327 -0.468458 -0.3211365 -0.13258421 -0.3966655 0.14598499
0.12654607 0.22498657 0.024829248 -0.07560792 0.27107587 -0.15276898 0.12505053 -0.4303739
0.45700392 -0.18735838 -0.699235 0.3669832 -0.10428071 0.0011885259 0.3036769 -0.14617588
0.2316895 0.28232184 -0.37971464 0.15613389 -0.16447374 0.8293645 -0.25236732 0.40787163
-0.03740081 -0.053843856 -0.6146953 -0.18347077 -0.09402594 -0.32233542 0.113164164 0.029441096
-0.14081052 -0.48803827 -0.48357043 0.32483006 -0.5213823 -0.06680241 -0.4385076 0.1368076
0.27995095 0.3774643 0.30904973 -0.10659796 -0.12632209 0.16831745 -0.39100075 0.30674663
0.051867098 0.41697365 0.36926794 0.22454168 0.047835503 0.32981938 0.016378816 0.59982085
-0.0055554216 0.46591386 -0.28034896 0.032459535 -0.2484894 0.11913575 0.025921047 -0.57497776
-0.17517355 -0.33650717 0.3810869 -0.12579839 0.42649385 -0.21013384 0.13204466 -0.07821305
-0.0015249888 -0.24836057 -0.44751474 0.4778239 0.07748399 -0.03101799 -0.23058134 0.39222255
0.35522324 -0.5676512 -0.541286 0.25104353 -0.12526423 -0.45103717 -0.4770502 -0.27337453
-0.20159727 -0.18984124 -0.2109585 0.05390446 -0.3342823 -0.069726124 -0.27336103 -0.015390201
0.04110803 -0.44126678 0.08189264 -0.4134516 0.40547705 0.11196116 0.03794486 0.19581519
-0.076360844 -0.31773993 -0.07349797 -0.09943296 0.49866268 -0.2924975 0.2842243 -0.86384916
0.6460714 -0.60034925 -0.08166963 -0.37058294 -0.6471134 0.1361747 0.04034023 0.4451833
-0.20599714 -0.17683956 -0.112243444 0.23769256 -0.0723901 -0.2336479 0.12629418 -0.24189283
0.14407785 -0.26449242 0.40301988 0.011598436 0.044567652 -0.30582997 0.4816218 0.03885258
-0.24140006 0.15389726 0.1203778 -0.17654024 0.09324576 0.056371603 0.22841047 0.29258877
0.41182014 -1.0397196 0.02644123 0.36768228 -0.09716229 0.6360701 -0.25876185 -0.03654617
-0.033469416 -0.44596452 0.29525778 0.095245026 0.657062 -0.37452427 -0.1096486 -0.012830648
-0.023792729 -0.18095656 0.46830723 0.07008409 0.061917514 0.3007491 0.07228821 0.027081192
0.2066293 -0.20949262 -0.05505896 0.33518884 -0.05701352 -0.5176216 -0.44475067 -0.39528796
0.46748573 0.53134966 0.27016154 -0.09741257 0.33063373 0.17150821 0.21112552 -0.73743606
0.1874949 -0.26983285 -0.45447648 -0.1492782 -0.2597885 -0.024695873 0.13975325 -0.0074608168
0.42435512 0.40204528 0.08716112 -0.42262036 0.21061318 -0.058370445 -0.4021678 0.5787475
0.45230198 -0.12009211 0.4579301 0.1664512 -0.53116584 -0.5526551 0.12836078 -0.20415434

target_network.h2.transform.bias f4 [20]
00000000: a1eb 3bbb c2c9 e0bd 1549 b4bd 716d c5bd
00000010: 7dae d9bd be6a cdbd c9e5 09be 7250 04be
00000020: b188 11bd 1d18 c6bc 4c2b 61bd 814d 33bd
00000030: 9e3c fd3d 33e4 bdbd aea4 6b3d 0000 0000
00000040: 0c22 1abe 4202 f8bd 0537 3cbd 5e72 34be
-0.0028674381 -0.10975982 -0.08803002 -0.09640015 -0.10628984 -0.10030125 -0.13466562 -0.12921312
-0.03553075 -0.02418142 -0.05497293 -0.043775085 0.123650774 -0.09272041 0.057530098 0.0
-0.1505205 -0.12109806 -0.04595091 -0.17621753

target_network.h3.transform.weight f4 [20, 20]
00000000: d5a7 923c bc11 c3bd f31e 153f 36dc 78bc
00000010: b5a4 cb3d 0b0a 1abf f0f7 fabe d61d 863e
00000020: e6c2 7e3e 664a 87be 0c81 d4bc 7a41 1d3e
00000030: 2c35 babe 0166 d4be 65ed 023e f0a1 dfbe
00000040: fe06 19be bb3c 8bbe 42b0 0fbf 11c9 afbd
00000050: 9ba3 2ebe 8207 02bf c64a 02be 1ce7 c7bd
00000060: 5996 01be df6c 4f3d 87bd 573f d824 dabd
00000070: 1127 5c3d 7eeb 5cbe a3bc 1ebe 4085 1c3f
00000080: 30fa 84be 8cc8 91bd 617d 1ebe 15f9 97bc
00000090: c97e 66be 679a 383e cf02 90be 7260 c73e
000000a0: 71e7 d33e af65 253e 9b3e 3e3c 9657 0abd
000000b0: 19e4 ebbe f18a 57bc 353a 173e 0b63 2a3f
000000c0: f16c d73e 799c 1b3f b864 babd ce59 1f3c
000000d0: 1fbd db3e 8ca5 b33e c199 b83e 128d f7be
000000e0: dd02 ca3d 0a0c f23e cbba 2a3e 8b8c bebd
000000f0: e281 193e c058 ef3e 4547 9b3e 082b bdbe
00000100: 79e0 ae3e 847c 053d 6885 583e 6c79 21bd
00000110: bf51 a2bd 0fb0 ddbe e99c 913e 5ff8 a33c
00000120: 6860 b83d 0993 0b3f 7c44 dc3c 4eef 0cbd
00000130: 0750 87be b986 ccbd 508a ed3e 5f0e 58be
00000140: cf63 c23c 4a6b 473e 73ef 93be d305 b9bd
00000150: 0cae d0be 607b e6be 001e 613d 6303 0bbf
00000160: ccf2 293f a41a 3bbe 1f9b 2f3e 56b7 cbbe
00000170: fe85 1bbf c8c6 c5be 8917 66be 1f9a bb3d
00000180: c270 ba3e 5ac8 c8bd a836 fe3d d02f a13d
00000190: f9ac 99bc 5f38 4e3f 3dbe fa3e 3d47 a73e
000001a0: ee44 bcbc 8be7 30be 4ecf 203f 8d16 3abe
000001b0: 3440 34bc 6a70 3d3e ee13 fa3d 6253 ae3c
000001c0: f1fb 983e 2c87 b9be d9c3 663e 3bd4 583d
000001d0: 5423 5bbd 4f4b fb3d 783a 3dbe edaf 513e
000001e0: 4fd8 5fbd 0f13 86be ed89 1a3f f65e cdbe
000001f0: 78da 81be 8066 623e e5b8 10bd 3ac1 603d
00000200: 118d 59be 283a a83e 932a ac3e ae37 213d
00000210: d097 5bbf 89b9 283e 238b 2b3d 06d4 063e
00000220: 4eb3 0bbe 70f7 0ebe c880 8b3e e2d1 7d3e
00000230: 73b7 863e c6e2 1cbe 64f6 323e 794e 953e
00000240: e14e e6bd ab2c 4dbf 548b 8c3e 5a3d 5bbd
00000250: ad0a 19bf 3cee 99bc 9cbc c7be 2573 0d3e
00000260: 7080 06bd 818d 9a3e c856 0ebf 83ea b6bd
00000270: 3bcc 153f f54d 86be e3b2 953e 6db0 943d
00000280: 34b0 db3e 4e69 a1be 7f92 4cbe e0b9 8f3d
00000290: f6a2 1c3f e406 b1bd 40c6 133e 1132 c83e
000002a0: 07fc 563e 2b10 90be 4ae1 153f e45b 56bd
000002b0: 88c4 34be 4220 713e a565 7dbe 8884 cc3e
000002c0: 0f0d 843e bf2e cb3e 8b37 9dbe 8e86 053e
000002d0: a50b b2bd e2d8 0f3e a851 c4bd 4b2b 8bbe
000002e0: b0ee 5e3e 2282 af3e d654 a2bc 7933 3e3e
000002f0: 449e c63d 6508 e3be 431a 36be 0165 053c
00000300: 2ce6 383e 2374 bcbe c60d 69bd a7b9 23bf
00000310: 4040 fa3e 17ce 84be 8e0f 9b3e ba2e 1a3f
00000320: 9b1f 5c3e 5086 90be ecee ce3c dfb4 4bbf
00000330: 0a2b c03e 4679 d9be 7a9a 2b3e 791c f3be
00000340: 24a9 e1bd e428 913e ea4b 523c 79c9 d8be
00000350: 6f91 a63e 436c 64be 00b0 b8bd e6e3 cebe
00000360: 5813 b9bc c6ab 4d3e 3ab9 c0bd e339 a0ba
00000370: f8f7 fc3d ac38 c43d 54fa be3e 4e4b dcbe
00000380: 574d 4b3d 7bc2 15be 5b6b 233c 7ed3 a63e
00000390: d76a cc3e 08ec abbd f64c 3abf df07 e1bd
000003a0: 796e af3d 322c 8abe b5c0 68bd 1157 533f
000003b0: b73a c1bc 7e2b 6f3c 7003 e83d 5f4c 3e3e
000003c0: 57c9 8a3e 77af d4be c13a 4f3e 4b85 a63c
000003d0: 3197 e1be f58d 0ebd 300f 333d 8455 563d
000003e0: 37a3 61be bd7d 2cbf 75b7 173f fb50 0dbc
000003f0: 0b49 0e3f b309 d3be d123 a4bd 4f1b 623e
0.017902294 -0.09524867 0.5825035 -0.015189221 0.09943525 -0.60171574 -0.49017286 0.26194638
0.24879035 -0.2642395 -0.02594044 0.15357009 -0.36368692 -0.41484073 0.12785871 -0.43678236
-0.14944074 -0.2719477 -0.56128323 -0.08583272 -0.17054598 -0.50792706 -0.12723836 -0.097608775
-0.1265501 0.050640937 0.8427357 -0.10651559 0.053748194 -0.21574208 -0.15501647 0.61140823
-0.25972128 -0.071183294 -0.15477516 -0.018551389 -0.22509302 0.1802765 -0.28127143 0.3894077
0.41387513 0.1615207 0.011611606 -0.033774935 -0.46072462 -0.013155685 0.14768298 0.6655738
0.42075303 0.60785633 -0.09101242 0.009726001 0.42917725 0.3508724 0.36054805 -0.48349816
0.098638274 0.4727481 0.16672818 -0.0930415 0.14990953 0.46747398 0.30327812 -0.36946893
0.34155634 0.03258945 0.2114464 -0.039422438 -0.07925748 -0.43298385 0.28440025 0.020015894
0.09002763 0.5452123 0.026888125 -0.034407906 -0.26428244 -0.09986634 0.46394587 -0.21099232
0.023729233 0.19474521 -0.28893623 -0.09034314 -0.40757787 -0.45016003 0.05496025 -0.5430204
0.66386104 -0.18271881 0.17149018 -0.39788312 -0.6075133 -0.3862822 -0.22469915 0.09160256
0.36414152 -0.09803839 0.124127686 0.07870448 -0.018759238 0.80554765 0.48973265 0.32671538
-0.022982087 -0.17275827 0.6281632 -0.18172665 -0.011001635 0.18499914 0.122108325 0.021279994
0.29879716 -0.3623594 0.22535647 0.052936774 -0.05350049 0.12270223 -0.18479335 0.20477267
-0.054649647 -0.26186416 0.6036671 -0.40111512 -0.2536199 0.22109413 -0.03533258 0.054871775
-0.21245219 0.3285687 0.33626232 0.03935974 -0.8577852 0.16477026 0.041880738 0.13166818
-0.13642618 -0.13961577 0.2724669 0.24787095 0.26311836 -0.15320882 0.17476803 0.29161432
-0.11245514 -0.8014628 0.2745005 -0.053525306 -0.59781915 -0.018790357 -0.39011085 0.13813455
-0.03283733 0.30186084 -0.5560117 -0.08931448 0.58514756 -0.26231351 0.29238042 0.07260213
0.4290787 -0.31525654 -0.19977759 0.07017875 0.6118616 -0.086438924 0.14431095 0.39100698
0.20994578 -0.28137335 0.5854689 -0.052333727 -0.17653096 0.23547462 -0.24745806 0.39944863
0.25791213 0.39684102 -0.30706438 0.1303961 -0.08693627 0.14047578 -0.09585887 -0.27181467
0.2177074 0.3427897 -0.019815844 0.18574323 0.096981555 -0.44342342 -0.17783456 0.008141757
0.18056554 -0.36807355 -0.0568979 -0.6395516 0.48877144 -0.25938484 0.30285305 0.6022755
0.21496432 -0.28227472 0.025260411 -0.7957286 0.37532836 -0.42475337 0.16758147 -0.4748266
-0.11018589 0.2835151 0.012835482 -0.4234121 0.32532832 -0.22306924 -0.09017944 -0.40408248
-0.022592232 0.20085058 -0.09410329 -0.0012224283 0.12351984 0.09581122 0.3730036 -0.43026203
0.049634304 -0.1462497 0.009974326 0.3258323 0.39925262 -0.08394629 -0.72773683 -0.109878294
0.08565993 -0.26986843 -0.056824405 0.8255473 -0.023587568 0.014597772 0.11328781 0.18583821
0.27106735 -0.4154012 0.20237257 0.02032723 -0.44060662 -0.03480335 0.043715656 0.052327648
-0.22034918 -0.6737936 0.5926431 -0.008625264 0.55580205 -0.41218337 -0.08014644 0.2208073

target_network.h3.transform.bias f4 [20]
00000000: 3d16 cdbd 5243 083d 1400 27bc b8c4 3fbc
00000010: ba99 42be f1e4 10be f95b 6ebd 92e7 0ebe
00000020: a2e0 79bc 5f07 d5bd b0eb c1bc 0000 0000
00000030: e8cd aebd 68da 13be 0000 0000 06d2 5ebd
00000040: 87b9 99bd 9d3c e2bc 3adb 1fbe 1880 dcbd
-0.10014007 0.033267327 -0.01019289 -0.011704616 -0.19003955 -0.14149834 -0.05819318 -0.13955525
-0.015251311 -0.104017965 -0.023671955 0.0 -0.08535367 -0.14438784 0.0 -0.054399513
-0.0750609 -0.027616793 -0.15610972 -0.107666194

target_network.critic_linear.weight f4 [1, 20]
00000000: c5e6 93be 4561 b6be d095 86be af6a 42be
00000010: 78d1 adbe 234f 573e f714 6c3e 5a56 cf3e
00000020: ce3b ed3e 0450 4c3e f9a6 443d a02d dc3c
00000030: d121 8dbe e20b e4bc 570d 2cbf cacf 03be
00000040: 1ea1 cdbc e52c 1dbe 9ed2 583e af9a 223e
-0.28887 -0.35621086 -0.26286173 -0.18986009 -0.33948874 0.21026282 0.23054872 0.4049557
0.4633469 0.19952399 0.0480108 0.026877224 -0.27564862 -0.027837697 -0.67207855 -0.12872234
-0.02510124 -0.15349157 0.21174094 0.1587932
