pz_risk/mini_0/32.pt (torch, 18513 bytes, 26 tensors)

policy_network.emb1.transform.weight f4 [20, 2]
0.12648085 0.45550573 0.0572149 -0.6041272 -0.00736235 -0.33152986 -0.17211372 -0.33369017
0.0037009378 0.3122843 -0.6100881 0.39981577 -0.20322648 -0.069727324 -0.28760484 -0.28284267
0.16710502 0.25649372 -0.051713318 0.22570533 -0.1462185 0.02526007 -0.03704767 0.50988674
0.28742504 -0.35163572 -0.29615667 0.29741776 0.23962727 0.24331033 -0.74575245 0.24050364
-0.606854 -0.22983083 -0.42675307 -0.38731995 -0.051602125 0.081241556 -0.30898038 -0.2977888
00000000: 3284 013e 0c38 e93e 2c5a 6a3d 15a8 1abf
00000010: de3f f1bb 48be a9be 943e 30be 70d9 aabe
00000020: 6f8b 723b bae3 9f3e bc2e 1cbf a7b4 cc3e
00000030: 9a1a 50be 33cd 8ebd f140 93be c1d0 90be
00000040: 941d 2b3e 2553 833e 58d1 53bd 4c1f 673e
00000050: 4dba 15be 35ee ce3c 4cbf 17bd f087 023f
00000060: 6029 933e 9909 b4be d9a1 97be 2447 983e
00000070: da60 753e 5826 793e a2e9 3ebf 9646 763e
00000080: c95a 1bbf c658 6bbe 617f dabe cd4e c6be
00000090: c05c 53bd f961 a63d ad32 9ebe c677 98be

policy_network.emb1.transform.bias f4 [20]
0.037133496 -0.013758851 0.0 0.0 -0.129359 -0.09423403 0.0 0.0
0.042618796 -0.12608472 0.0 0.16048904 -0.109072275 -0.046992246 0.0629301 0.0
0.0 0.0 -0.020319093 0.0
00000000: 4b19 183d ce6c 61bc 0000 0000 0000 0000
00000010: b076 04be c5fd c0bd 0000 0000 0000 0000
00000020: 0c91 2e3d 5a1c 01be 0000 0000 3d57 243e
00000030: 4961 dfbd f17a 40bd 7fe1 803d 0000 0000
00000040: 0000 0000 0000 0000 3a74 a6bc 0000 0000

policy_network.emb2.transform.weight f4 [20, 2]
-0.038444612 0.5485015 0.13602003 0.52663743 -0.28624037 0.032117296 -0.048597015 -0.10264552
0.37442464 -0.21363309 -0.08700661 0.355366 0.14685707 0.07394647 -0.32689583 0.5662852
-0.36669928 0.5196884 0.36637852 -0.18415911 0.10673969 -0.5591687 -0.8660892 -0.18435353
-0.0528562 0.05690128 -0.33453217 0.24175863 -0.099816754 0.90245086 -0.3138009 0.40253875
-0.5990113 0.10322409 0.124184385 -0.5376281 -0.090905674 -0.1213615 0.039800942 0.06014897
00000000: 1978 1dbd 986a 0c3f d648 0b3e b6d1 063f
00000010: 198e 92be 6d8d 033d aa0d 47bd d037 d2bd
00000020: 96b4 bf3e a2c2 5abe 8630 b2bd 88f2 b53e
00000030: b361 163e 3f71 973d e45e a7be 11f8 103f
00000040: 02c0 bbbe 4d0a 053f f795 bb3e 3594 3cbe
00000050: 579a da3d ae25 0fbf 06b8 5dbf 2cc7 3cbe
00000060: be7f 58bd 5111 693d cd47 abbe 938f 773e
00000070: ba6c ccbd 0507 673f 83aa a0be 8f19 ce3e
00000080: ce58 19bf 2767 d33d 6254 fe3d ffa1 09bf
00000090: c12c babd 618c f8bd 5006 233d c45e 763d

policy_network.emb2.transform.bias f4 [20]
-0.11849378 -0.004829786 0.0 0.0 -0.13483553 -0.08513552 0.011542501 -0.047318187
-0.029864637 -0.17312993 -0.04223875 0.0 -0.03343839 -0.16304015 -0.1252451 -0.018312657
0.0 -0.047698703 0.0 -0.05136282
00000000: deac f2bd 2e43 9ebb 0000 0000 0000 0000
00000010: 5312 0abe 885b aebd c21c 3d3c b7d0 41bd
00000020: afa6 f4bc f948 31be 8a02 2dbd 0000 0000
00000030: b1f6 08bd fff3 26be 4040 00be 6d04 96bc
00000040: 0000 0000 b75f 43bd 0000 0000 d261 52bd

policy_network.emb3.transform.weight f4 [20, 2]
-0.5239777 -0.21700567 -0.29466254 -0.051396992 -0.25354666 -0.057620674 0.3289559 0.16286759
0.18823372 0.33204147 -0.42488775 0.428438 0.15615247 0.4687271 0.044741385 -0.20215155
-0.4804635 0.5518884 0.066507764 -0.27321073 -0.06748154 -0.40162408 -0.6148405 0.2592601
0.07452 0.14620979 0.43390754 0.22753255 -0.20429619 -0.14116806 -0.3635432 0.1897101
0.7344078 -0.3315322 0.084186025 -0.22280058 -0.029378906 0.05969824 0.29845834 0.1635047
00000000: 6723 06bf bc36 5ebe 02de 96be a785 52bd
00000010: ded0 81be a803 6cbd e86c a83e c3c6 263e
00000020: 57c0 403e 5701 aa3e e38a d9be 3a5c db3e
00000030: 6fe6 1f3e 00fd ef3e be42 373d d100 4fbe
00000040: 50ff f5be 8f48 0d3f 3935 883d 47e2 8bbe
00000050: c333 8abd aca1 cdbe 3066 1dbf bdbd 843e
00000060: f19d 983d 05b8 153e 2129 de3e 4bfe 683e
00000070: 0533 51be 5c8e 10be 5622 babe 5d43 423e
00000080: 2602 3c3f 97be a9be b969 ac3d d625 64be
00000090: 08ac f0bc 2486 743d 88cf 983e c76d 273e

policy_network.emb3.transform.bias f4 [20]
0.0 0.0 0.0 0.0035090307 -0.08859702 -0.024710491 -0.022418916 -0.025967713
-0.07933674 -0.01874803 0.0 -0.09713388 0.044674292 -0.048748083 0.0 0.047720395
-0.048769664 -0.13862783 -0.14192063 -0.056079898
00000000: 0000 0000 0000 0000 0000 0000 c4f7 653b
00000010: 5b72 b5bd a86d cabc e0a7 b7bc 3eba d4bc
00000020: 4d7b a2bd 7895 99bc 0000 0000 21ee c6bd
00000030: 64fc 363d 12ac 47bd 0000 0000 7676 433d
00000040: b3c2 47bd 74f4 0dbe a453 11be 09b4 65bd

policy_network.emb4.transform.weight f4 [20, 2]
0.17958955 0.22632918 0.062482033 -0.20621358 0.25001976 0.09916534 -0.4065257 0.33593175
0.18003301 -0.23183799 0.14392966 0.4496726 0.26871106 -0.0051691495 -0.21015364 -0.25646433
-0.30247685 -0.36348313 -0.32976142 0.17836688 -0.017163947 -0.35979912 0.21487954 0.27637672
-0.055610824 0.04382745 0.020361144 0.042177714 -0.32673973 0.33413765 0.2958544 -0.55717605
0.11401783 0.013971452 -0.60720015 0.5526074 -0.8032723 0.17267153 -0.5195791 -0.5107055
00000000: 53e6 373e d6c2 673e 29ed 7f3d a729 53be
00000010: 9702 803e 3317 cb3d 2324 d0be 3fff ab3e
00000020: 935a 383e f066 6dbe 4c62 133e 7d3b e63e
00000030: 7f94 893e f861 a9bb 8432 57be 4b4f 83be
00000040: 3fde 9abe 761a babe 7dd6 a8be cfa5 363e
00000050: 689b 8cbc 9737 b8be 6209 5c3e 4081 8d3e
00000060: 2dc8 63bd 6a84 333d 6acc a63c 8ac2 2c3d
00000070: 6e4a a7be 1714 ab3e 3a7a 973e 17a3 0ebf
00000080: 2e82 e93d 84e8 643c 7871 1bbf ae77 0d3f
00000090: 41a3 4dbf ced0 303e 2303 05bf 98bd 02bf

policy_network.emb4.transform.bias f4 [20]
-0.01816522 -0.021092052 -0.22402233 -0.1571898 -0.10563452 0.031416573 0.038874183 0.0
0.0 0.03682081 0.0 0.19131912 -0.05474933 -0.05764426 -0.02187448 -0.14232486
-0.12833486 -0.0053062653 0.0 0.0
00000000: 3acf 94bc 3dc9 acbc 1c66 65be 5df6 20be
00000010: e956 d8bd aaae 003d 893a 1f3d 0000 0000
00000020: 0000 0000 6bd1 163d 0000 0000 29e9 433e
00000030: d540 60bd 631c 6cbd 1c32 b3bc 9cbd 11be
00000040: 376a 03be 2ee0 adbb 0000 0000 0000 0000

policy_network.h2.transform.weight f4 [20, 20]
0.060136538 -0.071426794 -0.27572906 0.04785336 -0.088807784 0.48726204 -0.6832921 -0.75534254
-0.18323827 -0.27444717 0.38672885 0.20953117 0.11077285 0.07267016 -0.17230332 -0.27808142
-0.40666923 -0.1182426 -0.33099717 -0.4842805 0.05181462 0.035965208 -0.39747164 0.22634518
0.004733473 -0.66259277 0.13843688 -0.44600156 -0.65032727 0.39499086 0.07534883 -0.19147937
-0.27655256 -0.4454334 -0.48498678 -0.2485193 -0.21705054 -0.012107105 -0.24056838 0.039959084
-0.45322448 0.019071793 -0.33255327 -0.4683507 -0.3210247 -0.13258421 -0.39664677 0.14598499
0.12654607 0.22498657 0.024829248 -0.07560792 0.2711252 -0.15267138 0.1251051 -0.4303739
0.45709088 -0.18735838 -0.699235 0.3670845 -0.11606237 -0.0078069577 0.29551223 -0.14909635
0.2316895 0.2711013 -0.3895951 0.15613389 -0.17589498 0.8283478 -0.25236732 0.39644417
-0.045879047 -0.054870922 -0.62615484 -0.18503883 -0.09457242 -0.32233542 0.113164164 0.029441096
-0.14089939 -0.58234495 -0.48357043 0.23170748 -0.60903305 -0.07501429 -0.4955346 0.1368076
0.2656585 0.3774643 0.30904973 -0.10659796 -0.21369256 0.07537348 -0.477529 0.2888459
-0.039193276 0.41697365 0.36926794 0.13096818 0.02398517 0.27651662 0.010064801 0.5421556
-0.05710577 0.45111442 -0.31631508 -0.0184924 -0.27453017 0.11913575 0.025921047 -0.5836114
-0.21550518 -0.39352614 0.32657114 -0.16765407 0.37903357 -0.21012196 0.13204466 -0.1375219
-0.0015249888 -0.24836057 -0.44751474 0.4778239 0.07748399 -0.03101799 -0.23058134 0.39222255
0.35522324 -0.5676512 -0.541286 0.25104353 -0.12526423 -0.45103717 -0.4770502 -0.27337453
-0.20159727 -0.18984124 -0.2109585 0.05390446 -0.3342823 -0.069726124 -0.27336103 -0.015390201
0.04110803 -0.44126678 0.08189264 -0.4134516 0.40547705 0.11196116 0.03794486 0.19581519
-0.076360844 -0.31773993 -0.07349797 -0.09943296 0.49866268 -0.2924975 0.2842243 -0.86384916
0.6341031 -0.5862603 -0.08793693 -0.5608436 -0.7544832 0.11533101 -0.0062051294 0.6491666
-0.14239624 -0.04882315 -0.112243444 0.24327618 -0.19681375 -0.43609118 0.16390723 -0.058068737
-0.10169328 -0.13156742 0.40301988 -0.1746964 0.019489575 -0.3281295 0.564999 -0.09570715
-0.34547356 0.1328002 0.115326926 0.05158095 0.12455194 0.11673696 0.22841047 0.3129883
0.33628207 -1.1988581 0.05015035 0.56078506 -0.277239 0.7538356 -0.2587619 -0.1823161
-0.008554482 -0.3736869 0.25773257 0.076264754 0.5316532 -0.34686148 -0.13324752 0.03938331
-0.052675318 -0.06487745 0.46830723 0.01719795 0.0754467 0.2834737 0.043544237 -0.19208162
0.21680534 -0.12416695 -0.0550583 0.2693776 -0.16094863 -0.6270398 -0.5505276 -0.4101042
0.465711 0.70114607 0.26371953 -0.10440202 0.48131195 0.17065604 0.21112552 -0.72145075
0.16216359 -0.2900185 -0.56878155 0.09030492 -0.29947743 -0.110813655 0.13975325 -0.029675037
0.39192432 0.37616116 0.13071181 -0.59939194 0.1004862 -0.08162832 -0.41176075 0.79940724
0.48752806 -0.052316 0.4579301 0.19142208 -0.64839625 -0.75083524 0.1582559 0.0074179093
00000000: bb51 763d 3648 92bd 5c2c 8dbe e301 443d
00000010: dbe0 b5bd 697a f93e 3bec 2ebf 215e 41bf
00000020: d0a2 3bbe 5784 8cbe 5301 c63e 578f 563e
00000030: e0dc e23d 18d4 943d 4870 30be b060 8ebe
00000040: f336 d0be 2d29 f2bd 7678 a9be 9df3 f7be
00000050: 913b 543d 4150 133d 6781 cbbe 08c7 673e
00000060: 401b 9b3b ae9f 29bf 66c2 0d3e 515a e4be
00000070: d97b 26bf 3e3c ca3e 7d50 9a3d 2b13 44be
00000080: 4c98 8dbe d90f e4be 3050 f8be d87b 7ebe
00000090: 7f42 5ebe e15c 46bc 8f57 76be 23ac 233d
000000a0: 0a0d e8be 733c 9c3c 6c44 aabe aacb efbe
000000b0: 595d a4be 28c4 07be 4915 cbbe 177d 153e
000000c0: 4b95 013e e162 663e b566 cb3c 53d8 9abd
000000d0: ecd0 8a3e e355 1cbe 8d1b 003e f859 dcbe
000000e0: d107 ea3e e0da 3fbe 1101 33bf 80f2 bb3e
000000f0: 1cb2 edbd 82d1 ffbb 614d 973e b7ac 18be
00000100: 0340 6d3e cacd 8a3e 0279 c7be 90e1 1f3e
00000110: d01d 34be 9a0e 543f 4a36 81be bbfa ca3e
00000120: abeb 3bbd 55c0 60bd af4b 20bf d27a 3dbe
00000130: 2faf c1bd 2609 a5be 9dc2 e73d 742e f13c
00000140: ee47 10be 8f14 15bf 8b96 f7be ba44 6d3e
00000150: 97e9 1bbf 18a1 99bd b6b6 fdbe 4b17 0c3e
00000160: 6404 883e 0043 c13e c43b 9e3e 0850 dabd
00000170: 39d2 5abe 695d 9a3d ae7e f4be 9ce3 933e
00000180: 2189 20bd 927d d53e b010 bd3e 861c 063e
00000190: 8c7c c43c 9693 8d3e d6e6 243c b6ca 0a3f
000001a0: bde7 69bd 78f8 e63e 0df4 a1be 607d 97bc
000001b0: 388f 8cbe 72fd f33d 6058 d43c 8f67 15bf
000001c0: 64ad 5cbe 427c c9be 5534 a73e 82ad 2bbe
000001d0: b010 c23e 362a 57be b736 073e 8ad2 0cbe
000001e0: 22e2 c7ba 3c52 7ebe a720 e5be 56a5 f43e
000001f0: edaf 9e3d 7119 febc 841d 6cbe 65d1 c83e
00000200: d2df b53e 9751 11bf b891 0abf c788 803e
00000210: 4445 00be 58ee e6be ec3f f4be bff7 8bbe
00000220: 846f 4ebe be65 42be 8105 58be ecca 5c3d
00000230: 0d27 abbe 92cc 8ebd faf5 8bbe 2e27 7cbc
00000240: e560 283d b8ed e1be 54b7 a73d eeaf d3be
00000250: b09a cf3e e54b e53d 126c 1b3d c783 483e
00000260: 1363 9cbd cfae a2be 1b86 96bd 82a3 cbbd
00000270: b750 ff3e 3bc2 95be d985 913e 3825 5dbf
00000280: 9554 223f 2815 16bf 4718 b4bd 7293 0fbf
00000290: d025 41bf aa32 ec3d 6654 cbbb c82f 263f
000002a0: 52d0 11be c9fa 47bd e4df e5bd 641d 793e
000002b0: 8b89 49be 5847 dfbe 4cd7 273e 7cd9 6dbd
000002c0: 9144 d0bd 9cb9 06be 9f58 ce3e 9de3 32be
000002d0: 9aa8 9f3c 9700 a8be c6a3 103f 1c02 c4bd
000002e0: e9e1 b0be c7fc 073e 8630 ec3d 8c46 533d
000002f0: 1615 ff3d ca13 ef3d 6fe4 693e 0140 a03e
00000300: 2a2d ac3e 2f74 99bf 746a 4d3d 9c8f 0f3f
00000310: 45f2 8dbe 5ffb 403f 717c 84be 12b1 3abe
00000320: 1928 0cbc e453 bfbe 86f5 833e b230 9c3d
00000330: 6d1a 083f d497 b1be 0a72 08be 6550 213d
00000340: 13c2 57bd 78de 84bd f7c5 ef3e b7e2 8c3c
00000350: cd83 9a3d 7723 913e 715b 323d 0bb1 44be
00000360: 3802 5e3e 3e4b febd d084 61bd dceb 893e
00000370: b8cf 24be ae85 20bf 60ef 0cbf 2df9 d1be
00000380: ac71 ee3e 4f7e 333f 3f06 873e bad0 d5bd
00000390: 856e f63e 75c0 2e3e 4a31 583e ffb0 38bf
000003a0: 360e 263e 4e7d 94be ab9b 11bf c9f1 b83d
000003b0: 1b55 99be 45f2 e2bd 7a1b 0f3e 1019 f3bc
000003c0: 4eaa c83e 3298 c03e 51d9 053e c071 19bf
000003d0: b5cb cd3d c02c a7bd 4ed2 d2be f4a5 4c3f
000003e0: 479d f93e 4d49 56bd d075 ea3e 2604 443e
000003f0: 4cfd 25bf bd36 40bf d60d 223e ef11 f33b

policy_network.h2.transform.bias f4 [20]
-0.09169731 -0.10975982 -0.08794677 -0.10706843 -0.20207727 -0.15521772 -0.13466562 -0.12921312
-0.0301357 0.019848036 -0.035380464 -0.024829343 0.16941537 -0.07340655 0.09643826 0.0
-0.1505205 -0.12204358 -0.0043539517 -0.17621753
00000000: cdcb bbbd c2c9 e0bd 701d b4bd b146 dbbd
00000010: 58ed 4ebe 65f1 1ebe c9e5 09be 7250 04be
00000020: 25df f6bc 5998 a23c 1beb 10bd e866 cbbc
00000030: 397b 2d3e 2c56 96bd 6c81 c53d 0000 0000
00000040: 0c22 1abe fcf1 f9bd 98ab 8ebb 5e72 34be

policy_network.h3.transform.weight f4 [20, 20]
0.017902294 -0.09524867 0.5825035 -0.015189221 0.09943525 -0.60171574 -0.49017286 0.26194638
0.24879035 -0.2642395 -0.113983326 0.06493776 -0.36368692 -0.5109185 0.12785871 -0.43678236
-0.14944074 -0.2719477 -0.56128323 -0.08583272 -0.17054598 -0.50792706 -0.12723836 -0.097608775
-0.1265501 0.050694473 0.8427357 -0.10651559 0.08691528 -0.19967894 -0.21601084 0.6141859
-0.25975603 0.015804043 -0.16459762 -0.018551389 -0.22509302 0.1802765 -0.38013712 0.3894077
0.37474892 0.1615207 0.011611606 -0.033347007 -0.44117144 -0.026791232 0.14768298 0.6655738
0.42733935 0.7007109 -0.14351007 -0.0006103888 0.5933445 0.36589423 0.4990194 -0.48349816
0.098638274 0.4727481 0.25606453 -0.0930415 0.10938088 0.46747398 0.30328062 -0.36920062
0.3813811 0.0480151 0.2114464 -0.039422438 -0.08089897 -0.35054898 0.27207518 0.03896339
0.24172033 0.5353639 0.15509124 -0.034407906 -0.26428244 -0.09986115 0.54525423 -0.21099232
0.024273528 0.19474521 -0.28893623 -0.09034314 -0.31673372 -0.40244815 0.05496025 -0.5430204
0.6639088 -0.18270098 0.19448464 -0.33998013 -0.6075133 -0.5392267 -0.22469915 0.09160256
0.36414152 -0.09803839 0.124127686 0.07870448 -0.01885 0.80554765 0.48973265 0.32671538
-0.036646515 -0.19297865 0.6281632 -0.18172665 -0.011001635 0.18499914 0.06494726 0.026819132
0.29879716 -0.369725 0.22535647 0.052936774 -0.05350049 0.12270223 -0.18479335 0.20477267
0.010514945 -0.26186416 0.60366416 -0.40111512 -0.29226342 0.19939248 -0.03533258 0.054871775
-0.15014273 0.31051382 0.29152262 0.013636996 -0.9827357 0.15902488 0.028885162 0.13166818
-0.13642618 -0.13962187 0.22626622 0.24787095 0.3012349 -0.15320882 0.17476803 0.29161432
-0.11245514 -0.8014628 0.2745005 -0.053525306 -0.6062623 -0.0432822 -0.5533145 0.23765936
-0.11045058 0.2490544 -0.605794 -0.08931448 0.58514756 -0.26231351 0.23864904 0.07260213
0.473608 -0.31525654 -0.19978043 0.07017875 0.57045215 -0.10781188 0.14431095 0.39100698
0.27325085 -0.28845158 0.60563844 -0.07943011 -0.22793521 0.26969305 -0.24992979 0.39944863
0.25791213 0.3968332 -0.25554 0.1303961 -0.08693627 0.14047578 -0.09585887 -0.27181467
0.2177074 0.3427897 -0.019815844 0.18574323 0.096981555 -0.44342342 -0.17783456 0.008141757
0.18056554 -0.36807355 -0.0568979 -0.6395516 0.48877144 -0.25938484 0.30285305 0.6022755
0.2138741 -0.28227472 0.025260411 -0.7957286 0.375234 -0.4250493 0.16758147 -0.4748266
-0.11018589 0.2835151 -0.0073980317 -0.4234121 0.32532832 -0.22307865 -0.09017944 -0.40408248
-0.022592232 0.20085058 -0.09410329 -0.0012224283 0.12351984 0.09581122 0.3730036 -0.43026203
0.049634304 -0.1462497 0.009974326 0.3258323 0.39925262 -0.08394629 -0.72773683 -0.109878294
0.08565993 -0.26986843 -0.056824405 0.8255473 -0.023587568 0.014597772 0.11328781 0.18583821
0.18358257 -0.4154012 0.20237511 0.02032723 -0.3924644 -0.010616083 0.043715656 0.052327648
-0.31139663 -0.7120384 0.58390415 -0.004907273 0.50219834 -0.52224207 -0.11504479 0.2208073
00000000: d5a7 923c bc11 c3bd f31e 153f 36dc 78bc
00000010: b5a4 cb3d 0b0a 1abf f0f7 fabe d61d 863e
00000020: e6c2 7e3e 664a 87be 1770 e9bd 17fe 843d
00000030: 2c35 babe 8ecb 02bf 65ed 023e f0a1 dfbe
00000040: fe06 19be bb3c 8bbe 42b0 0fbf 11c9 afbd
00000050: 9ba3 2ebe 8207 02bf c64a 02be 1ce7 c7bd
00000060: 5996 01be 02a5 4f3d 87bd 573f d824 dabd
00000070: a300 b23d a378 4cbe f231 5dbe 4a3b 1d3f
00000080: befe 84be 7b77 813c 478c 28be 15f9 97bc
00000090: c97e 66be 679a 383e 55a1 c2be 7260 c73e
000000a0: 17df bf3e af65 253e 9b3e 3e3c df96 08bd
000000b0: 39e1 e1be 4979 dbbc 353a 173e 0b63 2a3f
000000c0: 39cc da3e ca61 333f 4ef4 12be 8002 20ba
000000d0: 6de5 173f 7d56 bb3e 797f ff3e 128d f7be
000000e0: dd02 ca3d 0a0c f23e e41a 833e 8b8c bebd
000000f0: 1503 e03d c058 ef3e 9947 9b3e dd07 bdbe
00000100: 6244 c33e 7bab 443d 6885 583e 6c79 21bd
00000110: 5cae a5bd 287b b3be 704d 8b3e 1398 1f3d
00000120: 8985 773e 9c0d 093f 3dd0 1e3e 4eef 0cbd
00000130: 0750 87be 0184 ccbd c895 0b3f 5f0e 58be
00000140: 47d9 c63c 4a6b 473e 73ef 93be d305 b9bd
00000150: ec2a a2be af0d cebe 001e 613d 6303 0bbf
00000160: edf5 293f f715 3bbe fb26 473e e011 aebe
00000170: fe85 1bbf c30a 0abf 8917 66be 1f9a bb3d
00000180: c270 ba3e 5ac8 c8bd a836 fe3d d02f a13d
00000190: 516b 9abc 5f38 4e3f 3dbe fa3e 3d47 a73e
000001a0: a81a 16bd 329c 45be 4ecf 203f 8d16 3abe
000001b0: 3440 34bc 6a70 3d3e 1203 853d ccb3 db3c
000001c0: f1fb 983e 984c bdbe d9c3 663e 3bd4 583d
000001d0: 5423 5bbd 4f4b fb3d 783a 3dbe edaf 513e
000001e0: e046 2c3c 0f13 86be bc89 1a3f f65e cdbe
000001f0: 8da3 95be 8b2d 4c3e e5b8 10bd 3ac1 603d
00000200: 04bf 19be abfb 9e3e 7442 953e b56d 5f3c
00000210: 9194 7bbf 6bd7 223e 93a0 ec3c 06d4 063e
00000220: 4eb3 0bbe 09f9 0ebe 55b2 673e e2d1 7d3e
00000230: 763b 9a3e c6e2 1cbe 64f6 323e 794e 953e
00000240: e14e e6bd ab2c 4dbf 548b 8c3e 5a3d 5bbd
00000250: 0234 1bbf ad48 31bd 05a6 0dbf fa5c 733e
00000260: ea33 e2bd 1e08 7f3e 5115 1bbf 83ea b6bd
00000270: 3bcc 153f f54d 86be 6a60 743e 6db0 943d
00000280: bf7c f23e 4e69 a1be 3e93 4cbe e0b9 8f3d
00000290: 2709 123f 7acc dcbd 40c6 133e 1132 c83e
000002a0: 89e7 8b3e edaf 93be 1f0b 1b3f 41ac a2bd
000002b0: d967 69be 3515 8a3e 98ed 7fbe 8884 cc3e
000002c0: 0f0d 843e b92d cb3e 24d6 82be 8e86 053e
000002d0: a50b b2bd e2d8 0f3e a851 c4bd 4b2b 8bbe
000002e0: b0ee 5e3e 2282 af3e d654 a2bc 7933 3e3e
000002f0: 449e c63d 6508 e3be 431a 36be 0165 053c
00000300: 2ce6 383e 2374 bcbe c60d 69bd a7b9 23bf
00000310: 4040 fa3e 17ce 84be 8e0f 9b3e ba2e 1a3f
00000320: d001 5b3e 5086 90be ecee ce3c dfb4 4bbf
00000330: ac1e c03e 10a0 d9be 7a9a 2b3e 791c f3be
00000340: 24a9 e1bd e428 913e 306b f2bb 79c9 d8be
00000350: 6f91 a63e bb6e 64be 00b0 b8bd e6e3 cebe
00000360: 5813 b9bc c6ab 4d3e 3ab9 c0bd e339 a0ba
00000370: f8f7 fc3d ac38 c43d 54fa be3e 4e4b dcbe
00000380: 574d 4b3d 7bc2 15be 5b6b 233c 7ed3 a63e
00000390: d76a cc3e 08ec abbd f64c 3abf df07 e1bd
000003a0: 796e af3d 322c 8abe b5c0 68bd 1157 533f
000003b0: b73a c1bc 7e2b 6f3c 7003 e83d 5f4c 3e3e
000003c0: 12fd 3b3e 77af d4be 6c3b 4f3e 4b85 a63c
000003d0: 18f1 c8be 14ef 2dbc 300f 333d 8455 563d
000003e0: 616f 9fbe 2648 36bf be7a 153f 31cd a0bb
000003f0: 1290 003f a8b1 05bf 9a9c ebbd 4f1b 623e

policy_network.h3.transform.bias f4 [20]
-0.18896633 0.03950508 -0.050723612 -0.042551134 -0.17784245 -0.19718927 -0.055822752 -0.19176818
-0.004270699 -0.104017965 -0.04226879 0.0 -0.15739605 -0.2628088 0.0 -0.084761545
-0.10247866 -0.0075599584 -0.18760805 -0.12278735
00000000: 6480 41be 14d0 213d 90c3 4fbd 194a 2ebd
00000010: 551c 36be fceb 49be 66a6 64bd e15e 44be
00000020: 38f1 8bbb 5f07 d5bd 0a22 2dbd 0000 0000
00000030: 6e2c 21be e08e 86be 0000 0000 7697 adbd
00000040: 55e0 d1bd 87b9 f7bb 531c 40be ef77 fbbd

policy_network.critic_linear.weight f4 [1, 20]
-0.22033572 -0.2476851 -0.34461513 -0.17918546 -0.35111377 0.17552121 0.21985762 0.4315088
0.51483214 0.19952399 0.047118198 0.026877224 -0.3105393 -0.025628334 -0.67207855 -0.0702315
-0.023356877 -0.18493989 0.27064246 0.15855402
00000000: b09f 61be 2aa1 7dbe 6571 b0be 657c 37be
00000010: 2fc5 b3be d5bb 333e 5b22 613e b9ee dc3e
00000020: 0acc 033f 0450 4c3e 03ff 403d a02d dc3c
00000030: 02ff 9ebe 83f2 d1bc 570d 2cbf 88d5 8fbd
00000040: ec56 bfbc e260 3dbe a691 8a3e fc5b 223e

target_network.emb1.transform.weight f4 [20, 2]
0.12648085 0.45550573 0.0572149 -0.6041272 -0.00736235 -0.33152986 -0.17211372 -0.33369017
0.0037009378 0.3122843 -0.6100881 0.39981577 -0.20322648 -0.069727324 -0.28760484 -0.28284267
0.16710502 0.25649372 -0.051713318 0.22570533 -0.1462185 0.02526007 -0.03704767 0.50988674
0.28742504 -0.35163572 -0.29615667 0.29741776 0.23962727 0.24331033 -0.74575245 0.24050364
-0.606854 -0.22983083 -0.42675307 -0.38731995 -0.051602125 0.081241556 -0.30898038 -0.2977888
00000000: 3284 013e 0c38 e93e 2c5a 6a3d 15a8 1abf
00000010: de3f f1bb 48be a9be 943e 30be 70d9 aabe
00000020: 6f8b 723b bae3 9f3e bc2e 1cbf a7b4 cc3e
00000030: 9a1a 50be 33cd 8ebd f140 93be c1d0 90be
00000040: 941d 2b3e 2553 833e 58d1 53bd 4c1f 673e
00000050: 4dba 15be 35ee ce3c 4cbf 17bd f087 023f
00000060: 6029 933e 9909 b4be d9a1 97be 2447 983e
00000070: da60 753e 5826 793e a2e9 3ebf 9646 763e
00000080: c95a 1bbf c658 6bbe 617f dabe cd4e c6be
00000090: c05c 53bd f961 a63d ad32 9ebe c677 98be

target_network.emb1.transform.bias f4 [20]
0.037133496 -0.013758851 0.0 0.0 -0.129359 -0.09423403 0.0 0.0
0.042618796 -0.12608472 0.0 0.16048904 -0.109072275 -0.046992246 0.0629301 0.0
0.0 0.0 -0.020319093 0.0
00000000: 4b19 183d ce6c 61bc 0000 0000 0000 0000
00000010: b076 04be c5fd c0bd 0000 0000 0000 0000
00000020: 0c91 2e3d 5a1c 01be 0000 0000 3d57 243e
00000030: 4961 dfbd f17a 40bd 7fe1 803d 0000 0000
00000040: 0000 0000 0000 0000 3a74 a6bc 0000 0000

target_network.emb2.transform.weight f4 [20, 2]
-0.038444612 0.5485015 0.13602003 0.52663743 -0.28624037 0.032117296 -0.048597015 -0.10264552
0.37442464 -0.21363309 -0.08700661 0.355366 0.14685707 0.07394647 -0.32689583 0.5662852
-0.36669928 0.5196884 0.36637852 -0.18415911 0.10673969 -0.5591687 -0.8660892 -0.18435353
-0.0528562 0.05690128 -0.33453217 0.24175863 -0.099816754 0.90245086 -0.3138009 0.40253875
-0.5990113 0.10322409 0.124184385 -0.5376281 -0.090905674 -0.1213615 0.039800942 0.06014897
00000000: 1978 1dbd 986a 0c3f d648 0b3e b6d1 063f
00000010: 198e 92be 6d8d 033d aa0d 47bd d037 d2bd
00000020: 96b4 bf3e a2c2 5abe 8630 b2bd 88f2 b53e
00000030: b361 163e 3f71 973d e45e a7be 11f8 103f
00000040: 02c0 bbbe 4d0a 053f f795 bb3e 3594 3cbe
00000050: 579a da3d ae25 0fbf 06b8 5dbf 2cc7 3cbe
00000060: be7f 58bd 5111 693d cd47 abbe 938f 773e
00000070: ba6c ccbd 0507 673f 83aa a0be 8f19 ce3e
00000080: ce58 19bf 2767 d33d 6254 fe3d ffa1 09bf
00000090: c12c babd 618c f8bd 5006 233d c45e 763d

target_network.emb2.transform.bias f4 [20]
-0.11849378 -0.004829786 0.0 0.0 -0.13483553 -0.08513552 0.011542501 -0.047318187
-0.029864637 -0.17312993 -0.04223875 0.0 -0.03343839 -0.16304015 -0.1252451 -0.018312657
0.0 -0.047698703 0.0 -0.05136282
00000000: deac f2bd 2e43 9ebb 0000 0000 0000 0000
00000010: 5312 0abe 885b aebd c21c 3d3c b7d0 41bd
00000020: afa6 f4bc f948 31be 8a02 2dbd 0000 0000
00000030: b1f6 08bd fff3 26be 4040 00be 6d04 96bc
00000040: 0000 0000 b75f 43bd 0000 0000 d261 52bd

target_network.emb3.transform.weight f4 [20, 2]
-0.5239777 -0.21700567 -0.29466254 -0.051396992 -0.25354666 -0.057620674 0.3289559 0.16286759
0.18823372 0.33204147 -0.42488775 0.428438 0.15615247 0.4687271 0.044741385 -0.20215155
-0.4804635 0.5518884 0.066507764 -0.27321073 -0.06748154 -0.40162408 -0.6148405 0.2592601
0.07452 0.14620979 0.43390754 0.22753255 -0.20429619 -0.14116806 -0.3635432 0.1897101
0.7344078 -0.3315322 0.084186025 -0.22280058 -0.029378906 0.05969824 0.29845834 0.1635047
00000000: 6723 06bf bc36 5ebe 02de 96be a785 52bd
00000010: ded0 81be a803 6cbd e86c a83e c3c6 263e
00000020: 57c0 403e 5701 aa3e e38a d9be 3a5c db3e
00000030: 6fe6 1f3e 00fd ef3e be42 373d d100 4fbe
00000040: 50ff f5be 8f48 0d3f 3935 883d 47e2 8bbe
00000050: c333 8abd aca1 cdbe 3066 1dbf bdbd 843e
00000060: f19d 983d 05b8 153e 2129 de3e 4bfe 683e
00000070: 0533 51be 5c8e 10be 5622 babe 5d43 423e
00000080: 2602 3c3f 97be a9be b969 ac3d d625 64be
00000090: 08ac f0bc 2486 743d 88cf 983e c76d 273e

target_network.emb3.transform.bias f4 [20]
0.0 0.0 0.0 0.0035090307 -0.08859702 -0.024710491 -0.022418916 -0.025967713
-0.07933674 -0.01874803 0.0 -0.09713388 0.044674292 -0.048748083 0.0 0.047720395
-0.048769664 -0.13862783 -0.14192063 -0.056079898
00000000: 0000 0000 0000 0000 0000 0000 c4f7 653b
00000010: 5b72 b5bd a86d cabc e0a7 b7bc 3eba d4bc
00000020: 4d7b a2bd 7895 99bc 0000 0000 21ee c6bd
00000030: 64fc 363d 12ac 47bd 0000 0000 7676 433d
00000040: b3c2 47bd 74f4 0dbe a453 11be 09b4 65bd

target_network.emb4.transform.weight f4 [20, 2]
0.17958955 0.22632918 0.062482033 -0.20621358 0.25001976 0.09916534 -0.4065257 0.33593175
0.18003301 -0.23183799 0.14392966 0.4496726 0.26871106 -0.0051691495 -0.21015364 -0.25646433
-0.30247685 -0.36348313 -0.32976142 0.17836688 -0.017163947 -0.35979912 0.21487954 0.27637672
-0.055610824 0.04382745 0.020361144 0.042177714 -0.32673973 0.33413765 0.2958544 -0.55717605
0.11401783 0.013971452 -0.60720015 0.5526074 -0.8032723 0.17267153 -0.5195791 -0.5107055
00000000: 53e6 373e d6c2 673e 29ed 7f3d a729 53be
00000010: 9702 803e 3317 cb3d 2324 d0be 3fff ab3e
00000020: 935a 383e f066 6dbe 4c62 133e 7d3b e63e
00000030: 7f94 893e f861 a9bb 8432 57be 4b4f 83be
00000040: 3fde 9abe 761a babe 7dd6 a8be cfa5 363e
00000050: 689b 8cbc 9737 b8be 6209 5c3e 4081 8d3e
00000060: 2dc8 63bd 6a84 333d 6acc a63c 8ac2 2c3d
00000070: 6e4a a7be 1714 ab3e 3a7a 973e 17a3 0ebf
00000080: 2e82 e93d 84e8 643c 7871 1bbf ae77 0d3f
00000090: 41a3 4dbf ced0 303e 2303 05bf 98bd 02bf

target_network.emb4.transform.bias f4 [20]
-0.01816522 -0.021092052 -0.22402233 -0.1571898 -0.10563452 0.031416573 0.038874183 0.0
0.0 0.03682081 0.0 0.19131912 -0.05474933 -0.05764426 -0.02187448 -0.14232486
-0.12833486 -0.0053062653 0.0 0.0
00000000: 3acf 94bc 3dc9 acbc 1c66 65be 5df6 20be
00000010: e956 d8bd aaae 003d 893a 1f3d 0000 0000
00000020: 0000 0000 6bd1 163d 0000 0000 29e9 433e
00000030: d540 60bd 631c 6cbd 1c32 b3bc 9cbd 11be
00000040: 376a 03be 2ee0 adbb 0000 0000 0000 0000

target_network.h2.transform.weight f4 [20, 20]
0.060136538 -0.071426794 -0.27572906 0.04785336 -0.088807784 0.48726204 -0.6832921 -0.75534254
-0.18323827 -0.27444717 0.38672885 0.20953117 0.11077285 0.07267016 -0.17230332 -0.27808142
-0.40666923 -0.1182426 -0.33099717 -0.4842805 0.05181462 0.035965208 -0.39747164 0.22634518
0.004733473 -0.66259277 0.13843688 -0.44600156 -0.65032727 0.39499086 0.07534883 -0.19147937
-0.27655256 -0.4454334 -0.48498678 -0.2485193 -0.21705054 -0.012107105 -0.24056838 0.039959084
-0.45322448 0.019071793 -0.33255327 -0.4683507 -0.3210247 -0.13258421 -0.39664677 0.14598499
0.12654607 0.22498657 0.024829248 -0.07560792 0.2711252 -0.15267138 0.1251051 -0.4303739
0.45709088 -0.18735838 -0.699235 0.3670845 -0.11606237 -0.0078069577 0.29551223 -0.14909635
0.2316895 0.2711013 -0.3895951 0.15613389 -0.17589498 0.8283478 -0.25236732 0.39644417
-0.045879047 -0.054870922 -0.62615484 -0.18503883 -0.09457242 -0.32233542 0.113164164 0.029441096
-0.14089939 -0.58234495 -0.48357043 0.23170748 -0.60903305 -0.07501429 -0.4955346 0.1368076
0.2656585 0.3774643 0.30904973 -0.10659796 -0.21369256 0.07537348 -0.477529 0.2888459
-0.039193276 0.41697365 0.36926794 0.13096818 0.02398517 0.27651662 0.010064801 0.5421556
-0.05710577 0.45111442 -0.31631508 -0.0184924 -0.27453017 0.11913575 0.025921047 -0.5836114
-0.21550518 -0.39352614 0.32657114 -0.16765407 0.37903357 -0.21012196 0.13204466 -0.1375219
-0.0015249888 -0.24836057 -0.44751474 0.4778239 0.07748399 -0.03101799 -0.23058134 0.39222255
0.35522324 -0.5676512 -0.541286 0.25104353 -0.12526423 -0.45103717 -0.4770502 -0.27337453
-0.20159727 -0.18984124 -0.2109585 0.05390446 -0.3342823 -0.069726124 -0.27336103 -0.015390201
0.04110803 -0.44126678 0.08189264 -0.4134516 0.40547705 0.11196116 0.03794486 0.19581519
-0.076360844 -0.31773993 -0.07349797 -0.09943296 0.49866268 -0.2924975 0.2842243 -0.86384916
0.6341031 -0.5862603 -0.08793693 -0.5608436 -0.7544832 0.11533101 -0.0062051294 0.6491666
-0.14239624 -0.04882315 -0.112243444 0.24327618 -0.19681375 -0.43609118 0.16390723 -0.058068737
-0.10169328 -0.13156742 0.40301988 -0.1746964 0.019489575 -0.3281295 0.564999 -0.09570715
-0.34547356 0.1328002 0.115326926 0.05158095 0.12455194 0.11673696 0.22841047 0.3129883
0.33628207 -1.1988581 0.05015035 0.56078506 -0.277239 0.7538356 -0.2587619 -0.1823161
-0.008554482 -0.3736869 0.25773257 0.076264754 0.5316532 -0.34686148 -0.13324752 0.03938331
-0.052675318 -0.06487745 0.46830723 0.01719795 0.0754467 0.2834737 0.043544237 -0.19208162
0.21680534 -0.12416695 -0.0550583 0.2693776 -0.16094863 -0.6270398 -0.5505276 -0.4101042
0.465711 0.70114607 0.26371953 -0.10440202 0.48131195 0.17065604 0.21112552 -0.72145075
0.16216359 -0.2900185 -0.56878155 0.09030492 -0.29947743 -0.110813655 0.13975325 -0.029675037
0.39192432 0.37616116 0.13071181 -0.59939194 0.1004862 -0.08162832 -0.41176075 0.79940724
0.48752806 -0.052316 0.4579301 0.19142208 -0.64839625 -0.75083524 0.1582559 0.0074179093
00000000: bb51 763d 3648 92bd 5c2c 8dbe e301 443d
00000010: dbe0 b5bd 697a f93e 3bec 2ebf 215e 41bf
00000020: d0a2 3bbe 5784 8cbe 5301 c63e 578f 563e
00000030: e0dc e23d 18d4 943d 4870 30be b060 8ebe
00000040: f336 d0be 2d29 f2bd 7678 a9be 9df3 f7be
00000050: 913b 543d 4150 133d 6781 cbbe 08c7 673e
00000060: 401b 9b3b ae9f 29bf 66c2 0d3e 515a e4be
00000070: d97b 26bf 3e3c ca3e 7d50 9a3d 2b13 44be
00000080: 4c98 8dbe d90f e4be 3050 f8be d87b 7ebe
00000090: 7f42 5ebe e15c 46bc 8f57 76be 23ac 233d
000000a0: 0a0d e8be 733c 9c3c 6c44 aabe aacb efbe
000000b0: 595d a4be 28c4 07be 4915 cbbe 177d 153e
000000c0: 4b95 013e e162 663e b566 cb3c 53d8 9abd
000000d0: ecd0 8a3e e355 1cbe 8d1b 003e f859 dcbe
000000e0: d107 ea3e e0da 3fbe 1101 33bf 80f2 bb3e
000000f0: 1cb2 edbd 82d1 ffbb 614d 973e b7ac 18be
00000100: 0340 6d3e cacd 8a3e 0279 c7be 90e1 1f3e
00000110: d01d 34be 9a0e 543f 4a36 81be bbfa ca3e
00000120: abeb 3bbd 55c0 60bd af4b 20bf d27a 3dbe
00000130: 2faf c1bd 2609 a5be 9dc2 e73d 742e f13c
00000140: ee47 10be 8f14 15bf 8b96 f7be ba44 6d3e
00000150: 97e9 1bbf 18a1 99bd b6b6 fdbe 4b17 0c3e
00000160: 6404 883e 0043 c13e c43b 9e3e 0850 dabd
00000170: 39d2 5abe 695d 9a3d ae7e f4be 9ce3 933e
00000180: 2189 20bd 927d d53e b010 bd3e 861c 063e
00000190: 8c7c c43c 9693 8d3e d6e6 243c b6ca 0a3f
000001a0: bde7 69bd 78f8 e63e 0df4 a1be 607d 97bc
000001b0: 388f 8cbe 72fd f33d 6058 d43c 8f67 15bf
000001c0: 64ad 5cbe 427c c9be 5534 a73e 82ad 2bbe
000001d0: b010 c23e 362a 57be b736 073e 8ad2 0cbe
000001e0: 22e2 c7ba 3c52 7ebe a720 e5be 56a5 f43e
000001f0: edaf 9e3d 7119 febc 841d 6cbe 65d1 c83e
00000200: d2df b53e 9751 11bf b891 0abf c788 803e
00000210: 4445 00be 58ee e6be ec3f f4be bff7 8bbe
00000220: 846f 4ebe be65 42be 8105 58be ecca 5c3d
00000230: 0d27 abbe 92cc 8ebd faf5 8bbe 2e27 7cbc
00000240: e560 283d b8ed e1be 54b7 a73d eeaf d3be
00000250: b09a cf3e e54b e53d 126c 1b3d c783 483e
00000260: 1363 9cbd cfae a2be 1b86 96bd 82a3 cbbd
00000270: b750 ff3e 3bc2 95be d985 913e 3825 5dbf
00000280: 9554 223f 2815 16bf 4718 b4bd 7293 0fbf
00000290: d025 41bf aa32 ec3d 6654 cbbb c82f 263f
000002a0: 52d0 11be c9fa 47bd e4df e5bd 641d 793e
000002b0: 8b89 49be 5847 dfbe 4cd7 273e 7cd9 6dbd
000002c0: 9144 d0bd 9cb9 06be 9f58 ce3e 9de3 32be
000002d0: 9aa8 9f3c 9700 a8be c6a3 103f 1c02 c4bd
000002e0: e9e1 b0be c7fc 073e 8630 ec3d 8c46 533d
000002f0: 1615 ff3d ca13 ef3d 6fe4 693e 0140 a03e
00000300: 2a2d ac3e 2f74 99bf 746a 4d3d 9c8f 0f3f
00000310: 45f2 8dbe 5ffb 403f 717c 84be 12b1 3abe
00000320: 1928 0cbc e453 bfbe 86f5 833e b230 9c3d
00000330: 6d1a 083f d497 b1be 0a72 08be 6550 213d
00000340: 13c2 57bd 78de 84bd f7c5 ef3e b7e2 8c3c
00000350: cd83 9a3d 7723 913e 715b 323d 0bb1 44be
00000360: 3802 5e3e 3e4b febd d084 61bd dceb 893e
00000370: b8cf 24be ae85 20bf 60ef 0cbf 2df9 d1be
00000380: ac71 ee3e 4f7e 333f 3f06 873e bad0 d5bd
00000390: 856e f63e 75c0 2e3e 4a31 583e ffb0 38bf
000003a0: 360e 263e 4e7d 94be ab9b 11bf c9f1 b83d
000003b0: 1b55 99be 45f2 e2bd 7a1b 0f3e 1019 f3bc
000003c0: 4eaa c83e 3298 c03e 51d9 053e c071 19bf
000003d0: b5cb cd3d c02c a7bd 4ed2 d2be f4a5 4c3f
000003e0: 479d f93e 4d49 56bd d075 ea3e 2604 443e
000003f0: 4cfd 25bf bd36 40bf d60d 223e ef11 f33b

target_network.h2.transform.bias f4 [20]
-0.09169731 -0.10975982 -0.08794677 -0.10706843 -0.20207727 -0.15521772 -0.13466562 -0.12921312
-0.0301357 0.019848036 -0.035380464 -0.024829343 0.16941537 -0.07340655 0.09643826 0.0
-0.1505205 -0.12204358 -0.0043539517 -0.17621753
00000000: cdcb bbbd c2c9 e0bd 701d b4bd b146 dbbd
00000010: 58ed 4ebe 65f1 1ebe c9e5 09be 7250 04be
00000020: 25df f6bc 5998 a23c 1beb 10bd e866 cbbc
00000030: 397b 2d3e 2c56 96bd 6c81 c53d 0000 0000
00000040: 0c22 1abe fcf1 f9bd 98ab 8ebb 5e72 34be

target_network.h3.transform.weight f4 [20, 20]
0.017902294 -0.09524867 0.5825035 -0.015189221 0.09943525 -0.60171574 -0.49017286 0.26194638
0.24879035 -0.2642395 -0.113983326 0.06493776 -0.36368692 -0.5109185 0.12785871 -0.43678236
-0.14944074 -0.2719477 -0.56128323 -0.08583272 -0.17054598 -0.50792706 -0.12723836 -0.097608775
-0.1265501 0.050694473 0.8427357 -0.10651559 0.08691528 -0.19967894 -0.21601084 0.6141859
-0.25975603 0.015804043 -0.16459762 -0.018551389 -0.22509302 0.1802765 -0.38013712 0.3894077
0.37474892 0.1615207 0.011611606 -0.033347007 -0.44117144 -0.026791232 0.14768298 0.6655738
0.42733935 0.7007109 -0.14351007 -0.0006103888 0.5933445 0.36589423 0.4990194 -0.48349816
0.098638274 0.4727481 0.25606453 -0.0930415 0.10938088 0.46747398 0.30328062 -0.36920062
0.3813811 0.0480151 0.2114464 -0.039422438 -0.08089897 -0.35054898 0.27207518 0.03896339
0.24172033 0.5353639 0.15509124 -0.034407906 -0.26428244 -0.09986115 0.54525423 -0.21099232
0.024273528 0.19474521 -0.28893623 -0.09034314 -0.31673372 -0.40244815 0.05496025 -0.5430204
0.6639088 -0.18270098 0.19448464 -0.33998013 -0.6075133 -0.5392267 -0.22469915 0.09160256
0.36414152 -0.09803839 0.124127686 0.07870448 -0.01885 0.80554765 0.48973265 0.32671538
-0.036646515 -0.19297865 0.6281632 -0.18172665 -0.011001635 0.18499914 0.06494726 0.026819132
0.29879716 -0.369725 0.22535647 0.052936774 -0.05350049 0.12270223 -0.18479335 0.20477267
0.010514945 -0.26186416 0.60366416 -0.40111512 -0.29226342 0.19939248 -0.03533258 0.054871775
-0.15014273 0.31051382 0.29152262 0.013636996 -0.9827357 0.15902488 0.028885162 0.13166818
-0.13642618 -0.13962187 0.22626622 0.24787095 0.3012349 -0.15320882 0.17476803 0.29161432
-0.11245514 -0.8014628 0.2745005 -0.053525306 -0.6062623 -0.0432822 -0.5533145 0.23765936
-0.11045058 0.2490544 -0.605794 -0.08931448 0.58514756 -0.26231351 0.23864904 0.07260213
0.473608 -0.31525654 -0.19978043 0.07017875 0.57045215 -0.10781188 0.14431095 0.39100698
0.27325085 -0.28845158 0.60563844 -0.07943011 -0.22793521 0.26969305 -0.24992979 0.39944863
0.25791213 0.3968332 -0.25554 0.1303961 -0.08693627 0.14047578 -0.09585887 -0.27181467
0.2177074 0.3427897 -0.019815844 0.18574323 0.096981555 -0.44342342 -0.17783456 0.008141757
0.18056554 -0.36807355 -0.0568979 -0.6395516 0.48877144 -0.25938484 0.30285305 0.6022755
0.2138741 -0.28227472 0.025260411 -0.7957286 0.375234 -0.4250493 0.16758147 -0.4748266
-0.11018589 0.2835151 -0.0073980317 -0.4234121 0.32532832 -0.22307865 -0.09017944 -0.40408248
-0.022592232 0.20085058 -0.09410329 -0.0012224283 0.12351984 0.09581122 0.3730036 -0.43026203
0.049634304 -0.1462497 0.009974326 0.3258323 0.39925262 -0.08394629 -0.72773683 -0.109878294
0.08565993 -0.26986843 -0.056824405 0.8255473 -0.023587568 0.014597772 0.11328781 0.18583821
0.18358257 -0.4154012 0.20237511 0.02032723 -0.3924644 -0.010616083 0.043715656 0.052327648
-0.31139663 -0.7120384 0.58390415 -0.004907273 0.50219834 -0.52224207 -0.11504479 0.2208073
00000000: d5a7 923c bc11 c3bd f31e 153f 36dc 78bc
00000010: b5a4 cb3d 0b0a 1abf f0f7 fabe d61d 863e
00000020: e6c2 7e3e 664a 87be 1770 e9bd 17fe 843d
00000030: 2c35 babe 8ecb 02bf 65ed 023e f0a1 dfbe
00000040: fe06 19be bb3c 8bbe 42b0 0fbf 11c9 afbd
00000050: 9ba3 2ebe 8207 02bf c64a 02be 1ce7 c7bd
00000060: 5996 01be 02a5 4f3d 87bd 573f d824 dabd
00000070: a300 b23d a378 4cbe f231 5dbe 4a3b 1d3f
00000080: befe 84be 7b77 813c 478c 28be 15f9 97bc
00000090: c97e 66be 679a 383e 55a1 c2be 7260 c73e
000000a0: 17df bf3e af65 253e 9b3e 3e3c df96 08bd
000000b0: 39e1 e1be 4979 dbbc 353a 173e 0b63 2a3f
000000c0: 39cc da3e ca61 333f 4ef4 12be 8002 20ba
000000d0: 6de5 173f 7d56 bb3e 797f ff3e 128d f7be
000000e0: dd02 ca3d 0a0c f23e e41a 833e 8b8c bebd
000000f0: 1503 e03d c058 ef3e 9947 9b3e dd07 bdbe
00000100: 6244 c33e 7bab 443d 6885 583e 6c79 21bd
00000110: 5cae a5bd 287b b3be 704d 8b3e 1398 1f3d
00000120: 8985 773e 9c0d 093f 3dd0 1e3e 4eef 0cbd
00000130: 0750 87be 0184 ccbd c895 0b3f 5f0e 58be
00000140: 47d9 c63c 4a6b 473e 73ef 93be d305 b9bd
00000150: ec2a a2be af0d cebe 001e 613d 6303 0bbf
00000160: edf5 293f f715 3bbe fb26 473e e011 aebe
00000170: fe85 1bbf c30a 0abf 8917 66be 1f9a bb3d
00000180: c270 ba3e 5ac8 c8bd a836 fe3d d02f a13d
00000190: 516b 9abc 5f38 4e3f 3dbe fa3e 3d47 a73e
000001a0: a81a 16bd 329c 45be 4ecf 203f 8d16 3abe
000001b0: 3440 34bc 6a70 3d3e 1203 853d ccb3 db3c
000001c0: f1fb 983e 984c bdbe d9c3 663e 3bd4 583d
000001d0: 5423 5bbd 4f4b fb3d 783a 3dbe edaf 513e
000001e0: e046 2c3c 0f13 86be bc89 1a3f f65e cdbe
000001f0: 8da3 95be 8b2d 4c3e e5b8 10bd 3ac1 603d
00000200: 04bf 19be abfb 9e3e 7442 953e b56d 5f3c
00000210: 9194 7bbf 6bd7 223e 93a0 ec3c 06d4 063e
00000220: 4eb3 0bbe 09f9 0ebe 55b2 673e e2d1 7d3e
00000230: 763b 9a3e c6e2 1cbe 64f6 323e 794e 953e
00000240: e14e e6bd ab2c 4dbf 548b 8c3e 5a3d 5bbd
00000250: 0234 1bbf ad48 31bd 05a6 0dbf fa5c 733e
00000260: ea33 e2bd 1e08 7f3e 5115 1bbf 83ea b6bd
00000270: 3bcc 153f f54d 86be 6a60 743e 6db0 943d
00000280: bf7c f23e 4e69 a1be 3e93 4cbe e0b9 8f3d
00000290: 2709 123f 7acc dcbd 40c6 133e 1132 c83e
000002a0: 89e7 8b3e edaf 93be 1f0b 1b3f 41ac a2bd
000002b0: d967 69be 3515 8a3e 98ed 7fbe 8884 cc3e
000002c0: 0f0d 843e b92d cb3e 24d6 82be 8e86 053e
000002d0: a50b b2bd e2d8 0f3e a851 c4bd 4b2b 8bbe
000002e0: b0ee 5e3e 2282 af3e d654 a2bc 7933 3e3e
000002f0: 449e c63d 6508 e3be 431a 36be 0165 053c
00000300: 2ce6 383e 2374 bcbe c60d 69bd a7b9 23bf
00000310: 4040 fa3e 17ce 84be 8e0f 9b3e ba2e 1a3f
00000320: d001 5b3e 5086 90be ecee ce3c dfb4 4bbf
00000330: ac1e c03e 10a0 d9be 7a9a 2b3e 791c f3be
00000340: 24a9 e1bd e428 913e 306b f2bb 79c9 d8be
00000350: 6f91 a63e bb6e 64be 00b0 b8bd e6e3 cebe
00000360: 5813 b9bc c6ab 4d3e 3ab9 c0bd e339 a0ba
00000370: f8f7 fc3d ac38 c43d 54fa be3e 4e4b dcbe
00000380: 574d 4b3d 7bc2 15be 5b6b 233c 7ed3 a63e
00000390: d76a cc3e 08ec abbd f64c 3abf df07 e1bd
000003a0: 796e af3d 322c 8abe b5c0 68bd 1157 533f
000003b0: b73a c1bc 7e2b 6f3c 7003 e83d 5f4c 3e3e
000003c0: 12fd 3b3e 77af d4be 6c3b 4f3e 4b85 a63c
000003d0: 18f1 c8be 14ef 2dbc 300f 333d 8455 563d
000003e0: 616f 9fbe 2648 36bf be7a 153f 31cd a0bb
000003f0: 1290 003f a8b1 05bf 9a9c ebbd 4f1b 623e

target_network.h3.transform.bias f4 [20]
-0.18896633 0.03950508 -0.050723612 -0.042551134 -0.17784245 -0.19718927 -0.055822752 -0.19176818
-0.004270699 -0.104017965 -0.04226879 0.0 -0.15739605 -0.2628088 0.0 -0.084761545
-0.10247866 -0.0075599584 -0.18760805 -0.12278735
00000000: 6480 41be 14d0 213d 90c3 4fbd 194a 2ebd
00000010: 551c 36be fceb 49be 66a6 64bd e15e 44be
00000020: 38f1 8bbb 5f07 d5bd 0a22 2dbd 0000 0000
00000030: 6e2c 21be e08e 86be 0000 0000 7697 adbd
00000040: 55e0 d1bd 87b9 f7bb 531c 40be ef77 fbbd

target_network.critic_linear.weight f4 [1, 20]
-0.22033572 -0.2476851 -0.34461513 -0.17918546 -0.35111377 0.17552121 0.21985762 0.4315088
0.51483214 0.19952399 0.047118198 0.026877224 -0.3105393 -0.025628334 -0.67207855 -0.0702315
-0.023356877 -0.18493989 0.27064246 0.15855402
00000000: b09f 61be 2aa1 7dbe 6571 b0be 657c 37be
00000010: 2fc5 b3be d5bb 333e 5b22 613e b9ee dc3e
00000020: 0acc 033f 0450 4c3e 03ff 403d a02d dc3c
00000030: 02ff 9ebe 83f2 d1bc 570d 2cbf 88d5 8fbd
00000040: ec56 bfbc e260 3dbe a691 8a3e fc5b 223e
