pz_risk/mini_0/34.pt (torch, 18513 bytes, 26 tensors)

policy_network.emb1.transform.weight f4 [20, 2]
000000 12 3c 06 3e d7 14 e9 3e 2c 5a 6a 3d 15 a8 1a bf
       0.13108853 0.45523712 0.0572149 -0.6041272
000010 de 3f f1 bb 48 be a9 be 94 3e 30 be 70 d9 aa be
       -0.00736235 -0.33152986 -0.17211372 -0.33369017
000020 6f 8b 72 3b ba e3 9f 3e bc 2e 1c bf a7 b4 cc 3e
       0.0037009378 0.3122843 -0.6100881 0.39981577
000030 9a 1a 50 be 33 cd 8e bd f1 40 93 be c1 d0 90 be
       -0.20322648 -0.069727324 -0.28760484 -0.28284267
000040 fe ce 30 3e 93 02 83 3e 58 d1 53 bd 4c 1f 67 3e
       0.17266461 0.255879 -0.051713318 0.22570533
000050 4d ba 15 be 35 ee ce 3c b4 b4 22 bd f3 87 01 3f
       -0.1462185 0.02526007 -0.039723113 0.5059807
000060 60 29 93 3e 99 09 b4 be d9 a1 97 be 24 47 98 3e
       0.28742504 -0.35163572 -0.29615667 0.29741776
000070 44 51 72 3e 90 e4 74 3e a2 e9 3e bf 96 46 76 3e
       0.23663813 0.23915315 -0.74575245 0.24050364
000080 c9 5a 1b bf c6 58 6b be 61 7f da be cd 4e c6 be
       -0.606854 -0.22983083 -0.42675307 -0.38731995
000090 c0 5c 53 bd f9 61 a6 3d ad 32 9e be c6 77 98 be
       -0.051602125 0.081241556 -0.30898038 -0.2977888

policy_network.emb1.transform.bias f4 [20]
000000 52 c0 38 3d ce 6c 61 bc 00 00 00 00 00 00 00 00
       0.045105286 -0.013758851 0.0 0.0
000010 b0 76 04 be c5 fd c0 bd 00 00 00 00 00 00 00 00
       -0.129359 -0.09423403 0.0 0.0
000020 6c f6 49 3d 5a 1c 01 be 00 00 00 00 ce 87 21 3e
       0.04930727 -0.12608472 0.0 0.15774462
000030 49 61 df bd f1 7a 40 bd cc 4b 75 3d 00 00 00 00
       -0.109072275 -0.046992246 0.05988674 0.0
000040 00 00 00 00 00 00 00 00 3a 74 a6 bc 00 00 00 00
       0.0 0.0 -0.020319093 0.0

policy_network.emb2.transform.weight f4 [20, 2]
000000 33 e2 51 bd 7d 84 0c 3f 6a 80 fa 3d 8b e9 00 3f
       -0.05124111 0.5488966 0.12231524 0.5035636
000010 19 8e 92 be 6d 8d 03 3d aa 0d 47 bd d0 37 d2 bd
       -0.28624037 0.032117296 -0.048597015 -0.10264552
000020 96 b4 bf 3e a2 c2 5a be 00 62 b5 bd 89 69 b6 3e
       0.37442464 -0.21363309 -0.08856583 0.35627392
000030 4e c5 10 3e 02 66 6f 3d 70 1f ad be 72 78 11 3f
       0.14137766 0.05844689 -0.33813047 0.5682441
000040 98 82 c1 be 67 92 05 3f f7 95 bb 3e 35 94 3c be
       -0.37794948 0.5217652 0.36637852 -0.18415911
000050 57 9a da 3d ae 25 0f bf 06 b8 5d bf 2c c7 3c be
       0.10673969 -0.5591687 -0.8660892 -0.18435353
000060 be 7f 58 bd 51 11 69 3d cd 47 ab be 93 8f 77 3e
       -0.0528562 0.05690128 -0.33453217 0.24175863
000070 b3 61 05 be 65 8f 65 3f 93 8d a5 be c6 fd cf 3e
       -0.1302555 0.8967193 -0.32334575 0.406233
000080 ce 58 19 bf 27 67 d3 3d 62 54 fe 3d ff a1 09 bf
       -0.5990113 0.10322409 0.124184385 -0.5376281
000090 c1 2c ba bd 61 8c f8 bd 50 06 23 3d c4 5e 76 3d
       -0.090905674 -0.1213615 0.039800942 0.06014897

policy_network.emb2.transform.bias f4 [20]
000000 60 28 f4 bd 68 c9 92 bc 00 00 00 00 00 00 00 00
       -0.119217634 -0.017918304 0.0 0.0
000010 53 12 0a be 45 80 aa bd 20 a3 a4 bb f6 41 36 bd
       -0.13483553 -0.08325247 -0.005024329 -0.0444965
000020 04 36 d7 bc f9 48 31 be 8a 02 2d bd 00 00 00 00
       -0.026270874 -0.17312993 -0.04223875 0.0
000030 b1 f6 08 bd ff f3 26 be 25 78 0f be ec a3 46 bc
       -0.03343839 -0.16304015 -0.14010675 -0.012124043
000040 00 00 00 00 b7 5f 43 bd 00 00 00 00 d2 61 52 bd
       0.0 -0.047698703 0.0 -0.05136282

policy_network.emb3.transform.weight f4 [20, 2]
000000 67 23 06 bf bc 36 5e be 02 de 96 be a7 85 52 bd
       -0.5239777 -0.21700567 -0.29466254 -0.051396992
000010 de d0 81 be a8 03 6c bd ab 92 ab 3e 79 15 27 3e
       -0.25354666 -0.057620674 0.33510336 0.16316785
000020 24 b6 43 3e f4 1a ab 3e 1e 2f dd be 37 6b de 3e
       0.1911245 0.33419 -0.4320001 0.43441173
000030 4e f9 35 3e 83 ab 01 3f be 42 37 3d d1 00 4f be
       0.17770883 0.5065233 0.044741385 -0.20215155
000040 8a 95 fb be 08 77 0c 3f 39 35 88 3d 47 e2 8b be
       -0.49137527 0.5486913 0.066507764 -0.27321073
000050 c3 33 8a bd ac a1 cd be 30 66 1d bf bd bd 84 3e
       -0.06748154 -0.40162408 -0.6148405 0.2592601
000060 1f 80 81 3d e8 e2 04 3e ea 95 e2 3e 1a 35 72 3e
       0.06323265 0.12977183 0.44255 0.23653069
000070 05 33 51 be 5c 8e 10 be 61 5f bf be 41 c3 3f 3e
       -0.20429619 -0.14116806 -0.37377456 0.18726827
000080 f8 21 3d 3f 27 53 a8 be b9 69 ac 3d d6 25 64 be
       0.7387996 -0.3287594 0.084186025 -0.22280058
000090 08 ac f0 bc 24 86 74 3d a5 03 9b 3e 5e f6 2a 3e
       -0.029378906 0.05969824 0.30276218 0.16695544

policy_network.emb3.transform.bias f4 [20]
000000 00 00 00 00 00 00 00 00 00 00 00 00 ec 2c 8a bb
       0.0 0.0 0.0 -0.004216781
000010 7d 65 a5 bd 48 ab 77 bc 3b fc b9 ba 3e ba d4 bc
       -0.08075998 -0.01511652 -0.001418955 -0.025967713
000020 c2 57 9d bd 78 95 99 bc 00 00 00 00 21 ee c6 bd
       -0.07682754 -0.01874803 0.0 -0.09713388
000030 68 f4 dd 3c a0 fe 46 bd 00 00 00 00 94 0a 86 3d
       0.027094081 -0.048582673 0.0 0.06544986
000040 b2 4e 50 bd 74 f4 0d be a4 53 11 be 9c e3 67 bd
       -0.0508563 -0.13862783 -0.14192063 -0.05661355

policy_network.emb4.transform.weight f4 [20, 2]
000000 6d 4f 37 3e be 85 63 3e 29 ed 7f 3d a7 29 53 be
       0.17901392 0.22218987 0.062482033 -0.20621358
000010 db d4 8d 3e ed 70 02 3e 23 24 d0 be 3f ff ab 3e
       0.27701458 0.1273839 -0.4065257 0.33593175
000020 93 5a 38 3e f0 66 6d be 0b a4 ff 3d 98 d8 d9 3e
       0.18003301 -0.23183799 0.124824606 0.4254806
000030 4f b1 82 3e a9 72 58 bc 84 32 57 be 4b 4f 83 be
       0.255259 -0.013210931 -0.21015364 -0.25646433
000040 3f de 9a be 76 1a ba be 6b eb ac be f0 de 33 3e
       -0.30247685 -0.36348313 -0.3377336 0.17565513
000050 68 9b 8c bc 97 37 b8 be 63 83 57 3e 9a 9b 8b 3e
       -0.017163947 -0.35979912 0.21046214 0.27267152
000060 2d c8 63 bd 6a 84 33 3d 6a cc a6 3c 8a c2 2c 3d
       -0.055610824 0.04382745 0.020361144 0.042177714
000070 0d 81 ae be ea bd a8 3e 3a 7a 97 3e 17 a3 0e bf
       -0.34082833 0.32957393 0.2958544 -0.55717605
000080 2e 82 e9 3d 84 e8 64 3c be f3 1f bf 26 e0 0b 3f
       0.11401783 0.013971452 -0.62481296 0.546389
000090 41 a3 4d bf ce d0 30 3e 23 03 05 bf 98 bd 02 bf
       -0.8032723 0.17267153 -0.5195791 -0.5107055

policy_network.emb4.transform.bias f4 [20]
000000 5e 94 74 bc 3d c9 ac bc 57 a7 4e be 5d f6 20 be
       -0.014927952 -0.021092052 -0.20181023 -0.1571898
000010 e9 56 d8 bd 0f 74 88 3c 5c d2 c8 3c 00 00 00 00
       -0.10563452 0.016656904 0.02451437 0.0
000020 00 00 00 00 6f 3e 3e 3d 00 00 00 00 6a ad 40 3e
       0.0 0.04644626 0.0 0.18816152
000030 d5 40 60 bd 63 1c 6c bd 03 9b ad bc 9c bd 11 be
       -0.05474933 -0.05764426 -0.02119208 -0.14232486
000040 37 6a 03 be 51 c9 2e bb 00 00 00 00 00 00 00 00
       -0.12833486 -0.0026670287 0.0 0.0

policy_network.h2.transform.weight f4 [20, 20]
000000 ac ac 32 3d 8e 69 aa bd 5c 2c 8d be f7 70 1e 3d
       0.043621704 -0.08320914 -0.27572906 0.03868195
000010 4f 8b b6 bd 30 40 f0 3e 22 5e 33 bf 12 69 41 bf
       -0.0891329 0.4692397 -0.7006551 -0.7555095
000020 eb b4 4a be 63 d7 8e be 53 01 c6 3e 32 1f 44 3e
       -0.19795577 -0.27898702 0.38672885 0.19152525
000030 8b 42 c8 3d f6 b8 87 3d ea 99 3f be 71 7c 90 be
       0.09778317 0.066270754 -0.18711057 -0.2821994
000040 19 31 d2 be c2 47 f2 bd 76 78 a9 be c7 1b fa be
       -0.41053084 -0.11830093 -0.33099717 -0.48849317
000050 91 3b 54 3d 41 50 13 3d 67 81 cb be 08 c7 67 3e
       0.05181462 0.035965208 -0.39747164 0.22634518
000060 40 1b 9b 3b ae 9f 29 bf 66 c2 0d 3e 51 5a e4 be
       0.004733473 -0.66259277 0.13843688 -0.44600156
000070 d9 7b 26 bf 3e 3c ca 3e 7d 50 9a 3d 2b 13 44 be
       -0.65032727 0.39499086 0.07534883 -0.19147937
000080 4c 98 8d be d9 0f e4 be 30 50 f8 be d8 7b 7e be
       -0.27655256 -0.4454334 -0.48498678 -0.2485193
000090 7f 42 5e be e1 5c 46 bc 8f 57 76 be 23 ac 23 3d
       -0.21705054 -0.012107105 -0.24056838 0.039959084
0000a0 0a 0d e8 be 73 3c 9c 3c 6c 44 aa be aa cb ef be
       -0.45322448 0.019071793 -0.33255327 -0.4683507
0000b0 59 5d a4 be 28 c4 07 be 49 15 cb be 17 7d 15 3e
       -0.3210247 -0.13258421 -0.39664677 0.14598499
0000c0 4b 95 01 3e e1 62 66 3e b5 66 cb 3c 53 d8 9a bd
       0.12654607 0.22498657 0.024829248 -0.07560792
0000d0 ec d0 8a 3e e3 55 1c be 8d 1b 00 3e f8 59 dc be
       0.2711252 -0.15267138 0.1251051 -0.4303739
0000e0 d1 07 ea 3e e0 da 3f be 11 01 33 bf 80 f2 bb 3e
       0.45709088 -0.18735838 -0.699235 0.3670845
0000f0 1c b2 ed bd 82 d1 ff bb 61 4d 97 3e b7 ac 18 be
       -0.11606237 -0.0078069577 0.29551223 -0.14909635
000100 03 40 6d 3e ca cd 8a 3e 02 79 c7 be 90 e1 1f 3e
       0.2316895 0.2711013 -0.3895951 0.15613389
000110 d0 1d 34 be 9a 0e 54 3f 4a 36 81 be bb fa ca 3e
       -0.17589498 0.8283478 -0.25236732 0.39644417
000120 ab eb 3b bd 55 c0 60 bd af 4b 20 bf d2 7a 3d be
       -0.045879047 -0.054870922 -0.62615484 -0.18503883
000130 2f af c1 bd 26 09 a5 be 9d c2 e7 3d 74 2e f1 3c
       -0.09457242 -0.32233542 0.113164164 0.029441096
000140 ee 47 10 be 8f 14 15 bf 8b 96 f7 be ba 44 6d 3e
       -0.14089939 -0.58234495 -0.48357043 0.23170748
000150 97 e9 1b bf 18 a1 99 bd b6 b6 fd be 4b 17 0c 3e
       -0.60903305 -0.07501429 -0.4955346 0.1368076
000160 64 04 88 3e 00 43 c1 3e c4 3b 9e 3e 08 50 da bd
       0.2656585 0.3774643 0.30904973 -0.10659796
000170 39 d2 5a be 69 5d 9a 3d ae 7e f4 be 9c e3 93 3e
       -0.21369256 0.07537348 -0.477529 0.2888459
000180 21 89 20 bd 92 7d d5 3e b0 10 bd 3e 86 1c 06 3e
       -0.039193276 0.41697365 0.36926794 0.13096818
000190 8c 7c c4 3c 96 93 8d 3e d6 e6 24 3c b6 ca 0a 3f
       0.02398517 0.27651662 0.010064801 0.5421556
0001a0 bd e7 69 bd 78 f8 e6 3e 0d f4 a1 be 60 7d 97 bc
       -0.05710577 0.45111442 -0.31631508 -0.0184924
0001b0 38 8f 8c be 72 fd f3 3d 60 58 d4 3c 8f 67 15 bf
       -0.27453017 0.11913575 0.025921047 -0.5836114
0001c0 64 ad 5c be 42 7c c9 be 55 34 a7 3e 82 ad 2b be
       -0.21550518 -0.39352614 0.32657114 -0.16765407
0001d0 b0 10 c2 3e 36 2a 57 be b7 36 07 3e 8a d2 0c be
       0.37903357 -0.21012196 0.13204466 -0.1375219
0001e0 22 e2 c7 ba 3c 52 7e be a7 20 e5 be 56 a5 f4 3e
       -0.0015249888 -0.24836057 -0.44751474 0.4778239
0001f0 ed af 9e 3d 71 19 fe bc 84 1d 6c be 65 d1 c8 3e
       0.07748399 -0.03101799 -0.23058134 0.39222255
000200 d2 df b5 3e 97 51 11 bf b8 91 0a bf c7 88 80 3e
       0.35522324 -0.5676512 -0.541286 0.25104353
000210 44 45 00 be 58 ee e6 be ec 3f f4 be bf f7 8b be
       -0.12526423 -0.45103717 -0.4770502 -0.27337453
000220 84 6f 4e be be 65 42 be 81 05 58 be ec ca 5c 3d
       -0.20159727 -0.18984124 -0.2109585 0.05390446
000230 0d 27 ab be 92 cc 8e bd fa f5 8b be 2e 27 7c bc
       -0.3342823 -0.069726124 -0.27336103 -0.015390201
000240 e5 60 28 3d b8 ed e1 be 54 b7 a7 3d ee af d3 be
       0.04110803 -0.44126678 0.08189264 -0.4134516
000250 b0 9a cf 3e e5 4b e5 3d 12 6c 1b 3d c7 83 48 3e
       0.40547705 0.11196116 0.03794486 0.19581519
000260 13 63 9c bd cf ae a2 be 1b 86 96 bd 82 a3 cb bd
       -0.076360844 -0.31773993 -0.07349797 -0.09943296
000270 b7 50 ff 3e 3b c2 95 be d9 85 91 3e 38 25 5d bf
       0.49866268 -0.2924975 0.2842243 -0.86384916
000280 30 03 22 3f 34 d3 15 bf 49 7e de bd a7 c4 12 bf
       0.63286114 -0.58525395 -0.10863931 -0.5733132
000290 13 03 44 bf a6 b7 e4 3d a3 49 6a bb 1c 94 26 3f
       -0.7656719 0.11167841 -0.0035749457 0.65069747
0002a0 ae 4b 10 be b9 8d 3f bd e4 df e5 bd 69 4f 7c 3e
       -0.1409137 -0.046766017 -0.112243444 0.24639668
0002b0 2b 99 53 be f7 4a e7 be e3 72 2b 3e 5d 79 66 bd
       -0.20663898 -0.4517438 0.16743045 -0.056268085
0002c0 d1 7e f6 bd 0b 8c 06 be 9f 58 ce 3e e5 df 42 be
       -0.12035907 -0.1313936 0.40301988 -0.19030721
0002d0 44 a3 5c 3c 6c 3a ae be 51 04 13 3f ee 09 d5 bd
       0.01346666 -0.34028947 0.5742846 -0.104022846
0002e0 24 93 b9 be da 06 04 3e 06 c6 fe 3d d1 cd 70 3d
       -0.36245072 0.12893239 0.12440114 0.05879003
0002f0 c5 03 f9 3d 04 35 03 3e 6f e4 69 3e 3b 56 a1 3e
       0.12158922 0.12813193 0.22841047 0.315111
000300 5c 8c a9 3e 9b 60 9b bf 0f 3f 53 3d a0 dc 11 3f
       0.33114898 -1.2138857 0.05157381 0.5697727
000310 0a 3f 96 be d3 63 41 3f 71 7c 84 be 40 64 4b be
       -0.2934497 0.75542945 -0.2587619 -0.19862461
000320 1c 7f 83 3b 98 51 b2 be 0f 78 85 3e 60 4a 9c 3d
       0.0040129554 -0.34827876 0.2606816 0.076313734
000330 9d ee 07 3f 5b 0b ab be 48 7d 08 be a3 f9 3f 3d
       0.5309847 -0.334071 -0.13329041 0.04686893
000340 6d 99 33 bd 28 1e 82 bd f7 c5 ef 3e 00 f1 bc 3c
       -0.04384749 -0.06353408 0.46830723 0.023064137
000350 aa 92 9d 3d f2 c5 91 3e 56 4a 4d 3d a1 9d 65 be
       0.076939896 0.28471333 0.05011972 -0.22423412
000360 2b a2 5f 3e eb ea f5 bd d0 84 61 bd 6c 0d 8a 3e
       0.21839206 -0.12007698 -0.0550583 0.26963365
000370 82 26 87 be aa 3e 25 bf 60 ef 0c bf 76 35 c5 be
       -0.26396567 -0.6454874 -0.5505276 -0.3851735
000380 8e ff fa 3e 78 b7 3e 3f 76 97 93 3e bc 5e d7 bd
       0.49023098 0.744987 0.28826493 -0.10516116
000390 64 e7 0f 3f 75 c0 2e 3e 4a 31 58 3e de dd 55 bf
       0.5621245 0.17065604 0.21112552 -0.8354167
0003a0 fb 02 42 3e 59 53 89 be 9c 42 29 bf 3c 3f 24 3e
       0.1894645 -0.26821402 -0.6611726 0.16039747
0003b0 83 c3 95 be 45 f2 e2 bd 7a 1b 0f 3e 18 c0 00 bc
       -0.29250726 -0.110813655 0.13975325 -0.007858299
0003c0 6c c6 c6 3e ca 56 ba 3e 81 96 0e 3e 05 cf 1c bf
       0.3882326 0.3639434 0.139246 -0.61253387
0003d0 66 f4 a3 3d d9 13 ab bd da 01 ce be 22 10 4e 3f
       0.080056 -0.08353395 -0.40235788 0.80493367
0003e0 7b 28 f9 3e 67 4d 30 bd d0 75 ea 3e d0 7e 49 3e
       0.48663697 -0.043042567 0.4579301 0.19677281
0003f0 a7 ac 28 bf 55 31 45 bf 69 90 25 3e 0e c8 6d 3c
       -0.65888447 -0.770284 0.1616837 0.014513029

policy_network.h2.transform.bias f4 [20]
000000 e7 ac e1 bd c2 c9 e0 bd 70 1d b4 bd b1 46 db bd
       -0.11019307 -0.10975982 -0.08794677 -0.10706843
000010 58 ed 4e be 65 f1 1e be c9 e5 09 be 72 50 04 be
       -0.20207727 -0.15521772 -0.13466562 -0.12921312
000020 8c d3 bd bc 9a 92 fa 3c 54 ae e2 bc bd b2 a4 3c
       -0.023172162 0.030587483 -0.027671017 0.02010476
000030 58 c4 39 3e 87 ca 8e bd ba b3 d8 3d 00 00 00 00
       0.18141305 -0.06972223 0.10581155 0.0
000040 0c 22 1a be fc f1 f9 bd 74 2d 0b bb 5e 72 34 be
       -0.1505205 -0.12204358 -0.002123681 -0.17621753

policy_network.h3.transform.weight f4 [20, 20]
000000 d5 a7 92 3c bc 11 c3 bd f3 1e 15 3f 36 dc 78 bc
       0.017902294 -0.09524867 0.5825035 -0.015189221
000010 b5 a4 cb 3d 0b 0a 1a bf f0 f7 fa be d6 1d 86 3e
       0.09943525 -0.60171574 -0.49017286 0.26194638
000020 e6 c2 7e 3e 66 4a 87 be 17 70 e9 bd 17 fe 84 3d
       0.24879035 -0.2642395 -0.113983326 0.06493776
000030 2c 35 ba be 8e cb 02 bf 65 ed 02 3e f0 a1 df be
       -0.36368692 -0.5109185 0.12785871 -0.43678236
000040 fe 06 19 be bb 3c 8b be 42 b0 0f bf 11 c9 af bd
       -0.14944074 -0.2719477 -0.56128323 -0.08583272
000050 9b a3 2e be 82 07 02 bf c6 4a 02 be 1c e7 c7 bd
       -0.17054598 -0.50792706 -0.12723836 -0.097608775
000060 59 96 01 be 02 a5 4f 3d 87 bd 57 3f d8 24 da bd
       -0.1265501 0.050694473 0.8427357 -0.10651559
000070 a3 00 b2 3d a3 78 4c be 62 5d 43 be 72 e5 22 3f
       0.08691528 -0.19967894 -0.19078591 0.63631356
000080 be fe 84 be f1 16 8b 3c 47 8c 28 be 15 f9 97 bc
       -0.25975603 0.016978713 -0.16459762 -0.018551389
000090 c9 7e 66 be 67 9a 38 3e 55 a1 c2 be 72 60 c7 3e
       -0.22509302 0.1802765 -0.38013712 0.3894077
0000a0 6b a1 c1 3e af 65 25 3e 9b 3e 3e 3c df 96 08 bd
       0.37818465 0.1615207 0.011611606 -0.033347007
0000b0 39 e1 e1 be 49 79 db bc 35 3a 17 3e 0b 63 2a 3f
       -0.44117144 -0.026791232 0.14768298 0.6655738
0000c0 a2 7b dc 3e 59 74 34 3f 6e dc 11 be 2e 2d 12 3c
       0.43063074 0.7049003 -0.14244244 0.0089219045
0000d0 c9 f7 17 3f ff 97 b8 3e ce 3e ff 3e 12 8d f7 be
       0.59362465 0.36053464 0.49852604 -0.48349816
0000e0 dd 02 ca 3d 0a 0c f2 3e 18 28 82 3e 8b 8c be bd
       0.098638274 0.4727481 0.25421214 -0.0930415
0000f0 2f bc e6 3d c0 58 ef 3e 99 47 9b 3e dd 07 bd be
       0.11266362 0.46747398 0.30328062 -0.36920062
000100 62 44 c3 3e 7b ab 44 3d 68 85 58 3e 6c 79 21 bd
       0.3813811 0.0480151 0.2114464 -0.039422438
000110 d2 c9 a1 bd 63 e9 b1 be fd d4 88 3e fe d3 68 3d
       -0.07899822 -0.34748372 0.26724997 0.056842797
000120 29 ba 76 3e f5 41 06 3f 90 83 1d 3e 4e ef 0c bd
       0.24094452 0.5244439 0.15382218 -0.034407906
000130 07 50 87 be 01 84 cc bd de eb 0a 3f 5f 0e 58 be
       -0.26428244 -0.09986115 0.54266155 -0.21099232
000140 47 d9 c6 3c 4a 6b 47 3e 73 ef 93 be d3 05 b9 bd
       0.024273528 0.19474521 -0.28893623 -0.09034314
000150 ec 2a a2 be af 0d ce be 00 1e 61 3d 63 03 0b bf
       -0.31673372 -0.40244815 0.05496025 -0.5430204
000160 ed f5 29 3f f7 15 3b be ee ff 46 3e 28 78 cc be
       0.6639088 -0.18270098 0.19433567 -0.39935422
000170 fe 85 1b bf 7f 3f 13 bf 89 17 66 be 1f 9a bb 3d
       -0.6075133 -0.5751876 -0.22469915 0.09160256
000180 c2 70 ba 3e 5a c8 c8 bd a8 36 fe 3d d0 2f a1 3d
       0.36414152 -0.09803839 0.124127686 0.07870448
000190 51 6b 9a bc 5f 38 4e 3f 3d be fa 3e 3d 47 a7 3e
       -0.01885 0.80554765 0.48973265 0.32671538
0001a0 a8 1a 16 bd 32 9c 45 be 4e cf 20 3f 8d 16 3a be
       -0.036646515 -0.19297865 0.6281632 -0.18172665
0001b0 34 40 34 bc 6a 70 3d 3e 12 03 85 3d cc b3 db 3c
       -0.011001635 0.18499914 0.06494726 0.026819132
0001c0 f1 fb 98 3e 98 4c bd be d9 c3 66 3e 3b d4 58 3d
       0.29879716 -0.369725 0.22535647 0.052936774
0001d0 54 23 5b bd 4f 4b fb 3d 78 3a 3d be ed af 51 3e
       -0.05350049 0.12270223 -0.18479335 0.20477267
0001e0 e0 46 2c 3c 0f 13 86 be bc 89 1a 3f f6 5e cd be
       0.010514945 -0.26186416 0.60366416 -0.40111512
0001f0 8d a3 95 be 8b 2d 4c 3e e5 b8 10 bd 3a c1 60 3d
       -0.29226342 0.19939248 -0.03533258 0.054871775
000200 f0 43 37 be 18 f5 8d 3e 12 9a 95 3e 58 8b 27 bc
       -0.1789701 0.27726054 0.2921911 -0.010226093
000210 84 e4 82 bf 78 69 24 3e 00 4b fb ba 06 d4 06 3e
       -1.0225987 0.16055858 -0.0019172132 0.13166818
000220 4e b3 0b be 09 f9 0e be 8c 23 40 3e e2 d1 7d 3e
       -0.13642618 -0.13962187 0.1876356 0.24787095
000230 76 3b 9a 3e c6 e2 1c be 64 f6 32 3e 79 4e 95 3e
       0.3012349 -0.15320882 0.17476803 0.29161432
000240 e1 4e e6 bd ab 2c 4d bf 54 8b 8c 3e 5a 3d 5b bd
       -0.11245514 -0.8014628 0.2745005 -0.053525306
000250 9c dc 1a bf 7c d0 1f bd de 40 0e bf fa 5c 73 3e
       -0.60492873 -0.039017186 -0.5556773 0.23765936
000260 e9 3d d1 bd 7d 55 86 3e 33 c8 15 bf 83 ea b6 bd
       -0.102168866 0.26237097 -0.58508605 -0.08931448
000270 3b cc 15 3f f5 4d 86 be e5 f7 83 3e 6d b0 94 3d
       0.58514756 -0.26231351 0.25775066 0.07260213
000280 4b 31 f0 3e 4e 69 a1 be 3e 93 4c be e0 b9 8f 3d
       0.46912608 -0.31525654 -0.19978043 0.07017875
000290 27 09 12 3f 7a cc dc bd 40 c6 13 3e 11 32 c8 3e
       0.57045215 -0.10781188 0.14431095 0.39100698
0002a0 5c cd 8b 3e db 0e 95 be eb e8 1c 3f 1d 5c d2 bd
       0.27305114 -0.29112896 0.61292905 -0.102714755
0002b0 d0 81 63 be da dc 8c 3e 21 d1 75 be 88 84 cc 3e
       -0.22217488 0.27512246 -0.24005558 0.39944863
0002c0 0f 0d 84 3e b9 2d cb 3e d5 21 78 be 8e 86 05 3e
       0.25791213 0.3968332 -0.24231656 0.1303961
0002d0 a5 0b b2 bd e2 d8 0f 3e a8 51 c4 bd 4b 2b 8b be
       -0.08693627 0.14047578 -0.09585887 -0.27181467
0002e0 b0 ee 5e 3e 22 82 af 3e d6 54 a2 bc 79 33 3e 3e
       0.2177074 0.3427897 -0.019815844 0.18574323
0002f0 44 9e c6 3d 65 08 e3 be 43 1a 36 be 01 65 05 3c
       0.096981555 -0.44342342 -0.17783456 0.008141757
000300 2c e6 38 3e 23 74 bc be c6 0d 69 bd a7 b9 23 bf
       0.18056554 -0.36807355 -0.0568979 -0.6395516
000310 40 40 fa 3e 17 ce 84 be 8e 0f 9b 3e ba 2e 1a 3f
       0.48877144 -0.25938484 0.30285305 0.6022755
000320 d0 01 5b 3e 50 86 90 be ec ee ce 3c df b4 4b bf
       0.2138741 -0.28227472 0.025260411 -0.7957286
000330 ac 1e c0 3e 10 a0 d9 be 7a 9a 2b 3e 79 1c f3 be
       0.375234 -0.4250493 0.16758147 -0.4748266
000340 24 a9 e1 bd e4 28 91 3e 30 6b f2 bb 79 c9 d8 be
       -0.11018589 0.2835151 -0.0073980317 -0.4234121
000350 6f 91 a6 3e bb 6e 64 be 00 b0 b8 bd e6 e3 ce be
       0.32532832 -0.22307865 -0.09017944 -0.40408248
000360 58 13 b9 bc c6 ab 4d 3e 3a b9 c0 bd e3 39 a0 ba
       -0.022592232 0.20085058 -0.09410329 -0.0012224283
000370 f8 f7 fc 3d ac 38 c4 3d 54 fa be 3e 4e 4b dc be
       0.12351984 0.09581122 0.3730036 -0.43026203
000380 57 4d 4b 3d 7b c2 15 be 5b 6b 23 3c 7e d3 a6 3e
       0.049634304 -0.1462497 0.009974326 0.3258323
000390 d7 6a cc 3e 08 ec ab bd f6 4c 3a bf df 07 e1 bd
       0.39925262 -0.08394629 -0.72773683 -0.109878294
0003a0 79 6e af 3d 32 2c 8a be b5 c0 68 bd 11 57 53 3f
       0.08565993 -0.26986843 -0.056824405 0.8255473
0003b0 b7 3a c1 bc 7e 2b 6f 3c 70 03 e8 3d 5f 4c 3e 3e
       -0.023587568 0.014597772 0.11328781 0.18583821
0003c0 12 fd 3b 3e 77 af d4 be 6c 3b 4f 3e 4b 85 a6 3c
       0.18358257 -0.4154012 0.20237511 0.02032723
0003d0 18 f1 c8 be 14 ef 2d bc 30 0f 33 3d 84 55 56 3d
       -0.3924644 -0.010616083 0.043715656 0.052327648
0003e0 8f bc 99 be 4c b9 34 bf 14 dc 14 3f 44 c2 fd 3b
       -0.3002667 -0.7059524 0.5814831 0.0077441055
0003f0 b8 b8 00 3f 9f 9d 06 bf 9a 9c eb bd 4f 1b 62 3e
       0.5028186 -0.5258426 -0.11504479 0.2208073

policy_network.h3.transform.bias f4 [20]
000000 64 80 41 be 94 8d 9d 3d 43 1d 4f bd 80 bb 3c bd
       -0.18896633 0.076930195 -0.050565016 -0.04607725
000010 dc 49 35 be fc eb 49 be de 5c 69 bd 17 09 3a be
       -0.17703956 -0.19718927 -0.05697333 -0.1816753
000020 d9 47 9c bb 5f 07 d5 bd 0a 22 2d bd 00 00 00 00
       -0.004769307 -0.104017965 -0.04226879 0.0
000030 64 cd 21 be 3f a1 92 be 00 00 00 00 7e a3 eb bd
       -0.15801007 -0.28638646 0.0 -0.11505793
000040 55 e0 d1 bd 5c 9a 10 3b ef ca 51 be ef 77 fb bd
       -0.10247866 0.0022064662 -0.2048757 -0.12278735

policy_network.critic_linear.weight f4 [1, 20]
000000 b0 9f 61 be 86 e4 80 be f8 1e b5 be 32 67 32 be
       -0.22033572 -0.2517435 -0.3537519 -0.17422178
000010 18 7f b2 be d5 bb 33 3e 7b ea 63 3e 5f 76 e5 3e
       -0.3486259 0.17552121 0.22257416 0.44816872
000020 23 76 06 3f 04 50 4c 3e 03 ff 40 3d a0 2d dc 3c
       0.5252401 0.19952399 0.047118198 0.026877224
000030 5c 71 9e be 90 99 12 bd 57 0d 2c bf 9e 17 60 bd
       -0.3094586 -0.03579098 -0.67207855 -0.054710023
000040 ec 56 bf bc 92 ca 3f be 80 b0 87 3e fc 5b 22 3e
       -0.023356877 -0.18729618 0.26501846 0.15855402

target_network.emb1.transform.weight f4 [20, 2]
000000 b6 31 f9 3d e5 94 e7 3e 2c 5a 6a 3d 15 a8 1a bf
       0.12167685 0.45230785 0.0572149 -0.6041272
000010 de 3f f1 bb 48 be a9 be 94 3e 30 be 70 d9 aa be
       -0.00736235 -0.33152986 -0.17211372 -0.33369017
000020 6f 8b 72 3b ba e3 9f 3e bc 2e 1c bf a7 b4 cc 3e
       0.0037009378 0.3122843 -0.6100881 0.39981577
000030 9a 1a 50 be 33 cd 8e bd f1 40 93 be c1 d0 90 be
       -0.20322648 -0.069727324 -0.28760484 -0.28284267
000040 dd bd 26 3e 33 8b 81 3e 58 d1 53 bd 4c 1f 67 3e
       0.16283365 0.25301513 -0.051713318 0.22570533
000050 4d ba 15 be 35 ee ce 3c 1c f0 29 bd 92 d2 01 3f
       -0.1462185 0.02526007 -0.04148875 0.5071193
000060 60 29 93 3e 99 09 b4 be d9 a1 97 be 24 47 98 3e
       0.28742504 -0.35163572 -0.29615667 0.29741776
000070 d5 c2 70 3e 92 f2 75 3e a2 e9 3e bf 96 46 76 3e
       0.23511823 0.24018314 -0.74575245 0.24050364
000080 c9 5a 1b bf c6 58 6b be 61 7f da be cd 4e c6 be
       -0.606854 -0.22983083 -0.42675307 -0.38731995
000090 c0 5c 53 bd f9 61 a6 3d ad 32 9e be c6 77 98 be
       -0.051602125 0.081241556 -0.30898038 -0.2977888

target_network.emb1.transform.bias f4 [20]
000000 72 e7 0e 3d ce 6c 61 bc 00 00 00 00 00 00 00 00
       0.034888692 -0.013758851 0.0 0.0
000010 b0 76 04 be c5 fd c0 bd 00 00 00 00 00 00 00 00
       -0.129359 -0.09423403 0.0 0.0
000020 aa ed 20 3d 5a 1c 01 be 00 00 00 00 37 a0 1f 3e
       0.039289154 -0.12608472 0.0 0.15588461
000030 49 61 df bd f1 7a 40 bd 00 d2 6e 3d 00 00 00 00
       -0.109072275 -0.046992246 0.05830574 0.0
000040 00 00 00 00 00 00 00 00 3a 74 a6 bc 00 00 00 00
       0.0 0.0 -0.020319093 0.0

target_network.emb2.transform.weight f4 [20, 2]
000000 c1 eb 3a bd 84 bd 0c 3f 64 bb ff 3d ae 68 03 3f
       -0.04563499 0.5497668 0.12486914 0.51331604
000010 19 8e 92 be 6d 8d 03 3d aa 0d 47 bd d0 37 d2 bd
       -0.28624037 0.032117296 -0.048597015 -0.10264552
000020 96 b4 bf 3e a2 c2 5a be 03 ca ae bd bc e3 b6 3e
       0.37442464 -0.21363309 -0.085346244 0.35720623
000030 2c 0a 1d 3e 32 eb 95 3d 1a 36 aa be 06 85 11 3f
       0.15335912 0.073202506 -0.332444 0.568436
000040 bc e5 be be 68 8c 05 3f f7 95 bb 3e 35 94 3c be
       -0.37284648 0.5216737 0.36637852 -0.18415911
000050 57 9a da 3d ae 25 0f bf 06 b8 5d bf 2c c7 3c be
       0.10673969 -0.5591687 -0.8660892 -0.18435353
000060 be 7f 58 bd 51 11 69 3d cd 47 ab be 93 8f 77 3e
       -0.0528562 0.05690128 -0.33453217 0.24175863
000070 2c 20 f6 bd 47 0e 66 3f b0 c8 a4 be 01 ff ce 3e
       -0.12017855 0.89865535 -0.32184362 0.40428928
000080 ce 58 19 bf 27 67 d3 3d 62 54 fe 3d ff a1 09 bf
       -0.5990113 0.10322409 0.124184385 -0.5376281
000090 c1 2c ba bd 61 8c f8 bd 50 06 23 3d c4 5e 76 3d
       -0.090905674 -0.1213615 0.039800942 0.06014897

target_network.emb2.transform.bias f4 [20]
000000 46 5b f2 bd 6b e5 80 bc 00 00 00 00 00 00 00 00
       -0.11833815 -0.015734395 0.0 0.0
000010 53 12 0a be 21 4c a8 bd 78 49 53 3c 3d 29 39 bd
       -0.13483553 -0.082176454 0.012895934 -0.045205344
000020 6b 0f e5 bc f9 48 31 be 8a 02 2d bd 00 00 00 00
       -0.027961453 -0.17312993 -0.04223875 0.0
000030 b1 f6 08 bd ff f3 26 be 02 f1 0b be 0b f4 8d bc
       -0.03343839 -0.16304015 -0.13666156 -0.017328283
000040 00 00 00 00 b7 5f 43 bd 00 00 00 00 d2 61 52 bd
       0.0 -0.047698703 0.0 -0.05136282

target_network.emb3.transform.weight f4 [20, 2]
000000 67 23 06 bf bc 36 5e be 02 de 96 be a7 85 52 bd
       -0.5239777 -0.21700567 -0.29466254 -0.051396992
000010 de d0 81 be a8 03 6c bd a8 6f ae 3e 78 01 2c 3e
       -0.25354666 -0.057620674 0.34069562 0.16797435
000020 9a 15 46 3e ee f4 ab 3e 38 48 df be 42 5a d9 3e
       0.19344178 0.33585304 -0.43609786 0.42451674
000030 d0 1a 30 3e df 36 fb 3e be 42 37 3d d1 00 4f be
       0.17197728 0.490653 0.044741385 -0.20215155
000040 bd 8a f7 be 4b 42 0d 3f 39 35 88 3d 47 e2 8b be
       -0.48348036 0.5517928 0.066507764 -0.27321073
000050 c3 33 8a bd ac a1 cd be 30 66 1d bf bd bd 84 3e
       -0.06748154 -0.40162408 -0.6148405 0.2592601
000060 11 31 95 3d f6 7f 0f 3e 1b 55 e3 3e 43 ae 72 3e
       0.07284749 0.14013657 0.44400868 0.23699288
000070 05 33 51 be 5c 8e 10 be 0d d2 c1 be 23 a8 3c 3e
       -0.20429619 -0.14116806 -0.3785557 0.18423514
000080 3f 1b 3e 3f 83 24 a6 be b9 69 ac 3d d6 25 64 be
       0.74260324 -0.3244973 0.084186025 -0.22280058
000090 08 ac f0 bc 24 86 74 3d 99 25 9c 3e 6d f6 2c 3e
       -0.029378906 0.05969824 0.30497435 0.16890879

target_network.emb3.transform.bias f4 [20]
000000 00 00 00 00 00 00 00 00 00 00 00 00 b4 c5 16 3c
       0.0 0.0 0.0 0.00920241
000010 4d 02 a1 bd 9d c9 ea bc 5a 69 06 bc 3e ba d4 bc
       -0.07861767 -0.02866059 -0.008203829 -0.025967713
000020 8e 4a 9c bd 78 95 99 bc 00 00 00 00 21 ee c6 bd
       -0.07631408 -0.01874803 0.0 -0.09713388
000030 a7 19 27 3d 1a 69 2a bd 00 00 00 00 9b 9e 43 3d
       0.04079595 -0.04160414 0.0 0.04775868
000040 1f 06 2b bd 74 f4 0d be a4 53 11 be 25 d9 4e bd
       -0.041753884 -0.13862783 -0.14192063 -0.050500054

target_network.emb4.transform.weight f4 [20, 2]
000000 62 06 31 3e f6 ca 62 3e 29 ed 7f 3d a7 29 53 be
       0.17287591 0.22147736 0.062482033 -0.20621358
000010 9a eb 82 3e 59 01 d5 3d 23 24 d0 be 3f ff ab 3e
       0.25570375 0.10400648 -0.4065257 0.33593175
000020 93 5a 38 3e f0 66 6d be c8 30 07 3e 39 b4 e1 3e
       0.18003301 -0.23183799 0.13202202 0.4408281
000030 59 72 8a 3e 88 9a 0e bb 84 32 57 be 4b 4f 83 be
       0.27040365 -0.0021759588 -0.21015364 -0.25646433
000040 3f de 9a be 76 1a ba be ef 84 ad be eb f7 33 3e
       -0.30247685 -0.36348313 -0.33890483 0.17575042
000050 68 9b 8c bc 97 37 b8 be 95 af 57 3e a2 3d 8c 3e
       -0.017163947 -0.35979912 0.21063073 0.27390772
000060 2d c8 63 bd 6a 84 33 3d 6a cc a6 3c 8a c2 2c 3d
       -0.055610824 0.04382745 0.020361144 0.042177714
000070 5b 60 ac be ab a7 a9 3e 3a 7a 97 3e 17 a3 0e bf
       -0.33667263 0.33135733 0.2958544 -0.55717605
000080 2e 82 e9 3d 84 e8 64 3c ff c3 1e bf 6a 60 0c 3f
       0.11401783 0.013971452 -0.62017816 0.54834616
000090 41 a3 4d bf ce d0 30 3e 23 03 05 bf 98 bd 02 bf
       -0.8032723 0.17267153 -0.5195791 -0.5107055

target_network.emb4.transform.bias f4 [20]
000000 8f ec c4 bc 3d c9 ac bc bc 91 61 be 5d f6 20 be
       -0.024038581 -0.021092052 -0.2202825 -0.1571898
000010 e9 56 d8 bd 8e 98 ab 3c 1e f8 22 3d 00 00 00 00
       -0.10563452 0.020946767 0.039787404 0.0
000020 00 00 00 00 e7 d2 21 3d 00 00 00 00 2c 24 3f 3e
       0.0 0.039507773 0.0 0.18666142
000030 d5 40 60 bd 63 1c 6c bd 12 6a b3 bc 9c bd 11 be
       -0.05474933 -0.05764426 -0.021901164 -0.14232486
000040 37 6a 03 be 3b 98 d0 bb 00 00 00 00 00 00 00 00
       -0.12833486 -0.0063658035 0.0 0.0

target_network.h2.transform.weight f4 [20, 20]
000000 ac ac 32 3d 8e 69 aa bd 5c 2c 8d be f7 70 1e 3d
       0.043621704 -0.08320914 -0.27572906 0.03868195
000010 4f 8b b6 bd 30 40 f0 3e 22 5e 33 bf 12 69 41 bf
       -0.0891329 0.4692397 -0.7006551 -0.7555095
000020 eb b4 4a be 63 d7 8e be 53 01 c6 3e 32 1f 44 3e
       -0.19795577 -0.27898702 0.38672885 0.19152525
000030 8b 42 c8 3d f6 b8 87 3d ea 99 3f be 71 7c 90 be
       0.09778317 0.066270754 -0.18711057 -0.2821994
000040 19 31 d2 be c2 47 f2 bd 76 78 a9 be c7 1b fa be
       -0.41053084 -0.11830093 -0.33099717 -0.48849317
000050 91 3b 54 3d 41 50 13 3d 67 81 cb be 08 c7 67 3e
       0.05181462 0.035965208 -0.39747164 0.22634518
000060 40 1b 9b 3b ae 9f 29 bf 66 c2 0d 3e 51 5a e4 be
       0.004733473 -0.66259277 0.13843688 -0.44600156
000070 d9 7b 26 bf 3e 3c ca 3e 7d 50 9a 3d 2b 13 44 be
       -0.65032727 0.39499086 0.07534883 -0.19147937
000080 4c 98 8d be d9 0f e4 be 30 50 f8 be d8 7b 7e be
       -0.27655256 -0.4454334 -0.48498678 -0.2485193
000090 7f 42 5e be e1 5c 46 bc 8f 57 76 be 23 ac 23 3d
       -0.21705054 -0.012107105 -0.24056838 0.039959084
0000a0 0a 0d e8 be 73 3c 9c 3c 6c 44 aa be aa cb ef be
       -0.45322448 0.019071793 -0.33255327 -0.4683507
0000b0 59 5d a4 be 28 c4 07 be 49 15 cb be 17 7d 15 3e
       -0.3210247 -0.13258421 -0.39664677 0.14598499
0000c0 4b 95 01 3e e1 62 66 3e b5 66 cb 3c 53 d8 9a bd
       0.12654607 0.22498657 0.024829248 -0.07560792
0000d0 ec d0 8a 3e e3 55 1c be 8d 1b 00 3e f8 59 dc be
       0.2711252 -0.15267138 0.1251051 -0.4303739
0000e0 d1 07 ea 3e e0 da 3f be 11 01 33 bf 80 f2 bb 3e
       0.45709088 -0.18735838 -0.699235 0.3670845
0000f0 1c b2 ed bd 82 d1 ff bb 61 4d 97 3e b7 ac 18 be
       -0.11606237 -0.0078069577 0.29551223 -0.14909635
000100 03 40 6d 3e ca cd 8a 3e 02 79 c7 be 90 e1 1f 3e
       0.2316895 0.2711013 -0.3895951 0.15613389
000110 d0 1d 34 be 9a 0e 54 3f 4a 36 81 be bb fa ca 3e
       -0.17589498 0.8283478 -0.25236732 0.39644417
000120 ab eb 3b bd 55 c0 60 bd af 4b 20 bf d2 7a 3d be
       -0.045879047 -0.054870922 -0.62615484 -0.18503883
000130 2f af c1 bd 26 09 a5 be 9d c2 e7 3d 74 2e f1 3c
       -0.09457242 -0.32233542 0.113164164 0.029441096
000140 ee 47 10 be 8f 14 15 bf 8b 96 f7 be ba 44 6d 3e
       -0.14089939 -0.58234495 -0.48357043 0.23170748
000150 97 e9 1b bf 18 a1 99 bd b6 b6 fd be 4b 17 0c 3e
       -0.60903305 -0.07501429 -0.4955346 0.1368076
000160 64 04 88 3e 00 43 c1 3e c4 3b 9e 3e 08 50 da bd
       0.2656585 0.3774643 0.30904973 -0.10659796
000170 39 d2 5a be 69 5d 9a 3d ae 7e f4 be 9c e3 93 3e
       -0.21369256 0.07537348 -0.477529 0.2888459
000180 21 89 20 bd 92 7d d5 3e b0 10 bd 3e 86 1c 06 3e
       -0.039193276 0.41697365 0.36926794 0.13096818
000190 8c 7c c4 3c 96 93 8d 3e d6 e6 24 3c b6 ca 0a 3f
       0.02398517 0.27651662 0.010064801 0.5421556
0001a0 bd e7 69 bd 78 f8 e6 3e 0d f4 a1 be 60 7d 97 bc
       -0.05710577 0.45111442 -0.31631508 -0.0184924
0001b0 38 8f 8c be 72 fd f3 3d 60 58 d4 3c 8f 67 15 bf
       -0.27453017 0.11913575 0.025921047 -0.5836114
0001c0 64 ad 5c be 42 7c c9 be 55 34 a7 3e 82 ad 2b be
       -0.21550518 -0.39352614 0.32657114 -0.16765407
0001d0 b0 10 c2 3e 36 2a 57 be b7 36 07 3e 8a d2 0c be
       0.37903357 -0.21012196 0.13204466 -0.1375219
0001e0 22 e2 c7 ba 3c 52 7e be a7 20 e5 be 56 a5 f4 3e
       -0.0015249888 -0.24836057 -0.44751474 0.4778239
0001f0 ed af 9e 3d 71 19 fe bc 84 1d 6c be 65 d1 c8 3e
       0.07748399 -0.03101799 -0.23058134 0.39222255
000200 d2 df b5 3e 97 51 11 bf b8 91 0a bf c7 88 80 3e
       0.35522324 -0.5676512 -0.541286 0.25104353
000210 44 45 00 be 58 ee e6 be ec 3f f4 be bf f7 8b be
       -0.12526423 -0.45103717 -0.4770502 -0.27337453
000220 84 6f 4e be be 65 42 be 81 05 58 be ec ca 5c 3d
       -0.20159727 -0.18984124 -0.2109585 0.05390446
000230 0d 27 ab be 92 cc 8e bd fa f5 8b be 2e 27 7c bc
       -0.3342823 -0.069726124 -0.27336103 -0.015390201
000240 e5 60 28 3d b8 ed e1 be 54 b7 a7 3d ee af d3 be
       0.04110803 -0.44126678 0.08189264 -0.4134516
000250 b0 9a cf 3e e5 4b e5 3d 12 6c 1b 3d c7 83 48 3e
       0.40547705 0.11196116 0.03794486 0.19581519
000260 13 63 9c bd cf ae a2 be 1b 86 96 bd 82 a3 cb bd
       -0.076360844 -0.31773993 -0.07349797 -0.09943296
000270 b7 50 ff 3e 3b c2 95 be d9 85 91 3e 38 25 5d bf
       0.49866268 -0.2924975 0.2842243 -0.86384916
000280 3e 64 21 3f 69 88 16 bf 6f 9d b6 bd 3e 92 12 bf
       0.6304358 -0.58801895 -0.08916747 -0.572544
000290 30 fd 42 bf aa 70 e5 3d 9e b6 1e bc 72 db 26 3f
       -0.76167583 0.112031296 -0.009687094 0.65178597
0002a0 7a 9c 13 be b9 eb 39 bd e4 df e5 bd 35 ce 74 3e
       -0.1441516 -0.04539082 -0.112243444 0.23906787
0002b0 74 1e 52 be 2b 04 e6 be b7 eb 26 3e d5 2a 61 bd
       -0.2051943 -0.44925055 0.16300856 -0.05497249
0002c0 b9 17 01 be 7e 02 04 be 9f 58 ce 3e 5f 96 40 be
       -0.12606706 -0.12891576 0.40301988 -0.18807362
0002d0 5c 67 fb 3b e8 bf ae be 47 41 10 3f 23 1e de bd
       0.0076722335 -0.34130788 0.56349605 -0.10845592
0002e0 0f f4 b7 be 7f 90 fe 3d 71 3c e8 3d 8a d9 66 3d
       -0.3592839 0.12429904 0.11339653 0.056359805
0002f0 3a 44 ec 3d 02 2d fc 3d 6f e4 69 3e a0 9f 9b 3e
       0.11536451 0.12313272 0.22841047 0.30395222
000300 ef d2 a6 3e 1b 7c 9b bf 8e 67 31 3d 98 f7 10 3f
       0.32582805 -1.2147249 0.043311648 0.566278
000310 8e 9b 98 be af 7f 41 3f 71 7c 84 be ee 6a 4b be
       -0.2980618 0.75585455 -0.2587619 -0.19865009
000320 30 3d 01 3b b0 22 b7 be ec 42 85 3e 7d 7b a3 3d
       0.0019720308 -0.35768652 0.2602762 0.07982538
000330 f9 c5 08 3f 99 c4 ac be dd 3c 05 be 2f 8d 40 3d
       0.5342708 -0.33743742 -0.13011499 0.047009643
000340 87 db 32 bd 17 b2 83 bd f7 c5 ef 3e 74 2c cc 3c
       -0.04366639 -0.06430452 0.46830723 0.02492354
000350 0e f2 a3 3d ff 37 93 3e 49 ac 53 3d 96 9b 4b be
       0.08005153 0.2875366 0.051677976 -0.1988357
000360 05 be 62 3e 7f 66 fb bd d0 84 61 bd ee a1 8b 3e
       0.22142799 -0.12275409 -0.0550583 0.2727198
000370 b8 cf 24 be 1a 7f 21 bf 60 ef 0c bf 46 1a cc be
       -0.16094863 -0.63084567 -0.5505276 -0.39863795
000380 12 7f f5 3e b0 64 39 3f 19 eb 8c 3e ba d0 d5 bd
       0.4794851 0.7241926 0.27523115 -0.10440202
000390 2a b5 06 3f 75 c0 2e 3e 4a 31 58 3e ff b0 38 bf
       0.52620184 0.17065604 0.21112552 -0.72145075
0003a0 ca f5 32 3e 21 04 8f be ab 9b 11 bf 99 29 ea 3d
       0.17476574 -0.27932838 -0.56878155 0.114337154
0003b0 c9 57 98 be 45 f2 e2 bd 7a 1b 0f 3e fc 3c 96 bc
       -0.29754475 -0.110813655 0.13975325 -0.018339626
0003c0 90 af c4 3e a4 bd ba 3e 88 51 04 3e 0a 5d 1d bf
       0.38415194 0.3647281 0.12921727 -0.6147009
0003d0 44 17 ad 3d 42 6c b0 bd 68 79 d2 be 2d b1 4d 3f
       0.08451703 -0.086143985 -0.4110825 0.80348474
0003e0 4f b2 f6 3e f3 db 3e bd d0 75 ea 3e cb 1a 40 3e
       0.48182914 -0.04659648 0.4579301 0.1876022
0003f0 ba 52 29 bf 4f fa 44 bf 9a a4 1e 3e 19 36 47 3c
       -0.66141856 -0.7694444 0.15492478 0.012158894

target_network.h2.transform.bias f4 [20]
000000 e7 ac e1 bd c2 c9 e0 bd 70 1d b4 bd b1 46 db bd
       -0.11019307 -0.10975982 -0.08794677 -0.10706843
000010 58 ed 4e be 65 f1 1e be c9 e5 09 be 72 50 04 be
       -0.20207727 -0.15521772 -0.13466562 -0.12921312
000020 df f4 08 bd a0 11 6d 3c bf e1 d2 bc f2 c8 00 bc
       -0.033436652 0.014469534 -0.02574241 -0.007860409
000030 6e 5d 2c 3e 32 52 8c bd b9 7d bb 3d 00 00 00 00
       0.16832516 -0.06851615 0.09154839 0.0
000040 0c 22 1a be fc f1 f9 bd e2 57 36 bc 5e 72 34 be
       -0.1505205 -0.12204358 -0.011129351 -0.17621753

target_network.h3.transform.weight f4 [20, 20]
000000 d5 a7 92 3c bc 11 c3 bd f3 1e 15 3f 36 dc 78 bc
       0.017902294 -0.09524867 0.5825035 -0.015189221
000010 b5 a4 cb 3d 0b 0a 1a bf f0 f7 fa be d6 1d 86 3e
       0.09943525 -0.60171574 -0.49017286 0.26194638
000020 e6 c2 7e 3e 66 4a 87 be 17 70 e9 bd 17 fe 84 3d
       0.24879035 -0.2642395 -0.113983326 0.06493776
000030 2c 35 ba be 8e cb 02 bf 65 ed 02 3e f0 a1 df be
       -0.36368692 -0.5109185 0.12785871 -0.43678236
000040 fe 06 19 be bb 3c 8b be 42 b0 0f bf 11 c9 af bd
       -0.14944074 -0.2719477 -0.56128323 -0.08583272
000050 9b a3 2e be 82 07 02 bf c6 4a 02 be 1c e7 c7 bd
       -0.17054598 -0.50792706 -0.12723836 -0.097608775
000060 59 96 01 be 02 a5 4f 3d 87 bd 57 3f d8 24 da bd
       -0.1265501 0.050694473 0.8427357 -0.10651559
000070 a3 00 b2 3d a3 78 4c be a4 48 56 be 68 63 20 3f
       0.08691528 -0.19967894 -0.20926148 0.6265168
000080 be fe 84 be 0d 74 8e 3c 47 8c 28 be 15 f9 97 bc
       -0.25975603 0.017389322 -0.16459762 -0.018551389
000090 c9 7e 66 be 67 9a 38 3e 55 a1 c2 be 72 60 c7 3e
       -0.22509302 0.1802765 -0.38013712 0.3894077
0000a0 6b a1 c1 3e af 65 25 3e 9b 3e 3e 3c df 96 08 bd
       0.37818465 0.1615207 0.011611606 -0.033347007
0000b0 39 e1 e1 be 49 79 db bc 35 3a 17 3e 0b 63 2a 3f
       -0.44117144 -0.026791232 0.14768298 0.6655738
0000c0 05 8a d9 3e cb f8 32 3f 25 73 15 be d2 4f 28 3c
       0.42488113 0.6991088 -0.14594705 0.010272937
0000d0 c8 b6 16 3f 68 31 b7 3e 7b bf fd 3e 12 8d f7 be
       0.5887265 0.3577988 0.4956015 -0.48349816
0000e0 dd 02 ca 3d 0a 0c f2 3e 69 ab 80 3e 8b 8c be bd
       0.098638274 0.4727481 0.25130776 -0.0930415
0000f0 2f bc e6 3d c0 58 ef 3e 99 47 9b 3e dd 07 bd be
       0.11266362 0.46747398 0.30328062 -0.36920062
000100 62 44 c3 3e 7b ab 44 3d 68 85 58 3e 6c 79 21 bd
       0.3813811 0.0480151 0.2114464 -0.039422438
000110 af 26 ac bd 61 9b b4 be 85 cd 87 3e 36 9e 67 3d
       -0.08405816 -0.35274795 0.26523986 0.056547366
000120 d7 3b 72 3e 4d 55 06 3f dc e0 1a 3e 4e ef 0c bd
       0.2365564 0.5247391 0.1512484 -0.034407906
000130 07 50 87 be 01 84 cc bd d9 42 0a 3f 5f 0e 58 be
       -0.26428244 -0.09986115 0.5400825 -0.21099232
000140 47 d9 c6 3c 4a 6b 47 3e 73 ef 93 be d3 05 b9 bd
       0.024273528 0.19474521 -0.28893623 -0.09034314
000150 ec 2a a2 be af 0d ce be 00 1e 61 3d 63 03 0b bf
       -0.31673372 -0.40244815 0.05496025 -0.5430204
000160 ed f5 29 3f f7 15 3b be 3b 3e 3e 3e 84 dc bc be
       0.6639088 -0.18270098 0.18578427 -0.3688699
000170 fe 85 1b bf b5 6a 0e bf 89 17 66 be 1f 9a bb 3d
       -0.6075133 -0.5563157 -0.22469915 0.09160256
000180 c2 70 ba 3e 5a c8 c8 bd a8 36 fe 3d d0 2f a1 3d
       0.36414152 -0.09803839 0.124127686 0.07870448
000190 51 6b 9a bc 5f 38 4e 3f 3d be fa 3e 3d 47 a7 3e
       -0.01885 0.80554765 0.48973265 0.32671538
0001a0 a8 1a 16 bd 32 9c 45 be 4e cf 20 3f 8d 16 3a be
       -0.036646515 -0.19297865 0.6281632 -0.18172665
0001b0 34 40 34 bc 6a 70 3d 3e 12 03 85 3d cc b3 db 3c
       -0.011001635 0.18499914 0.06494726 0.026819132
0001c0 f1 fb 98 3e 98 4c bd be d9 c3 66 3e 3b d4 58 3d
       0.29879716 -0.369725 0.22535647 0.052936774
0001d0 54 23 5b bd 4f 4b fb 3d 78 3a 3d be ed af 51 3e
       -0.05350049 0.12270223 -0.18479335 0.20477267
0001e0 e0 46 2c 3c 0f 13 86 be bc 89 1a 3f f6 5e cd be
       0.010514945 -0.26186416 0.60366416 -0.40111512
0001f0 8d a3 95 be 8b 2d 4c 3e e5 b8 10 bd 3a c1 60 3d
       -0.29226342 0.19939248 -0.03533258 0.054871775
000200 70 99 3c be c4 5c 8c 3e 43 e2 97 3e e6 cc fe bb
       -0.18417907 0.27414525 0.29664811 -0.0077758906
000210 e1 12 83 bf 35 18 23 3e 8e 82 16 bc 06 d4 06 3e
       -1.0240136 0.15927203 -0.0091864 0.13166818
000220 4e b3 0b be 09 f9 0e be be a0 40 3e e2 d1 7d 3e
       -0.13642618 -0.13962187 0.18811318 0.24787095
000230 76 3b 9a 3e c6 e2 1c be 64 f6 32 3e 79 4e 95 3e
       0.3012349 -0.15320882 0.17476803 0.29161432
000240 e1 4e e6 bd ab 2c 4d bf 54 8b 8c 3e 5a 3d 5b bd
       -0.11245514 -0.8014628 0.2745005 -0.053525306
000250 3d 63 15 bf 05 4c a4 bc 46 d5 0b bf fa 5c 73 3e
       -0.5835455 -0.02005578 -0.54622304 0.23765936
000260 4a 0b a9 bd ec ca 89 3e 04 e7 12 bf 83 ea b6 bd
       -0.08254106 0.2691263 -0.5738375 -0.08931448
000270 3b cc 15 3f f5 4d 86 be 80 6d 8a 3e 6d b0 94 3d
       0.58514756 -0.26231351 0.27036667 0.07260213
000280 4b 31 f0 3e 4e 69 a1 be 3e 93 4c be e0 b9 8f 3d
       0.46912608 -0.31525654 -0.19978043 0.07017875
000290 27 09 12 3f 7a cc dc bd 40 c6 13 3e 11 32 c8 3e
       0.57045215 -0.10781188 0.14431095 0.39100698
0002a0 04 be 91 3e fe cd 8d be af 81 1d 3f ba 1c ce bd
       0.28465283 -0.27696222 0.61526006 -0.10064073
0002b0 12 1e 57 be 35 cc 8e 3e 5f 28 6d be 88 84 cc 3e
       -0.21007565 0.27890173 -0.23159932 0.39944863
0002c0 0f 0d 84 3e b9 2d cb 3e a6 49 6f be 8e 86 05 3e
       0.25791213 0.3968332 -0.23367938 0.1303961
0002d0 a5 0b b2 bd e2 d8 0f 3e a8 51 c4 bd 4b 2b 8b be
       -0.08693627 0.14047578 -0.09585887 -0.27181467
0002e0 b0 ee 5e 3e 22 82 af 3e d6 54 a2 bc 79 33 3e 3e
       0.2177074 0.3427897 -0.019815844 0.18574323
0002f0 44 9e c6 3d 65 08 e3 be 43 1a 36 be 01 65 05 3c
       0.096981555 -0.44342342 -0.17783456 0.008141757
000300 2c e6 38 3e 23 74 bc be c6 0d 69 bd a7 b9 23 bf
       0.18056554 -0.36807355 -0.0568979 -0.6395516
000310 40 40 fa 3e 17 ce 84 be 8e 0f 9b 3e ba 2e 1a 3f
       0.48877144 -0.25938484 0.30285305 0.6022755
000320 d0 01 5b 3e 50 86 90 be ec ee ce 3c df b4 4b bf
       0.2138741 -0.28227472 0.025260411 -0.7957286
000330 ac 1e c0 3e 10 a0 d9 be 7a 9a 2b 3e 79 1c f3 be
       0.375234 -0.4250493 0.16758147 -0.4748266
000340 24 a9 e1 bd e4 28 91 3e 30 6b f2 bb 79 c9 d8 be
       -0.11018589 0.2835151 -0.0073980317 -0.4234121
000350 6f 91 a6 3e bb 6e 64 be 00 b0 b8 bd e6 e3 ce be
       0.32532832 -0.22307865 -0.09017944 -0.40408248
000360 58 13 b9 bc c6 ab 4d 3e 3a b9 c0 bd e3 39 a0 ba
       -0.022592232 0.20085058 -0.09410329 -0.0012224283
000370 f8 f7 fc 3d ac 38 c4 3d 54 fa be 3e 4e 4b dc be
       0.12351984 0.09581122 0.3730036 -0.43026203
000380 57 4d 4b 3d 7b c2 15 be 5b 6b 23 3c 7e d3 a6 3e
       0.049634304 -0.1462497 0.009974326 0.3258323
000390 d7 6a cc 3e 08 ec ab bd f6 4c 3a bf df 07 e1 bd
       0.39925262 -0.08394629 -0.72773683 -0.109878294
0003a0 79 6e af 3d 32 2c 8a be b5 c0 68 bd 11 57 53 3f
       0.08565993 -0.26986843 -0.056824405 0.8255473
0003b0 b7 3a c1 bc 7e 2b 6f 3c 70 03 e8 3d 5f 4c 3e 3e
       -0.023587568 0.014597772 0.11328781 0.18583821
0003c0 12 fd 3b 3e 77 af d4 be 6c 3b 4f 3e 4b 85 a6 3c
       0.18358257 -0.4154012 0.20237511 0.02032723
0003d0 18 f1 c8 be 14 ef 2d bc 30 0f 33 3d 84 55 56 3d
       -0.3924644 -0.010616083 0.043715656 0.052327648
0003e0 ca 9d 9f be 26 48 36 bf f6 d7 13 3f be 23 d6 3b
       -0.3117507 -0.7120384 0.57751405 0.0065350225
0003f0 12 90 00 3f 60 bc 06 bf 9a 9c eb bd 4f 1b 62 3e
       0.50219834 -0.5263119 -0.11504479 0.2208073

target_network.h3.transform.bias f4 [20]
000000 64 80 41 be 50 21 46 3d 56 25 63 bd 51 4c 51 bd
       -0.18896633 0.048371613 -0.05545553 -0.05109817
000010 18 88 42 be fc eb 49 be 6b 93 54 bd 7f 3a 2f be
       -0.18997228 -0.19718927 -0.0518984 -0.17112158
000020 88 72 57 3b 5f 07 d5 bd 0a 22 2d bd 00 00 00 00
       0.0032874662 -0.104017965 -0.04226879 0.0
000030 40 26 27 be 75 0d 90 be 00 00 00 00 7e a3 eb bd
       -0.16323185 -0.28135267 0.0 -0.11505793
000040 55 e0 d1 bd 2a c6 90 bc bc 98 57 be ef 77 fb bd
       -0.10247866 -0.017672617 -0.21054357 -0.12278735

target_network.critic_linear.weight f4 [1, 20]
000000 b0 9f 61 be 01 b0 7f be 3c 24 b1 be 3a 74 2f be
       -0.22033572 -0.24969484 -0.34597957 -0.1713418
000010 c2 55 ae be d5 bb 33 3e 66 49 67 3e e9 58 e3 3e
       -0.34049803 0.17552121 0.22586593 0.4440377
000020 55 60 06 3f 04 50 4c 3e 03 ff 40 3d a0 2d dc 3c
       0.5249074 0.19952399 0.047118198 0.026877224
000030 3f aa 9b be 51 15 ef bc 57 0d 2c bf 9e 17 60 bd
       -0.30403325 -0.02918497 -0.67207855 -0.054710023
000040 ec 56 bf bc 06 49 32 be 96 fc 81 3e fc 5b 22 3e
       -0.023356877 -0.17410669 0.2538802 0.15855402
