pz_risk/mini_0/37.pt (torch, 18513 bytes, 26 tensors)

policy_network.emb1.transform.weight f4 [20, 2]
0	0x3df10e76	0.11770336
1	0x3eeafb6b	0.45894942
2	0x3d6a5a2c	0.0572149
3	0xbf1aa815	-0.6041272
4	0xbbf13fde	-0.00736235
5	0xbea9be48	-0.33152986
6	0xbe303e94	-0.17211372
7	0xbeaad970	-0.33369017
8	0x3b728b6f	0.0037009378
9	0x3e9fe3ba	0.3122843
10	0xbf1c2ebc	-0.6100881
11	0x3eccb4a7	0.39981577
12	0xbe501a9a	-0.20322648
13	0xbd8ecd33	-0.069727324
14	0xbe9340f1	-0.28760484
15	0xbe90d0c1	-0.28284267
16	0x3e1be0e1	0.15222503
17	0x3e819ac1	0.2531338
18	0xbd53d158	-0.051713318
19	0x3e671f4c	0.22570533
20	0xbe15ba4d	-0.1462185
21	0x3cceee35	0.02526007
22	0xbd5caf96	-0.05387839
23	0x3f02c9ef	0.51089376
24	0x3e873c4b	0.26413187
25	0xbec04f4a	-0.37560493
26	0xbe97a1d9	-0.29615667
27	0x3e984724	0.29741776
28	0x3e66d020	0.22540331
29	0x3e7c49e6	0.24637565
30	0xbf3ee9a2	-0.74575245
31	0x3e764696	0.24050364
32	0xbf1b5ac9	-0.606854
33	0xbe6b58c6	-0.22983083
34	0xbeda7f61	-0.42675307
35	0xbec64ecd	-0.38731995
36	0xbd535cc0	-0.051602125
37	0x3da661f9	0.081241556
38	0xbe9e32ad	-0.30898038
39	0xbe9877c6	-0.2977888

policy_network.emb1.transform.bias f4 [20]
0	0x3cf03e44	0.029326566
1	0xbc616cce	-0.013758851
2	0x00000000	0.0
3	0x00000000	0.0
4	0xbe0476b0	-0.129359
5	0xbdc0fdc5	-0.09423403
6	0x00000000	0.0
7	0x00000000	0.0
8	0x3cdc5c6c	0.026899539
9	0xbe011c5a	-0.12608472
10	0x00000000	0.0
11	0x3e1784e2	0.14796785
12	0xbe078b32	-0.13236693
13	0xbd407af1	-0.046992246
14	0x3d42a220	0.047517896
15	0x00000000	0.0
16	0x00000000	0.0
17	0x00000000	0.0
18	0xbca6743a	-0.020319093
19	0x00000000	0.0

policy_network.emb2.transform.weight f4 [20, 2]
0	0xbd939c37	-0.0720753
1	0x3f0fd2fd	0.5618132
2	0x3e0a1f11	0.13488413
3	0x3f01ca2f	0.5069913
4	0xbe928e19	-0.28624037
5	0x3d038d6d	0.032117296
6	0xbd470daa	-0.048597015
7	0xbdd237d0	-0.10264552
8	0x3eacabea	0.3372491
9	0xbe7f6d37	-0.24944006
10	0xbdce60d2	-0.10077061
11	0x3eb4600a	0.35229522
12	0x3e0c5627	0.1370474
13	0x3c252dda	0.010081733
14	0xbeb77196	-0.35828847
15	0x3f166dd8	0.5876136
16	0xbecd380f	-0.40081832
17	0x3f0a2899	0.539682
18	0x3eae6a64	0.34065545
19	0xbe53d3c5	-0.20686252
20	0x3dda9a57	0.10673969
21	0xbf0f25ae	-0.5591687
22	0xbf5db806	-0.8660892
23	0xbe3cc72c	-0.18435353
24	0xbd587fbe	-0.0528562
25	0x3d691151	0.05690128
26	0xbeab47cd	-0.33453217
27	0x3e778f93	0.24175863
28	0xbe26c723	-0.16286902
29	0x3f68baa8	0.90909815
30	0xbeb085d8	-0.34477115
31	0x3edd84a8	0.4326527
32	0xbf1958ce	-0.5990113
33	0x3dd36727	0.10322409
34	0x3df2457f	0.118296616
35	0xbf0aea35	-0.5426362
36	0xbdba2cc1	-0.090905674
37	0xbdf88c61	-0.1213615
38	0x3d230650	0.039800942
39	0x3d765ec4	0.06014897

policy_network.emb2.transform.bias f4 [20]
0	0xbe00a6d5	-0.12563641
1	0xba915040	-0.0011086538
2	0x00000000	0.0
3	0x00000000	0.0
4	0xbe2c965b	-0.16854231
5	0xbdbe5132	-0.092928305
6	0xbc950c94	-0.018194474
7	0xbd3e7ca8	-0.0465056
8	0xbcf58e5b	-0.029975107
9	0xbe4f434c	-0.20240515
10	0xbd2d028a	-0.04223875
11	0x00000000	0.0
12	0xbd08f6b1	-0.03343839
13	0xbe26f3ff	-0.16304015
14	0xbe1d32aa	-0.15351358
15	0xbc3b4568	-0.011430122
16	0x00000000	0.0
17	0xbd5b5f25	-0.053557534
18	0x00000000	0.0
19	0xbd5261d2	-0.05136282

policy_network.emb3.transform.weight f4 [20, 2]
0	0xbf062367	-0.5239777
1	0xbe5e36bc	-0.21700567
2	0xbe96de02	-0.29466254
3	0xbd5285a7	-0.051396992
4	0xbe81d0de	-0.25354666
5	0xbd6c03a8	-0.057620674
6	0x3ec14b8d	0.37752953
7	0x3e3ff5b4	0.18746072
8	0x3e164171	0.14673401
9	0x3e91d673	0.28483924
10	0xbeec0a59	-0.46101645
11	0x3ed3b6da	0.41350442
12	0x3e278312	0.16358593
13	0x3eec707e	0.46179575
14	0x3d3742be	0.044741385
15	0xbe4f00d1	-0.20215155
16	0xbf003d3d	-0.5009344
17	0x3f118047	0.5683636
18	0x3d883539	0.066507764
19	0xbe8be247	-0.27321073
20	0xbd8a33c3	-0.06748154
21	0xbecda1ac	-0.40162408
22	0xbf1d6630	-0.6148405
23	0x3e84bdbd	0.2592601
24	0x3d5616f2	0.052267976
25	0x3e110b05	0.1416436
26	0x3ee277f8	0.44232154
27	0x3e596b58	0.21232355
28	0xbe513305	-0.20429619
29	0xbe108e5c	-0.14116806
30	0xbec80b1c	-0.39070976
31	0x3e529b26	0.20566997
32	0x3f3da321	0.7407704
33	0xbea5c656	-0.3237788
34	0x3dac69b9	0.084186025
35	0xbe6425d6	-0.22280058
36	0xbcf0ac08	-0.029378906
37	0x3d748624	0.05969824
38	0x3e91390d	0.2836384
39	0x3e126ffc	0.14300531

policy_network.emb3.transform.bias f4 [20]
0	0x00000000	0.0
1	0x00000000	0.0
2	0x00000000	0.0
3	0x3c933b22	0.017972533
4	0xbdfbd9f9	-0.12297434
5	0xbd193ab7	-0.03740951
6	0xbc8c0f6c	-0.017097197
7	0xbcd4ba3e	-0.025967713
8	0xbd7b0cf6	-0.061291657
9	0xbc999578	-0.01874803
10	0x00000000	0.0
11	0xbdc6ee21	-0.09713388
12	0x3c6354ea	0.013875226
13	0xbd4fe720	-0.050757527
14	0x00000000	0.0
15	0x3da4553e	0.08024071
16	0xbd4a47fa	-0.04938505
17	0xbe0df474	-0.13862783
18	0xbe1153a4	-0.14192063
19	0xbd99a917	-0.075029545

policy_network.emb4.transform.weight f4 [20, 2]
0	0x3e23c70b	0.15993898
1	0x3e57c849	0.21072496
2	0x3d7fed29	0.062482033
3	0xbe5329a7	-0.20621358
4	0x3e8e1a27	0.27754328
5	0x3e084cca	0.13310543
6	0xbed02423	-0.4065257
7	0x3eabff3f	0.33593175
8	0x3e385a93	0.18003301
9	0xbe6d66f0	-0.23183799
10	0x3df5ea92	0.12007631
11	0x3ed3afa4	0.4134494
12	0x3e7b569a	0.24544755
13	0xbcb2dc99	-0.021833705
14	0xbe573284	-0.21015364
15	0xbe834f4b	-0.25646433
16	0xbe9ade3f	-0.30247685
17	0xbeba1a76	-0.36348313
18	0xbebb72d1	-0.36611035
19	0x3e4578c4	0.1928435
20	0xbc8c9b68	-0.017163947
21	0xbeb83797	-0.35979912
22	0x3e521278	0.20514858
23	0x3e85ff81	0.26171497
24	0xbd63c82d	-0.055610824
25	0x3d33846a	0.04382745
26	0x3ca6cc6a	0.020361144
27	0x3d2cc28a	0.042177714
28	0xbeb56084	-0.35425198
29	0x3eb3479c	0.3501557
30	0x3e977a3a	0.2958544
31	0xbf0ea317	-0.55717605
32	0x3de9822e	0.11401783
33	0x3c64e884	0.013971452
34	0xbf2514e3	-0.64484996
35	0x3f10f5c0	0.56624985
36	0xbf4da341	-0.8032723
37	0x3e30d0ce	0.17267153
38	0xbf050323	-0.5195791
39	0xbf02bd98	-0.5107055

policy_network.emb4.transform.bias f4 [20]
0	0xbcbfe812	-0.02342609
1	0xbcacc93d	-0.021092052
2	0xbe536335	-0.20643313
3	0xbe20f65d	-0.1571898
4	0xbdd856e9	-0.10563452
5	0xbb073a00	-0.0020633936
6	0x3c94c6f3	0.018161273
7	0x00000000	0.0
8	0x00000000	0.0
9	0x3d64fb08	0.055903465
10	0x00000000	0.0
11	0x3e423542	0.18965629
12	0xbd6040d5	-0.05474933
13	0xbd6c1c63	-0.05764426
14	0xbbc9ba5c	-0.006156249
15	0xbe11bd9c	-0.14232486
16	0xbe036a37	-0.12833486
17	0x3c44012d	0.011963171
18	0x00000000	0.0
19	0x00000000	0.0

policy_network.h2.transform.weight f4 [20, 20]
0	0x3d32acac	0.043621704
1	0xbdaa698e	-0.08320914
2	0xbe8d2c5c	-0.27572906
3	0x3d1e70f7	0.03868195
4	0xbdb68b4f	-0.0891329
5	0x3ef04030	0.4692397
6	0xbf335e22	-0.7006551
7	0xbf416912	-0.7555095
8	0xbe4ab4eb	-0.19795577
9	0xbe8ed763	-0.27898702
10	0x3ec60153	0.38672885
11	0x3e441f32	0.19152525
12	0x3dc8428b	0.09778317
13	0x3d87b8f6	0.066270754
14	0xbe3f99ea	-0.18711057
15	0xbe907c71	-0.2821994
16	0xbed23119	-0.41053084
17	0xbdf247c2	-0.11830093
18	0xbea97876	-0.33099717
19	0xbefa1bc7	-0.48849317
20	0x3d543b91	0.05181462
21	0x3d135041	0.035965208
22	0xbecb8167	-0.39747164
23	0x3e67c708	0.22634518
24	0x3b9b1b40	0.004733473
25	0xbf299fae	-0.66259277
26	0x3e0dc266	0.13843688
27	0xbee45a51	-0.44600156
28	0xbf267bd9	-0.65032727
29	0x3eca3c3e	0.39499086
30	0x3d9a507d	0.07534883
31	0xbe44132b	-0.19147937
32	0xbe8d984c	-0.27655256
33	0xbee40fd9	-0.4454334
34	0xbef85030	-0.48498678
35	0xbe7e7bd8	-0.2485193
36	0xbe5e427f	-0.21705054
37	0xbc465ce1	-0.012107105
38	0xbe76578f	-0.24056838
39	0x3d23ac23	0.039959084
40	0xbee80d0a	-0.45322448
41	0x3c9c3c73	0.019071793
42	0xbeaa446c	-0.33255327
43	0xbeefcbaa	-0.4683507
44	0xbea45d59	-0.3210247
45	0xbe07c428	-0.13258421
46	0xbecb1549	-0.39664677
47	0x3e157d17	0.14598499
48	0x3e01954b	0.12654607
49	0x3e6662e1	0.22498657
50	0x3ccb66b5	0.024829248
51	0xbd9ad853	-0.07560792
52	0x3e8ad0ec	0.2711252
53	0xbe1c55e3	-0.15267138
54	0x3e001b8d	0.1251051
55	0xbedc59f8	-0.4303739
56	0x3eea07d1	0.45709088
57	0xbe3fdae0	-0.18735838
58	0xbf330111	-0.699235
59	0x3ebbf280	0.3670845
60	0xbdedb21c	-0.11606237
61	0xbbffd182	-0.0078069577
62	0x3e974d61	0.29551223
63	0xbe18acb7	-0.14909635
64	0x3e6d4003	0.2316895
65	0x3e8acdca	0.2711013
66	0xbec77902	-0.3895951
67	0x3e1fe190	0.15613389
68	0xbe341dd0	-0.17589498
69	0x3f540e9a	0.8283478
70	0xbe81364a	-0.25236732
71	0x3ecafabb	0.39644417
72	0xbd3bebab	-0.045879047
73	0xbd60c055	-0.054870922
74	0xbf204baf	-0.62615484
75	0xbe3d7ad2	-0.18503883
76	0xbdc1af2f	-0.09457242
77	0xbea50926	-0.32233542
78	0x3de7c29d	0.113164164
79	0x3cf12e74	0.029441096
80	0xbe1047ee	-0.14089939
81	0xbf15148f	-0.58234495
82	0xbef7968b	-0.48357043
83	0x3e6d44ba	0.23170748
84	0xbf1be997	-0.60903305
85	0xbd99a118	-0.07501429
86	0xbefdb6b6	-0.4955346
87	0x3e0c174b	0.1368076
88	0x3e880464	0.2656585
89	0x3ec14300	0.3774643
90	0x3e9e3bc4	0.30904973
91	0xbdda5008	-0.10659796
92	0xbe5ad239	-0.21369256
93	0x3d9a5d69	0.07537348
94	0xbef47eae	-0.477529
95	0x3e93e39c	0.2888459
96	0xbd208921	-0.039193276
97	0x3ed57d92	0.41697365
98	0x3ebd10b0	0.36926794
99	0x3e061c86	0.13096818
100	0x3d2fa4c6	0.04288175
101	0x3e994648	0.29936433
102	0x3c24e6d6	0.010064801
103	0x3f119e40	0.56882095
104	0xbd578034	-0.0526125
105	0x3eefe1c9	0.46851948
106	0xbe92cd34	-0.28672183
107	0xbc5551f5	-0.013020028
108	0xbe81e3f6	-0.25369233
109	0x3df41764	0.11918524
110	0x3cd45860	0.025921047
111	0xbf0f9086	-0.560799
112	0xbe41295b	-0.18863432
113	0xbebcc577	-0.36869404
114	0x3eb09246	0.34486598
115	0xbe2a0a15	-0.16605408
116	0x3ecbf36d	0.39834157
117	0xbe572b1f	-0.21012543
118	0x3e0736b7	0.13204466
119	0xbddf54f7	-0.10904878
120	0xbac7e222	-0.0015249888
121	0xbe7e523c	-0.24836057
122	0xbee520a7	-0.44751474
123	0x3ef4a556	0.4778239
124	0x3d9eafed	0.07748399
125	0xbcfe1971	-0.03101799
126	0xbe6c1d84	-0.23058134
127	0x3ec8d165	0.39222255
128	0x3eb5dfd2	0.35522324
129	0xbf115197	-0.5676512
130	0xbf0a91b8	-0.541286
131	0x3e8088c7	0.25104353
132	0xbe004544	-0.12526423
133	0xbee6ee58	-0.45103717
134	0xbef43fec	-0.4770502
135	0xbe8bf7bf	-0.27337453
136	0xbe4e6f84	-0.20159727
137	0xbe4265be	-0.18984124
138	0xbe580581	-0.2109585
139	0x3d5ccaec	0.05390446
140	0xbeb75f09	-0.35814694
141	0xbdaef4b0	-0.08542764
142	0xbe8bf5fa	-0.27336103
143	0xbd397a1e	-0.045282476
144	0x3ce407e0	0.027835786
145	0xbeec1399	-0.46108702
146	0x3d3df55a	0.046376564
147	0xbed70d52	-0.4200235
148	0x3ec3c0b6	0.38232964
149	0x3de54be5	0.11196116
150	0x3d1b6c12	0.03794486
151	0x3e1a32b8	0.1505841
152	0xbdd77b30	-0.10521543
153	0xbeb2177a	-0.34783536
154	0xbdc40b0c	-0.095724195
155	0xbdcffae4	-0.101552755
156	0x3ef195f5	0.4718472
157	0xbe95c23b	-0.2924975
158	0x3e9185d9	0.2842243
159	0xbf69dfff	-0.91357416
160	0x3f209ffb	0.6274411
161	0xbf154239	-0.5830417
162	0xbe2efdae	-0.17088959
163	0xbf14522a	-0.5793787
164	0xbf419fe1	-0.7563458
165	0x3dde8fe5	0.108672895
166	0x3a9032a8	0.0011001425
167	0x3f28a850	0.65881824
168	0xbe1049ed	-0.140907
169	0xbd317c80	-0.043331623
170	0xbde5dfe4	-0.112243444
171	0x3e766e53	0.24065523
172	0xbe61343a	-0.21992579
173	0xbeea0971	-0.45710328
174	0x3e2e2529	0.17006363
175	0xbd587308	-0.052844077
176	0xbe17040d	-0.14747639
177	0xbdfa7824	-0.12229946
178	0x3ece589f	0.40301988
179	0xbe40c709	-0.18825926
180	0x3c528c07	0.012850768
181	0xbeab5c5c	-0.33468902
182	0x3f0ba0fe	0.5454253
183	0xbdeab0a9	-0.114594765
184	0xbeb585b7	-0.3545358
185	0x3e0858d4	0.13315135
186	0x3e019241	0.12653448
187	0x3dd427d4	0.10359159
188	0x3e064534	0.13112336
189	0x3e2cf7e0	0.16891432
190	0x3e69e46f	0.22841047
191	0x3e9de8cb	0.3084167
192	0x3ea544d6	0.3227908
193	0xbf9cf0be	-1.2260969
194	0x3d85a529	0.065256424
195	0x3f1beec1	0.60911185
196	0xbeae8812	-0.34088188
197	0x3f4bbe56	0.79587305
198	0xbe847c71	-0.2587619
199	0xbe5321c0	-0.20618343
200	0xbc06256a	-0.008187631
201	0xbeaa1f7f	-0.33227155
202	0x3e8e3c8f	0.27780578
203	0x3d8c8428	0.06861144
204	0x3efd6365	0.49489895
205	0xbeb2f2b9	-0.34950808
206	0xbe145a2f	-0.14487527
207	0x3dda554d	0.10660801
208	0xbd668e66	-0.056288145
209	0xbd88ddc8	-0.066829264
210	0x3eefc5f7	0.46830723
211	0x3ca704f9	0.020388113
212	0x3dba2b6c	0.09090313
213	0x3e8dadb8	0.276716
214	0x3d12d218	0.035844892
215	0xbe65f871	-0.22458054
216	0x3e5d61ef	0.2161939
217	0xbdd003f0	-0.10157001
218	0xbd6184d0	-0.0550583
219	0x3e81c999	0.2534912
220	0xbe9867b6	-0.29766625
221	0xbf2b8302	-0.6699678
222	0xbf0cef60	-0.5505276
223	0xbebf6520	-0.3738184
224	0x3f01c9ba	0.50698435
225	0x3f44a782	0.76818097
226	0x3e9bd39f	0.30434892
227	0xbed16d53	-0.4090372
228	0x3f2486b9	0.6426807
229	0x3e2ec075	0.17065604
230	0x3e58314a	0.21112552
231	0xbf55ddde	-0.8354167
232	0x3e411078	0.18853939
233	0xbe831993	-0.2560545
234	0xbf3f6542	-0.7476388
235	0x3e40c51b	0.1882519
236	0xbe949c70	-0.29025602
237	0xbde2f245	-0.110813655
238	0x3e0f1b7a	0.13975325
239	0x3bd9402f	0.0066299657
240	0x3ec5386d	0.38519612
241	0x3eba0175	0.36329237
242	0x3dca9e21	0.09893442
243	0xbf211747	-0.62926143
244	0x3da08073	0.07837
245	0xbda871a3	-0.082247995
246	0xbecda2d9	-0.40163305
247	0x3f57a218	0.8423171
248	0x3efc4919	0.4927452
249	0xbc172459	-0.009224975
250	0x3eea75d0	0.4579301
251	0x3e46bd90	0.1940825
252	0xbf2ce01d	-0.6752947
253	0xbf49fc4c	-0.789006
254	0x3e2fe689	0.17177786
255	0x3d3dbc12	0.046321936

policy_network.h2.transform.bias f4 [20]
0	0xbde1ace7	-0.11019307
1	0xbde0c9c2	-0.10975982
2	0xbdb41d70	-0.08794677
3	0xbddb46b1	-0.10706843
4	0xbe4eed58	-0.20207727
5	0xbe023608	-0.12715924
6	0xbe09e5c9	-0.13466562
7	0xbe2a565e	-0.16634509
8	0xbcd8e402	-0.02647591
9	0x3cd655d1	0.026163967
10	0xbd0e41d4	-0.034730747
11	0x3d3b5166	0.045731924
12	0x3e385305	0.1800042
13	0xbd80de23	-0.06292369
14	0x3ddb4ee4	0.107084066
15	0x00000000	0.0
16	0xbe1a220c	-0.1505205
17	0xbe254d92	-0.16142872
18	0xbb782040	-0.003786102
19	0xbe34725e	-0.17621753

policy_network.h3.transform.weight f4 [20, 20]
0	0x3c92a7d5	0.017902294
1	0xbdc311bc	-0.09524867
2	0x3f151ef3	0.5825035
3	0xbc78dc36	-0.015189221
4	0x3dcba4b5	0.09943525
5	0xbf1a0a0b	-0.60171574
6	0xbefaf7f0	-0.49017286
7	0x3e861dd6	0.26194638
8	0x3e7ec2e6	0.24879035
9	0xbe874a66	-0.2642395
10	0xbde97017	-0.113983326
11	0x3d84fe17	0.06493776
12	0xbeba352c	-0.36368692
13	0xbf02cb8e	-0.5109185
14	0x3e02ed65	0.12785871
15	0xbedfa1f0	-0.43678236
16	0xbe1906fe	-0.14944074
17	0xbe8b3cbb	-0.2719477
18	0xbf0fb042	-0.56128323
19	0xbdafc911	-0.08583272
20	0xbe2ea39b	-0.17054598
21	0xbf020782	-0.50792706
22	0xbe024ac6	-0.12723836
23	0xbdc7e71c	-0.097608775
24	0xbe019659	-0.1265501
25	0x3d4fa502	0.050694473
26	0x3f57bd87	0.8427357
27	0xbdda24d8	-0.10651559
28	0x3d5f39ec	0.054498598
29	0xbe6752e7	-0.22590218
30	0xbe3ae946	-0.18253049
31	0x3f266e1b	0.6501176
32	0xbe940a8d	-0.289143
33	0xbbd1afb8	-0.006399121
34	0xbe40df4c	-0.18835181
35	0xbc97f915	-0.018551389
36	0xbe667ec9	-0.22509302
37	0x3e389a67	0.1802765
38	0xbeca2045	-0.39477745
39	0x3ec76072	0.3894077
40	0x3ec1a16b	0.37818465
41	0x3e2565af	0.1615207
42	0x3c3e3e9b	0.011611606
43	0xbd0896df	-0.033347007
44	0xbee1e139	-0.44117144
45	0x3cb13ad9	0.021634506
46	0x3e173a35	0.14768298
47	0x3f2ba355	0.670461
48	0x3ed723e0	0.42019558
49	0x3f369246	0.71316946
50	0xbe002de6	-0.12517509
51	0x3d7bc90d	0.061471034
52	0x3f1a61dd	0.6030558
53	0x3ec69b09	0.38790157
54	0x3f02ac4b	0.5104415
55	0xbef78d12	-0.48349816
56	0x3dca02dd	0.098638274
57	0x3ef8747b	0.48526368
58	0x3e8802d2	0.26564652
59	0xbdbe8c8b	-0.0930415
60	0x3de6bc2f	0.11266362
61	0x3eef58c0	0.46747398
62	0x3e9b4799	0.30328062
63	0xbebd07dd	-0.36920062
64	0x3ec34462	0.3813811
65	0x3d9759fa	0.073902085
66	0x3e588568	0.2114464
67	0xbd0443e2	-0.0322913
68	0xbdb7a99d	-0.08967898
69	0xbeaef484	-0.34170926
70	0x3e867d20	0.26267338
71	0x3d9fa341	0.0779481
72	0x3e7d9c96	0.24766764
73	0x3f088f2d	0.5334347
74	0x3e26ec1e	0.16301009
75	0xbd0cef4e	-0.034407906
76	0xbe875007	-0.26428244
77	0xbdc2c270	-0.09509742
78	0x3f0d2e7a	0.5514904
79	0xbe580e5f	-0.21099232
80	0x3cc6d947	0.024273528
81	0x3e476b4a	0.19474521
82	0xbe93ef73	-0.28893623
83	0xbdb905d3	-0.09034314
84	0xbea22aec	-0.31673372
85	0xbedb6275	-0.42848554
86	0x3d611e00	0.05496025
87	0xbf0bc425	-0.5459617
88	0x3f29f5ed	0.6639088
89	0xbe3b15f7	-0.18270098
90	0x3e48a176	0.19592842
91	0xbeca98ee	-0.395698
92	0xbf1b85fe	-0.6075133
93	0xbf12cb13	-0.57341117
94	0xbe661789	-0.22469915
95	0x3dbb9a1f	0.09160256
96	0x3eba70c2	0.36414152
97	0xbdc7683b	-0.09736677
98	0x3dfe36a8	0.124127686
99	0x3da12fd0	0.07870448
100	0xbc9a6b51	-0.01885
101	0x3f4e385f	0.80554765
102	0x3efabe3d	0.48973265
103	0x3ea7473d	0.32671538
104	0xbd161aa8	-0.036646515
105	0xbe3f6f7c	-0.18694872
106	0x3f20cf4e	0.6281632
107	0xbe397979	-0.18112744
108	0xbc344034	-0.011001635
109	0x3e3d706a	0.18499914
110	0x3db11a2c	0.0864757
111	0x3cdbb3cc	0.026819132
112	0x3e98fbf1	0.29879716
113	0xbeba35f0	-0.36369276
114	0x3e66c3d9	0.22535647
115	0x3d58d43b	0.052936774
116	0xbd5b2354	-0.05350049
117	0x3dfbb6d2	0.122907296
118	0xbe3d3a78	-0.18479335
119	0x3e51afed	0.20477267
120	0x3c2c46e0	0.010514945
121	0xbe86130f	-0.26186416
122	0x3f1a89bc	0.60366416
123	0xbecd5ef6	-0.40111512
124	0xbe95a38d	-0.29226342
125	0x3e2eb136	0.17059788
126	0xbd10b8e5	-0.03533258
127	0x3d361158	0.044450134
128	0xbe24ec5e	-0.16105792
129	0x3e89de90	0.26927614
130	0x3e93b0ac	0.28845727
131	0xbd238422	-0.039920934
132	0xbf840fa6	-1.0317276
133	0x3e166a61	0.14689018
134	0x3a12ec88	0.0005604704
135	0x3e06d406	0.13166818
136	0xbe0bb34e	-0.13642618
137	0xbe152167	-0.14563523
138	0x3e3510ef	0.17682241
139	0x3e7dd1e2	0.24787095
140	0x3e9a3b76	0.3012349
141	0xbe1ce2c6	-0.15320882
142	0x3e32f664	0.17476803
143	0x3e954e79	0.29161432
144	0xbde64ee1	-0.11245514
145	0xbf4d2cab	-0.8014628
146	0x3e8c8b54	0.2745005
147	0xbd5b3d5a	-0.053525306
148	0xbf1b156c	-0.6057956
149	0xbd2fe2a6	-0.04294076
150	0xbf12234f	-0.57085127
151	0x3e735cfa	0.23765936
152	0xbdd94136	-0.10608141
153	0x3e87694f	0.26447532
154	0xbf15b190	-0.58474064
155	0xbdb6ea83	-0.08931448
156	0x3f15cc3b	0.58514756
157	0xbe864df5	-0.26231351
158	0x3e827ef5	0.25487486
159	0x3d94b06d	0.07260213
160	0x3ef0314b	0.46912608
161	0xbea1694e	-0.31525654
162	0xbe4c933e	-0.19978043
163	0x3d8fb9e0	0.07017875
164	0x3f120927	0.57045215
165	0xbde31c66	-0.11089401
166	0x3e13c640	0.14431095
167	0x3ebee7f7	0.3728635
168	0x3e90db6c	0.28292406
169	0xbe9b921e	-0.30384916
170	0x3f1cedcc	0.6130035
171	0xbe0545e0	-0.13014936
172	0xbe6f83ac	-0.23390073
173	0x3e89534d	0.26821366
174	0xbe84cff5	-0.2593991
175	0x3ecc8488	0.39944863
176	0x3e840d0f	0.25791213
177	0x3ec63e6a	0.38719493
178	0xbe8674ba	-0.2626093
179	0x3e05868e	0.1303961
180	0xbdb20ba5	-0.08693627
181	0x3e0fd8e2	0.14047578
182	0xbdc451a8	-0.09585887
183	0xbe8b2b4b	-0.27181467
184	0x3e5eeeb0	0.2177074
185	0x3eaf8222	0.3427897
186	0xbca254d6	-0.019815844
187	0x3e3e3379	0.18574323
188	0x3dc69e44	0.096981555
189	0xbee30865	-0.44342342
190	0xbe361a43	-0.17783456
191	0x3c056501	0.008141757
192	0x3e38e62c	0.18056554
193	0xbebc7423	-0.36807355
194	0xbd690dc6	-0.0568979
195	0xbf23b9a7	-0.6395516
196	0x3efa4040	0.48877144
197	0xbe84ce17	-0.25938484
198	0x3e9b0f8e	0.30285305
199	0x3f1a2eba	0.6022755
200	0x3e5b01d0	0.2138741
201	0xbe908650	-0.28227472
202	0x3cceeeec	0.025260411
203	0xbf4bb4df	-0.7957286
204	0x3ec01eac	0.375234
205	0xbed9a010	-0.4250493
206	0x3e2b9a7a	0.16758147
207	0xbef31c79	-0.4748266
208	0xbde1a924	-0.11018589
209	0x3e9128e4	0.2835151
210	0xbbf26b30	-0.0073980317
211	0xbed8c979	-0.4234121
212	0x3ea6916f	0.32532832
213	0xbe646ebb	-0.22307865
214	0xbdb8b000	-0.09017944
215	0xbecee3e6	-0.40408248
216	0xbcb91358	-0.022592232
217	0x3e4dabc6	0.20085058
218	0xbdc0b93a	-0.09410329
219	0xbaa039e3	-0.0012224283
220	0x3dfcf7f8	0.12351984
221	0x3dc438ac	0.09581122
222	0x3ebefa54	0.3730036
223	0xbedc4b4e	-0.43026203
224	0x3d4b4d57	0.049634304
225	0xbe15c27b	-0.1462497
226	0x3c236b5b	0.009974326
227	0x3ea6d37e	0.3258323
228	0x3ecc6ad7	0.39925262
229	0xbdabec08	-0.08394629
230	0xbf3a4cf6	-0.72773683
231	0xbde107df	-0.109878294
232	0x3daf6e79	0.08565993
233	0xbe8a2c32	-0.26986843
234	0xbd68c0b5	-0.056824405
235	0x3f535711	0.8255473
236	0xbcc13ab7	-0.023587568
237	0x3c6f2b7e	0.014597772
238	0x3de80370	0.11328781
239	0x3e3e4c5f	0.18583821
240	0x3e3bfd12	0.18358257
241	0xbed4af77	-0.4154012
242	0x3e4f3b6c	0.20237511
243	0x3ca6854b	0.02032723
244	0xbec8f118	-0.3924644
245	0x3c0b73c8	0.008511491
246	0x3d330f30	0.043715656
247	0x3d8384b5	0.06421796
248	0xbe9a7bf9	-0.3017271
249	0xbf338b7a	-0.701347
250	0x3f142878	0.5787425
251	0x3ce71ac0	0.028210998
252	0x3efab864	0.48968804
253	0xbf0555d4	-0.5208409
254	0xbe2f51cd	-0.17121048
255	0x3e621b4f	0.2208073

policy_network.h3.transform.bias f4 [20]
0	0xbe418064	-0.18896633
1	0x3dbf884a	0.09352167
2	0xbd045195	-0.032304365
3	0xbd6bdab1	-0.057581607
4	0xbe3cfe75	-0.18456443
5	0xbe414f88	-0.18877995
6	0xbd704fd0	-0.058669865
7	0xbe346625	-0.1761709
8	0xbbd42d26	-0.0064751087
9	0xbdd5075f	-0.104017965
10	0xbd2d220a	-0.04226879
11	0x00000000	0.0
12	0xbe2d342e	-0.16914436
13	0xbe904510	-0.2817769
14	0x00000000	0.0
15	0xbdf82727	-0.12116843
16	0xbdeadb3f	-0.11467599
17	0xbc1aa00a	-0.00943757
18	0xbe842af5	-0.25814024
19	0xbdfb77ef	-0.12278735

policy_network.critic_linear.weight f4 [1, 20]
0	0xbe619fb0	-0.22033572
1	0xbe860cd7	-0.2618167
2	0xbebe91ec	-0.37220705
3	0xbe324d8a	-0.17412391
4	0xbeac6ce2	-0.3367682
5	0x3e375326	0.17902812
6	0x3e640598	0.22267759
7	0x3eef161f	0.46696565
8	0x3f06787f	0.5252761
9	0x3e4c5004	0.19952399
10	0x3d40ff03	0.047118198
11	0x3cdc2da0	0.026877224
12	0xbe9f87a3	-0.3115817
13	0xbd404562	-0.04694117
14	0xbf2c0d57	-0.67207855
15	0xbd514c32	-0.051098056
16	0xbcc97b6b	-0.024594983
17	0xbe2d5b15	-0.16929276
18	0x3e96c2e5	0.29445568
19	0x3e225bfc	0.15855402

target_network.emb1.transform.weight f4 [20, 2]
0	0x3e046f8a	0.12933174
1	0x3eeefa48	0.46675324
2	0x3d6a5a2c	0.0572149
3	0xbf1aa815	-0.6041272
4	0xbbf13fde	-0.00736235
5	0xbea9be48	-0.33152986
6	0xbe303e94	-0.17211372
7	0xbeaad970	-0.33369017
8	0x3b728b6f	0.0037009378
9	0x3e9fe3ba	0.3122843
10	0xbf1c2ebc	-0.6100881
11	0x3eccb4a7	0.39981577
12	0xbe501a9a	-0.20322648
13	0xbd8ecd33	-0.069727324
14	0xbe9340f1	-0.28760484
15	0xbe90d0c1	-0.28284267
16	0x3e2d1f79	0.16906537
17	0x3e88214e	0.2658791
18	0xbd53d158	-0.051713318
19	0x3e671f4c	0.22570533
20	0xbe15ba4d	-0.1462185
21	0x3cceee35	0.02526007
22	0xbd1cafc2	-0.038253553
23	0x3f059211	0.52176005
24	0x3e932960	0.28742504
25	0xbeb40999	-0.35163572
26	0xbe97a1d9	-0.29615667
27	0x3e984724	0.29741776
28	0x3e7277b2	0.23678473
29	0x3e82393a	0.25434285
30	0xbf3ee9a2	-0.74575245
31	0x3e764696	0.24050364
32	0xbf1b5ac9	-0.606854
33	0xbe6b58c6	-0.22983083
34	0xbeda7f61	-0.42675307
35	0xbec64ecd	-0.38731995
36	0xbd535cc0	-0.051602125
37	0x3da661f9	0.081241556
38	0xbe9e32ad	-0.30898038
39	0xbe9877c6	-0.2977888

target_network.emb1.transform.bias f4 [20]
0	0x3d31073d	0.043219794
1	0xbc616cce	-0.013758851
2	0x00000000	0.0
3	0x00000000	0.0
4	0xbe0476b0	-0.129359
5	0xbdc0fdc5	-0.09423403
6	0x00000000	0.0
7	0x00000000	0.0
8	0x3d3afc0c	0.045650527
9	0xbe011c5a	-0.12608472
10	0x00000000	0.0
11	0x3e231d03	0.15929036
12	0xbddf6149	-0.109072275
13	0xbd407af1	-0.046992246
14	0x3d75f0d6	0.060044132
15	0x00000000	0.0
16	0x00000000	0.0
17	0x00000000	0.0
18	0xbca6743a	-0.020319093
19	0x00000000	0.0

target_network.emb2.transform.weight f4 [20, 2]
0	0xbd6f7de8	-0.058469683
1	0x3f12d04b	0.5734908
2	0x3dceb941	0.10093928
3	0x3ef713f4	0.4825741
4	0xbe928e19	-0.28624037
5	0x3d038d6d	0.032117296
6	0xbd470daa	-0.048597015
7	0xbdd237d0	-0.10264552
8	0x3ebfb496	0.37442464
9	0xbe5ac2a2	-0.21363309
10	0xbdcdc1b8	-0.100467145
11	0x3eb48391	0.35256627
12	0x3e1e1fe2	0.1544185
13	0x3cbd1b6d	0.023084367
14	0xbeb37c55	-0.35055795
15	0x3f181bc3	0.5941736
16	0xbec967fc	-0.39337146
17	0x3f0be5fd	0.5464781
18	0x3ebb95f7	0.36637852
19	0xbe3c9435	-0.18415911
20	0x3dda9a57	0.10673969
21	0xbf0f25ae	-0.5591687
22	0xbf5db806	-0.8660892
23	0xbe3cc72c	-0.18435353
24	0xbd587fbe	-0.0528562
25	0x3d691151	0.05690128
26	0xbeab47cd	-0.33453217
27	0x3e778f93	0.24175863
28	0xbe204d0a	-0.15654388
29	0x3f6a2697	0.91465133
30	0xbeafb4e4	-0.34317696
31	0x3ede4245	0.43409935
32	0xbf1958ce	-0.5990113
33	0x3dd36727	0.10322409
34	0x3dfe5462	0.124184385
35	0xbf09a1ff	-0.5376281
36	0xbdba2cc1	-0.090905674
37	0xbdf88c61	-0.1213615
38	0x3d230650	0.039800942
39	0x3d765ec4	0.06014897

target_network.emb2.transform.bias f4 [20]
0	0xbde36ed7	-0.111051254
1	0xbd1f7a2c	-0.03893487
2	0x00000000	0.0
3	0x00000000	0.0
4	0xbe0a1253	-0.13483553
5	0xbdbda784	-0.09260467
6	0x38d19000	9.992719e-05
7	0xbd1e7201	-0.03868294
8	0xbcb7218c	-0.022354864
9	0xbe3148f9	-0.17312993
10	0xbd2d028a	-0.04223875
11	0x00000000	0.0
12	0xbd08f6b1	-0.03343839
13	0xbe26f3ff	-0.16304015
14	0xbe157e02	-0.1459885
15	0xbc207505	-0.009793525
16	0x00000000	0.0
17	0xbd435fb7	-0.047698703
18	0x00000000	0.0
19	0xbd5261d2	-0.05136282

target_network.emb3.transform.weight f4 [20, 2]
0	0xbf062367	-0.5239777
1	0xbe5e36bc	-0.21700567
2	0xbe96de02	-0.29466254
3	0xbd5285a7	-0.051396992
4	0xbe81d0de	-0.25354666
5	0xbd6c03a8	-0.057620674
6	0x3ea86286	0.32887667
7	0x3e18e6e4	0.14931828
8	0x3e45e157	0.19324242
9	0x3eac22f1	0.33620408
10	0xbeec0a59	-0.46101645
11	0x3ed3b6da	0.41350442
12	0x3e2f4180	0.1711483
13	0x3ef55913	0.4791952
14	0x3d3742be	0.044741385
15	0xbe4f00d1	-0.20215155
16	0xbf003d3d	-0.5009344
17	0x3f118047	0.5683636
18	0x3d883539	0.066507764
19	0xbe8be247	-0.27321073
20	0xbd8a33c3	-0.06748154
21	0xbecda1ac	-0.40162408
22	0xbf1d6630	-0.6148405
23	0x3e84bdbd	0.2592601
24	0x3d34c45d	0.04413258
25	0x3e00707b	0.12542908
26	0x3ee5f0fd	0.44910422
27	0x3e6e3a8e	0.23264524
28	0xbe513305	-0.20429619
29	0xbe108e5c	-0.14116806
30	0xbec85cfb	-0.39133438
31	0x3e51d788	0.20492375
32	0x3f3dc67b	0.7413098
33	0xbea0234d	-0.31276932
34	0x3dac69b9	0.084186025
35	0xbe6425d6	-0.22280058
36	0xbcf0ac08	-0.029378906
37	0x3d748624	0.05969824
38	0x3e9c80f3	0.3056713
39	0x3e2884b0	0.16456866

target_network.emb3.transform.bias f4 [20]
0	0x00000000	0.0
1	0x00000000	0.0
2	0x00000000	0.0
3	0xbca38164	-0.01995916
4	0xbda5425c	-0.08069298
5	0xbd193ab7	-0.03740951
6	0xbc449ee2	-0.012000771
7	0xbcd4ba3e	-0.025967713
8	0xbd7b0cf6	-0.061291657
9	0xbc999578	-0.01874803
10	0x00000000	0.0
11	0xbdc6ee21	-0.09713388
12	0x3c026b25	0.007960116
13	0xbd469f5d	-0.048491824
14	0x00000000	0.0
15	0x3d9fde68	0.078060925
16	0xbd4a25e2	-0.049352534
17	0xbe0df474	-0.13862783
18	0xbe1153a4	-0.14192063
19	0xbd6990f8	-0.05702302

target_network.emb4.transform.weight f4 [20, 2]
0	0x3e326a4d	0.17423363
1	0x3e61ddc8	0.22057259
2	0x3d7fed29	0.062482033
3	0xbe5329a7	-0.20621358
4	0x3e8e1a27	0.27754328
5	0x3e084cca	0.13310543
6	0xbed02423	-0.4065257
7	0x3eabff3f	0.33593175
8	0x3e385a93	0.18003301
9	0xbe6d66f0	-0.23183799
10	0x3df3ded5	0.11907736
11	0x3ed0f68f	0.4081311
12	0x3e865c4f	0.262423
13	0xbc4c38fd	-0.012464759
14	0xbe573284	-0.21015364
15	0xbe834f4b	-0.25646433
16	0xbe9ade3f	-0.30247685
17	0xbeba1a76	-0.36348313
18	0xbebb72d1	-0.36611035
19	0x3e4578c4	0.1928435
20	0xbc8c9b68	-0.017163947
21	0xbeb83797	-0.35979912
22	0x3e5a9ce2	0.21348909
23	0x3e8d2b80	0.2757225
24	0xbd63c82d	-0.055610824
25	0x3d33846a	0.04382745
26	0x3ca6cc6a	0.020361144
27	0x3d2cc28a	0.042177714
28	0xbeb56084	-0.35425198
29	0x3eb3479c	0.3501557
30	0x3e977a3a	0.2958544
31	0xbf0ea317	-0.55717605
32	0x3de9822e	0.11401783
33	0x3c64e884	0.013971452
34	0xbf2514e3	-0.64484996
35	0x3f10f5c0	0.56624985
36	0xbf4da341	-0.8032723
37	0x3e30d0ce	0.17267153
38	0xbf050323	-0.5195791
39	0xbf02bd98	-0.5107055

target_network.emb4.transform.bias f4 [20]
0	0xbc9dd708	-0.019267574
1	0xbcacc93d	-0.021092052
2	0xbe536335	-0.20643313
3	0xbe20f65d	-0.1571898
4	0xbdd856e9	-0.10563452
5	0x3c3d51ad	0.011555118
6	0x3cff9efc	0.03120374
7	0x00000000	0.0
8	0x00000000	0.0
9	0x3d64fb08	0.055903465
10	0x00000000	0.0
11	0x3e42326b	0.18964545
12	0xbd6040d5	-0.05474933
13	0xbd6c1c63	-0.05764426
14	0xbbc9ba5c	-0.006156249
15	0xbe11bd9c	-0.14232486
16	0xbe036a37	-0.12833486
17	0x3c44012d	0.011963171
18	0x00000000	0.0
19	0x00000000	0.0

target_network.h2.transform.weight f4 [20, 20]
0	0x3d32acac	0.043621704
1	0xbdaa698e	-0.08320914
2	0xbe8d2c5c	-0.27572906
3	0x3d1e70f7	0.03868195
4	0xbdb68b4f	-0.0891329
5	0x3ef04030	0.4692397
6	0xbf335e22	-0.7006551
7	0xbf416912	-0.7555095
8	0xbe4ab4eb	-0.19795577
9	0xbe8ed763	-0.27898702
10	0x3ec60153	0.38672885
11	0x3e441f32	0.19152525
12	0x3dc8428b	0.09778317
13	0x3d87b8f6	0.066270754
14	0xbe3f99ea	-0.18711057
15	0xbe907c71	-0.2821994
16	0xbed23119	-0.41053084
17	0xbdf247c2	-0.11830093
18	0xbea97876	-0.33099717
19	0xbefa1bc7	-0.48849317
20	0x3d543b91	0.05181462
21	0x3d135041	0.035965208
22	0xbecb8167	-0.39747164
23	0x3e67c708	0.22634518
24	0x3b9b1b40	0.004733473
25	0xbf299fae	-0.66259277
26	0x3e0dc266	0.13843688
27	0xbee45a51	-0.44600156
28	0xbf267bd9	-0.65032727
29	0x3eca3c3e	0.39499086
30	0x3d9a507d	0.07534883
31	0xbe44132b	-0.19147937
32	0xbe8d984c	-0.27655256
33	0xbee40fd9	-0.4454334
34	0xbef85030	-0.48498678
35	0xbe7e7bd8	-0.2485193
36	0xbe5e427f	-0.21705054
37	0xbc465ce1	-0.012107105
38	0xbe76578f	-0.24056838
39	0x3d23ac23	0.039959084
40	0xbee80d0a	-0.45322448
41	0x3c9c3c73	0.019071793
42	0xbeaa446c	-0.33255327
43	0xbeefcbaa	-0.4683507
44	0xbea45d59	-0.3210247
45	0xbe07c428	-0.13258421
46	0xbecb1549	-0.39664677
47	0x3e157d17	0.14598499
48	0x3e01954b	0.12654607
49	0x3e6662e1	0.22498657
50	0x3ccb66b5	0.024829248
51	0xbd9ad853	-0.07560792
52	0x3e8ad0ec	0.2711252
53	0xbe1c55e3	-0.15267138
54	0x3e001b8d	0.1251051
55	0xbedc59f8	-0.4303739
56	0x3eea07d1	0.45709088
57	0xbe3fdae0	-0.18735838
58	0xbf330111	-0.699235
59	0x3ebbf280	0.3670845
60	0xbdedb21c	-0.11606237
61	0xbbffd182	-0.0078069577
62	0x3e974d61	0.29551223
63	0xbe18acb7	-0.14909635
64	0x3e6d4003	0.2316895
65	0x3e8acdca	0.2711013
66	0xbec77902	-0.3895951
67	0x3e1fe190	0.15613389
68	0xbe341dd0	-0.17589498
69	0x3f540e9a	0.8283478
70	0xbe81364a	-0.25236732
71	0x3ecafabb	0.39644417
72	0xbd3bebab	-0.045879047
73	0xbd60c055	-0.054870922
74	0xbf204baf	-0.62615484
75	0xbe3d7ad2	-0.18503883
76	0xbdc1af2f	-0.09457242
77	0xbea50926	-0.32233542
78	0x3de7c29d	0.113164164
79	0x3cf12e74	0.029441096
80	0xbe1047ee	-0.14089939
81	0xbf15148f	-0.58234495
82	0xbef7968b	-0.48357043
83	0x3e6d44ba	0.23170748
84	0xbf1be997	-0.60903305
85	0xbd99a118	-0.07501429
86	0xbefdb6b6	-0.4955346
87	0x3e0c174b	0.1368076
88	0x3e880464	0.2656585
89	0x3ec14300	0.3774643
90	0x3e9e3bc4	0.30904973
91	0xbdda5008	-0.10659796
92	0xbe5ad239	-0.21369256
93	0x3d9a5d69	0.07537348
94	0xbef47eae	-0.477529
95	0x3e93e39c	0.2888459
96	0xbd208921	-0.039193276
97	0x3ed57d92	0.41697365
98	0x3ebd10b0	0.36926794
99	0x3e061c86	0.13096818
100	0x3cc47c8c	0.02398517
101	0x3e8d9396	0.27651662
102	0x3c24e6d6	0.010064801
103	0x3f0acab6	0.5421556
104	0xbd69e7bd	-0.05710577
105	0x3ee6f878	0.45111442
106	0xbea1f40d	-0.31631508
107	0xbc977d60	-0.0184924
108	0xbe8c8f38	-0.27453017
109	0x3df3fd72	0.11913575
110	0x3cd45860	0.025921047
111	0xbf15678f	-0.5836114
112	0xbe5cad64	-0.21550518
113	0xbec97c42	-0.39352614
114	0x3ea73455	0.32657114
115	0xbe2bad82	-0.16765407
116	0x3ec210b0	0.37903357
117	0xbe572a36	-0.21012196
118	0x3e0736b7	0.13204466
119	0xbe0cd28a	-0.1375219
120	0xbac7e222	-0.0015249888
121	0xbe7e523c	-0.24836057
122	0xbee520a7	-0.44751474
123	0x3ef4a556	0.4778239
124	0x3d9eafed	0.07748399
125	0xbcfe1971	-0.03101799
126	0xbe6c1d84	-0.23058134
127	0x3ec8d165	0.39222255
128	0x3eb5dfd2	0.35522324
129	0xbf115197	-0.5676512
130	0xbf0a91b8	-0.541286
131	0x3e8088c7	0.25104353
132	0xbe004544	-0.12526423
133	0xbee6ee58	-0.45103717
134	0xbef43fec	-0.4770502
135	0xbe8bf7bf	-0.27337453
136	0xbe4e6f84	-0.20159727
137	0xbe4265be	-0.18984124
138	0xbe580581	-0.2109585
139	0x3d5ccaec	0.05390446
140	0xbeab270d	-0.3342823
141	0xbd8ecc92	-0.069726124
142	0xbe8bf5fa	-0.27336103
143	0xbc7c272e	-0.015390201
144	0x3d2860e5	0.04110803
145	0xbee1edb8	-0.44126678
146	0x3da7b754	0.08189264
147	0xbed3afee	-0.4134516
148	0x3ecf9ab0	0.40547705
149	0x3de54be5	0.11196116
150	0x3d1b6c12	0.03794486
151	0x3e4883c7	0.19581519
152	0xbd9c6313	-0.076360844
153	0xbea2aecf	-0.31773993
154	0xbd96861b	-0.07349797
155	0xbdcba382	-0.09943296
156	0x3eff50b7	0.49866268
157	0xbe95c23b	-0.2924975
158	0x3e9185d9	0.2842243
159	0xbf5d2538	-0.86384916
160	0x3f221f75	0.6332925
161	0xbf14c971	-0.58119875
162	0xbe2efdae	-0.17088959
163	0xbf136baa	-0.5758616
164	0xbf419f90	-0.756341
165	0x3de9217f	0.11383342
166	0x3bded054	0.006799737
167	0x3f28a850	0.65881824
168	0xbe0cddf6	-0.13756546
169	0xbd317c8c	-0.043331668
170	0xbde5dfe4	-0.112243444
171	0x3e80b8ff	0.2514114
172	0xbe5eb5b2	-0.21748999
173	0xbee859d4	-0.45381033
174	0x3e32d92c	0.17465657
175	0xbd583d54	-0.052792862
176	0xbe139093	-0.1441062
177	0xbdfa7824	-0.12229946
178	0x3ece589f	0.40301988
179	0xbe3f906c	-0.18707436
180	0x3c719d75	0.014747013
181	0xbeab2e5e	-0.33433813
182	0x3f0ba0fe	0.5454253
183	0xbde78a1c	-0.11305639
184	0xbeb58628	-0.35453916
185	0x3e09de5f	0.13463734
186	0x3e04f7e6	0.12985191
187	0x3dd427d4	0.10359159
188	0x3e07d4f9	0.13264836
189	0x3e2cf786	0.16891298
190	0x3e69e46f	0.22841047
191	0x3ea0ffe8	0.3144524
192	0x3ea5867c	0.32329166
193	0xbf9cbf7f	-1.224594
194	0x3d8836cf	0.06651079
195	0x3f1bef36	0.6091188
196	0xbead9c15	-0.33908144
197	0x3f4bbe56	0.79587305
198	0xbe847c71	-0.2587619
199	0xbe52ae48	-0.20574296
200	0x3c9b1faa	0.018935997
201	0xbea3ae6d	-0.31969014
202	0x3e8e3c8f	0.27780578
203	0x3d9b34e8	0.075784504
204	0x3f041b37	0.51604027
205	0xbea64407	-0.32473776
206	0xbe0d909c	-0.13824695
207	0x3de13717	0.10996836
208	0xbcf3acb8	-0.029745445
209	0xbd46969d	-0.04848348
210	0x3eefc5f7	0.46830723
211	0x3cf583f2	0.029970143
212	0x3dcdf4d1	0.10056461
213	0x3e90e461	0.2829924
214	0x3d716d4c	0.058942124
215	0xbe6637ba	-0.22482195
216	0x3e62f26c	0.22162789
217	0xbdce6d61	-0.10079456
218	0xbd6184d0	-0.0550583
219	0x3e8603d0	0.26174784
220	0xbe9867b6	-0.29766625
221	0xbf2b8302	-0.6699678
222	0xbf0cef60	-0.5505276
223	0xbebf6520	-0.3738184
224	0x3f01c9ba	0.50698435
225	0x3f44a782	0.76818097
226	0x3e9bd39f	0.30434892
227	0xbed16d53	-0.4090372
228	0x3f2486b9	0.6426807
229	0x3e2ec075	0.17065604
230	0x3e58314a	0.21112552
231	0xbf55ddde	-0.8354167
232	0x3e411078	0.18853939
233	0xbe831993	-0.2560545
234	0xbf3f6542	-0.7476388
235	0x3e40c51b	0.1882519
236	0xbe949c70	-0.29025602
237	0xbde2f245	-0.110813655
238	0x3e0f1b7a	0.13975325
239	0x3bd9402f	0.0066299657
240	0x3ec5386d	0.38519612
241	0x3eba0175	0.36329237
242	0x3dca9e21	0.09893442
243	0xbf211747	-0.62926143
244	0x3da08073	0.07837
245	0xbda871a3	-0.082247995
246	0xbecda2d9	-0.40163305
247	0x3f57a218	0.8423171
248	0x3efc4919	0.4927452
249	0xbc172459	-0.009224975
250	0x3eea75d0	0.4579301
251	0x3e46bd90	0.1940825
252	0xbf2ce01d	-0.6752947
253	0xbf49fc4c	-0.789006
254	0x3e2fe689	0.17177786
255	0x3d3dbc12	0.046321936

target_network.h2.transform.bias f4 [20]
0	0xbde1ace7	-0.11019307
1	0xbde0c9c2	-0.10975982
2	0xbdb41d70	-0.08794677
3	0xbddb46b1	-0.10706843
4	0xbe4eed58	-0.20207727
5	0xbe1ef165	-0.15521772
6	0xbe09e5c9	-0.13466562
7	0xbe045072	-0.12921312
8	0xbc98fe77	-0.018676026
9	0x3d036e48	0.032087594
10	0xbce1f7b5	-0.027583936
11	0x3d3b5166	0.045731924
12	0x3e385305	0.1800042
13	0xbd80e2ea	-0.062932804
14	0x3ddb4ee4	0.107084066
15	0x00000000	0.0
16	0xbe1a220c	-0.1505205
17	0xbe06045c	-0.130876
18	0xbb782040	-0.003786102
19	0xbe34725e	-0.17621753

target_network.h3.transform.weight f4 [20, 20]
0	0x3c92a7d5	0.017902294
1	0xbdc311bc	-0.09524867
2	0x3f151ef3	0.5825035
3	0xbc78dc36	-0.015189221
4	0x3dcba4b5	0.09943525
5	0xbf1a0a0b	-0.60171574
6	0xbefaf7f0	-0.49017286
7	0x3e861dd6	0.26194638
8	0x3e7ec2e6	0.24879035
9	0xbe874a66	-0.2642395
10	0xbde97017	-0.113983326
11	0x3d84fe17	0.06493776
12	0xbeba352c	-0.36368692
13	0xbf02cb8e	-0.5109185
14	0x3e02ed65	0.12785871
15	0xbedfa1f0	-0.43678236
16	0xbe1906fe	-0.14944074
17	0xbe8b3cbb	-0.2719477
18	0xbf0fb042	-0.56128323
19	0xbdafc911	-0.08583272
20	0xbe2ea39b	-0.17054598
21	0xbf020782	-0.50792706
22	0xbe024ac6	-0.12723836
23	0xbdc7e71c	-0.097608775
24	0xbe019659	-0.1265501
25	0x3d4fa502	0.050694473
26	0x3f57bd87	0.8427357
27	0xbdda24d8	-0.10651559
28	0x3d5f39ec	0.054498598
29	0xbe6752e7	-0.22590218
30	0xbe3ae946	-0.18253049
31	0x3f266e1b	0.6501176
32	0xbe940a8d	-0.289143
33	0xbbd1afb8	-0.006399121
34	0xbe40df4c	-0.18835181
35	0xbc97f915	-0.018551389
36	0xbe667ec9	-0.22509302
37	0x3e389a67	0.1802765
38	0xbeca2045	-0.39477745
39	0x3ec76072	0.3894077
40	0x3ec1a16b	0.37818465
41	0x3e2565af	0.1615207
42	0x3c3e3e9b	0.011611606
43	0xbd0896df	-0.033347007
44	0xbee1e139	-0.44117144
45	0xbcdb7949	-0.026791232
46	0x3e173a35	0.14768298
47	0x3f2a630b	0.6655738
48	0x3edc1aae	0.42989105
49	0x3f36a753	0.71349066
50	0xbe0d37eb	-0.13790862
51	0x3d7bc90d	0.061471034
52	0x3f1a61dd	0.6030558
53	0x3ebb1ff1	0.36547807
54	0x3f02ac4b	0.5104415
55	0xbef78d12	-0.48349816
56	0x3dca02dd	0.098638274
57	0x3ef20c0a	0.4727481
58	0x3e8802d2	0.26564652
59	0xbdbe8c8b	-0.0930415
60	0x3de6bc2f	0.11266362
61	0x3eef58c0	0.46747398
62	0x3e9b4799	0.30328062
63	0xbebd07dd	-0.36920062
64	0x3ec34462	0.3813811
65	0x3d44ab7b	0.0480151
66	0x3e588568	0.2114464
67	0xbd21796c	-0.039422438
68	0xbda8a362	-0.08234288
69	0xbeaee13c	-0.34156215
70	0x3e84cd2e	0.2593779
71	0x3d9fa341	0.0779481
72	0x3e7d9c96	0.24766764
73	0x3f04e444	0.51910806
74	0x3e26ec1e	0.16301009
75	0xbd0cef4e	-0.034407906
76	0xbe875007	-0.26428244
77	0xbdcbcd81	-0.09951306
78	0x3f0d2e7a	0.5514904
79	0xbe580e5f	-0.21099232
80	0x3cc6d947	0.024273528
81	0x3e476b4a	0.19474521
82	0xbe93ef73	-0.28893623
83	0xbdb905d3	-0.09034314
84	0xbea22aec	-0.31673372
85	0xbece0daf	-0.40244815
86	0x3d611e00	0.05496025
87	0xbf0b0363	-0.5430204
88	0x3f29f5ed	0.6639088
89	0xbe3b15f7	-0.18270098
90	0x3e4cd797	0.20004116
91	0xbeca98ee	-0.395698
92	0xbf1b85fe	-0.6075133
93	0xbf12134a	-0.5706068
94	0xbe661789	-0.22469915
95	0x3dbb9a1f	0.09160256
96	0x3eba70c2	0.36414152
97	0xbdc8c85a	-0.09803839
98	0x3dfe36a8	0.124127686
99	0x3da12fd0	0.07870448
100	0xbc9a6b51	-0.01885
101	0x3f4e385f	0.80554765
102	0x3efabe3d	0.48973265
103	0x3ea7473d	0.32671538
104	0xbd161aa8	-0.036646515
105	0xbe459c32	-0.19297865
106	0x3f20cf4e	0.6281632
107	0xbe3a168d	-0.18172665
108	0xbc344034	-0.011001635
109	0x3e3d706a	0.18499914
110	0x3d850312	0.06494726
111	0x3cdbb3cc	0.026819132
112	0x3e98fbf1	0.29879716
113	0xbebd4c98	-0.369725
114	0x3e66c3d9	0.22535647
115	0x3d58d43b	0.052936774
116	0xbd5b2354	-0.05350049
117	0x3dfb4b4f	0.12270223
118	0xbe3d3a78	-0.18479335
119	0x3e51afed	0.20477267
120	0x3c2c46e0	0.010514945
121	0xbe86130f	-0.26186416
122	0x3f1a89bc	0.60366416
123	0xbecd5ef6	-0.40111512
124	0xbe95a38d	-0.29226342
125	0x3e4c2d8b	0.19939248
126	0xbd10b8e5	-0.03533258
127	0x3d60c13a	0.054871775
128	0xbe2d2673	-0.16909198
129	0x3e89c55f	0.26908395
130	0x3e946592	0.28983742
131	0xbd238422	-0.039920934
132	0xbf840fa6	-1.0317276
133	0x3e210eb6	0.15728268
134	0x3a12ec88	0.0005604704
135	0x3e06d406	0.13166818
136	0xbe0bb34e	-0.13642618
137	0xbe0f55fc	-0.13997644
138	0x3e3510ef	0.17682241
139	0x3e7dd1e2	0.24787095
140	0x3e9a3b76	0.3012349
141	0xbe1ce2c6	-0.15320882
142	0x3e32f664	0.17476803
143	0x3e954e79	0.29161432
144	0xbde64ee1	-0.11245514
145	0xbf4d2cab	-0.8014628
146	0x3e8c8b54	0.2745005
147	0xbd5b3d5a	-0.053525306
148	0xbf1b156c	-0.6057956
149	0xbd2fe2a6	-0.04294076
150	0xbf12234f	-0.57085127
151	0x3e735cfa	0.23765936
152	0xbdd94136	-0.10608141
153	0x3e87694f	0.26447532
154	0xbf15b190	-0.58474064
155	0xbdb6ea83	-0.08931448
156	0x3f15cc3b	0.58514756
157	0xbe864df5	-0.26231351
158	0x3e827ef5	0.25487486
159	0x3d94b06d	0.07260213
160	0x3ef0314b	0.46912608
161	0xbea1694e	-0.31525654
162	0xbe4c933e	-0.19978043
163	0x3d8fb9e0	0.07017875
164	0x3f120927	0.57045215
165	0xbddccc7a	-0.10781188
166	0x3e13c640	0.14431095
167	0x3ec83211	0.39100698
168	0x3e8be1ca	0.273207
169	0xbe9bccba	-0.3042963
170	0x3f1cedcc	0.6130035
171	0xbe0545e0	-0.13014936
172	0xbe6f83ac	-0.23390073
173	0x3e8cedde	0.27525228
174	0xbe84cff5	-0.2593991
175	0x3ecc8488	0.39944863
176	0x3e840d0f	0.25791213
177	0x3ecafead	0.39647427
178	0xbe8674ba	-0.2626093
179	0x3e05868e	0.1303961
180	0xbdb20ba5	-0.08693627
181	0x3e0fd8e2	0.14047578
182	0xbdc451a8	-0.09585887
183	0xbe8b2b4b	-0.27181467
184	0x3e5eeeb0	0.2177074
185	0x3eaf8222	0.3427897
186	0xbca254d6	-0.019815844
187	0x3e3e3379	0.18574323
188	0x3dc69e44	0.096981555
189	0xbee30865	-0.44342342
190	0xbe361a43	-0.17783456
191	0x3c056501	0.008141757
192	0x3e38e62c	0.18056554
193	0xbebc7423	-0.36807355
194	0xbd690dc6	-0.0568979
195	0xbf23b9a7	-0.6395516
196	0x3efa4040	0.48877144
197	0xbe84ce17	-0.25938484
198	0x3e9b0f8e	0.30285305
199	0x3f1a2eba	0.6022755
200	0x3e5b01d0	0.2138741
201	0xbe908650	-0.28227472
202	0x3cceeeec	0.025260411
203	0xbf4bb4df	-0.7957286
204	0x3ec01eac	0.375234
205	0xbed9a010	-0.4250493
206	0x3e2b9a7a	0.16758147
207	0xbef31c79	-0.4748266
208	0xbde1a924	-0.11018589
209	0x3e9128e4	0.2835151
210	0xbbf26b30	-0.0073980317
211	0xbed8c979	-0.4234121
212	0x3ea6916f	0.32532832
213	0xbe646ebb	-0.22307865
214	0xbdb8b000	-0.09017944
215	0xbecee3e6	-0.40408248
216	0xbcb91358	-0.022592232
217	0x3e4dabc6	0.20085058
218	0xbdc0b93a	-0.09410329
219	0xbaa039e3	-0.0012224283
220	0x3dfcf7f8	0.12351984
221	0x3dc438ac	0.09581122
222	0x3ebefa54	0.3730036
223	0xbedc4b4e	-0.43026203
224	0x3d4b4d57	0.049634304
225	0xbe15c27b	-0.1462497
226	0x3c236b5b	0.009974326
227	0x3ea6d37e	0.3258323
228	0x3ecc6ad7	0.39925262
229	0xbdabec08	-0.08394629
230	0xbf3a4cf6	-0.72773683
231	0xbde107df	-0.109878294
232	0x3daf6e79	0.08565993
233	0xbe8a2c32	-0.26986843
234	0xbd68c0b5	-0.056824405
235	0x3f535711	0.8255473
236	0xbcc13ab7	-0.023587568
237	0x3c6f2b7e	0.014597772
238	0x3de80370	0.11328781
239	0x3e3e4c5f	0.18583821
240	0x3e3bfd12	0.18358257
241	0xbed4af77	-0.4154012
242	0x3e4f3b6c	0.20237511
243	0x3ca6854b	0.02032723
244	0xbec8f118	-0.3924644
245	0xbc2def14	-0.010616083
246	0x3d330f30	0.043715656
247	0x3d565584	0.052327648
248	0xbe9a7bf9	-0.3017271
249	0xbf338b7a	-0.701347
250	0x3f142886	0.57874334
251	0x3ce71ac0	0.028210998
252	0x3efab864	0.48968804
253	0xbf07a3e9	-0.5298448
254	0xbe2f51cd	-0.17121048
255	0x3e621b4f	0.2208073

target_network.h3.transform.bias f4 [20]
0	0xbe418064	-0.18896633
1	0x3dbf884a	0.09352167
2	0xbd651ad5	-0.055933792
3	0xbd8aab04	-0.067709
4	0xbe313f5b	-0.17309324
5	0xbe49ebfc	-0.19718927
6	0xbd3a87d3	-0.04553969
7	0xbe346625	-0.1761709
8	0x3ab4a210	0.0013781209
9	0xbdd5075f	-0.104017965
10	0xbd2d220a	-0.04226879
11	0x00000000	0.0
12	0xbe37598c	-0.17905253
13	0xbe8d050b	-0.2754291
14	0x00000000	0.0
15	0xbdeba37e	-0.11505793
16	0xbdd1e055	-0.10247866
17	0x3c31d9b0	0.010855123
18	0xbe842af5	-0.25814024
19	0xbdfb77ef	-0.12278735

target_network.critic_linear.weight f4 [1, 20]
0	0xbe619fb0	-0.22033572
1	0xbe860cd7	-0.2618167
2	0xbeb99e5f	-0.3625364
3	0xbe324e32	-0.17412642
4	0xbeb34654	-0.35014594
5	0x3e33bbd5	0.17552121
6	0x3e640558	0.22267663
7	0x3eef161f	0.46696565
8	0x3f06787f	0.5252761
9	0x3e4c5004	0.19952399
10	0x3d40ff03	0.047118198
11	0x3cdc2da0	0.026877224
12	0xbe9f87ad	-0.311582
13	0xbd559342	-0.05214239
14	0xbf2c0d57	-0.67207855
15	0xbd60179e	-0.054710023
16	0xbcbf56ec	-0.023356877
17	0xbe43186f	-0.1905229
18	0x3e96c2e5	0.29445568
19	0x3e225bfc	0.15855402
