pz_risk/mini_0/43.pt (torch, 18513 bytes, 26 tensors)

policy_network.emb1.transform.weight f4 [20, 2]
000000 bc d5 0b 3e f0 52 02 3f 2c 5a 6a 3d 15 a8 1a bf
       0.13655752 0.509078 0.0572149 -0.6041272
000010 de 3f f1 bb 48 be a9 be 94 3e 30 be 70 d9 aa be
       -0.00736235 -0.33152986 -0.17211372 -0.33369017
000020 fd 2c 57 bd 41 2a 83 3e bc 2e 1c bf a7 b4 cc 3e
       -0.05253314 0.25618175 -0.6100881 0.39981577
000030 9a 1a 50 be 33 cd 8e bd f1 40 93 be c1 d0 90 be
       -0.20322648 -0.069727324 -0.28760484 -0.28284267
000040 8a cb 28 3e 82 d4 96 3e 58 d1 53 bd 4c 1f 67 3e
       0.16483894 0.29459006 -0.051713318 0.22570533
000050 4d ba 15 be 35 ee ce 3c 09 2f 84 bc 57 5e 13 3f
       -0.1462185 0.02526007 -0.01613571 0.57565826
000060 4b 3c 87 3e 4a 4f c0 be c4 39 98 be e6 61 97 3e
       0.26413187 -0.37560493 -0.29731572 0.29566878
000070 9f 37 82 3e 35 72 9a 3e a2 e9 3e bf 96 46 76 3e
       0.2543306 0.30165258 -0.74575245 0.24050364
000080 c9 5a 1b bf c6 58 6b be 61 7f da be cd 4e c6 be
       -0.606854 -0.22983083 -0.42675307 -0.38731995
000090 60 a1 62 bd 11 7e 9a 3d ad 32 9e be c6 77 98 be
       -0.05532968 0.075435765 -0.30898038 -0.2977888

policy_network.emb1.transform.bias f4 [20]
000000 38 a8 95 3d ce 6c 61 bc 00 00 00 00 00 00 00 00
       0.07307476 -0.013758851 0.0 0.0
000010 ca 15 3e be c5 fd c0 bd 00 00 00 00 00 00 00 00
       -0.18563 -0.09423403 0.0 0.0
000020 1c 54 7b 3d 5a 1c 01 be 00 00 00 00 74 29 34 3e
       0.06135951 -0.12608472 0.0 0.17593938
000030 32 8b 07 be e6 2c 4c bd 6e a9 93 3d 00 00 00 00
       -0.13236693 -0.049847506 0.072100505 0.0
000040 00 00 00 00 00 00 00 00 83 fd c4 bc 00 00 00 00
       0.0 0.0 -0.024046665 0.0

policy_network.emb2.transform.weight f4 [20, 2]
000000 09 5e 1c be 0f c5 21 3f 34 95 b4 3b 5f e9 ce 3e
       -0.15270247 0.6319131 0.0055109505 0.40412423
000010 19 8e 92 be 6d 8d 03 3d aa 0d 47 bd d0 37 d2 bd
       -0.28624037 0.032117296 -0.048597015 -0.10264552
000020 ea ab ac 3e 37 6d 7f be 8e 88 5f be fb 5f a1 3e
       0.3372491 -0.24944006 -0.21829435 0.3151854
000030 9f 05 f0 3d b3 47 9e bc 8a 7c eb be 47 b4 28 3f
       0.11719822 -0.019321298 -0.45993453 0.6590008
000040 5c 42 fd be 4f 10 1c 3f 64 6a ae 3e c5 d3 53 be
       -0.4946469 0.60962385 0.34065545 -0.20686252
000050 57 9a da 3d ae 25 0f bf 06 b8 5d bf 2c c7 3c be
       0.10673969 -0.5591687 -0.8660892 -0.18435353
000060 be 7f 58 bd 51 11 69 3d cd 47 ab be 93 8f 77 3e
       -0.0528562 0.05690128 -0.33453217 0.24175863
000070 54 09 8c be 0c 9b 76 3f f2 fe e6 be b3 6e 02 3f
       -0.27350867 0.9633033 -0.45116383 0.50950164
000080 ce 58 19 bf 27 67 d3 3d 7f 45 f2 3d 35 ea 0a bf
       -0.5990113 0.10322409 0.118296616 -0.5426362
000090 c1 2c ba bd 61 8c f8 bd b8 8f 16 3d 14 f1 43 3d
       -0.090905674 -0.1213615 0.036758155 0.047837332

policy_network.emb2.transform.bias f4 [20]
000000 f2 58 02 be 12 b7 ed bd 00 00 00 00 00 00 00 00
       -0.12729242 -0.116071835 0.0 0.0
000010 5b 96 2c be 11 30 25 be d1 0d 20 bd a6 36 65 bd
       -0.16854231 -0.16131617 -0.039075676 -0.05596032
000020 18 2d 18 bd 4c 43 4f be 8a 02 2d bd 00 00 00 00
       -0.03715238 -0.20240515 -0.04223875 0.0
000030 b1 f6 08 bd ff f3 26 be d7 81 33 be f0 c1 c2 bc
       -0.03343839 -0.16304015 -0.17529999 -0.023774117
000040 00 00 00 00 25 5f 5b bd 00 00 00 00 08 3d 79 bd
       0.0 -0.053557534 0.0 -0.06084922

policy_network.emb3.transform.weight f4 [20, 2]
000000 67 23 06 bf bc 36 5e be 02 de 96 be a7 85 52 bd
       -0.5239777 -0.21700567 -0.29466254 -0.051396992
000010 de d0 81 be a8 03 6c bd f7 b3 d0 3e ba 18 21 3e
       -0.25354666 -0.057620674 0.40762302 0.15732089
000020 f6 7c f2 3d cd de 84 3e 7f d1 04 bf 8c 8c c4 3e
       0.11840241 0.25951234 -0.51882166 0.3838848
000030 86 eb 36 3e 3c df e2 3e be 42 37 3d d1 00 4f be
       0.17863283 0.4431094 0.044741385 -0.20215155
000040 be 91 1c bf 36 4d 15 3f 39 35 88 3d 47 e2 8b be
       -0.61159885 0.5832094 0.066507764 -0.27321073
000050 c3 33 8a bd ac a1 cd be 30 66 1d bf bd bd 84 3e
       -0.06748154 -0.40162408 -0.6148405 0.2592601
000060 c8 f6 4f 3d d5 0a e2 3d ff 60 fb 3e 62 27 6b 3e
       0.05077246 0.11037222 0.4909744 0.22964242
000070 05 33 51 be 5c 8e 10 be ca b0 fc be eb 13 54 3e
       -0.20429619 -0.14116806 -0.4935363 0.20710723
000080 fe 52 49 3f cc a7 75 be b9 69 ac 3d d6 25 64 be
       0.7864226 -0.2398979 0.084186025 -0.22280058
000090 08 ac f0 bc 24 86 74 3d 76 16 a2 3e f3 15 1b 3e
       -0.029378906 0.05969824 0.3165776 0.15145092

policy_network.emb3.transform.bias f4 [20]
000000 00 00 00 00 00 00 00 00 00 00 00 00 1b f5 14 bd
       0.0 0.0 0.0 -0.036366563
000010 48 6c 04 be 58 ea 71 bd f6 96 55 bd 3e ba d4 bc
       -0.12931931 -0.05906138 -0.05214592 -0.025967713
000020 d1 70 57 bd 78 95 99 bc 00 00 00 00 21 ee c6 bd
       -0.052597824 -0.01874803 0.0 -0.09713388
000030 0f 50 bc 3b 43 27 ff bc 00 00 00 00 69 76 c8 3d
       0.0057468484 -0.031146651 0.0 0.0978821
000040 9d 0d 88 bd 74 f4 0d be a4 53 11 be 48 7b a8 bd
       -0.066432215 -0.13862783 -0.14192063 -0.08226639

policy_network.emb4.transform.weight f4 [20, 2]
000000 8a a3 1c 3e 57 a5 50 3e 29 ed 7f 3d a7 29 53 be
       0.1529676 0.20375572 0.062482033 -0.20621358
000010 78 95 90 3e 7c b7 15 3e 3a f0 ec be 5b 51 8f 3e
       0.28239036 0.14620775 -0.46277028 0.27991757
000020 93 5a 38 3e f0 66 6d be 2b 2a 98 3d bb fb b2 3e
       0.18003301 -0.23183799 0.07429918 0.3495768
000030 22 9a 64 3e 26 5b 88 bd 84 32 57 be 4b 4f 83 be
       0.22324422 -0.0665801 -0.21015364 -0.25646433
000040 3f de 9a be 76 1a ba be 85 24 f8 be 70 86 52 3e
       -0.30247685 -0.36348313 -0.48465362 0.20559096
000050 68 9b 8c bc 97 37 b8 be 53 e6 6a 3e 0f 7d 8e 3e
       -0.017163947 -0.35979912 0.22939424 0.27829787
000060 2d c8 63 bd 6a 84 33 3d 6a cc a6 3c 8a c2 2c 3d
       -0.055610824 0.04382745 0.020361144 0.042177714
000070 54 ce f7 be 98 1f b9 3e 3a 7a 97 3e 17 a3 0e bf
       -0.48399603 0.36156917 0.2958544 -0.55717605
000080 2e 82 e9 3d 84 e8 64 3c f4 17 46 bf 57 ed 13 3f
       0.11401783 0.013971452 -0.773803 0.57784027
000090 41 a3 4d bf ce d0 30 3e 23 03 05 bf 98 bd 02 bf
       -0.8032723 0.17267153 -0.5195791 -0.5107055

policy_network.emb4.transform.bias f4 [20]
000000 c8 da 1a 3b 3d c9 ac bc 6c 02 69 be ce 8e 5a be
       0.002362894 -0.021092052 -0.2275483 -0.21343538
000010 e9 56 d8 bd ad cb 93 bc fe dc 34 bc 00 00 00 00
       -0.10563452 -0.018041456 -0.011039017 0.0
000020 00 00 00 00 96 51 65 3d 00 00 00 00 21 e6 5b 3e
       0.0 0.05598601 0.0 0.21474506
000030 d5 40 60 bd 63 1c 6c bd 91 e4 06 bc 9c bd 11 be
       -0.05474933 -0.05764426 -0.008233205 -0.14232486
000040 37 6a 03 be 46 66 59 3c 00 00 00 00 00 00 00 00
       -0.12833486 0.013269013 0.0 0.0

policy_network.h2.transform.weight f4 [20, 20]
000000 cc 68 24 3d 8e 69 aa bd ff 35 8e be 20 b7 16 3d
       0.040139005 -0.08320914 -0.2777557 0.036795735
000010 4f 8b b6 bd 10 02 ee 3e dc f0 33 bf 12 69 41 bf
       -0.0891329 0.4648595 -0.702894 -0.7555095
000020 9e 08 4e be f9 86 90 be 53 01 c6 3e 60 ee 40 3e
       -0.20120475 -0.28227976 0.38672885 0.18840933
000030 a1 9b c4 3d 33 88 83 3d 67 cb 42 be f9 0d 93 be
       0.09599996 0.06422462 -0.19022904 -0.28721598
000040 7f 45 d3 be 86 18 fb bd 76 78 a9 be c7 1b fa be
       -0.4126396 -0.12260537 -0.33099717 -0.48849317
000050 91 3b 54 3d 41 50 13 3d 67 81 cb be 08 c7 67 3e
       0.05181462 0.035965208 -0.39747164 0.22634518
000060 40 1b 9b 3b ae 9f 29 bf 66 c2 0d 3e 51 5a e4 be
       0.004733473 -0.66259277 0.13843688 -0.44600156
000070 d9 7b 26 bf 3e 3c ca 3e 7d 50 9a 3d 2b 13 44 be
       -0.65032727 0.39499086 0.07534883 -0.19147937
000080 4c 98 8d be d9 0f e4 be 30 50 f8 be d8 7b 7e be
       -0.27655256 -0.4454334 -0.48498678 -0.2485193
000090 7f 42 5e be e1 5c 46 bc 8f 57 76 be 23 ac 23 3d
       -0.21705054 -0.012107105 -0.24056838 0.039959084
0000a0 96 20 e8 be 45 25 86 3c 6c 44 aa be 1d 02 01 bf
       -0.4533736 0.016375193 -0.33255327 -0.5039385
0000b0 ea 6c a4 be ab f8 07 be fd c2 d4 be 52 20 0f 3e
       -0.32114345 -0.13278453 -0.41555014 0.13977173
0000c0 06 56 01 3e e1 62 66 3e b5 66 cb 3c 53 d8 9a bd
       0.12630472 0.22498657 0.024829248 -0.07560792
0000d0 99 a5 82 3e 49 0e 4c be b6 4f ff 3d 57 60 dc be
       0.25516966 -0.19927324 0.124663755 -0.4304225
0000e0 b2 ab d0 3e e0 da 3f be 11 01 33 bf 8a d3 aa 3e
       0.40755993 -0.18735838 -0.699235 0.33364516
0000f0 0a cb 27 be 35 26 65 bd d4 39 7e 3e 89 41 4a be
       -0.16386047 -0.05594464 0.24826747 -0.19751562
000100 03 40 6d 3e 30 b7 64 3e ee a0 e0 be ac 5d ee 3d
       0.2316895 0.22335505 -0.4387278 0.1163896
000110 b0 f0 64 be 4a 02 48 3f 4a 36 81 be 36 36 b2 3e
       -0.2235744 0.7812849 -0.25236732 0.34806985
000120 18 32 c0 bd 98 5a d3 bd ea 8d 2c bf 4a 9e 6e be
       -0.093845546 -0.10320014 -0.67404044 -0.2330257
000130 97 a2 10 be 46 7c bb be 9d c2 e7 3d ce 38 89 bc
       -0.14124523 -0.3661825 0.113164164 -0.01675072
000140 ee 47 10 be 8f 14 15 bf 8b 96 f7 be ba 44 6d 3e
       -0.14089939 -0.58234495 -0.48357043 0.23170748
000150 97 e9 1b bf 18 a1 99 bd b6 b6 fd be 4b 17 0c 3e
       -0.60903305 -0.07501429 -0.4955346 0.1368076
000160 64 04 88 3e 00 43 c1 3e c4 3b 9e 3e 08 50 da bd
       0.2656585 0.3774643 0.30904973 -0.10659796
000170 39 d2 5a be 69 5d 9a 3d ae 7e f4 be 9c e3 93 3e
       -0.21369256 0.07537348 -0.477529 0.2888459
000180 21 89 20 bd 92 7d d5 3e b0 10 bd 3e 86 1c 06 3e
       -0.039193276 0.41697365 0.36926794 0.13096818
000190 a2 1b 02 bd 59 ba 5d 3e b2 52 46 bd 96 18 00 3f
       -0.031764634 0.21653117 -0.04841871 0.50037515
0001a0 0a bb 90 bd 50 16 ca 3e 19 71 b5 be ce 38 e7 bd
       -0.07066925 0.39470148 -0.3543785 -0.112901315
0001b0 08 93 a8 be 74 dd d9 3c 60 58 d4 3c f6 74 22 bf
       -0.32924676 0.026594855 0.025921047 -0.6345972
0001c0 c6 2a 84 be c9 62 df be ed 8d 88 3e 29 69 72 be
       -0.25813884 -0.43630055 0.2667078 -0.23672928
0001d0 5a 83 a8 3e 89 16 98 be b7 36 07 3e 94 2c 33 be
       0.32912713 -0.29704693 0.13204466 -0.17497474
0001e0 22 e2 c7 ba 3c 52 7e be a7 20 e5 be 56 a5 f4 3e
       -0.0015249888 -0.24836057 -0.44751474 0.4778239
0001f0 ed af 9e 3d 71 19 fe bc 84 1d 6c be 65 d1 c8 3e
       0.07748399 -0.03101799 -0.23058134 0.39222255
000200 d2 df b5 3e 97 51 11 bf b8 91 0a bf c7 88 80 3e
       0.35522324 -0.5676512 -0.541286 0.25104353
000210 44 45 00 be 58 ee e6 be ec 3f f4 be bf f7 8b be
       -0.12526423 -0.45103717 -0.4770502 -0.27337453
000220 84 6f 4e be be 65 42 be 81 05 58 be ec ca 5c 3d
       -0.20159727 -0.18984124 -0.2109585 0.05390446
000230 09 5f b7 be b0 f4 ae bd fa f5 8b be 1e 7a 39 bd
       -0.35814694 -0.08542764 -0.27336103 -0.045282476
000240 e0 07 e4 3c 99 13 ec be 5a f5 3d 3d 52 0d d7 be
       0.027835786 -0.46108702 0.046376564 -0.4200235
000250 b6 c0 c3 3e e5 4b e5 3d 12 6c 1b 3d b8 32 1a 3e
       0.38232964 0.11196116 0.03794486 0.1505841
000260 30 7b d7 bd 7a 17 b2 be 0c 0b c4 bd e4 fa cf bd
       -0.10521543 -0.34783536 -0.095724195 -0.101552755
000270 f5 95 f1 3e 3b c2 95 be d9 85 91 3e ff df 69 bf
       0.4718472 -0.2924975 0.2842243 -0.91357416
000280 66 12 1b 3f 6b 4a 0e bf c6 67 73 bd 05 62 2d bf
       0.6057495 -0.555823 -0.059425138 -0.6772769
000290 5a 40 3a bf 90 93 94 3d 1a f1 7d bc 93 c3 2e 3f
       -0.7275444 0.07254708 -0.015499378 0.6826717
0002a0 bb bb 12 be 5f 1d a7 bd e4 df e5 bd 17 83 6f 3e
       -0.14329426 -0.08159899 -0.112243444 0.2338985
0002b0 b0 44 56 be a0 49 18 bf 6e f3 2e 3e 1c f7 41 bd
       -0.2092464 -0.5948734 0.17085049 -0.047354802
0002c0 4e ff e5 be 9b 75 c4 bd 07 59 ce 3e 96 ca 95 be
       -0.44921345 -0.09592744 0.40302297 -0.29256123
0002d0 95 03 46 3c 19 32 9c be 13 b4 16 3f bd 23 28 be
       0.012085815 -0.3050697 0.5886852 -0.16419883
0002e0 c0 ff 9a be d4 5a ef 3d 8c 04 20 3e 02 57 4a 3e
       -0.30273247 0.11687246 0.15626734 0.19759753
0002f0 7c a7 1e 3e 43 31 33 3e 6f e4 69 3e 84 87 a5 3e
       0.15493578 0.1749926 0.22841047 0.32329953
000300 e7 5b b5 3e a7 8a a6 bf e0 74 c4 3d 22 e4 2e 3f
       0.35421678 -1.3011063 0.09592605 0.68316853
000310 3d 83 07 bf 77 21 5c 3f 1f 7c 84 be b5 28 87 be
       -0.5293463 0.85988563 -0.25875947 -0.26398245
000320 84 01 e3 3c 86 c3 78 be 1d d1 a0 3e 21 59 cc 3d
       0.027710684 -0.24293336 0.3140954 0.099779375
000330 ed 84 d9 3e 2c 3c 93 be e3 20 0f be 07 79 89 3e
       0.42484227 -0.28756845 -0.13977389 0.2685015
000340 c2 bb 0f bd 88 45 e7 bd f7 c5 ef 3e 4e e1 3a 3d
       -0.03509117 -0.11292559 0.46830723 0.045625024
000350 b5 ec da 3d 46 30 9c 3e ab b8 3b 3d 61 2b 94 be
       0.106896795 0.3050558 0.04583041 -0.28939345
000360 7e 20 82 3e 6a 1d dc bd b3 6e 61 bd 13 f9 61 3e
       0.25415415 -0.10747798 -0.05503721 0.2206767
000370 a2 96 9c be 18 6d 3c bf 60 ef 0c bf a2 70 b4 be
       -0.30583674 -0.73603964 -0.5505276 -0.35242182
000380 b8 f3 ff 3e 61 30 4b 3f 78 db 9f 3e 46 89 0d bf
       0.4999063 0.79370695 0.3122213 -0.5528759
000390 ed 86 38 3f 0d 3c 17 3e 4a 31 58 3e a4 72 56 bf
       0.7208088 0.14769001 0.21112552 -0.8376868
0003a0 fe 08 5e 3e 0e 2f 7a be ff 2b 45 bf 69 21 85 3e
       0.21683118 -0.24432012 -0.7702026 0.26002052
0003b0 1c 04 9a be 20 92 37 be 7a 1b 0f 3e c3 63 a4 3b
       -0.3008126 -0.17926836 0.13975325 0.0050167753
0003c0 82 91 bb 3e b6 ea c1 3e 22 4c fe 3d e9 35 3a bf
       0.3663445 0.37874383 0.12416865 -0.7273851
0003d0 db af df 3d 93 f1 ee bd b3 90 d0 be 4c ac 6c 3f
       0.10922214 -0.116671704 -0.40735397 0.92450404
0003e0 e2 3b 00 3f 5c 0b 42 bc d0 75 ea 3e 6a e2 44 3e
       0.50091374 -0.011843529 0.4579301 0.19226995
0003f0 cc 89 2e bf 94 9d 69 bf d3 a4 3f 3e 63 25 de 3d
       -0.6817901 -0.9125607 0.18715219 0.10846975

policy_network.h2.transform.bias f4 [20]
000000 84 72 e7 bd c2 c9 e0 bd 8c 83 0c be ec e6 1f be
       -0.11301139 -0.10975982 -0.13722056 -0.15615433
000010 58 ed 4e be 0e 50 49 be c9 e5 09 be 5e 56 2a be
       -0.20207727 -0.19659445 -0.13466562 -0.16634509
000020 14 b3 24 bc 37 91 94 3d c4 bd c1 bb 50 b6 07 3e
       -0.010052461 0.0725426 -0.0059125144 0.1325314
000030 60 d4 50 3e 6d 64 fe bc 22 ec 00 3e 00 00 00 00
       0.20393515 -0.031053746 0.12590078 0.0
000040 0c 22 1a be 82 e8 70 be 0f 9e 1b 3d 5e 72 34 be
       -0.1505205 -0.23526195 0.037992533 -0.17621753

policy_network.h3.transform.weight f4 [20, 20]
000000 d5 a7 92 3c bc 11 c3 bd f3 1e 15 3f 36 dc 78 bc
       0.017902294 -0.09524867 0.5825035 -0.015189221
000010 b5 a4 cb 3d 0b 0a 1a bf f0 f7 fa be d6 1d 86 3e
       0.09943525 -0.60171574 -0.49017286 0.26194638
000020 e6 c2 7e 3e 66 4a 87 be 17 70 e9 bd 17 fe 84 3d
       0.24879035 -0.2642395 -0.113983326 0.06493776
000030 2c 35 ba be 8e cb 02 bf 65 ed 02 3e f0 a1 df be
       -0.36368692 -0.5109185 0.12785871 -0.43678236
000040 fe 06 19 be bb 3c 8b be 42 b0 0f bf 11 c9 af bd
       -0.14944074 -0.2719477 -0.56128323 -0.08583272
000050 9b a3 2e be 82 07 02 bf c6 4a 02 be 1c e7 c7 bd
       -0.17054598 -0.50792706 -0.12723836 -0.097608775
000060 59 96 01 be d6 95 18 3e 87 bd 57 3f d8 24 da bd
       -0.1265501 0.14900908 0.8427357 -0.10651559
000070 5e b7 07 bd fe f8 90 be e2 db 09 be 7b b5 2c 3f
       -0.033133857 -0.28314966 -0.13462785 0.6746442
000080 82 dd a2 be 6d 2f ea bd 41 b4 65 be 15 f9 97 bc
       -0.31809622 -0.11434827 -0.22432043 -0.018551389
000090 c9 7e 66 be 67 9a 38 3e 18 ef d4 be 72 60 c7 3e
       -0.22509302 0.1802765 -0.41588664 0.3894077
0000a0 f5 4b c1 3e af 65 25 3e d2 47 b2 bd 18 8b 05 3c
       0.37753263 0.1615207 -0.08705105 0.008150838
0000b0 39 e1 e1 be 80 a4 52 bd 35 3a 17 3e 55 a3 2b 3f
       -0.44117144 -0.05142641 0.14768298 0.670461
0000c0 fe dd cb 3e 20 48 3f 3f df 1a 45 be d5 d9 9b 3d
       0.39817804 0.7471943 -0.19248532 0.076099075
0000d0 1e f2 25 3f da cf c2 3e a8 02 0c 3f 12 8d f7 be
       0.64822567 0.38049203 0.54691553 -0.48349816
0000e0 dd 02 ca 3d 1c 20 fe 3e 95 d5 9a 3e 8b 8c be bd
       0.098638274 0.49633873 0.30241075 -0.0930415
0000f0 eb 58 e5 3d c0 58 ef 3e dd 8e 99 3e d1 02 a8 be
       0.111986004 0.46747398 0.2999181 -0.3281465
000100 62 44 c3 3e 80 fe 10 ba 68 85 58 3e e2 43 04 bd
       0.3813811 -0.00055310875 0.2114464 -0.0322913
000110 a9 2a f1 bd 02 d7 a0 be 0d ae 7e 3e 15 d3 c7 3d
       -0.11775715 -0.31414038 0.24871083 0.097570576
000120 bb b4 92 3e fe 7c 02 3f 50 af 45 3e 4e ef 0c bd
       0.2865351 0.5097197 0.19305158 -0.034407906
000130 07 50 87 be 80 d5 81 bb 70 fe 14 3f 5f 0e 58 be
       -0.26428244 -0.0039622188 0.5820074 -0.21099232
000140 47 d9 c6 3c 4a 6b 47 3e 66 84 89 be d3 05 b9 bd
       0.024273528 0.19474521 -0.26858824 -0.09034314
000150 ec 2a a2 be 2c 68 dc be 00 1e 61 3d 25 c4 0b bf
       -0.31673372 -0.43048227 0.05496025 -0.5459617
000160 ff ef 27 3f f7 15 3b be 48 c2 79 3e 99 d4 cf be
       0.6560058 -0.18270098 0.24390519 -0.40591887
000170 fe 85 1b bf 6e cc 1c bf 89 17 66 be 1f 9a bb 3d
       -0.6075133 -0.61249435 -0.22469915 0.09160256
000180 c2 70 ba 3e 3b 68 c7 bd a8 36 fe 3d d0 2f a1 3d
       0.36414152 -0.09736677 0.124127686 0.07870448
000190 51 6b 9a bc 5f 38 4e 3f 3d be fa 3e 3d 47 a7 3e
       -0.01885 0.80554765 0.48973265 0.32671538
0001a0 a8 1a 16 bd 7c 6f 3f be 4e cf 20 3f 79 79 39 be
       -0.036646515 -0.18694872 0.6281632 -0.18112744
0001b0 34 40 34 bc 6a 70 3d 3e eb 78 32 3d 90 be 58 bc
       -0.011001635 0.18499914 0.043572348 -0.013229027
0001c0 f1 fb 98 3e bf 2b c8 be d9 c3 66 3e 3b d4 58 3d
       0.29879716 -0.39095876 0.22535647 0.052936774
0001d0 54 23 5b bd d2 b6 fb 3d 78 3a 3d be ed af 51 3e
       -0.05350049 0.122907296 -0.18479335 0.20477267
0001e0 e0 46 2c 3c 0f 13 86 be 32 49 1b 3f f6 5e cd be
       0.010514945 -0.26186416 0.6065856 -0.40111512
0001f0 8d a3 95 be e8 ea 7a 3e e5 b8 10 bd 58 11 36 3d
       -0.29226342 0.24503672 -0.03533258 0.044450134
000200 93 93 c7 bd 32 69 76 3e 4b 8b 92 3e d9 76 94 bd
       -0.097449444 0.24063566 0.28621897 -0.07249231
000210 3d c4 8a bf 20 bd 29 3e f1 70 10 3b 06 d4 06 3e
       -1.0841137 0.16576052 0.0022039975 0.13166818
000220 4e b3 0b be 08 a6 72 be 25 57 f0 3d e2 d1 7d 3e
       -0.13642618 -0.23696148 0.117353715 0.24787095
000230 76 3b 9a 3e c6 e2 1c be 64 f6 32 3e 79 4e 95 3e
       0.3012349 -0.15320882 0.17476803 0.29161432
000240 e1 4e e6 bd 53 68 34 bf 54 8b 8c 3e 5a 3d 5b bd
       -0.11245514 -0.70471686 0.2745005 -0.053525306
000250 05 82 12 bf 37 5e 5f bd 60 71 1b bf f0 70 84 3e
       -0.57229644 -0.05453321 -0.6071987 0.25867414
000260 c2 f4 0c be db 24 96 3e 9e c7 15 bf 83 ea b6 bd
       -0.13765243 0.29324993 -0.58507717 -0.08931448
000270 3b cc 15 3f f5 4d 86 be ba b9 62 3e 6d b0 94 3d
       0.58514756 -0.26231351 0.22141162 0.07260213
000280 4b 31 f0 3e 4e 69 a1 be c7 78 49 be e0 b9 8f 3d
       0.46912608 -0.31525654 -0.19674979 0.07017875
000290 27 09 12 3f e6 52 15 bd 40 c6 13 3e f7 e7 be 3e
       0.57045215 -0.03645601 0.14431095 0.3728635
0002a0 28 3f a1 3e e2 7f ac be a7 cf 27 3f ff f4 22 be
       0.31493497 -0.33691317 0.6555123 -0.15913771
0002b0 b6 e1 85 be 38 8d 9d 3e d2 51 90 be 88 84 cc 3e
       -0.26148766 0.30771804 -0.28187424 0.39944863
0002c0 0f 0d 84 3e 8a 72 97 3e e6 d4 98 be 8e 86 05 3e
       0.25791213 0.29579574 -0.2984993 0.1303961
0002d0 a5 0b b2 bd e2 d8 0f 3e a8 51 c4 bd 4b 2b 8b be
       -0.08693627 0.14047578 -0.09585887 -0.27181467
0002e0 b0 ee 5e 3e 22 82 af 3e d6 54 a2 bc 79 33 3e 3e
       0.2177074 0.3427897 -0.019815844 0.18574323
0002f0 44 9e c6 3d 65 08 e3 be 43 1a 36 be 01 65 05 3c
       0.096981555 -0.44342342 -0.17783456 0.008141757
000300 2c e6 38 3e 23 74 bc be c6 0d 69 bd a7 b9 23 bf
       0.18056554 -0.36807355 -0.0568979 -0.6395516
000310 40 40 fa 3e 17 ce 84 be 8e 0f 9b 3e ba 2e 1a 3f
       0.48877144 -0.25938484 0.30285305 0.6022755
000320 d0 01 5b 3e 50 86 90 be ec ee ce 3c df b4 4b bf
       0.2138741 -0.28227472 0.025260411 -0.7957286
000330 ac 1e c0 3e 10 a0 d9 be 7a 9a 2b 3e 79 1c f3 be
       0.375234 -0.4250493 0.16758147 -0.4748266
000340 24 a9 e1 bd e4 28 91 3e 30 6b f2 bb 79 c9 d8 be
       -0.11018589 0.2835151 -0.0073980317 -0.4234121
000350 6f 91 a6 3e bb 6e 64 be 00 b0 b8 bd e6 e3 ce be
       0.32532832 -0.22307865 -0.09017944 -0.40408248
000360 58 13 b9 bc c6 ab 4d 3e 3a b9 c0 bd e3 39 a0 ba
       -0.022592232 0.20085058 -0.09410329 -0.0012224283
000370 f8 f7 fc 3d ac 38 c4 3d 54 fa be 3e 4e 4b dc be
       0.12351984 0.09581122 0.3730036 -0.43026203
000380 57 4d 4b 3d 7b c2 15 be 5b 6b 23 3c 7e d3 a6 3e
       0.049634304 -0.1462497 0.009974326 0.3258323
000390 d7 6a cc 3e 08 ec ab bd f6 4c 3a bf df 07 e1 bd
       0.39925262 -0.08394629 -0.72773683 -0.109878294
0003a0 79 6e af 3d 32 2c 8a be b5 c0 68 bd 11 57 53 3f
       0.08565993 -0.26986843 -0.056824405 0.8255473
0003b0 b7 3a c1 bc 7e 2b 6f 3c 70 03 e8 3d 5f 4c 3e 3e
       -0.023587568 0.014597772 0.11328781 0.18583821
0003c0 12 fd 3b 3e 77 af d4 be 86 e7 4b 3e 4b 85 a6 3c
       0.18358257 -0.4154012 0.19912538 0.02032723
0003d0 18 f1 c8 be b5 1c 86 bd 30 0f 33 3d b5 84 83 3d
       -0.3924644 -0.06548444 0.043715656 0.06421796
0003e0 b9 ad 69 be 81 e6 2a bf 98 7b 0c 3f ce c4 4b 3c
       -0.22820176 -0.6675797 0.5487609 0.012437059
0003f0 d9 93 fb 3e 09 90 08 bf c2 26 9c be 4f 1b 62 3e
       0.49136236 -0.5334478 -0.3049832 0.2208073

policy_network.h3.transform.bias f4 [20]
000000 64 80 41 be f1 a5 83 3e 02 16 ab bd d7 b5 cd bd
       -0.18896633 0.2571254 -0.08353807 -0.10044449
000010 a3 ea 0c be f6 b1 70 be f4 4c d1 bc 60 bb 1d be
       -0.13761382 -0.23505387 -0.02554939 -0.15403509
000020 ea 7f aa 3c 5f 07 d5 bd 0a 22 2d bd 00 00 00 00
       0.020812947 -0.104017965 -0.04226879 0.0
000030 26 c6 67 be 2e 84 b1 be 00 00 00 00 00 a8 15 be
       -0.22634181 -0.34671158 0.0 -0.14614868
000040 c6 e1 e8 bd a4 95 ba 3d 2f 1d 97 be ef 77 fb bd
       -0.11371188 0.09110573 -0.29514453 -0.12278735

policy_network.critic_linear.weight f4 [1, 20]
000000 b0 9f 61 be 4d 0a c5 be ae b0 cf be ae 7f 2c be
       -0.22033572 -0.3848442 -0.40564483 -0.16845581
000010 72 26 d1 be 16 52 05 3e ee 4e 82 3e f4 ae 07 3f
       -0.40849644 0.13019595 0.25450844 0.5300133
000020 4d f1 10 3f 04 50 4c 3e 03 ff 40 3d a0 2d dc 3c
       0.56618196 0.19952399 0.047118198 0.026877224
000030 c8 a8 a0 be 22 a6 6e bd 57 0d 2c bf 40 fb 2b bd
       -0.3137877 -0.058263905 -0.67207855 -0.041987658
000040 4f 04 ca bc 72 7a 8c be 6b 1f 9c 3e fc 5b 22 3e
       -0.024660258 -0.27437168 0.3049272 0.15855402

target_network.emb1.transform.weight f4 [20, 2]
000000 bc d5 0b 3e f0 52 02 3f 2c 5a 6a 3d 15 a8 1a bf
       0.13655752 0.509078 0.0572149 -0.6041272
000010 de 3f f1 bb 48 be a9 be 94 3e 30 be 70 d9 aa be
       -0.00736235 -0.33152986 -0.17211372 -0.33369017
000020 fd 2c 57 bd 41 2a 83 3e bc 2e 1c bf a7 b4 cc 3e
       -0.05253314 0.25618175 -0.6100881 0.39981577
000030 9a 1a 50 be 33 cd 8e bd f1 40 93 be c1 d0 90 be
       -0.20322648 -0.069727324 -0.28760484 -0.28284267
000040 8a cb 28 3e 82 d4 96 3e 58 d1 53 bd 4c 1f 67 3e
       0.16483894 0.29459006 -0.051713318 0.22570533
000050 4d ba 15 be 35 ee ce 3c 09 2f 84 bc 57 5e 13 3f
       -0.1462185 0.02526007 -0.01613571 0.57565826
000060 4b 3c 87 3e 4a 4f c0 be c4 39 98 be e6 61 97 3e
       0.26413187 -0.37560493 -0.29731572 0.29566878
000070 9f 37 82 3e 35 72 9a 3e a2 e9 3e bf 96 46 76 3e
       0.2543306 0.30165258 -0.74575245 0.24050364
000080 c9 5a 1b bf c6 58 6b be 61 7f da be cd 4e c6 be
       -0.606854 -0.22983083 -0.42675307 -0.38731995
000090 60 a1 62 bd 11 7e 9a 3d ad 32 9e be c6 77 98 be
       -0.05532968 0.075435765 -0.30898038 -0.2977888

target_network.emb1.transform.bias f4 [20]
000000 38 a8 95 3d ce 6c 61 bc 00 00 00 00 00 00 00 00
       0.07307476 -0.013758851 0.0 0.0
000010 ca 15 3e be c5 fd c0 bd 00 00 00 00 00 00 00 00
       -0.18563 -0.09423403 0.0 0.0
000020 1c 54 7b 3d 5a 1c 01 be 00 00 00 00 74 29 34 3e
       0.06135951 -0.12608472 0.0 0.17593938
000030 32 8b 07 be e6 2c 4c bd 6e a9 93 3d 00 00 00 00
       -0.13236693 -0.049847506 0.072100505 0.0
000040 00 00 00 00 00 00 00 00 83 fd c4 bc 00 00 00 00
       0.0 0.0 -0.024046665 0.0

target_network.emb2.transform.weight f4 [20, 2]
000000 09 5e 1c be 0f c5 21 3f 34 95 b4 3b 5f e9 ce 3e
       -0.15270247 0.6319131 0.0055109505 0.40412423
000010 19 8e 92 be 6d 8d 03 3d aa 0d 47 bd d0 37 d2 bd
       -0.28624037 0.032117296 -0.048597015 -0.10264552
000020 ea ab ac 3e 37 6d 7f be 8e 88 5f be fb 5f a1 3e
       0.3372491 -0.24944006 -0.21829435 0.3151854
000030 9f 05 f0 3d b3 47 9e bc 8a 7c eb be 47 b4 28 3f
       0.11719822 -0.019321298 -0.45993453 0.6590008
000040 5c 42 fd be 4f 10 1c 3f 64 6a ae 3e c5 d3 53 be
       -0.4946469 0.60962385 0.34065545 -0.20686252
000050 57 9a da 3d ae 25 0f bf 06 b8 5d bf 2c c7 3c be
       0.10673969 -0.5591687 -0.8660892 -0.18435353
000060 be 7f 58 bd 51 11 69 3d cd 47 ab be 93 8f 77 3e
       -0.0528562 0.05690128 -0.33453217 0.24175863
000070 54 09 8c be 0c 9b 76 3f f2 fe e6 be b3 6e 02 3f
       -0.27350867 0.9633033 -0.45116383 0.50950164
000080 ce 58 19 bf 27 67 d3 3d 7f 45 f2 3d 35 ea 0a bf
       -0.5990113 0.10322409 0.118296616 -0.5426362
000090 c1 2c ba bd 61 8c f8 bd b8 8f 16 3d 14 f1 43 3d
       -0.090905674 -0.1213615 0.036758155 0.047837332

target_network.emb2.transform.bias f4 [20]
000000 f2 58 02 be 12 b7 ed bd 00 00 00 00 00 00 00 00
       -0.12729242 -0.116071835 0.0 0.0
000010 5b 96 2c be 11 30 25 be d1 0d 20 bd a6 36 65 bd
       -0.16854231 -0.16131617 -0.039075676 -0.05596032
000020 18 2d 18 bd 4c 43 4f be 8a 02 2d bd 00 00 00 00
       -0.03715238 -0.20240515 -0.04223875 0.0
000030 b1 f6 08 bd ff f3 26 be d7 81 33 be f0 c1 c2 bc
       -0.03343839 -0.16304015 -0.17529999 -0.023774117
000040 00 00 00 00 25 5f 5b bd 00 00 00 00 08 3d 79 bd
       0.0 -0.053557534 0.0 -0.06084922

target_network.emb3.transform.weight f4 [20, 2]
000000 67 23 06 bf bc 36 5e be 02 de 96 be a7 85 52 bd
       -0.5239777 -0.21700567 -0.29466254 -0.051396992
000010 de d0 81 be a8 03 6c bd f7 b3 d0 3e ba 18 21 3e
       -0.25354666 -0.057620674 0.40762302 0.15732089
000020 f6 7c f2 3d cd de 84 3e 7f d1 04 bf 8c 8c c4 3e
       0.11840241 0.25951234 -0.51882166 0.3838848
000030 86 eb 36 3e 3c df e2 3e be 42 37 3d d1 00 4f be
       0.17863283 0.4431094 0.044741385 -0.20215155
000040 be 91 1c bf 36 4d 15 3f 39 35 88 3d 47 e2 8b be
       -0.61159885 0.5832094 0.066507764 -0.27321073
000050 c3 33 8a bd ac a1 cd be 30 66 1d bf bd bd 84 3e
       -0.06748154 -0.40162408 -0.6148405 0.2592601
000060 c8 f6 4f 3d d5 0a e2 3d ff 60 fb 3e 62 27 6b 3e
       0.05077246 0.11037222 0.4909744 0.22964242
000070 05 33 51 be 5c 8e 10 be ca b0 fc be eb 13 54 3e
       -0.20429619 -0.14116806 -0.4935363 0.20710723
000080 fe 52 49 3f cc a7 75 be b9 69 ac 3d d6 25 64 be
       0.7864226 -0.2398979 0.084186025 -0.22280058
000090 08 ac f0 bc 24 86 74 3d 76 16 a2 3e f3 15 1b 3e
       -0.029378906 0.05969824 0.3165776 0.15145092

target_network.emb3.transform.bias f4 [20]
000000 00 00 00 00 00 00 00 00 00 00 00 00 1b f5 14 bd
       0.0 0.0 0.0 -0.036366563
000010 48 6c 04 be 58 ea 71 bd f6 96 55 bd 3e ba d4 bc
       -0.12931931 -0.05906138 -0.05214592 -0.025967713
000020 d1 70 57 bd 78 95 99 bc 00 00 00 00 21 ee c6 bd
       -0.052597824 -0.01874803 0.0 -0.09713388
000030 0f 50 bc 3b 43 27 ff bc 00 00 00 00 69 76 c8 3d
       0.0057468484 -0.031146651 0.0 0.0978821
000040 9d 0d 88 bd 74 f4 0d be a4 53 11 be 48 7b a8 bd
       -0.066432215 -0.13862783 -0.14192063 -0.08226639

target_network.emb4.transform.weight f4 [20, 2]
000000 8a a3 1c 3e 57 a5 50 3e 29 ed 7f 3d a7 29 53 be
       0.1529676 0.20375572 0.062482033 -0.20621358
000010 78 95 90 3e 7c b7 15 3e 3a f0 ec be 5b 51 8f 3e
       0.28239036 0.14620775 -0.46277028 0.27991757
000020 93 5a 38 3e f0 66 6d be 2b 2a 98 3d bb fb b2 3e
       0.18003301 -0.23183799 0.07429918 0.3495768
000030 22 9a 64 3e 26 5b 88 bd 84 32 57 be 4b 4f 83 be
       0.22324422 -0.0665801 -0.21015364 -0.25646433
000040 3f de 9a be 76 1a ba be 85 24 f8 be 70 86 52 3e
       -0.30247685 -0.36348313 -0.48465362 0.20559096
000050 68 9b 8c bc 97 37 b8 be 53 e6 6a 3e 0f 7d 8e 3e
       -0.017163947 -0.35979912 0.22939424 0.27829787
000060 2d c8 63 bd 6a 84 33 3d 6a cc a6 3c 8a c2 2c 3d
       -0.055610824 0.04382745 0.020361144 0.042177714
000070 54 ce f7 be 98 1f b9 3e 3a 7a 97 3e 17 a3 0e bf
       -0.48399603 0.36156917 0.2958544 -0.55717605
000080 2e 82 e9 3d 84 e8 64 3c f4 17 46 bf 57 ed 13 3f
       0.11401783 0.013971452 -0.773803 0.57784027
000090 41 a3 4d bf ce d0 30 3e 23 03 05 bf 98 bd 02 bf
       -0.8032723 0.17267153 -0.5195791 -0.5107055

target_network.emb4.transform.bias f4 [20]
000000 c8 da 1a 3b 3d c9 ac bc 6c 02 69 be ce 8e 5a be
       0.002362894 -0.021092052 -0.2275483 -0.21343538
000010 e9 56 d8 bd ad cb 93 bc fe dc 34 bc 00 00 00 00
       -0.10563452 -0.018041456 -0.011039017 0.0
000020 00 00 00 00 96 51 65 3d 00 00 00 00 21 e6 5b 3e
       0.0 0.05598601 0.0 0.21474506
000030 d5 40 60 bd 63 1c 6c bd 91 e4 06 bc 9c bd 11 be
       -0.05474933 -0.05764426 -0.008233205 -0.14232486
000040 37 6a 03 be 46 66 59 3c 00 00 00 00 00 00 00 00
       -0.12833486 0.013269013 0.0 0.0

target_network.h2.transform.weight f4 [20, 20]
000000 cc 68 24 3d 8e 69 aa bd ff 35 8e be 20 b7 16 3d
       0.040139005 -0.08320914 -0.2777557 0.036795735
000010 4f 8b b6 bd 10 02 ee 3e dc f0 33 bf 12 69 41 bf
       -0.0891329 0.4648595 -0.702894 -0.7555095
000020 9e 08 4e be f9 86 90 be 53 01 c6 3e 60 ee 40 3e
       -0.20120475 -0.28227976 0.38672885 0.18840933
000030 a1 9b c4 3d 33 88 83 3d 67 cb 42 be f9 0d 93 be
       0.09599996 0.06422462 -0.19022904 -0.28721598
000040 7f 45 d3 be 86 18 fb bd 76 78 a9 be c7 1b fa be
       -0.4126396 -0.12260537 -0.33099717 -0.48849317
000050 91 3b 54 3d 41 50 13 3d 67 81 cb be 08 c7 67 3e
       0.05181462 0.035965208 -0.39747164 0.22634518
000060 40 1b 9b 3b ae 9f 29 bf 66 c2 0d 3e 51 5a e4 be
       0.004733473 -0.66259277 0.13843688 -0.44600156
000070 d9 7b 26 bf 3e 3c ca 3e 7d 50 9a 3d 2b 13 44 be
       -0.65032727 0.39499086 0.07534883 -0.19147937
000080 4c 98 8d be d9 0f e4 be 30 50 f8 be d8 7b 7e be
       -0.27655256 -0.4454334 -0.48498678 -0.2485193
000090 7f 42 5e be e1 5c 46 bc 8f 57 76 be 23 ac 23 3d
       -0.21705054 -0.012107105 -0.24056838 0.039959084
0000a0 96 20 e8 be 45 25 86 3c 6c 44 aa be 1d 02 01 bf
       -0.4533736 0.016375193 -0.33255327 -0.5039385
0000b0 ea 6c a4 be ab f8 07 be fd c2 d4 be 52 20 0f 3e
       -0.32114345 -0.13278453 -0.41555014 0.13977173
0000c0 06 56 01 3e e1 62 66 3e b5 66 cb 3c 53 d8 9a bd
       0.12630472 0.22498657 0.024829248 -0.07560792
0000d0 99 a5 82 3e 49 0e 4c be b6 4f ff 3d 57 60 dc be
       0.25516966 -0.19927324 0.124663755 -0.4304225
0000e0 b2 ab d0 3e e0 da 3f be 11 01 33 bf 8a d3 aa 3e
       0.40755993 -0.18735838 -0.699235 0.33364516
0000f0 0a cb 27 be 35 26 65 bd d4 39 7e 3e 89 41 4a be
       -0.16386047 -0.05594464 0.24826747 -0.19751562
000100 03 40 6d 3e 30 b7 64 3e ee a0 e0 be ac 5d ee 3d
       0.2316895 0.22335505 -0.4387278 0.1163896
000110 b0 f0 64 be 4a 02 48 3f 4a 36 81 be 36 36 b2 3e
       -0.2235744 0.7812849 -0.25236732 0.34806985
000120 18 32 c0 bd 98 5a d3 bd ea 8d 2c bf 4a 9e 6e be
       -0.093845546 -0.10320014 -0.67404044 -0.2330257
000130 97 a2 10 be 46 7c bb be 9d c2 e7 3d ce 38 89 bc
       -0.14124523 -0.3661825 0.113164164 -0.01675072
000140 ee 47 10 be 8f 14 15 bf 8b 96 f7 be ba 44 6d 3e
       -0.14089939 -0.58234495 -0.48357043 0.23170748
000150 97 e9 1b bf 18 a1 99 bd b6 b6 fd be 4b 17 0c 3e
       -0.60903305 -0.07501429 -0.4955346 0.1368076
000160 64 04 88 3e 00 43 c1 3e c4 3b 9e 3e 08 50 da bd
       0.2656585 0.3774643 0.30904973 -0.10659796
000170 39 d2 5a be 69 5d 9a 3d ae 7e f4 be 9c e3 93 3e
       -0.21369256 0.07537348 -0.477529 0.2888459
000180 21 89 20 bd 92 7d d5 3e b0 10 bd 3e 86 1c 06 3e
       -0.039193276 0.41697365 0.36926794 0.13096818
000190 a2 1b 02 bd 59 ba 5d 3e b2 52 46 bd 96 18 00 3f
       -0.031764634 0.21653117 -0.04841871 0.50037515
0001a0 0a bb 90 bd 50 16 ca 3e 19 71 b5 be ce 38 e7 bd
       -0.07066925 0.39470148 -0.3543785 -0.112901315
0001b0 08 93 a8 be 74 dd d9 3c 60 58 d4 3c f6 74 22 bf
       -0.32924676 0.026594855 0.025921047 -0.6345972
0001c0 c6 2a 84 be c9 62 df be ed 8d 88 3e 29 69 72 be
       -0.25813884 -0.43630055 0.2667078 -0.23672928
0001d0 5a 83 a8 3e 89 16 98 be b7 36 07 3e 94 2c 33 be
       0.32912713 -0.29704693 0.13204466 -0.17497474
0001e0 22 e2 c7 ba 3c 52 7e be a7 20 e5 be 56 a5 f4 3e
       -0.0015249888 -0.24836057 -0.44751474 0.4778239
0001f0 ed af 9e 3d 71 19 fe bc 84 1d 6c be 65 d1 c8 3e
       0.07748399 -0.03101799 -0.23058134 0.39222255
000200 d2 df b5 3e 97 51 11 bf b8 91 0a bf c7 88 80 3e
       0.35522324 -0.5676512 -0.541286 0.25104353
000210 44 45 00 be 58 ee e6 be ec 3f f4 be bf f7 8b be
       -0.12526423 -0.45103717 -0.4770502 -0.27337453
000220 84 6f 4e be be 65 42 be 81 05 58 be ec ca 5c 3d
       -0.20159727 -0.18984124 -0.2109585 0.05390446
000230 09 5f b7 be b0 f4 ae bd fa f5 8b be 1e 7a 39 bd
       -0.35814694 -0.08542764 -0.27336103 -0.045282476
000240 e0 07 e4 3c 99 13 ec be 5a f5 3d 3d 52 0d d7 be
       0.027835786 -0.46108702 0.046376564 -0.4200235
000250 b6 c0 c3 3e e5 4b e5 3d 12 6c 1b 3d b8 32 1a 3e
       0.38232964 0.11196116 0.03794486 0.1505841
000260 30 7b d7 bd 7a 17 b2 be 0c 0b c4 bd e4 fa cf bd
       -0.10521543 -0.34783536 -0.095724195 -0.101552755
000270 f5 95 f1 3e 3b c2 95 be d9 85 91 3e ff df 69 bf
       0.4718472 -0.2924975 0.2842243 -0.91357416
000280 66 12 1b 3f 6b 4a 0e bf c6 67 73 bd 05 62 2d bf
       0.6057495 -0.555823 -0.059425138 -0.6772769
000290 5a 40 3a bf 90 93 94 3d 1a f1 7d bc 93 c3 2e 3f
       -0.7275444 0.07254708 -0.015499378 0.6826717
0002a0 bb bb 12 be 5f 1d a7 bd e4 df e5 bd 17 83 6f 3e
       -0.14329426 -0.08159899 -0.112243444 0.2338985
0002b0 b0 44 56 be a0 49 18 bf 6e f3 2e 3e 1c f7 41 bd
       -0.2092464 -0.5948734 0.17085049 -0.047354802
0002c0 4e ff e5 be 9b 75 c4 bd 07 59 ce 3e 96 ca 95 be
       -0.44921345 -0.09592744 0.40302297 -0.29256123
0002d0 95 03 46 3c 19 32 9c be 13 b4 16 3f bd 23 28 be
       0.012085815 -0.3050697 0.5886852 -0.16419883
0002e0 c0 ff 9a be d4 5a ef 3d 8c 04 20 3e 02 57 4a 3e
       -0.30273247 0.11687246 0.15626734 0.19759753
0002f0 7c a7 1e 3e 43 31 33 3e 6f e4 69 3e 84 87 a5 3e
       0.15493578 0.1749926 0.22841047 0.32329953
000300 e7 5b b5 3e a7 8a a6 bf e0 74 c4 3d 22 e4 2e 3f
       0.35421678 -1.3011063 0.09592605 0.68316853
000310 3d 83 07 bf 77 21 5c 3f 1f 7c 84 be b5 28 87 be
       -0.5293463 0.85988563 -0.25875947 -0.26398245
000320 84 01 e3 3c 86 c3 78 be 1d d1 a0 3e 21 59 cc 3d
       0.027710684 -0.24293336 0.3140954 0.099779375
000330 ed 84 d9 3e 2c 3c 93 be e3 20 0f be 07 79 89 3e
       0.42484227 -0.28756845 -0.13977389 0.2685015
000340 c2 bb 0f bd 88 45 e7 bd f7 c5 ef 3e 4e e1 3a 3d
       -0.03509117 -0.11292559 0.46830723 0.045625024
000350 b5 ec da 3d 46 30 9c 3e ab b8 3b 3d 61 2b 94 be
       0.106896795 0.3050558 0.04583041 -0.28939345
000360 7e 20 82 3e 6a 1d dc bd b3 6e 61 bd 13 f9 61 3e
       0.25415415 -0.10747798 -0.05503721 0.2206767
000370 a2 96 9c be 18 6d 3c bf 60 ef 0c bf a2 70 b4 be
       -0.30583674 -0.73603964 -0.5505276 -0.35242182
000380 b8 f3 ff 3e 61 30 4b 3f 78 db 9f 3e 46 89 0d bf
       0.4999063 0.79370695 0.3122213 -0.5528759
000390 ed 86 38 3f 0d 3c 17 3e 4a 31 58 3e a4 72 56 bf
       0.7208088 0.14769001 0.21112552 -0.8376868
0003a0 fe 08 5e 3e 0e 2f 7a be ff 2b 45 bf 69 21 85 3e
       0.21683118 -0.24432012 -0.7702026 0.26002052
0003b0 1c 04 9a be 20 92 37 be 7a 1b 0f 3e c3 63 a4 3b
       -0.3008126 -0.17926836 0.13975325 0.0050167753
0003c0 82 91 bb 3e b6 ea c1 3e 22 4c fe 3d e9 35 3a bf
       0.3663445 0.37874383 0.12416865 -0.7273851
0003d0 db af df 3d 93 f1 ee bd b3 90 d0 be 4c ac 6c 3f
       0.10922214 -0.116671704 -0.40735397 0.92450404
0003e0 e2 3b 00 3f 5c 0b 42 bc d0 75 ea 3e 6a e2 44 3e
       0.50091374 -0.011843529 0.4579301 0.19226995
0003f0 cc 89 2e bf 94 9d 69 bf d3 a4 3f 3e 63 25 de 3d
       -0.6817901 -0.9125607 0.18715219 0.10846975

target_network.h2.transform.bias f4 [20]
000000 84 72 e7 bd c2 c9 e0 bd 8c 83 0c be ec e6 1f be
       -0.11301139 -0.10975982 -0.13722056 -0.15615433
000010 58 ed 4e be 0e 50 49 be c9 e5 09 be 5e 56 2a be
       -0.20207727 -0.19659445 -0.13466562 -0.16634509
000020 14 b3 24 bc 37 91 94 3d c4 bd c1 bb 50 b6 07 3e
       -0.010052461 0.0725426 -0.0059125144 0.1325314
000030 60 d4 50 3e 6d 64 fe bc 22 ec 00 3e 00 00 00 00
       0.20393515 -0.031053746 0.12590078 0.0
000040 0c 22 1a be 82 e8 70 be 0f 9e 1b 3d 5e 72 34 be
       -0.1505205 -0.23526195 0.037992533 -0.17621753

target_network.h3.transform.weight f4 [20, 20]
000000 d5 a7 92 3c bc 11 c3 bd f3 1e 15 3f 36 dc 78 bc
       0.017902294 -0.09524867 0.5825035 -0.015189221
000010 b5 a4 cb 3d 0b 0a 1a bf f0 f7 fa be d6 1d 86 3e
       0.09943525 -0.60171574 -0.49017286 0.26194638
000020 e6 c2 7e 3e 66 4a 87 be 17 70 e9 bd 17 fe 84 3d
       0.24879035 -0.2642395 -0.113983326 0.06493776
000030 2c 35 ba be 8e cb 02 bf 65 ed 02 3e f0 a1 df be
       -0.36368692 -0.5109185 0.12785871 -0.43678236
000040 fe 06 19 be bb 3c 8b be 42 b0 0f bf 11 c9 af bd
       -0.14944074 -0.2719477 -0.56128323 -0.08583272
000050 9b a3 2e be 82 07 02 bf c6 4a 02 be 1c e7 c7 bd
       -0.17054598 -0.50792706 -0.12723836 -0.097608775
000060 59 96 01 be d6 95 18 3e 87 bd 57 3f d8 24 da bd
       -0.1265501 0.14900908 0.8427357 -0.10651559
000070 5e b7 07 bd fe f8 90 be e2 db 09 be 7b b5 2c 3f
       -0.033133857 -0.28314966 -0.13462785 0.6746442
000080 82 dd a2 be 6d 2f ea bd 41 b4 65 be 15 f9 97 bc
       -0.31809622 -0.11434827 -0.22432043 -0.018551389
000090 c9 7e 66 be 67 9a 38 3e 18 ef d4 be 72 60 c7 3e
       -0.22509302 0.1802765 -0.41588664 0.3894077
0000a0 f5 4b c1 3e af 65 25 3e d2 47 b2 bd 18 8b 05 3c
       0.37753263 0.1615207 -0.08705105 0.008150838
0000b0 39 e1 e1 be 80 a4 52 bd 35 3a 17 3e 55 a3 2b 3f
       -0.44117144 -0.05142641 0.14768298 0.670461
0000c0 fe dd cb 3e 20 48 3f 3f df 1a 45 be d5 d9 9b 3d
       0.39817804 0.7471943 -0.19248532 0.076099075
0000d0 1e f2 25 3f da cf c2 3e a8 02 0c 3f 12 8d f7 be
       0.64822567 0.38049203 0.54691553 -0.48349816
0000e0 dd 02 ca 3d 1c 20 fe 3e 95 d5 9a 3e 8b 8c be bd
       0.098638274 0.49633873 0.30241075 -0.0930415
0000f0 eb 58 e5 3d c0 58 ef 3e dd 8e 99 3e d1 02 a8 be
       0.111986004 0.46747398 0.2999181 -0.3281465
000100 62 44 c3 3e 80 fe 10 ba 68 85 58 3e e2 43 04 bd
       0.3813811 -0.00055310875 0.2114464 -0.0322913
000110 a9 2a f1 bd 02 d7 a0 be 0d ae 7e 3e 15 d3 c7 3d
       -0.11775715 -0.31414038 0.24871083 0.097570576
000120 bb b4 92 3e fe 7c 02 3f 50 af 45 3e 4e ef 0c bd
       0.2865351 0.5097197 0.19305158 -0.034407906
000130 07 50 87 be 80 d5 81 bb 70 fe 14 3f 5f 0e 58 be
       -0.26428244 -0.0039622188 0.5820074 -0.21099232
000140 47 d9 c6 3c 4a 6b 47 3e 66 84 89 be d3 05 b9 bd
       0.024273528 0.19474521 -0.26858824 -0.09034314
000150 ec 2a a2 be 2c 68 dc be 00 1e 61 3d 25 c4 0b bf
       -0.31673372 -0.43048227 0.05496025 -0.5459617
000160 ff ef 27 3f f7 15 3b be 48 c2 79 3e 99 d4 cf be
       0.6560058 -0.18270098 0.24390519 -0.40591887
000170 fe 85 1b bf 6e cc 1c bf 89 17 66 be 1f 9a bb 3d
       -0.6075133 -0.61249435 -0.22469915 0.09160256
000180 c2 70 ba 3e 3b 68 c7 bd a8 36 fe 3d d0 2f a1 3d
       0.36414152 -0.09736677 0.124127686 0.07870448
000190 51 6b 9a bc 5f 38 4e 3f 3d be fa 3e 3d 47 a7 3e
       -0.01885 0.80554765 0.48973265 0.32671538
0001a0 a8 1a 16 bd 7c 6f 3f be 4e cf 20 3f 79 79 39 be
       -0.036646515 -0.18694872 0.6281632 -0.18112744
0001b0 34 40 34 bc 6a 70 3d 3e eb 78 32 3d 90 be 58 bc
       -0.011001635 0.18499914 0.043572348 -0.013229027
0001c0 f1 fb 98 3e bf 2b c8 be d9 c3 66 3e 3b d4 58 3d
       0.29879716 -0.39095876 0.22535647 0.052936774
0001d0 54 23 5b bd d2 b6 fb 3d 78 3a 3d be ed af 51 3e
       -0.05350049 0.122907296 -0.18479335 0.20477267
0001e0 e0 46 2c 3c 0f 13 86 be 32 49 1b 3f f6 5e cd be
       0.010514945 -0.26186416 0.6065856 -0.40111512
0001f0 8d a3 95 be e8 ea 7a 3e e5 b8 10 bd 58 11 36 3d
       -0.29226342 0.24503672 -0.03533258 0.044450134
000200 93 93 c7 bd 32 69 76 3e 4b 8b 92 3e d9 76 94 bd
       -0.097449444 0.24063566 0.28621897 -0.07249231
000210 3d c4 8a bf 20 bd 29 3e f1 70 10 3b 06 d4 06 3e
       -1.0841137 0.16576052 0.0022039975 0.13166818
000220 4e b3 0b be 08 a6 72 be 25 57 f0 3d e2 d1 7d 3e
       -0.13642618 -0.23696148 0.117353715 0.24787095
000230 76 3b 9a 3e c6 e2 1c be 64 f6 32 3e 79 4e 95 3e
       0.3012349 -0.15320882 0.17476803 0.29161432
000240 e1 4e e6 bd 53 68 34 bf 54 8b 8c 3e 5a 3d 5b bd
       -0.11245514 -0.70471686 0.2745005 -0.053525306
000250 05 82 12 bf 37 5e 5f bd 60 71 1b bf f0 70 84 3e
       -0.57229644 -0.05453321 -0.6071987 0.25867414
000260 c2 f4 0c be db 24 96 3e 9e c7 15 bf 83 ea b6 bd
       -0.13765243 0.29324993 -0.58507717 -0.08931448
000270 3b cc 15 3f f5 4d 86 be ba b9 62 3e 6d b0 94 3d
       0.58514756 -0.26231351 0.22141162 0.07260213
000280 4b 31 f0 3e 4e 69 a1 be c7 78 49 be e0 b9 8f 3d
       0.46912608 -0.31525654 -0.19674979 0.07017875
000290 27 09 12 3f e6 52 15 bd 40 c6 13 3e f7 e7 be 3e
       0.57045215 -0.03645601 0.14431095 0.3728635
0002a0 28 3f a1 3e e2 7f ac be a7 cf 27 3f ff f4 22 be
       0.31493497 -0.33691317 0.6555123 -0.15913771
0002b0 b6 e1 85 be 38 8d 9d 3e d2 51 90 be 88 84 cc 3e
       -0.26148766 0.30771804 -0.28187424 0.39944863
0002c0 0f 0d 84 3e 8a 72 97 3e e6 d4 98 be 8e 86 05 3e
       0.25791213 0.29579574 -0.2984993 0.1303961
0002d0 a5 0b b2 bd e2 d8 0f 3e a8 51 c4 bd 4b 2b 8b be
       -0.08693627 0.14047578 -0.09585887 -0.27181467
0002e0 b0 ee 5e 3e 22 82 af 3e d6 54 a2 bc 79 33 3e 3e
       0.2177074 0.3427897 -0.019815844 0.18574323
0002f0 44 9e c6 3d 65 08 e3 be 43 1a 36 be 01 65 05 3c
       0.096981555 -0.44342342 -0.17783456 0.008141757
000300 2c e6 38 3e 23 74 bc be c6 0d 69 bd a7 b9 23 bf
       0.18056554 -0.36807355 -0.0568979 -0.6395516
000310 40 40 fa 3e 17 ce 84 be 8e 0f 9b 3e ba 2e 1a 3f
       0.48877144 -0.25938484 0.30285305 0.6022755
000320 d0 01 5b 3e 50 86 90 be ec ee ce 3c df b4 4b bf
       0.2138741 -0.28227472 0.025260411 -0.7957286
000330 ac 1e c0 3e 10 a0 d9 be 7a 9a 2b 3e 79 1c f3 be
       0.375234 -0.4250493 0.16758147 -0.4748266
000340 24 a9 e1 bd e4 28 91 3e 30 6b f2 bb 79 c9 d8 be
       -0.11018589 0.2835151 -0.0073980317 -0.4234121
000350 6f 91 a6 3e bb 6e 64 be 00 b0 b8 bd e6 e3 ce be
       0.32532832 -0.22307865 -0.09017944 -0.40408248
000360 58 13 b9 bc c6 ab 4d 3e 3a b9 c0 bd e3 39 a0 ba
       -0.022592232 0.20085058 -0.09410329 -0.0012224283
000370 f8 f7 fc 3d ac 38 c4 3d 54 fa be 3e 4e 4b dc be
       0.12351984 0.09581122 0.3730036 -0.43026203
000380 57 4d 4b 3d 7b c2 15 be 5b 6b 23 3c 7e d3 a6 3e
       0.049634304 -0.1462497 0.009974326 0.3258323
000390 d7 6a cc 3e 08 ec ab bd f6 4c 3a bf df 07 e1 bd
       0.39925262 -0.08394629 -0.72773683 -0.109878294
0003a0 79 6e af 3d 32 2c 8a be b5 c0 68 bd 11 57 53 3f
       0.08565993 -0.26986843 -0.056824405 0.8255473
0003b0 b7 3a c1 bc 7e 2b 6f 3c 70 03 e8 3d 5f 4c 3e 3e
       -0.023587568 0.014597772 0.11328781 0.18583821
0003c0 12 fd 3b 3e 77 af d4 be 86 e7 4b 3e 4b 85 a6 3c
       0.18358257 -0.4154012 0.19912538 0.02032723
0003d0 18 f1 c8 be b5 1c 86 bd 30 0f 33 3d b5 84 83 3d
       -0.3924644 -0.06548444 0.043715656 0.06421796
0003e0 b9 ad 69 be 81 e6 2a bf 98 7b 0c 3f ce c4 4b 3c
       -0.22820176 -0.6675797 0.5487609 0.012437059
0003f0 d9 93 fb 3e 09 90 08 bf c2 26 9c be 4f 1b 62 3e
       0.49136236 -0.5334478 -0.3049832 0.2208073

target_network.h3.transform.bias f4 [20]
000000 64 80 41 be f1 a5 83 3e 02 16 ab bd d7 b5 cd bd
       -0.18896633 0.2571254 -0.08353807 -0.10044449
000010 a3 ea 0c be f6 b1 70 be f4 4c d1 bc 60 bb 1d be
       -0.13761382 -0.23505387 -0.02554939 -0.15403509
000020 ea 7f aa 3c 5f 07 d5 bd 0a 22 2d bd 00 00 00 00
       0.020812947 -0.104017965 -0.04226879 0.0
000030 26 c6 67 be 2e 84 b1 be 00 00 00 00 00 a8 15 be
       -0.22634181 -0.34671158 0.0 -0.14614868
000040 c6 e1 e8 bd a4 95 ba 3d 2f 1d 97 be ef 77 fb bd
       -0.11371188 0.09110573 -0.29514453 -0.12278735

target_network.critic_linear.weight f4 [1, 20]
000000 b0 9f 61 be 4d 0a c5 be ae b0 cf be ae 7f 2c be
       -0.22033572 -0.3848442 -0.40564483 -0.16845581
000010 72 26 d1 be 16 52 05 3e ee 4e 82 3e f4 ae 07 3f
       -0.40849644 0.13019595 0.25450844 0.5300133
000020 4d f1 10 3f 04 50 4c 3e 03 ff 40 3d a0 2d dc 3c
       0.56618196 0.19952399 0.047118198 0.026877224
000030 c8 a8 a0 be 22 a6 6e bd 57 0d 2c bf 40 fb 2b bd
       -0.3137877 -0.058263905 -0.67207855 -0.041987658
000040 4f 04 ca bc 72 7a 8c be 6b 1f 9c 3e fc 5b 22 3e
       -0.024660258 -0.27437168 0.3049272 0.15855402
