pz_risk/mini_0/60.pt (torch, 18513 bytes, 26 tensors)

policy_network.emb1.transform.weight f4 [20, 2]
0	0x3e0ad615	0.13558228
1	0x3f0c659c	0.54842544
2	0x3d6a5a2c	0.0572149
3	0xbf1aa815	-0.6041272
4	0xbbf13fde	-0.00736235
5	0xbea9be48	-0.33152986
6	0xbe303e94	-0.17211372
7	0xbeaad970	-0.33369017
8	0xbd572cfd	-0.05253314
9	0x3e832a41	0.25618175
10	0xbf1c2ebc	-0.6100881
11	0x3eccb4a7	0.39981577
12	0xbe501a9a	-0.20322648
13	0xbd8ecd33	-0.069727324
14	0xbe9340f1	-0.28760484
15	0xbe90d0c1	-0.28284267
16	0x3e4819ba	0.19541064
17	0x3eb5cb37	0.35506603
18	0xbd53d158	-0.051713318
19	0x3e671f4c	0.22570533
20	0xbe15ba4d	-0.1462185
21	0x3cceee35	0.02526007
22	0xbb1dc980	-0.0024076402
23	0x3f20a0f7	0.6274561
24	0x3e873c4b	0.26413187
25	0xbec04f4a	-0.37560493
26	0xbe9839c4	-0.29731572
27	0x3e9761e6	0.29566878
28	0x3e8c43bc	0.27395427
29	0x3eb46b54	0.35238135
30	0xbf3ee9a2	-0.74575245
31	0x3e764696	0.24050364
32	0xbf1b5ac9	-0.606854
33	0xbe6b58c6	-0.22983083
34	0xbeda7f61	-0.42675307
35	0xbec64ecd	-0.38731995
36	0xbd62a160	-0.05532968
37	0x3d9a7e11	0.075435765
38	0xbe9e32ad	-0.30898038
39	0xbe9877c6	-0.2977888

policy_network.emb1.transform.bias f4 [20]
0	0x3dce1ac1	0.10063697
1	0xbc616cce	-0.013758851
2	0x00000000	0.0
3	0x00000000	0.0
4	0xbe3e15ca	-0.18563
5	0xbdc0fdc5	-0.09423403
6	0x00000000	0.0
7	0x00000000	0.0
8	0x3da6c888	0.08143717
9	0xbe011c5a	-0.12608472
10	0x00000000	0.0
11	0x3e366eb4	0.17815667
12	0xbe078b32	-0.13236693
13	0xbd4c2ce6	-0.049847506
14	0x3dabae06	0.08382802
15	0x00000000	0.0
16	0x00000000	0.0
17	0x00000000	0.0
18	0xbcc4fd83	-0.024046665
19	0x00000000	0.0

policy_network.emb2.transform.weight f4 [20, 2]
0	0xbe44cb2c	-0.19218129
1	0x3f38356f	0.71956533
2	0xbdaec659	-0.085339256
3	0x3ea624f7	0.32450077
4	0xbe928e19	-0.28624037
5	0x3d038d6d	0.032117296
6	0xbd470daa	-0.048597015
7	0xbdd237d0	-0.10264552
8	0x3eacabea	0.3372491
9	0xbe7f6d37	-0.24944006
10	0xbe7118de	-0.23544642
11	0x3e97a46e	0.29617637
12	0x3dce0757	0.10059994
13	0xbd17759c	-0.036977395
14	0xbf04cee1	-0.5187817
15	0x3f3798e1	0.7171765
16	0xbf0f2684	-0.55918145
17	0x3f313714	0.6922467
18	0x3eae6a64	0.34065545
19	0xbe53d3c5	-0.20686252
20	0x3c8432d8	0.016137525
21	0xbf277c1a	-0.6542374
22	0xbf5db806	-0.8660892
23	0xbe3cc72c	-0.18435353
24	0xbd587fbe	-0.0528562
25	0x3d691151	0.05690128
26	0xbeab47cd	-0.33453217
27	0x3e778f93	0.24175863
28	0xbe9a4f5d	-0.30138674
29	0x3f8514f7	1.0397023
30	0xbf019882	-0.50623333
31	0x3f127cba	0.5722157
32	0xbf1958ce	-0.5990113
33	0x3dd36727	0.10322409
34	0x3df2457f	0.118296616
35	0xbf0aea35	-0.5426362
36	0xbdba2cc1	-0.090905674
37	0xbdf88c61	-0.1213615
38	0x3d168fb8	0.036758155
39	0x3d43f114	0.047837332

policy_network.emb2.transform.bias f4 [20]
0	0xbde3c5a3	-0.111216806
1	0xbe536308	-0.20643246
2	0x00000000	0.0
3	0x00000000	0.0
4	0xbe2c965b	-0.16854231
5	0xbe36ee8f	-0.1786444
6	0xbd6489d3	-0.055795502
7	0xbcbf9f5c	-0.023391418
8	0xbc3ad405	-0.011403088
9	0xbe4f434c	-0.20240515
10	0xbe063b40	-0.1310854
11	0x00000000	0.0
12	0xbd08f6b1	-0.03343839
13	0xbe26f3ff	-0.16304015
14	0xbe1d38a5	-0.1535364
15	0xbad964b0	-0.0016585793
16	0x00000000	0.0
17	0xbd5b5f25	-0.053557534
18	0x00000000	0.0
19	0xbd793d08	-0.06084922

policy_network.emb3.transform.weight f4 [20, 2]
0	0xbf062367	-0.5239777
1	0xbe5e36bc	-0.21700567
2	0xbe96de02	-0.29466254
3	0xbd5285a7	-0.051396992
4	0xbe81d0de	-0.25354666
5	0xbd6c03a8	-0.057620674
6	0x3ef5d1a9	0.4801152
7	0x3e1da83c	0.15396208
8	0x3d073452	0.03300888
9	0x3e144316	0.14478716
10	0xbf0e9f98	-0.5571227
11	0x3eb6d141	0.35706523
12	0x3d893dae	0.067012176
13	0x3eb6a16c	0.3567003
14	0x3d3742be	0.044741385
15	0xbe4f00d1	-0.20215155
16	0xbf3f6f95	-0.74779636
17	0x3f1948d1	0.59876734
18	0x3d883539	0.066507764
19	0xbe8be247	-0.27321073
20	0xbd8a33c3	-0.06748154
21	0xbecda1ac	-0.40162408
22	0xbf1d6630	-0.6148405
23	0x3e84bdbd	0.2592601
24	0xbc360a22	-0.011110814
25	0x3d651a35	0.055933196
26	0x3f09a66c	0.53769565
27	0x3e74091d	0.23831601
28	0xbe513305	-0.20429619
29	0xbe108e5c	-0.14116806
30	0xbf23abca	-0.63934004
31	0x3e311d6f	0.17296384
32	0x3f49a0aa	0.7876078
33	0xbe1929f5	-0.14957412
34	0x3dac69b9	0.084186025
35	0xbe6425d6	-0.22280058
36	0xbcf0ac08	-0.029378906
37	0x3d748624	0.05969824
38	0x3e5dbc35	0.21653827
39	0x3d648a93	0.055796217

policy_network.emb3.transform.bias f4 [20]
0	0x00000000	0.0
1	0x00000000	0.0
2	0x00000000	0.0
3	0xbe1264a9	-0.14296211
4	0xbe78c71c	-0.24294704
5	0xbd5a9f5c	-0.053374633
6	0xbdb9e983	-0.09077742
7	0xbcd4ba3e	-0.025967713
8	0xbb8aa473	-0.0042310297
9	0xbc999578	-0.01874803
10	0x00000000	0.0
11	0xbdc6ee21	-0.09713388
12	0xbd3e8454	-0.046512917
13	0x3bc4c6f4	0.0060051624
14	0x00000000	0.0
15	0x3e3e8215	0.1860431
16	0xbe0d845d	-0.13820024
17	0xbe0df474	-0.13862783
18	0xbe1153a4	-0.14192063
19	0xbe402361	-0.18763496

policy_network.emb4.transform.weight f4 [20, 2]
0	0x3dd8378e	0.10557471
1	0x3e2bb4f0	0.16768241
2	0x3d7fed29	0.062482033
3	0xbe5329a7	-0.20621358
4	0x3e6b1a61	0.22959282
5	0x3dca54ef	0.09879481
6	0xbeecf03a	-0.46277028
7	0x3e8f515b	0.27991757
8	0x3e385a93	0.18003301
9	0xbe6d66f0	-0.23183799
10	0x3e16b0b7	0.14715849
11	0x3edcbb56	0.43111676
12	0x3e570eaf	0.21001695
13	0xbd4da629	-0.05020729
14	0xbe573284	-0.21015364
15	0xbe834f4b	-0.25646433
16	0xbe9ade3f	-0.30247685
17	0xbeba1a76	-0.36348313
18	0xbf1007a1	-0.5626164
19	0x3e587552	0.21138504
20	0xbc8c9b68	-0.017163947
21	0xbeb83797	-0.35979912
22	0x3e43bfc7	0.19116126
23	0x3e838d61	0.256938
24	0xbd63c82d	-0.055610824
25	0x3d33846a	0.04382745
26	0x3ca6cc6a	0.020361144
27	0x3d2cc28a	0.042177714
28	0xbf0fe573	-0.56209487
29	0x3ec520c0	0.3850155
30	0x3e977a3a	0.2958544
31	0xbf0ea317	-0.55717605
32	0x3de9822e	0.11401783
33	0x3c64e884	0.013971452
34	0xbf5c0e97	-0.8595976
35	0x3f190e57	0.59787506
36	0xbf4da341	-0.8032723
37	0x3e30d0ce	0.17267153
38	0xbf050323	-0.5195791
39	0xbf02bd98	-0.5107055

policy_network.emb4.transform.bias f4 [20]
0	0x3bd2c2fa	0.0064319344
1	0xbcacc93d	-0.021092052
2	0xbe90fe14	-0.28318846
3	0xbe5a8ece	-0.21343538
4	0xbdd856e9	-0.10563452
5	0x3db078d1	0.08616794
6	0xbcc82f54	-0.02443663
7	0x00000000	0.0
8	0x00000000	0.0
9	0x3dd96a9e	0.10616039
10	0x00000000	0.0
11	0x3e47bd68	0.19505847
12	0xbd6040d5	-0.05474933
13	0xbd6c1c63	-0.05764426
14	0x3d03075f	0.03198945
15	0xbe11bd9c	-0.14232486
16	0xbe036a37	-0.12833486
17	0x3d63bbc7	0.055599
18	0x00000000	0.0
19	0x00000000	0.0

policy_network.h2.transform.weight f4 [20, 20]
0	0x3caf1480	0.02137208
1	0xbdaa698e	-0.08320914
2	0xbea31efe	-0.31859583
3	0x3cf1a704	0.029498585
4	0x3b49eba0	0.003081061
5	0x3ee9587a	0.45575315
6	0xbf35fd64	-0.7108977
7	0xbf2772f7	-0.654098
8	0xbe64bf97	-0.2233871
9	0xbe739820	-0.237885
10	0x3ec60153	0.38672885
11	0x3e2db06d	0.16961832
12	0x3dc49ba1	0.09599996
13	0x3d6a82c3	0.05725361
14	0xbe597808	-0.21237195
15	0xbe6ea260	-0.23304129
16	0xbeda6516	-0.42655247
17	0xbe0fabda	-0.140304
18	0xbea97876	-0.33099717
19	0xbefa1d01	-0.48850253
20	0x3d543b91	0.05181462
21	0x3d135041	0.035965208
22	0xbecb8167	-0.39747164
23	0x3e67c708	0.22634518
24	0x3b9b1b40	0.004733473
25	0xbf299fae	-0.66259277
26	0x3e0dc266	0.13843688
27	0xbee45a51	-0.44600156
28	0xbf267bd9	-0.65032727
29	0x3eca3c3e	0.39499086
30	0x3d9a507d	0.07534883
31	0xbe44132b	-0.19147937
32	0xbe8d984c	-0.27655256
33	0xbee40fd9	-0.4454334
34	0xbef85030	-0.48498678
35	0xbe7e7bd8	-0.2485193
36	0xbe5e427f	-0.21705054
37	0xbc465ce1	-0.012107105
38	0xbe76578f	-0.24056838
39	0x3d23ac23	0.039959084
40	0xbee82096	-0.4533736
41	0x3c862545	0.016375193
42	0xbeaa446c	-0.33255327
43	0xbf01021d	-0.5039385
44	0xbea46cea	-0.32114345
45	0xbe07f8ab	-0.13278453
46	0xbed4c2fd	-0.41555014
47	0x3e0f2052	0.13977173
48	0x3e015606	0.12630472
49	0x3e6662e1	0.22498657
50	0x3ccb66b5	0.024829248
51	0xbd9ad853	-0.07560792
52	0x3e82a599	0.25516966
53	0xbe4c0e49	-0.19927324
54	0x3dff4fb6	0.124663755
55	0xbedc6057	-0.4304225
56	0x3ed0abb2	0.40755993
57	0xbe3fdae0	-0.18735838
58	0xbf330111	-0.699235
59	0x3eaad38a	0.33364516
60	0xbe27cb0a	-0.16386047
61	0xbd652635	-0.05594464
62	0x3e7e39d4	0.24826747
63	0xbe4a4189	-0.19751562
64	0x3e6d4003	0.2316895
65	0x3e64b730	0.22335505
66	0xbee0a0ee	-0.4387278
67	0x3dee5dac	0.1163896
68	0xbe64f0b0	-0.2235744
69	0x3f48024a	0.7812849
70	0xbe81364a	-0.25236732
71	0x3eb23636	0.34806985
72	0xbdc03218	-0.093845546
73	0xbdd35a98	-0.10320014
74	0xbf2c8dea	-0.67404044
75	0xbe6e9e4a	-0.2330257
76	0xbe10a297	-0.14124523
77	0xbebb7c46	-0.3661825
78	0x3de7c29d	0.113164164
79	0xbc8938ce	-0.01675072
80	0xbe1047ee	-0.14089939
81	0xbf15148f	-0.58234495
82	0xbef7968b	-0.48357043
83	0x3e6d44ba	0.23170748
84	0xbf1be997	-0.60903305
85	0xbd99a118	-0.07501429
86	0xbefdb6b6	-0.4955346
87	0x3e0c174b	0.1368076
88	0x3e880464	0.2656585
89	0x3ec14300	0.3774643
90	0x3e9e3bc4	0.30904973
91	0xbdda5008	-0.10659796
92	0xbe5ad239	-0.21369256
93	0x3d9a5d69	0.07537348
94	0xbef47eae	-0.477529
95	0x3e93e39c	0.2888459
96	0xbd208921	-0.039193276
97	0x3ed57d92	0.41697365
98	0x3ebd10b0	0.36926794
99	0x3e061c86	0.13096818
100	0xbd02691f	-0.031838533
101	0x3e5da2ec	0.21644181
102	0xbd4652b2	-0.04841871
103	0x3f000a48	0.5001569
104	0xbd90bb0a	-0.07066925
105	0x3eca1650	0.39470148
106	0xbeb581d6	-0.3545062
107	0xbde88631	-0.1135372
108	0xbea89ac7	-0.32930586
109	0x3cd9dd74	0.026594855
110	0x3cd45860	0.025921047
111	0xbf2274f6	-0.6345972
112	0xbe8437f6	-0.25823945
113	0xbedf8734	-0.4365784
114	0x3e887626	0.2665264
115	0xbe72b716	-0.23702654
116	0x3ea85683	0.32878503
117	0xbe981689	-0.29704693
118	0x3e0736b7	0.13204466
119	0xbe3354e2	-0.17512849
120	0xbaba4084	-0.0014209901
121	0xbe7e523c	-0.24836057
122	0xbee520a7	-0.44751474
123	0x3ef4a556	0.4778239
124	0x3d9eafed	0.07748399
125	0xbcfc556a	-0.030802447
126	0xbe6c1778	-0.23055828
127	0x3ec8d165	0.39222255
128	0x3eb5f167	0.35535738
129	0xbf11534f	-0.56767744
130	0xbf0a91b8	-0.541286
131	0x3e809b42	0.25118452
132	0xbe004544	-0.12526423
133	0xbee6ee78	-0.45103812
134	0xbef42984	-0.47687924
135	0xbe84e78b	-0.25957903
136	0xbe4e6f84	-0.20159727
137	0xbe4265be	-0.18984124
138	0xbe580581	-0.2109585
139	0x3d5ccaec	0.05390446
140	0xbeb72c7f	-0.35776135
141	0xbdadc8f7	-0.084855966
142	0xbe8bf5fa	-0.27336103
143	0xbd2d704c	-0.042343423
144	0x3ce407e0	0.027835786
145	0xbeec0953	-0.46100864
146	0x3d458871	0.048225824
147	0xbed6ccfd	-0.4195327
148	0x3ec3dec9	0.3825591
149	0x3de54be5	0.11196116
150	0x3d1b6c12	0.03794486
151	0x3e1ad92b	0.15121906
152	0xbdd2a02f	-0.10284459
153	0xbeaebc33	-0.3412796
154	0xbdc309e4	-0.09523371
155	0xbdcf8a7a	-0.10133834
156	0x3ef530c3	0.47888765
157	0xbe95c23b	-0.2924975
158	0x3e9185d9	0.2842243
159	0xbf69de2b	-0.91354626
160	0x3f19bb2d	0.6005123
161	0xbf18b2f7	-0.5964808
162	0xbdb706d1	-0.08936847
163	0xbf5ed91c	-0.8705003
164	0xbf18cdcc	-0.5968902
165	0x3d36c77c	0.044623837
166	0x3ccc3b0f	0.024930505
167	0x3f5c089f	0.85950655
168	0xbe0edd67	-0.13951646
169	0xbdad9844	-0.08476308
170	0xbde5dfe4	-0.112243444
171	0x3e7841bc	0.24243826
172	0xbe489c6a	-0.19590917
173	0xbf3d2fa1	-0.739008
174	0x3e3e06fd	0.18557353
175	0xbce9cbd4	-0.028539576
176	0xbf5db882	-0.8660966
177	0xbd437f05	-0.047728557
178	0x3ece5907	0.40302297
179	0xbe93b373	-0.28847846
180	0x3d151bbc	0.036403403
181	0xbea56f5a	-0.32311517
182	0x3f1798df	0.5921764
183	0xbe95b411	-0.29238942
184	0xbe40ea6b	-0.18839423
185	0x3e0d93d5	0.13825925
186	0x3e7f6364	0.24940258
187	0x3e9bbf88	0.30419564
188	0x3e49e6f0	0.19717002
189	0x3e4a5a96	0.19761118
190	0x3e69e46f	0.22841047
191	0x3ec1cd54	0.37851965
192	0x3ec1b1b5	0.37830892
193	0xbfb6288d	-1.4231125
194	0x3e16dbfb	0.14732353
195	0x3f3a1c58	0.726995
196	0xbf383ea8	-0.71970606
197	0x3f6879ce	0.9081086
198	0xbe847c1f	-0.25875947
199	0xbe828792	-0.25494057
200	0xbc88b3b2	-0.016687248
201	0xbe984250	-0.29738092
202	0x3e8ff9ff	0.2812042
203	0x3d7388e3	0.059456717
204	0x3ed74b72	0.42049748
205	0xbec7ed46	-0.39048213
206	0xbe112c35	-0.1417702
207	0x3e3cfb4b	0.18455236
208	0xbe489244	-0.19587046
209	0x3d8d51ec	0.06900391
210	0x3ebdd6ac	0.37077844
211	0x3c3453e2	0.011006327
212	0x3dbc2d52	0.09188332
213	0x3ebc9197	0.36829826
214	0xbd8f84ff	-0.07007789
215	0xbf01c5fb	-0.5069272
216	0x3e9555fd	0.29167166
217	0x3dc269e6	0.09492855
218	0xbd616eb3	-0.05503721
219	0x3e593503	0.21211629
220	0xbf1f281c	-0.6217058
221	0xbf389365	-0.72099906
222	0xbf0cef60	-0.5505276
223	0xbecac9a6	-0.3960697
224	0x3efb23a0	0.49050617
225	0x3f55e3ff	0.8355102
226	0x3e57bd08	0.21068203
227	0xbf71f073	-0.9450752
228	0x3f6c14d2	0.9221927
229	0xbddddf3a	-0.10833593
230	0x3e58314a	0.21112552
231	0xbf864681	-1.0490266
232	0x3e696879	0.2279376
233	0xbe632ba3	-0.22184615
234	0xbf8b94cb	-1.0904783
235	0x3ecc63f6	0.39920014
236	0xbec103a5	-0.37698093
237	0xbec2b1d7	-0.38026306
238	0x3e0f1b7a	0.13975325
239	0x3bbe51b2	0.0058080787
240	0x3eaa8f42	0.33312422
241	0x3eb7ee43	0.35923967
242	0x3de26cb3	0.11055889
243	0xbf721cc0	-0.9457512
244	0x3e622855	0.22085698
245	0xbe25a7e6	-0.1617733
246	0xbec2c177	-0.38038227
247	0x3f9c8e67	1.2230958
248	0x3efbe446	0.49197596
249	0x3b8e36b0	0.0043400154
250	0x3eea75d0	0.4579301
251	0x3e3a7b29	0.18211044
252	0xbf2f9e3c	-0.6860082
253	0xbf9323e1	-1.1495324
254	0x3e458576	0.19289193
255	0x3e20f8f3	0.15719967

policy_network.h2.transform.bias f4 [20]
0	0xbe0498ca	-0.1294891
1	0xbde0c9c2	-0.10975982
2	0xbe0c838c	-0.13722056
3	0xbe1fe6ec	-0.15615433
4	0xbe4eed58	-0.20207727
5	0xbe498ec3	-0.19683366
6	0xbe09d15a	-0.13458768
7	0xbe252e65	-0.1613098
8	0x3cd55630	0.026042074
9	0x3e2d89e3	0.16947131
10	0x3d5f745f	0.05455434
11	0x3e8b3e2d	0.27195874
12	0x3e732fa8	0.23748648
13	0xbcfb7b1a	-0.030698348
14	0x3e3468ca	0.17618099
15	0x00000000	0.0
16	0xbe35fc02	-0.17771915
17	0xbe70e882	-0.23526195
18	0x3dc95488	0.09830576
19	0xbe5534d8	-0.2082094

policy_network.h3.transform.weight f4 [20, 20]
0	0x3c92a7d5	0.017902294
1	0xbdc311bc	-0.09524867
2	0x3f151ef3	0.5825035
3	0xbc78dc36	-0.015189221
4	0x3dcba4b5	0.09943525
5	0xbf1a0a0b	-0.60171574
6	0xbefaf7f0	-0.49017286
7	0x3e861dd6	0.26194638
8	0x3e7ec2e6	0.24879035
9	0xbe874a66	-0.2642395
10	0xbde97017	-0.113983326
11	0x3d84fe17	0.06493776
12	0xbeba352c	-0.36368692
13	0xbf02cb8e	-0.5109185
14	0x3e02ed65	0.12785871
15	0xbedfa1f0	-0.43678236
16	0xbe1906fe	-0.14944074
17	0xbe8b3cbb	-0.2719477
18	0xbf0fb042	-0.56128323
19	0xbdafc911	-0.08583272
20	0xbd907aa8	-0.07054645
21	0xbf020782	-0.50792706
22	0xbe024ac6	-0.12723836
23	0xbdc7e71c	-0.097608775
24	0xbe019659	-0.1265501
25	0x3e1895d6	0.14900908
26	0x3f57bd87	0.8427357
27	0xbdda24d8	-0.10651559
28	0xbd0119b8	-0.031518668
29	0xbea2593f	-0.31708714
30	0xbe04412c	-0.12915486
31	0x3f3d7de5	0.74020225
32	0xbe9e97ce	-0.30975193
33	0xbef94a93	-0.48689708
34	0x3ecb39f4	0.39692652
35	0xbc97f915	-0.018551389
36	0xbe002394	-0.12513572
37	0x3e389a67	0.1802765
38	0xbebb6cca	-0.36606437
39	0x3ec76072	0.3894077
40	0x3ecf8bea	0.40536433
41	0x3e2565af	0.1615207
42	0xbdb247d2	-0.08705105
43	0x3c058b18	0.008150838
44	0xbee1e139	-0.44117144
45	0xbd52a480	-0.05142641
46	0x3e16db40	0.14732075
47	0x3f2ba355	0.670461
48	0x3ee12a1d	0.43977442
49	0x3f544181	0.8291245
50	0xbe896f45	-0.26842704
51	0x3e2052da	0.15656605
52	0x3f35891d	0.70912343
53	0x3ee9fc14	0.45700133
54	0x3f1eee3c	0.62082267
55	0xbef78d12	-0.48349816
56	0x3e310450	0.17286801
57	0x3efe201c	0.49633873
58	0x3eb83773	0.35979804
59	0xbdbf5cab	-0.09343847
60	0x3e19962a	0.1499869
61	0x3eef58c0	0.46747398
62	0x3e998edd	0.2999181
63	0xbea802d1	-0.3281465
64	0x3ec34462	0.3813811
65	0xba0f662a	-0.0005470241
66	0x3e585d23	0.21129279
67	0xbd04582a	-0.032310642
68	0xbde34e56	-0.11098926
69	0xbe8a32ac	-0.26991785
70	0x3e482c56	0.19548163
71	0x3ddc99a6	0.107714936
72	0x3e9ec96c	0.31013048
73	0x3f01b3a6	0.50664747
74	0x3e6bfbf0	0.23045325
75	0xbd0cef4e	-0.034407906
76	0xbeae0ed4	-0.33995688
77	0xbb81d580	-0.0039622188
78	0x3f1adcfe	0.6049346
79	0xbe555d74	-0.20836431
80	0x3dfe82ed	0.12427316
81	0x3e476b4a	0.19474521
82	0xbe898466	-0.26858824
83	0xbdb905d3	-0.09034314
84	0xbea22aec	-0.31673372
85	0xbedc65ba	-0.4304636
86	0x3d611e00	0.05496025
87	0xbf0bd129	-0.5461603
88	0x3f27efff	0.6560058
89	0xbe3b15f7	-0.18270098
90	0x3e94835e	0.29006475
91	0xbf0a90d4	-0.5412724
92	0xbf1b85fe	-0.6075133
93	0xbf7b739a	-0.9822327
94	0xbe661789	-0.22469915
95	0x3dbb9a1f	0.09160256
96	0x3ead6326	0.33864707
97	0xbdc7683b	-0.09736677
98	0x3dfe36a8	0.124127686
99	0x3db4a070	0.088196635
100	0xbc9a6b51	-0.01885
101	0x3f4e385f	0.80554765
102	0x3efabe3d	0.48973265
103	0x3ea7473d	0.32671538
104	0xbd161aa8	-0.036646515
105	0xbe3f6f7c	-0.18694872
106	0x3f20cf4e	0.6281632
107	0xbe3978db	-0.18112509
108	0xbc344034	-0.011001635
109	0x3e3d706a	0.18499914
110	0x3ceab74c	0.028651856
111	0xbc58be90	-0.013229027
112	0x3e98fbf1	0.29879716
113	0xbec0d0ee	-0.376594
114	0x3e66c3d9	0.22535647
115	0x3d58d43b	0.052936774
116	0xbd5b2354	-0.05350049
117	0x3dfbb6d2	0.122907296
118	0xbe3d3a78	-0.18479335
119	0x3e51afed	0.20477267
120	0xbc29ccc5	-0.010363762
121	0xbe86130f	-0.26186416
122	0x3f1b4932	0.6065856
123	0xbecd5ef6	-0.40111512
124	0xbe95a38d	-0.29226342
125	0x3e7ae8c9	0.24502863
126	0xbd102839	-0.03519461
127	0x3d363162	0.04448069
128	0xbda324f0	-0.0796603
129	0x3e44b968	0.19211352
130	0x3e925661	0.28581527
131	0xbe8f0be8	-0.2793877
132	0xbf8944b6	-1.0724094
133	0x3e38dde4	0.18053395
134	0x3c382d5c	0.011241283
135	0x3e06d406	0.13166818
136	0xbd8af780	-0.06785488
137	0xbe72a608	-0.23696148
138	0x3e031b0f	0.12803291
139	0x3e7aff7d	0.24511524
140	0x3e907199	0.28211668
141	0xbe1ce2c6	-0.15320882
142	0x3e32f664	0.17476803
143	0x3e954e79	0.29161432
144	0xbde64ee1	-0.11245514
145	0xbf346853	-0.70471686
146	0x3e8c8b54	0.2745005
147	0xbd5b3d5a	-0.053525306
148	0xbf128a15	-0.57241946
149	0xbdced21c	-0.10098669
150	0xbf467b9d	-0.7753237
151	0x3f10a0fa	0.5649563
152	0xbe2b500b	-0.16729753
153	0x3e8c5697	0.27409813
154	0xbf0c4e07	-0.5480656
155	0xbdb6ea83	-0.08931448
156	0x3f2f6366	0.68511045
157	0xbe864df5	-0.26231351
158	0x3e4abbed	0.1979825
159	0x3d94b06d	0.07260213
160	0x3edf0669	0.43559578
161	0xbea1694e	-0.31525654
162	0xbe4978c7	-0.19674979
163	0x3d8fb9e0	0.07017875
164	0x3f120927	0.57045215
165	0xbd156094	-0.036469057
166	0x3e13ee09	0.14446272
167	0x3ebef078	0.37292838
168	0x3ea9f219	0.33192518
169	0xbeb64f2a	-0.35607272
170	0x3f32dfc4	0.6987269
171	0xbe8f7d63	-0.2802535
172	0xbe69191d	-0.22763486
173	0x3ebc1d09	0.36740902
174	0xbe8125f5	-0.2522427
175	0x3ecc8488	0.39944863
176	0x3e9f1582	0.31071097
177	0x3e97728a	0.29579574
178	0xbe87fd6f	-0.26560542
179	0x3dff1c6b	0.12456592
180	0xbdb20ba5	-0.08693627
181	0x3e0fd8e2	0.14047578
182	0xbdc451a8	-0.09585887
183	0xbe8b2b4b	-0.27181467
184	0x3e5eeeb0	0.2177074
185	0x3eaf8222	0.3427897
186	0xbca254d6	-0.019815844
187	0x3e3e3379	0.18574323
188	0x3dc69e44	0.096981555
189	0xbee30865	-0.44342342
190	0xbda00257	-0.07812946
191	0x3d282250	0.041048348
192	0x3e38e62c	0.18056554
193	0xbe8a3014	-0.26989806
194	0xbe1dea1e	-0.1542134
195	0xbf23b9a7	-0.6395516
196	0x3f16b9ab	0.58877057
197	0xbe84ce17	-0.25938484
198	0x3e9b0f8e	0.30285305
199	0x3f1a2eba	0.6022755
200	0x3de95aaf	0.1139425
201	0xbe908650	-0.28227472
202	0x3cceeeec	0.025260411
203	0xbf4bb4df	-0.7957286
204	0x3ec01eac	0.375234
205	0xbed9a010	-0.4250493
206	0x3e2b9a7a	0.16758147
207	0xbef31c79	-0.4748266
208	0xbe572c20	-0.21012926
209	0x3e3bf488	0.18355
210	0xbdd54b21	-0.1041472
211	0xbed8c979	-0.4234121
212	0x3e66c564	0.22536236
213	0xbea56850	-0.32306147
214	0xbe42b3d6	-0.19013914
215	0xbecee3e6	-0.40408248
216	0xbcb91358	-0.022592232
217	0x3e4dabc6	0.20085058
218	0xbe46b75b	-0.19405882
219	0xbaa039e3	-0.0012224283
220	0x3dfcf7f8	0.12351984
221	0x3dc438ac	0.09581122
222	0x3ebefa54	0.3730036
223	0xbedc4b4e	-0.43026203
224	0x3d4b4d57	0.049634304
225	0xbe15c27b	-0.1462497
226	0x3c236b5b	0.009974326
227	0x3ea6d37e	0.3258323
228	0x3ecc6ad7	0.39925262
229	0xbdabec08	-0.08394629
230	0xbf3a4cf6	-0.72773683
231	0xbde107df	-0.109878294
232	0x3daf6e79	0.08565993
233	0xbe8a2c32	-0.26986843
234	0xbd68c0b5	-0.056824405
235	0x3f535711	0.8255473
236	0xbcc13ab7	-0.023587568
237	0x3c6f2b7e	0.014597772
238	0x3de80370	0.11328781
239	0x3e3e4c5f	0.18583821
240	0x3e9131b5	0.28358236
241	0xbed4af77	-0.4154012
242	0x3e4be786	0.19912538
243	0x3ca6854b	0.02032723
244	0xbec8f118	-0.3924644
245	0xbd8617f8	-0.065475404
246	0x3d330f30	0.043715656
247	0x3d837139	0.0641808
248	0x3b2a9c42	0.0026033078
249	0xbeb6a9ea	-0.3567651
250	0x3f0187b2	0.5059768
251	0xbda70dfd	-0.08156965
252	0x3f5e571d	0.86851674
253	0xbf2913b5	-0.66045696
254	0xbe069a60	-0.13144827
255	0x3e621b4f	0.2208073

policy_network.h3.transform.bias f4 [20]
0	0xbe418064	-0.18896633
1	0x3eb75791	0.35808995
2	0x3cac8bf0	0.021062821
3	0xbde56e09	-0.11202628
4	0xbe168123	-0.14697699
5	0xbe81a0d6	-0.2531802
6	0xbc92e8d7	-0.017933292
7	0xbe42f680	-0.19039345
8	0x3d21c0f8	0.03949067
9	0xbba99eab	-0.0051763854
10	0xbe11a53b	-0.14223187
11	0x00000000	0.0
12	0xbea4e8dd	-0.3220891
13	0xbec4aa43	-0.3841115
14	0x3e373646	0.17891797
15	0xbe7bdc9f	-0.24595879
16	0xbe4bd591	-0.19905688
17	0x3d85febd	0.06542728
18	0xbe82044c	-0.25393903
19	0xbe4f96bb	-0.20272343

policy_network.critic_linear.weight f4 [1, 20]
0	0xbe619fb0	-0.22033572
1	0xbf0d6d41	-0.55244833
2	0xbf119c82	-0.56879437
3	0xbe14f0f0	-0.14545035
4	0xbf12f8f4	-0.5741112
5	0x3dc5a04c	0.09649715
6	0x3e871ccd	0.2638916
7	0x3f2267fd	0.63439924
8	0x3f1d2c39	0.61395603
9	0x3e99557f	0.2994804
10	0xbd581221	-0.052751664
11	0x3cdc2da0	0.026877224
12	0xbed97e70	-0.42479277
13	0xbb874fe7	-0.004129398
14	0xbf52702f	-0.8220243
15	0x3d6d6eee	0.05796712
16	0x3d9abccd	0.07555542
17	0xbebb932d	-0.36635724
18	0x3f014e71	0.5051032
19	0x3d86c8a5	0.06581239

target_network.emb1.transform.weight f4 [20, 2]
0	0x3e0ce3bf	0.13758753
1	0x3f0d49e6	0.55190885
2	0x3d6a5a2c	0.0572149
3	0xbf1aa815	-0.6041272
4	0xbbf13fde	-0.00736235
5	0xbea9be48	-0.33152986
6	0xbe303e94	-0.17211372
7	0xbeaad970	-0.33369017
8	0xbd572cfd	-0.05253314
9	0x3e832a41	0.25618175
10	0xbf1c2ebc	-0.6100881
11	0x3eccb4a7	0.39981577
12	0xbe501a9a	-0.20322648
13	0xbd8ecd33	-0.069727324
14	0xbe9340f1	-0.28760484
15	0xbe90d0c1	-0.28284267
16	0x3e47effa	0.19525138
17	0x3eb85716	0.3600394
18	0xbd53d158	-0.051713318
19	0x3e671f4c	0.22570533
20	0xbe15ba4d	-0.1462185
21	0x3cceee35	0.02526007
22	0xbb9545a6	-0.004555422
23	0x3f21049e	0.6289767
24	0x3e873c4b	0.26413187
25	0xbec04f4a	-0.37560493
26	0xbe9839c4	-0.29731572
27	0x3e9761e6	0.29566878
28	0x3e897651	0.2684808
29	0x3eb4a93e	0.35285372
30	0xbf3ee9a2	-0.74575245
31	0x3e764696	0.24050364
32	0xbf1b5ac9	-0.606854
33	0xbe6b58c6	-0.22983083
34	0xbeda7f61	-0.42675307
35	0xbec64ecd	-0.38731995
36	0xbd62a160	-0.05532968
37	0x3d9a7e11	0.075435765
38	0xbe9e32ad	-0.30898038
39	0xbe9877c6	-0.2977888

target_network.emb1.transform.bias f4 [20]
0	0x3dcfbd4b	0.10143527
1	0xbc616cce	-0.013758851
2	0x00000000	0.0
3	0x00000000	0.0
4	0xbe3e15ca	-0.18563
5	0xbdc0fdc5	-0.09423403
6	0x00000000	0.0
7	0x00000000	0.0
8	0x3da8e865	0.08247451
9	0xbe011c5a	-0.12608472
10	0x00000000	0.0
11	0x3e351588	0.17683995
12	0xbe078b32	-0.13236693
13	0xbd4c2ce6	-0.049847506
14	0x3daf1119	0.08548183
15	0x00000000	0.0
16	0x00000000	0.0
17	0x00000000	0.0
18	0xbcc4fd83	-0.024046665
19	0x00000000	0.0

target_network.emb2.transform.weight f4 [20, 2]
0	0xbe36e913	-0.17862348
1	0x3f374f74	0.7160561
2	0xbdaec659	-0.085339256
3	0x3ea624f7	0.32450077
4	0xbe928e19	-0.28624037
5	0x3d038d6d	0.032117296
6	0xbd470daa	-0.048597015
7	0xbdd237d0	-0.10264552
8	0x3eacabea	0.3372491
9	0xbe7f6d37	-0.24944006
10	0xbe7118de	-0.23544642
11	0x3e97a46e	0.29617637
12	0x3dce0757	0.10059994
13	0xbd17759c	-0.036977395
14	0xbf011569	-0.50423294
15	0x3f36a38e	0.71343315
16	0xbf0a182f	-0.5394315
17	0x3f30fdbc	0.6913717
18	0x3eae6a64	0.34065545
19	0xbe53d3c5	-0.20686252
20	0x3c8432d8	0.016137525
21	0xbf277c1a	-0.6542374
22	0xbf5db806	-0.8660892
23	0xbe3cc72c	-0.18435353
24	0xbd587fbe	-0.0528562
25	0x3d691151	0.05690128
26	0xbeab47cd	-0.33453217
27	0x3e778f93	0.24175863
28	0xbe931e7a	-0.2873419
29	0x3f84bd2c	1.0370231
30	0xbef6f6ac	-0.4823507
31	0x3f12b1ac	0.57302356
32	0xbf1958ce	-0.5990113
33	0x3dd36727	0.10322409
34	0x3df2457f	0.118296616
35	0xbf0aea35	-0.5426362
36	0xbdba2cc1	-0.090905674
37	0xbdf88c61	-0.1213615
38	0x3d168fb8	0.036758155
39	0x3d43f114	0.047837332

target_network.emb2.transform.bias f4 [20]
0	0xbdde3fe2	-0.108520284
1	0xbe536308	-0.20643246
2	0x00000000	0.0
3	0x00000000	0.0
4	0xbe2c965b	-0.16854231
5	0xbe36ee8f	-0.1786444
6	0xbd6489d3	-0.055795502
7	0xbcc58db1	-0.024115415
8	0xbb901788	-0.0043973364
9	0xbe4f434c	-0.20240515
10	0xbe063b40	-0.1310854
11	0x00000000	0.0
12	0xbd08f6b1	-0.03343839
13	0xbe26f3ff	-0.16304015
14	0xbe1a3854	-0.1506055
15	0x3bfa7c40	0.0076442063
16	0x00000000	0.0
17	0xbd5b5f25	-0.053557534
18	0x00000000	0.0
19	0xbd793d08	-0.06084922

target_network.emb3.transform.weight f4 [20, 2]
0	0xbf062367	-0.5239777
1	0xbe5e36bc	-0.21700567
2	0xbe96de02	-0.29466254
3	0xbd5285a7	-0.051396992
4	0xbe81d0de	-0.25354666
5	0xbd6c03a8	-0.057620674
6	0x3eded317	0.43520424
7	0x3dffdb6d	0.12493024
8	0x3dd6e203	0.10492327
9	0x3e590dc9	0.21196665
10	0xbf0ee1f3	-0.5581352
11	0x3eb64c85	0.35605255
12	0x3da3eec2	0.08004524
13	0x3ebf4f8c	0.37365377
14	0x3d3742be	0.044741385
15	0xbe4f00d1	-0.20215155
16	0xbf360ca4	-0.7111304
17	0x3f1e585b	0.6185357
18	0x3d883539	0.066507764
19	0xbe8be247	-0.27321073
20	0xbd8a33c3	-0.06748154
21	0xbecda1ac	-0.40162408
22	0xbf1d6630	-0.6148405
23	0x3e84bdbd	0.2592601
24	0xbc360a22	-0.011110814
25	0x3d651a35	0.055933196
26	0x3f06ea4b	0.5270125
27	0x3e64cd7e	0.22344014
28	0xbe513305	-0.20429619
29	0xbe108e5c	-0.14116806
30	0xbf1cca64	-0.61246324
31	0x3e3b072a	0.18264452
32	0x3f46125f	0.7737178
33	0xbe407b48	-0.18797028
34	0x3dac69b9	0.084186025
35	0xbe6425d6	-0.22280058
36	0xbcf0ac08	-0.029378906
37	0x3d748624	0.05969824
38	0x3e5dbc35	0.21653827
39	0x3d648a93	0.055796217

target_network.emb3.transform.bias f4 [20]
0	0x00000000	0.0
1	0x00000000	0.0
2	0x00000000	0.0
3	0xbe15cdb4	-0.14629251
4	0xbe30565e	-0.17220446
5	0xbd639e8e	-0.05557113
6	0xbdcaed87	-0.09908586
7	0xbcd4ba3e	-0.025967713
8	0x3c109d77	0.008826605
9	0xbc999578	-0.01874803
10	0x00000000	0.0
11	0xbdc6ee21	-0.09713388
12	0xbd3e8454	-0.046512917
13	0xbb0270a0	-0.0019903556
14	0x00000000	0.0
15	0x3e44799c	0.19187015
16	0xbe0fb2bc	-0.14033026
17	0xbe0df474	-0.13862783
18	0xbe1153a4	-0.14192063
19	0xbe402361	-0.18763496

target_network.emb4.transform.weight f4 [20, 2]
0	0x3de48fcb	0.11160239
1	0x3e306a31	0.17228009
2	0x3d7fed29	0.062482033
3	0xbe5329a7	-0.20621358
4	0x3e6b1a61	0.22959282
5	0x3dca54ef	0.09879481
6	0xbeecf03a	-0.46277028
7	0x3e8f515b	0.27991757
8	0x3e385a93	0.18003301
9	0xbe6d66f0	-0.23183799
10	0x3e025ad3	0.12729959
11	0x3ed82c56	0.42221326
12	0x3e581a0e	0.21103689
13	0xbd0a296b	-0.033730906
14	0xbe573284	-0.21015364
15	0xbe834f4b	-0.25646433
16	0xbe9ade3f	-0.30247685
17	0xbeba1a76	-0.36348313
18	0xbf0c632b	-0.5483882
19	0x3e5a8819	0.2134098
20	0xbc8c9b68	-0.017163947
21	0xbeb83797	-0.35979912
22	0x3e44b164	0.19208294
23	0x3e845282	0.25844198
24	0xbd63c82d	-0.055610824
25	0x3d33846a	0.04382745
26	0x3ca6cc6a	0.020361144
27	0x3d2cc28a	0.042177714
28	0xbf0c0d66	-0.54707944
29	0x3ec5e924	0.38654435
30	0x3e977a3a	0.2958544
31	0xbf0ea317	-0.55717605
32	0x3de9822e	0.11401783
33	0x3c64e884	0.013971452
34	0xbf587bd5	-0.8456395
35	0x3f193f32	0.59862053
36	0xbf4da341	-0.8032723
37	0x3e30d0ce	0.17267153
38	0xbf050323	-0.5195791
39	0xbf02bd98	-0.5107055

target_network.emb4.transform.bias f4 [20]
0	0x3c18ed69	0.009333947
1	0xbcacc93d	-0.021092052
2	0xbe90fe14	-0.28318846
3	0xbe5a8ece	-0.21343538
4	0xbdd856e9	-0.10563452
5	0x3d692820	0.05692303
6	0xbc922188	-0.017838255
7	0x00000000	0.0
8	0x00000000	0.0
9	0x3dcfd5ec	0.10148224
10	0x00000000	0.0
11	0x3e400364	0.18751293
12	0xbd6040d5	-0.05474933
13	0xbd6c1c63	-0.05764426
14	0x3cfc4b48	0.030797616
15	0xbe11bd9c	-0.14232486
16	0xbe036a37	-0.12833486
17	0x3d59665f	0.053076144
18	0x00000000	0.0
19	0x00000000	0.0

target_network.h2.transform.weight f4 [20, 20]
0	0x3d004bc2	0.03132225
1	0xbdaa698e	-0.08320914
2	0xbea31efe	-0.31859583
3	0x3cf0b460	0.029382885
4	0x3b49eba0	0.003081061
5	0x3eedf935	0.46479192
6	0xbf35328b	-0.7078025
7	0xbf27637c	-0.65386176
8	0xbe5a8dad	-0.21343108
9	0xbe559e24	-0.20861107
10	0x3ec60153	0.38672885
11	0x3e3738e4	0.17892796
12	0x3dc49ba1	0.09599996
13	0x3d6b6c0e	0.057476096
14	0xbe4f3482	-0.20234874
15	0xbe6a231c	-0.22864956
16	0xbeda717c	-0.42664707
17	0xbe134786	-0.14382753
18	0xbea97876	-0.33099717
19	0xbefa1d01	-0.48850253
20	0x3d543b91	0.05181462
21	0x3d135041	0.035965208
22	0xbecb8167	-0.39747164
23	0x3e67c708	0.22634518
24	0x3b9b1b40	0.004733473
25	0xbf299fae	-0.66259277
26	0x3e0dc266	0.13843688
27	0xbee45a51	-0.44600156
28	0xbf267bd9	-0.65032727
29	0x3eca3c3e	0.39499086
30	0x3d9a507d	0.07534883
31	0xbe44132b	-0.19147937
32	0xbe8d984c	-0.27655256
33	0xbee40fd9	-0.4454334
34	0xbef85030	-0.48498678
35	0xbe7e7bd8	-0.2485193
36	0xbe5e427f	-0.21705054
37	0xbc465ce1	-0.012107105
38	0xbe76578f	-0.24056838
39	0x3d23ac23	0.039959084
40	0xbee82096	-0.4533736
41	0x3c862545	0.016375193
42	0xbeaa446c	-0.33255327
43	0xbf01021d	-0.5039385
44	0xbea46cea	-0.32114345
45	0xbe07f8ab	-0.13278453
46	0xbed4c2fd	-0.41555014
47	0x3e0f2052	0.13977173
48	0x3e015606	0.12630472
49	0x3e6662e1	0.22498657
50	0x3ccb66b5	0.024829248
51	0xbd9ad853	-0.07560792
52	0x3e82a599	0.25516966
53	0xbe4c0e49	-0.19927324
54	0x3dff4fb6	0.124663755
55	0xbedc6057	-0.4304225
56	0x3ed0abb2	0.40755993
57	0xbe3fdae0	-0.18735838
58	0xbf330111	-0.699235
59	0x3eaad38a	0.33364516
60	0xbe27cb0a	-0.16386047
61	0xbd652635	-0.05594464
62	0x3e7e39d4	0.24826747
63	0xbe4a4189	-0.19751562
64	0x3e6d4003	0.2316895
65	0x3e64b730	0.22335505
66	0xbee0a0ee	-0.4387278
67	0x3dee5dac	0.1163896
68	0xbe64f0b0	-0.2235744
69	0x3f48024a	0.7812849
70	0xbe81364a	-0.25236732
71	0x3eb23636	0.34806985
72	0xbdc03218	-0.093845546
73	0xbdd35a98	-0.10320014
74	0xbf2c8dea	-0.67404044
75	0xbe6e9e4a	-0.2330257
76	0xbe10a297	-0.14124523
77	0xbebb7c46	-0.3661825
78	0x3de7c29d	0.113164164
79	0xbc8938ce	-0.01675072
80	0xbe1047ee	-0.14089939
81	0xbf15148f	-0.58234495
82	0xbef7968b	-0.48357043
83	0x3e6d44ba	0.23170748
84	0xbf1be997	-0.60903305
85	0xbd99a118	-0.07501429
86	0xbefdb6b6	-0.4955346
87	0x3e0c174b	0.1368076
88	0x3e880464	0.2656585
89	0x3ec14300	0.3774643
90	0x3e9e3bc4	0.30904973
91	0xbdda5008	-0.10659796
92	0xbe5ad239	-0.21369256
93	0x3d9a5d69	0.07537348
94	0xbef47eae	-0.477529
95	0x3e93e39c	0.2888459
96	0xbd208921	-0.039193276
97	0x3ed57d92	0.41697365
98	0x3ebd10b0	0.36926794
99	0x3e061c86	0.13096818
100	0xbd02691f	-0.031838533
101	0x3e5da2ec	0.21644181
102	0xbd4652b2	-0.04841871
103	0x3f000a48	0.5001569
104	0xbd90bb0a	-0.07066925
105	0x3eca1650	0.39470148
106	0xbeb581d6	-0.3545062
107	0xbde88631	-0.1135372
108	0xbea89ac7	-0.32930586
109	0x3cd9dd74	0.026594855
110	0x3cd45860	0.025921047
111	0xbf2274f6	-0.6345972
112	0xbe8437f6	-0.25823945
113	0xbedf8734	-0.4365784
114	0x3e887626	0.2665264
115	0xbe72b716	-0.23702654
116	0x3ea85683	0.32878503
117	0xbe981689	-0.29704693
118	0x3e0736b7	0.13204466
119	0xbe3354e2	-0.17512849
120	0xbaba4084	-0.0014209901
121	0xbe7e523c	-0.24836057
122	0xbee520a7	-0.44751474
123	0x3ef4a556	0.4778239
124	0x3d9eafed	0.07748399
125	0xbcfc556a	-0.030802447
126	0xbe6c1778	-0.23055828
127	0x3ec8d165	0.39222255
128	0x3eb5f167	0.35535738
129	0xbf11534f	-0.56767744
130	0xbf0a91b8	-0.541286
131	0x3e809b42	0.25118452
132	0xbe004544	-0.12526423
133	0xbee6ee78	-0.45103812
134	0xbef42984	-0.47687924
135	0xbe84e78b	-0.25957903
136	0xbe4e6f84	-0.20159727
137	0xbe4265be	-0.18984124
138	0xbe580581	-0.2109585
139	0x3d5ccaec	0.05390446
140	0xbeb72c7f	-0.35776135
141	0xbdadc8f7	-0.084855966
142	0xbe8bf5fa	-0.27336103
143	0xbd2d704c	-0.042343423
144	0x3ce407e0	0.027835786
145	0xbeec0953	-0.46100864
146	0x3d458871	0.048225824
147	0xbed6ccfd	-0.4195327
148	0x3ec3dec9	0.3825591
149	0x3de54be5	0.11196116
150	0x3d1b6c12	0.03794486
151	0x3e1ad92b	0.15121906
152	0xbdd2a02f	-0.10284459
153	0xbeaebc33	-0.3412796
154	0xbdc309e4	-0.09523371
155	0xbdcf8a7a	-0.10133834
156	0x3ef530c3	0.47888765
157	0xbe95c23b	-0.2924975
158	0x3e9185d9	0.2842243
159	0xbf69de2b	-0.91354626
160	0x3f1bc382	0.60845196
161	0xbf18b2f7	-0.5964808
162	0xbdb706d1	-0.08936847
163	0xbf54a626	-0.8306602
164	0xbf18cf88	-0.5969167
165	0x3d5d5188	0.054032832
166	0x3c744e49	0.014911243
167	0x3f5a0319	0.85160977
168	0xbe0aa2d4	-0.13538677
169	0xbdbe1060	-0.09280467
170	0xbde5dfe4	-0.112243444
171	0x3e804ca6	0.25058478
172	0xbe489c6a	-0.19590917
173	0xbf35d128	-0.7102227
174	0x3e41fb65	0.18943556
175	0xbd12fabe	-0.035883658
176	0xbf49bcde	-0.78803813
177	0xbd5f8d85	-0.054578323
178	0x3ece5907	0.40302297
179	0xbe93b373	-0.28847846
180	0x3d4daa93	0.0502115
181	0xbea56f5a	-0.32311517
182	0x3f1798df	0.5921764
183	0xbe6dbc5f	-0.23216389
184	0xbe40d8a3	-0.1883264
185	0x3e1705f8	0.1474837
186	0x3e717cad	0.23582716
187	0x3e987c90	0.29782534
188	0x3e53921f	0.2066121
189	0x3e43220c	0.19055957
190	0x3e69e46f	0.22841047
191	0x3ec65882	0.387394
192	0x3ec1b1b5	0.37830892
193	0xbfaf287c	-1.368423
194	0x3e1f6fab	0.15569942
195	0x3f3b457a	0.7315289
196	0xbf28b723	-0.65904444
197	0x3f674419	0.90338284
198	0xbe847c1f	-0.25875947
199	0xbe828792	-0.25494057
200	0xbc40654d	-0.011742902
201	0xbe984250	-0.29738092
202	0x3e8ff9ff	0.2812042
203	0x3d8620f2	0.065492526
204	0x3edbb936	0.42914742
205	0xbec24535	-0.37943426
206	0xbdfb736f	-0.122778766
207	0x3e007851	0.12545897
208	0xbe3b3b6a	-0.18284383
209	0x3c54fb2a	0.012999335
210	0x3ebdd6ac	0.37077844
211	0x3cf211ae	0.029549446
212	0x3dbc2d52	0.09188332
213	0x3eb97db2	0.3622871
214	0xbd79278d	-0.060828734
215	0xbef1e3f7	-0.47244236
216	0x3e958297	0.29201195
217	0x3d4123cd	0.047153283
218	0xbd616eb3	-0.05503721
219	0x3e593503	0.21211629
220	0xbf2e44bf	-0.6807365
221	0xbf389365	-0.72099906
222	0xbf0cef60	-0.5505276
223	0xbeccfd55	-0.40037027
224	0x3f03fea5	0.5156043
225	0x3f4d9690	0.80307865
226	0x3e53963c	0.20662779
227	0xbf8359db	-1.0261797
228	0x3f63c679	0.8897472
229	0xbddddf3a	-0.10833593
230	0x3e58314a	0.21112552
231	0xbf864681	-1.0490266
232	0x3e696879	0.2279376
233	0xbe66a03b	-0.2252206
234	0xbf94b86a	-1.1618779
235	0x3ec6b757	0.38811752
236	0xbebc42ff	-0.36769864
237	0xbec2b1d7	-0.38026306
238	0x3e0f1b7a	0.13975325
239	0x3bbe51b2	0.0058080787
240	0x3eb20616	0.34770268
241	0x3eb7ee43	0.35923967
242	0x3de26cb3	0.11055889
243	0xbf637baf	-0.888606
244	0x3e622251	0.22083403
245	0xbe1a22d9	-0.15052356
246	0xbecaef9f	-0.3963594
247	0x3f9bd2b8	1.2173681
248	0x3f0065c2	0.5015527
249	0xbb3981c8	-0.0028306115
250	0x3eea75d0	0.4579301
251	0x3e454b9d	0.19267125
252	0xbf2f9e3c	-0.6860082
253	0xbf8c5f02	-1.0966494
254	0x3e4e6859	0.20156993
255	0x3e231fa2	0.15930036

target_network.h2.transform.bias f4 [20]
0	0xbdf45d2f	-0.11931836
1	0xbde0c9c2	-0.10975982
2	0xbe0c838c	-0.13722056
3	0xbe1fe6ec	-0.15615433
4	0xbe4eed58	-0.20207727
5	0xbe498ec3	-0.19683366
6	0xbe09d15a	-0.13458768
7	0xbe252e65	-0.1613098
8	0x3cf9a4bc	0.03047406
9	0x3e307ce2	0.17235139
10	0x3d299955	0.041405994
11	0x3e83d7f5	0.257507
12	0x3e7806ea	0.24221388
13	0xbd53ad8b	-0.051679175
14	0x3e34c580	0.17653465
15	0x00000000	0.0
16	0xbe35fc02	-0.17771915
17	0xbe70e882	-0.23526195
18	0x3dbb18db	0.091356
19	0xbe5534d8	-0.2082094

target_network.h3.transform.weight f4 [20, 20]
0	0x3c92a7d5	0.017902294
1	0xbdc311bc	-0.09524867
2	0x3f151ef3	0.5825035
3	0xbc78dc36	-0.015189221
4	0x3dcba4b5	0.09943525
5	0xbf1a0a0b	-0.60171574
6	0xbefaf7f0	-0.49017286
7	0x3e861dd6	0.26194638
8	0x3e7ec2e6	0.24879035
9	0xbe874a66	-0.2642395
10	0xbde97017	-0.113983326
11	0x3d84fe17	0.06493776
12	0xbeba352c	-0.36368692
13	0xbf02cb8e	-0.5109185
14	0x3e02ed65	0.12785871
15	0xbedfa1f0	-0.43678236
16	0xbe1906fe	-0.14944074
17	0xbe8b3cbb	-0.2719477
18	0xbf0fb042	-0.56128323
19	0xbdafc911	-0.08583272
20	0xbd907aa8	-0.07054645
21	0xbf020782	-0.50792706
22	0xbe024ac6	-0.12723836
23	0xbdc7e71c	-0.097608775
24	0xbe019659	-0.1265501
25	0x3e1895d6	0.14900908
26	0x3f57bd87	0.8427357
27	0xbdda24d8	-0.10651559
28	0xbd0119b8	-0.031518668
29	0xbea2593f	-0.31708714
30	0xbdf8cfbb	-0.121489964
31	0x3f3a3245	0.72732955
32	0xbe9e97ce	-0.30975193
33	0xbecdfcb5	-0.40231863
34	0x3eb59904	0.35468304
35	0xbc97f915	-0.018551389
36	0xbe002394	-0.12513572
37	0x3e389a67	0.1802765
38	0xbea93498	-0.33047938
39	0x3ec76072	0.3894077
40	0x3ed0f17b	0.40809235
41	0x3e2565af	0.1615207
42	0xbdb247d2	-0.08705105
43	0x3c058b18	0.008150838
44	0xbee1e139	-0.44117144
45	0xbd52a480	-0.05142641
46	0x3e16db40	0.14732075
47	0x3f2ba355	0.670461
48	0x3ede597f	0.43427655
49	0x3f51c543	0.8194162
50	0xbe813890	-0.25238466
51	0x3dac7eb4	0.08422604
52	0x3f33d6c9	0.7024961
53	0x3eecbdd4	0.46238577
54	0x3f1e0ead	0.61741143
55	0xbef78d12	-0.48349816
56	0x3e310450	0.17286801
57	0x3efe201c	0.49633873
58	0x3eb656f1	0.35613206
59	0xbdbf5cab	-0.09343847
60	0x3e1c207b	0.15246765
61	0x3eef58c0	0.46747398
62	0x3e998edd	0.2999181
63	0xbea802d1	-0.3281465
64	0x3ec34462	0.3813811
65	0xba0f662a	-0.0005470241
66	0x3e585d23	0.21129279
67	0xbd04582a	-0.032310642
68	0xbde0a952	-0.10969795
69	0xbe8bb422	-0.27285868
70	0x3e54c03f	0.20776461
71	0x3dcd6f9f	0.10031056
72	0x3e9ed4bd	0.3102168
73	0x3f01f412	0.50763047
74	0x3e6ecf2a	0.23321214
75	0xbd0cef4e	-0.034407906
76	0xbeae0ed4	-0.33995688
77	0xbb81d580	-0.0039622188
78	0x3f1b8c2e	0.6076077
79	0xbe555d74	-0.20836431
80	0x3dfe82ed	0.12427316
81	0x3e476b4a	0.19474521
82	0xbe898466	-0.26858824
83	0xbdb905d3	-0.09034314
84	0xbea22aec	-0.31673372
85	0xbedc65ba	-0.4304636
86	0x3d611e00	0.05496025
87	0xbf0bd129	-0.5461603
88	0x3f27efff	0.6560058
89	0xbe3b15f7	-0.18270098
90	0x3e91cb3d	0.2847537
91	0xbf0fd9c1	-0.5619164
92	0xbf1b85fe	-0.6075133
93	0xbf6f7c5e	-0.93549144
94	0xbe661789	-0.22469915
95	0x3dbb9a1f	0.09160256
96	0x3ead6326	0.33864707
97	0xbdc7683b	-0.09736677
98	0x3dfe36a8	0.124127686
99	0x3db4a070	0.088196635
100	0xbc9a6b51	-0.01885
101	0x3f4e385f	0.80554765
102	0x3efabe3d	0.48973265
103	0x3ea7473d	0.32671538
104	0xbd161aa8	-0.036646515
105	0xbe3f6f7c	-0.18694872
106	0x3f20cf4e	0.6281632
107	0xbe3978db	-0.18112509
108	0xbc344034	-0.011001635
109	0x3e3d706a	0.18499914
110	0x3ceab74c	0.028651856
111	0xbc58be90	-0.013229027
112	0x3e98fbf1	0.29879716
113	0xbec0d0ee	-0.376594
114	0x3e66c3d9	0.22535647
115	0x3d58d43b	0.052936774
116	0xbd5b2354	-0.05350049
117	0x3dfbb6d2	0.122907296
118	0xbe3d3a78	-0.18479335
119	0x3e51afed	0.20477267
120	0xbc2b9fa0	-0.010475069
121	0xbe86130f	-0.26186416
122	0x3f1b4932	0.6065856
123	0xbecd5ef6	-0.40111512
124	0xbe95a38d	-0.29226342
125	0x3e7ae8c9	0.24502863
126	0xbd102839	-0.03519461
127	0x3d363162	0.04448069
128	0xbdac18d5	-0.08403174
129	0x3e504d5d	0.20342012
130	0x3e9152b9	0.28383425
131	0xbe6a4b7e	-0.2288036
132	0xbf893d35	-1.0721804
133	0x3e36b884	0.17843825
134	0x3b445c7c	0.0029962352
135	0x3e06d406	0.13166818
136	0xbd8af780	-0.06785488
137	0xbe72a608	-0.23696148
138	0x3df51595	0.11967007
139	0x3e7aff7d	0.24511524
140	0x3e906f36	0.28209847
141	0xbe1ce2c6	-0.15320882
142	0x3e32f664	0.17476803
143	0x3e954e79	0.29161432
144	0xbde64ee1	-0.11245514
145	0xbf346853	-0.70471686
146	0x3e8c8b54	0.2745005
147	0xbd5b3d5a	-0.053525306
148	0xbf1c4055	-0.6103566
149	0xbe08490e	-0.13309118
150	0xbf419faa	-0.75634253
151	0x3f123781	0.5711594
152	0xbe561609	-0.20906843
153	0x3e84df92	0.2595182
154	0xbf1bb3fa	-0.608215
155	0xbdb6ea83	-0.08931448
156	0x3f2f6366	0.68511045
157	0xbe864df5	-0.26231351
158	0x3e165280	0.14679909
159	0x3d94b06d	0.07260213
160	0x3ede02e2	0.43361574
161	0xbea1694e	-0.31525654
162	0xbe4978c7	-0.19674979
163	0x3d8fb9e0	0.07017875
164	0x3f120927	0.57045215
165	0xbd156094	-0.036469057
166	0x3e13ee09	0.14446272
167	0x3ebef078	0.37292838
168	0x3ea6af4c	0.32555616
169	0xbeb6e57b	-0.35721955
170	0x3f2fd1d4	0.6867955
171	0xbe74a338	-0.23890388
172	0xbe715abd	-0.2356977
173	0x3eb7fec0	0.35936546
174	0xbe8a0035	-0.26953283
175	0x3ecc8488	0.39944863
176	0x3e9f1582	0.31071097
177	0x3e97728a	0.29579574
178	0xbe8fa9fb	-0.28059372
179	0x3dff1c6b	0.12456592
180	0xbdb20ba5	-0.08693627
181	0x3e0fd8e2	0.14047578
182	0xbdc451a8	-0.09585887
183	0xbe8b2b4b	-0.27181467
184	0x3e5eeeb0	0.2177074
185	0x3eaf8222	0.3427897
186	0xbca254d6	-0.019815844
187	0x3e3e3379	0.18574323
188	0x3dc69e44	0.096981555
189	0xbee30865	-0.44342342
190	0xbda00257	-0.07812946
191	0x3d282250	0.041048348
192	0x3e38e62c	0.18056554
193	0xbe8a3014	-0.26989806
194	0xbe1dea1e	-0.1542134
195	0xbf23b9a7	-0.6395516
196	0x3f16b9ab	0.58877057
197	0xbe84ce17	-0.25938484
198	0x3e9b0f8e	0.30285305
199	0x3f1a2eba	0.6022755
200	0x3de95aaf	0.1139425
201	0xbe908650	-0.28227472
202	0x3cceeeec	0.025260411
203	0xbf4bb4df	-0.7957286
204	0x3ec01eac	0.375234
205	0xbed9a010	-0.4250493
206	0x3e2b9a7a	0.16758147
207	0xbef31c79	-0.4748266
208	0xbe572c20	-0.21012926
209	0x3e3bf488	0.18355
210	0xbdd54b21	-0.1041472
211	0xbed8c979	-0.4234121
212	0x3e66c564	0.22536236
213	0xbea56850	-0.32306147
214	0xbe42b3d6	-0.19013914
215	0xbecee3e6	-0.40408248
216	0xbcb91358	-0.022592232
217	0x3e4dabc6	0.20085058
218	0xbe46b75b	-0.19405882
219	0xbaa039e3	-0.0012224283
220	0x3dfcf7f8	0.12351984
221	0x3dc438ac	0.09581122
222	0x3ebefa54	0.3730036
223	0xbedc4b4e	-0.43026203
224	0x3d4b4d57	0.049634304
225	0xbe15c27b	-0.1462497
226	0x3c236b5b	0.009974326
227	0x3ea6d37e	0.3258323
228	0x3ecc6ad7	0.39925262
229	0xbdabec08	-0.08394629
230	0xbf3a4cf6	-0.72773683
231	0xbde107df	-0.109878294
232	0x3daf6e79	0.08565993
233	0xbe8a2c32	-0.26986843
234	0xbd68c0b5	-0.056824405
235	0x3f535711	0.8255473
236	0xbcc13ab7	-0.023587568
237	0x3c6f2b7e	0.014597772
238	0x3de80370	0.11328781
239	0x3e3e4c5f	0.18583821
240	0x3e9131b5	0.28358236
241	0xbed4af77	-0.4154012
242	0x3e4be786	0.19912538
243	0x3ca6854b	0.02032723
244	0xbec8f118	-0.3924644
245	0xbd8617f8	-0.065475404
246	0x3d330f30	0.043715656
247	0x3d837139	0.0641808
248	0x3b2a9c42	0.0026033078
249	0xbeb6a9ea	-0.3567651
250	0x3f01f408	0.5076299
251	0xbd34ab1b	-0.04410849
252	0x3f5e571d	0.86851674
253	0xbf2422db	-0.64115685
254	0xbe069a60	-0.13144827
255	0x3e621b4f	0.2208073

target_network.h3.transform.bias f4 [20]
0	0xbe418064	-0.18896633
1	0x3eb33234	0.3499924
2	0x3c100b8e	0.008791817
3	0xbddeea15	-0.10884491
4	0xbe1aac55	-0.15104802
5	0xbe81a0d6	-0.2531802
6	0xbca1f942	-0.019772176
7	0xbe4f96a4	-0.20272309
8	0x3cfa241e	0.0305348
9	0xbba99eab	-0.0051763854
10	0xbe11a53b	-0.14223187
11	0x00000000	0.0
12	0xbea01110	-0.31263018
13	0xbec4aa43	-0.3841115
14	0x3e19fa00	0.15036774
15	0xbe7bdc9f	-0.24595879
16	0xbe4bd591	-0.19905688
17	0x3d7e3ecf	0.062071618
18	0xbe72371e	-0.23653838
19	0xbe4f96bb	-0.20272343

target_network.critic_linear.weight f4 [1, 20]
0	0xbe619fb0	-0.22033572
1	0xbf070eba	-0.52756846
2	0xbf119c57	-0.5687918
3	0xbe1c046a	-0.15236059
4	0xbf0bc96c	-0.5460422
5	0x3dc5a04c	0.09649715
6	0x3e86f19e	0.26356214
7	0x3f1c6dc4	0.6110499
8	0x3f1ad037	0.6047396
9	0x3e99557f	0.2994804
10	0xbd581221	-0.052751664
11	0x3cdc2da0	0.026877224
12	0xbec449b9	-0.38337496
13	0xbb874fe7	-0.004129398
14	0xbf4714be	-0.77766025
15	0x3d6d6eee	0.05796712
16	0x3d9abccd	0.07555542
17	0xbeab988a	-0.33514816
18	0x3efe3e20	0.49656773
19	0x3d86c8a5	0.06581239
