pz_risk/mini_0/66.pt (torch, 18513 bytes, 26 tensors)

policy_network.emb1.transform.weight f4 [20, 2]
000000 80 bb fc 3c e7 45 8d 3e 3c 3b e7 bc 47 cd 2b bf
       0.030851126 0.27592394 -0.028226487 -0.67110103
000010 de 3f f1 bb 48 be a9 be 94 3e 30 be 70 d9 aa be
       -0.00736235 -0.33152986 -0.17211372 -0.33369017
000020 5c af f3 3b 42 80 b0 3e 02 0f 04 bf 25 20 fe 3e
       0.007436676 0.34472853 -0.515854 0.496339
000030 9a 1a 50 be 33 cd 8e bd f1 40 93 be c1 d0 90 be
       -0.20322648 -0.069727324 -0.28760484 -0.28284267
000040 a0 5e 96 3c 22 23 1b 3d f9 33 41 bd 13 bd 7e 3e
       0.018355668 0.037875302 -0.047168706 0.24876814
000050 4d ba 15 be 35 ee ce 3c 5b 3c 46 be cd 81 63 3e
       -0.1462185 0.02526007 -0.19358961 0.22217484
000060 f0 33 8d 3e a7 1e bd be f0 55 99 be 7c 41 a1 3e
       0.27578688 -0.36937448 -0.29948378 0.31495273
000070 a1 22 9f 3d 9c 5c eb bc a2 e9 3e bf 96 46 76 3e
       0.07770277 -0.028730683 -0.74575245 0.24050364
000080 c9 5a 1b bf c6 58 6b be 61 7f da be cd 4e c6 be
       -0.606854 -0.22983083 -0.42675307 -0.38731995
000090 96 44 04 be d0 2e 1f 3c ad 32 9e be c6 77 98 be
       -0.12916788 0.009715751 -0.30898038 -0.2977888

policy_network.emb1.transform.bias f4 [20]
000000 c3 cc cc bd 71 cc cc bd 00 00 00 00 00 00 00 00
       -0.09999993 -0.099999316 0.0 0.0
000010 a7 8a e3 bd 00 00 00 00 00 00 00 00 00 00 00 00
       -0.1111043 0.0 0.0 0.0
000020 cb cc cc bd de d2 08 be 00 00 00 00 04 bc 09 bc
       -0.09999999 -0.1336169 0.0 -0.008406643
000030 98 24 fe bd 80 1c ad b9 cb cc cc bd 00 00 00 00
       -0.124093235 -0.00033018366 -0.09999999 0.0
000040 00 00 00 00 00 00 00 00 cb cc cc bd 00 00 00 00
       0.0 0.0 -0.09999999 0.0

policy_network.emb2.transform.weight f4 [20, 2]
000000 c8 e9 4e 3d 71 de 0b 3e 20 ca 04 be a3 c8 e9 3e
       0.05051592 0.13659073 -0.1296773 0.45660886
000010 19 8e 92 be 6d 8d 03 3d aa 0d 47 bd d0 37 d2 bd
       -0.28624037 0.032117296 -0.048597015 -0.10264552
000020 2d 8e a6 3e 29 4a 5e be 8d 86 87 bd ae f3 2f 3e
       0.32530347 -0.21707977 -0.066174604 0.171828
000030 bf 57 28 bc 5d 75 53 3f ac e2 92 be 4a 15 e9 3e
       -0.010274827 0.8260096 -0.28688562 0.45524055
000040 a6 a0 89 be 88 64 07 3e f0 ae 06 3f e4 f0 74 3f
       -0.26880378 0.13221943 0.52610683 0.9568007
000050 54 37 ac 3d b2 c4 0d bf 06 b8 5d bf 2c c7 3c be
       0.084089905 -0.5537826 -0.8660892 -0.18435353
000060 65 45 64 bd 83 48 6d 3d 6a d8 92 be 76 63 82 3e
       -0.055730242 0.05793048 -0.28680736 0.25466508
000070 cd a3 79 3d 8d a2 43 3f 16 b4 28 be ec c5 62 3d
       0.06094723 0.7641991 -0.16474947 0.055364534
000080 ce 58 19 bf 27 67 d3 3d dd 46 32 3f 78 8b 75 3f
       -0.5990113 0.10322409 0.6963938 0.9591594
000090 c1 2c ba bd 61 8c f8 bd 24 45 83 bc 00 72 ae 3b
       -0.090905674 -0.1213615 -0.01602418 0.0053236485

policy_network.emb2.transform.bias f4 [20]
000000 4c b0 4c be e7 3e 93 be 00 00 00 00 00 00 00 00
       -0.19989127 -0.28758928 0.0 0.0
000010 e1 4c 36 be 82 fc f9 bd 04 dc 95 be 8c ac 5b be
       -0.17802764 -0.12206365 -0.2926942 -0.2145254
000020 2b c6 cc bd 54 4a 8e be 20 b5 6b bd 00 00 00 00
       -0.09998735 -0.27791083 -0.05754578 0.0
000030 64 07 dc bc 58 42 a9 bd 39 39 1e be c4 03 42 bd
       -0.026858993 -0.08264607 -0.15451516 -0.047366872
000040 00 00 00 00 5a 02 49 bd 00 00 00 00 cb cc cc bd
       0.0 -0.04907451 0.0 -0.09999999

policy_network.emb3.transform.weight f4 [20, 2]
000000 67 23 06 bf bc 36 5e be 02 de 96 be a7 85 52 bd
       -0.5239777 -0.21700567 -0.29466254 -0.051396992
000010 de d0 81 be a8 03 6c bd e0 54 30 3e ac 98 11 3e
       -0.25354666 -0.057620674 0.17219877 0.14218396
000020 90 2d f9 3b 0f 97 92 3e 59 31 c3 be 12 17 a0 3e
       0.0076043084 0.28630874 -0.38123587 0.312676
000030 4b ba 0e be 90 94 77 3e 08 8a 19 bd 27 b7 94 be
       -0.13938253 0.24177766 -0.037485152 -0.29045984
000040 b7 9c b4 bf 2e 3a b7 bc 6c f3 87 bc f3 3b ba be
       -1.4110326 -0.02236661 -0.016595565 -0.36373863
000050 c3 33 8a bd ac a1 cd be fd 12 20 bf b0 42 5f 3e
       -0.06748154 -0.40162408 -0.62528974 0.21802783
000060 7d a5 65 bd a9 0b bf 3d ac 93 25 3e c5 21 1b 3d
       -0.056066025 0.09328396 0.16169614 0.037874002
000070 05 33 51 be 5c 8e 10 be 52 31 40 bf a1 7a 15 bf
       -0.20429619 -0.14116806 -0.75075257 -0.5839024
000080 3b fc 15 3f d5 ef 17 bf 7e c2 51 3e cb a7 2e be
       0.58588 -0.5935033 0.20484349 -0.17056195
000090 a0 b9 ad 3c 45 82 88 3d 49 b7 1a 3e cc 5f 05 3e
       0.021206677 0.06665472 0.1510898 0.13024825

policy_network.emb3.transform.bias f4 [20]
000000 00 00 00 00 00 00 00 00 00 00 00 00 5c f5 88 be
       0.0 0.0 0.0 -0.26749694
000010 10 55 90 be 4b 0b 56 be 69 30 9c be be cc cc bd
       -0.28189898 -0.20902745 -0.30505684 -0.09999989
000020 dc 50 b3 3e bb cc cc bd 00 00 00 00 cb 17 d8 bd
       0.35022628 -0.09999987 0.0 -0.10551413
000030 d6 f9 aa bd 54 8e 21 be 00 00 00 00 e6 28 cb 3e
       -0.08348434 -0.1577695 0.0 0.3967964
000040 38 cf c9 be 8c 10 4c be ca cc cc bd 42 04 9b be
       -0.39415908 -0.19928187 -0.09999998 -0.30276686

policy_network.emb4.transform.weight f4 [20, 2]
000000 c5 38 19 3e 33 cc ad 3d c8 b4 77 bc 28 c1 94 be
       0.14963062 0.084862135 -0.015118785 -0.29053617
000010 ef d0 18 3e f0 81 a8 3c b3 5c 4c be 94 3d 22 3f
       0.14923452 0.020569772 -0.19957237 0.6337521
000020 4e 81 2d 3e 16 78 6d be 0d 73 24 3f 64 5b 67 3f
       0.16943857 -0.2319034 0.64238054 0.90373826
000030 1e 02 ea 3d f4 3d 0f be 84 32 57 be 4b 4f 83 be
       0.11426185 -0.13988477 -0.21015364 -0.25646433
000040 3f de 9a be 76 1a ba be 69 53 03 be 9b 34 c1 3d
       -0.30247685 -0.36348313 -0.12824787 0.09433862
000050 68 9b 8c bc 97 37 b8 be f1 73 47 3d cc 12 63 3d
       -0.017163947 -0.35979912 0.048694555 0.055437848
000060 ba a4 83 bd 9e 76 ee 3c 5b 33 1b 3f 2e ae 1c 3f
       -0.064279035 0.029109295 0.6062524 0.6120328
000070 83 3c 89 be b2 22 47 3e 89 15 8f 3e 28 67 03 bf
       -0.2680398 0.19446829 0.27946118 -0.5132928
000080 7f 8f b3 3d 32 65 bd bc 41 c4 0f bf bf 41 06 3f
       0.08767604 -0.023119543 -0.56158835 0.5244407
000090 2c 10 67 bf 16 20 95 3d 23 03 05 bf 98 bd 02 bf
       -0.9025905 0.072815105 -0.5195791 -0.5107055

policy_network.emb4.transform.bias f4 [20]
000000 60 6c 5d be db cb cc bd f9 35 1b be 33 19 cb 3d
       -0.21623373 -0.0999982 -0.15157308 0.09916916
000010 6a 02 e5 bd 3d bc 99 be 89 06 a0 bd 00 00 00 00
       -0.11182101 -0.30026427 -0.078137465 0.0
000020 00 00 00 00 c7 21 57 bd 00 00 00 00 ec 2c d1 bd
       0.0 -0.052522447 0.0 -0.10213646
000030 3c c5 4b bd 7d 33 da be 4a 5f 00 be 11 4b 24 be
       -0.049748644 -0.42617407 -0.1253635 -0.1604426
000040 ae f3 e1 bd fa ec 80 be da 9f cc bd 00 00 00 00
       -0.11032806 -0.251808 -0.09991427 0.0

policy_network.h2.transform.weight f4 [20, 20]
000000 30 09 b8 bc bc 3b 5a 3d bf a7 c7 be d6 45 8f bd
       -0.022465318 0.053279623 -0.38995168 -0.06995742
000010 5f 69 d3 bd 03 ff 8b 3e 5e 10 01 bf 92 34 4f bf
       -0.10322832 0.27342996 -0.504156 -0.8093959
000020 b1 c1 4b bd 65 8d f3 be e1 8e 9b 3e 8c 9a 21 3e
       -0.049745265 -0.47568813 0.30382445 0.15781611
000030 99 0e e3 3d e0 a9 8e 3c 99 9f 6e be dc ce 8e be
       0.11086769 0.017414987 -0.23303069 -0.27892196
000040 a4 69 a5 be f3 aa 9e be a4 e2 d4 be 69 24 e8 be
       -0.3230716 -0.309898 -0.41579163 -0.4534028
000050 5c bd e2 3c e6 a8 0e 3c 67 81 cb be 1a 42 18 3e
       0.027678184 0.008707261 -0.39747164 0.14868966
000060 40 a8 cf ba e4 b4 56 bf 20 c7 ca 3c e3 a4 10 bf
       -0.0015842989 -0.8386977 0.024753153 -0.565016
000070 f6 61 41 bf 36 77 9a 3e b8 bf 0a bc 2b 13 44 be
       -0.755401 0.30169076 -0.008468561 -0.19147937
000080 17 62 92 be 86 01 f9 be 5a 9f 0e bf 33 e2 a9 be
       -0.28590462 -0.48633975 -0.557119 -0.3318039
000090 0c cf 73 be f3 77 10 be 2d 30 a2 be 52 e3 31 3d
       -0.23809451 -0.14108257 -0.3167738 0.04342968
0000a0 40 40 02 bf 30 16 34 bc 55 d6 cc be 74 47 fa be
       -0.5087929 -0.010991618 -0.40007272 -0.4888264
0000b0 bf 06 bd be cc e2 5a be 38 75 de be 5a 44 3d 3d
       -0.3691921 -0.21375579 -0.43448806 0.046207763
0000c0 12 fb 80 3d 51 78 10 3e 66 eb 74 bd a2 f3 1d be
       0.06297888 0.14108397 -0.059794806 -0.1542497
0000d0 0c 36 66 3e e8 f1 40 be 86 e4 fa 3d 04 11 06 bf
       0.22481555 -0.1884228 0.12250619 -0.52369714
0000e0 5a 92 df 3e 88 4e 86 be c6 d2 44 bf f4 eb a0 3e
       0.43666345 -0.2623179 -0.76884115 0.31430018
0000f0 5e ec ab bc 39 ab 69 bd 31 90 a7 3e 8a 77 f5 be
       -0.020986732 -0.057048056 0.32727197 -0.47942764
000100 7c 83 61 3e b2 e9 9b 3d a8 b9 77 bf 6a 97 b6 bd
       0.22022814 0.07612933 -0.96767664 -0.08915599
000110 da 10 d0 bf 71 dd 8a 3f 1b 4c db be fd 60 2d 3f
       -1.6255143 1.0848829 -0.428315 0.6772612
000120 34 4a 05 be aa c5 ee be e2 ec 1a bf 7e a4 c8 be
       -0.13016587 -0.4663518 -0.60517704 -0.39187998
000130 c5 87 46 bd d1 5a f4 be c6 1d 73 3e 2e c5 cb 3d
       -0.048469324 -0.47725537 0.23741826 0.099497184
000140 2d 70 3f be 34 d7 bc be 4e 36 9c be 1f a6 df 3d
       -0.18695135 -0.36882937 -0.3051018 0.10920357
000150 55 a7 e9 be 2c b1 38 bd c9 bb 88 be ca 41 a3 be
       -0.45635477 -0.04509084 -0.2670577 -0.3188613
000160 14 74 93 bd 8f c8 cf 3e 76 48 77 3e 73 7f 0b be
       -0.071998745 0.40582702 0.24148735 -0.13622837
000170 1b 8c 9d bd 6d c2 16 3f bc b0 14 bf 11 bc 8c be
       -0.076927386 0.5889042 -0.58082175 -0.27487233
000180 18 63 57 bc 1f 83 e2 3e 47 04 8c 3e 68 d5 82 bc
       -0.013146184 0.44240662 0.27347013 -0.0159709
000190 b1 8e bf 3d 2c 16 92 bc 38 31 f9 3d 15 06 dc 3e
       0.09353388 -0.017832838 0.12167591 0.4297339
0001a0 91 4c 00 3e 62 61 67 3f f8 17 00 3f d4 0c a2 be
       0.12529208 0.9038297 0.50036573 -0.31650412
0001b0 f4 b7 25 c0 a1 54 ab be b3 98 0a be 5c d3 b6 be
       -2.5893526 -0.33463004 -0.13534813 -0.3570813
0001c0 e4 fb 4c be ae 8d 29 be 39 2f e4 3e 13 df 65 bf
       -0.20017964 -0.16557953 0.44567278 -0.8979351
0001d0 66 69 88 3d 22 a8 35 bf 00 9a 76 3e ce 8c af bd
       0.06660728 -0.70959675 0.24082184 -0.08571778
0001e0 36 dc 5c 3d 2f ce 55 bd 15 3a c8 be 02 04 cb 3e
       0.053920947 -0.052198585 -0.39106813 0.39651495
0001f0 cb 1c 64 3e 0c 83 58 be f4 78 b8 bd 31 3c c5 3e
       0.22276609 -0.2114374 -0.09007445 0.38522485
000200 3b e6 af 3e 3b 67 41 bf 9e 0d 0f bf bf c1 cb 3e
       0.3435534 -0.7554814 -0.55880153 0.39796254
000210 c2 a5 ea 3a 33 4a 0e bf 58 fe da be c9 a4 01 bf
       0.0017902183 -0.5558197 -0.42772174 -0.5064207
000220 f9 63 a3 bd 64 21 de be 29 8f 92 bd e6 00 40 3e
       -0.07978053 -0.4338485 -0.07156212 0.18750343
000230 24 b3 b4 be d4 ce 4f bf 4a ca 92 be ce 83 52 3e
       -0.35292923 -0.8117497 -0.2866996 0.20558092
000240 4c 01 f2 3c f0 7e 2c c0 d0 3c d5 be 9f f1 9e bf
       0.029541634 -2.6952477 -0.4164796 -1.2417487
000250 a6 95 80 3f 40 3a 6f bf 32 5b 55 bd de 52 49 3e
       1.0045669 -0.9344826 -0.052088924 0.19660518
000260 18 2f a8 bc d4 18 56 c0 99 d0 2a bf 45 15 17 be
       -0.020530269 -3.3452654 -0.66724545 -0.14754207
000270 88 9f 8f 3e 4a 31 71 bf 38 1f 5f 3e 72 1b 62 bf
       0.280514 -0.94215834 0.21789253 -0.8832313
000280 d8 b0 08 3f 82 f0 3d bf de fb 32 be c2 86 98 be
       0.5339484 -0.7419511 -0.17478892 -0.29790312
000290 cc 3a 12 bf 40 6b ea bb d5 26 8a 3d c2 31 58 be
       -0.57120967 -0.0071538985 0.06745688 -0.21112731
0002a0 62 d2 de be de 65 86 be f8 98 63 bc fa ab 64 3d
       -0.43519884 -0.26249593 -0.013891451 0.055828072
0002b0 12 b4 14 bd 69 eb 11 be b0 42 13 bc a4 fe 02 bf
       -0.03630454 -0.14249958 -0.0089880675 -0.511698
0002c0 56 46 85 3e a9 70 01 bf 6b f4 a3 3e 84 9c ca 3d
       0.26030225 -0.5056253 0.32022414 0.09893134
0002d0 17 ce 21 3d 2b 95 de bd b9 b1 f9 3e 54 03 40 bd
       0.039503183 -0.10868295 0.48768404 -0.046878174
0002e0 42 8b 1f be 30 45 b4 bc c1 ba 9b 3e 98 75 0a be
       -0.15580466 -0.022005647 0.3041592 -0.13521421
0002f0 f9 51 c4 3d 76 39 64 be 60 a4 8f 3e cb cb cd 3e
       0.095859475 -0.22287545 0.28055096 0.40194544
000300 98 f0 c0 3e 15 c2 88 bf 94 2e 3d 3e e2 5e d8 3d
       0.37683558 -1.0684229 0.184748 0.105649725
000310 5e 49 3d 3d d6 b3 92 3e 6f 67 1e be ba 56 fe 3d
       0.046212547 0.2865283 -0.15469144 0.124188855
000320 74 49 3b bd d2 bd c4 be 4b 27 95 3e 39 81 06 3e
       -0.045724347 -0.3842607 0.2913154 0.13135232
000330 bf 21 39 3f 21 e9 f5 be e6 03 0b be 3c 19 eb bd
       0.7231712 -0.48029426 -0.13575706 -0.114794225
000340 07 6d d4 3d bb 74 91 be c9 68 f0 3e 54 fd 61 3e
       0.10372358 -0.2840937 0.46954945 0.22069293
000350 c9 ae fa bd f3 e6 88 3e 62 c9 57 3e 14 b2 07 be
       -0.12240369 0.267387 0.21072915 -0.13251525
000360 3c f8 33 3e 16 95 90 be de f9 14 3d b9 57 da 3e
       0.17575163 -0.28238744 0.036371104 0.42645052
000370 4b 3b d1 bc 17 64 73 be 18 44 d6 be 70 00 e1 be
       -0.025540968 -0.2376865 -0.41848826 -0.43945646
000380 2e 1c 03 3f 88 f8 b7 3e 2d 0c 9e 3e d0 b2 ec bd
       0.51214874 0.35931802 0.30868664 -0.11557543
000390 a7 37 86 3e 77 38 d2 3d 29 29 31 3e 1f 9a 16 bf
       0.26214334 0.10264676 0.17300858 -0.5882892
0003a0 e7 9a 98 3e 33 eb 96 be ce 0e 7c be 9a 54 89 be
       0.2980568 -0.29476318 -0.24615023 -0.26822358
0003b0 c4 37 10 be 49 c6 6e be 5a 48 7e 3e e0 32 6a 3d
       -0.14083773 -0.23317827 0.24832287 0.057177424
0003c0 e1 ce a1 3e 69 ca 8b 3e 9b e3 87 bc c5 3f a2 be
       0.3160315 0.27302864 -0.016588023 -0.31689277
0003d0 78 14 40 3e 52 66 38 be 42 b3 cd be 5a b3 37 3e
       0.18757808 -0.18007782 -0.40175825 0.17939511
0003e0 54 2e 69 3e f1 46 b3 be d0 75 ea 3e e2 f9 41 3d
       0.22771579 -0.35015061 0.4579301 0.047357447
0003f0 bb 46 0b bf 0f 00 f3 be ea 4f b5 3d 0c 1c fa be
       -0.544048 -0.47460982 0.08853133 -0.48849523

policy_network.h2.transform.bias f4 [20]
000000 66 2e 3a be 1a 86 1e be 7d cc cc bd 6e 15 b7 bd
       -0.18181762 -0.15480843 -0.099999405 -0.08939634
000010 aa 53 b0 bd 87 3c 55 3e c6 eb 7a bd a9 27 31 3f
       -0.08609708 0.2082387 -0.061260007 0.6920114
000020 c8 cc cc bd 94 13 91 be 32 6d db bd 8c d5 3e be
       -0.099999964 -0.2833525 -0.10714187 -0.18636149
000030 22 af 38 be a4 dc 73 be b7 12 e1 3e 9c c6 4c be
       -0.18035558 -0.23814636 0.4395959 -0.19997638
000040 b0 a7 72 be 3b ad 76 be 1f 6a cb 3e 3f 04 1d be
       -0.2369678 -0.2408952 0.397294 -0.15333651

policy_network.h3.transform.weight f4 [20, 20]
000000 d5 a7 92 3c bc 11 c3 bd f3 1e 15 3f 52 e8 eb bd
       0.017902294 -0.09524867 0.5825035 -0.11518921
000010 48 ce 02 3e c3 dc 6a bf 58 2f 03 bf d6 1d 86 3e
       0.12774003 -0.91743106 -0.51244116 0.26194638
000020 e6 c2 7e 3e c7 76 ba be 80 36 2e ba da ae a6 3e
       0.24879035 -0.36418745 -0.00066456944 0.32555276
000030 2c 35 ba be 7f ad 92 be 20 a8 f7 be 7c 4e ad be
       -0.36368692 -0.28647992 -0.48370457 -0.3384894
000040 4c 97 0e be f2 57 89 be 61 49 29 bf 61 f6 3d be
       -0.13924903 -0.2682491 -0.6612759 -0.18551017
000050 ec 33 87 bc 25 d3 00 bf 04 ec a9 bd 16 e7 e1 be
       -0.01650425 -0.5032218 -0.082969695 -0.44121617
000060 e5 27 b0 3e 3a 83 c6 be 57 83 5a 3f 62 20 a9 3f
       0.34405437 -0.38771993 0.8535666 1.3213007
000070 a0 03 a7 bc 80 81 94 be 93 46 5e be 17 2a 0c 3f
       -0.02038747 -0.2900505 -0.2170661 0.54751724
000080 76 91 99 be 62 18 2f bd b4 37 21 be f9 86 a5 3d
       -0.2999379 -0.042747863 -0.15743905 0.080823846
000090 b7 01 e7 be dc 05 5b 3c ce 63 ce 3e 07 44 0c 3f
       -0.45118496 0.013368096 0.4031052 0.547913
0000a0 cf 86 03 3f f6 cd 82 3e ac f0 99 3d eb 5f 2f be
       0.51377577 0.2554776 0.07516608 -0.17126434
0000b0 c3 7a 08 bf 41 c3 3c be d4 60 72 3e 1b 9d dc 3e
       -0.5331232 -0.18433858 0.2366975 0.43088612
0000c0 85 ed bb 3e 78 a3 71 3e c2 a0 23 be 34 33 90 bd
       0.3670465 0.23597515 -0.15979293 -0.07041016
0000d0 2c 6b 37 3e d0 2c 72 3e 04 27 8a be 12 8d f7 be
       0.17911977 0.23649907 -0.26982892 -0.48349816
0000e0 7d 81 3c be f4 29 d6 3e d2 99 76 bd 91 67 79 be
       -0.18408771 0.41828883 -0.06020529 -0.24355914
0000f0 52 42 46 3e a8 50 ed 3e ed 66 ba 3e 6d 2a 80 bd
       0.19361237 0.46350598 0.3640665 -0.06258092
000100 bb a4 6c 3f 82 62 90 be dc 0f 9d 3e 76 f9 94 bf
       0.9243886 -0.28200155 0.30676162 -1.163863
000110 77 2d 06 be 8f f4 01 bf 0e f6 45 3e ea 48 89 bd
       -0.13103281 -0.5076379 0.19332144 -0.067033604
000120 b0 32 67 bd 74 2e b0 3e 0a 7e dc bd 4a 67 7f 3d
       -0.056444824 0.3441044 -0.107662275 0.062354364
000130 a9 1b b2 be b3 cc e0 bd 90 eb ab be 29 1d 40 be
       -0.34786728 -0.10976543 -0.33578157 -0.18761124
000140 87 f0 d5 3d de b1 a7 3e 3c ff 32 be 05 9d 50 3c
       0.104462676 0.3275289 -0.17480177 0.012732749
000150 a6 52 16 bf a2 a3 a9 bf 76 03 62 3e 5e 91 fe 3d
       -0.5871986 -1.3253062 0.22071633 0.1243007
000160 0e 5c 4e 3f 1b 1b a8 3d f2 81 02 3f 78 ad f3 bd
       0.80609214 0.08208295 0.5097953 -0.11898321
000170 a4 13 2a bf 70 89 38 3d 3d 8e 55 be d0 5b f6 bb
       -0.6643622 0.045052946 -0.20855041 -0.007518269
000180 26 db 0e 3f e4 75 0d 3e 7a f9 87 3f f0 24 50 3e
       0.55803144 0.13814503 1.0623009 0.2032659
000190 66 e8 f3 bd 24 6f 37 3f 26 e2 dd 3e 76 dc 99 3e
       -0.11909561 0.7165396 0.433366 0.3005101
0001a0 06 e0 5c bf 4c 70 1b bf 9a 16 01 3f 51 d5 d2 3e
       -0.8627933 -0.60718226 0.5042511 0.41178373
0001b0 94 ae e1 3c 88 d8 3e 3e cd 93 97 3e 5e 04 18 3d
       0.027549066 0.18637288 0.2960495 0.03711354
0001c0 a1 4f c7 3e 72 7f 4f be 25 7a 0a 3f 8f 78 3c bd
       0.3892794 -0.2026346 0.5409263 -0.04601341
0001d0 55 c3 85 3d be 2b 71 3e 41 d7 20 be bc 48 91 3e
       0.06531397 0.23551843 -0.15707113 0.28375804
0001e0 51 70 a1 be 55 9d b3 be 07 d5 09 3f 90 f3 2e bf
       -0.31531003 -0.35080972 0.5384068 -0.68340397
0001f0 59 a9 07 c0 d9 c0 3d bd 96 08 4b be 41 b4 f6 3e
       -2.1197112 -0.046326492 -0.19827494 0.48184398
000200 92 48 05 be 46 e0 13 3f 5e 88 d5 3e 82 f2 52 3d
       -0.13015965 0.5776409 0.41705602 0.051500805
000210 e9 e3 2e bf d6 47 6a 3e a4 30 47 3f 86 77 06 3d
       -0.68316513 0.22878966 0.77808595 0.03282883
000220 94 f9 6d 3d c7 68 89 bd a4 e6 a8 3e 35 8d b3 3e
       0.058099344 -0.06709438 0.32988465 0.3506867
000230 c0 21 27 3e c6 e2 1c be 64 f6 32 3e 94 f6 92 3e
       0.16321468 -0.15320882 0.17476803 0.2870375
000240 74 f1 8a 3d 3e 19 3d bf a5 15 8d 3e c2 84 84 be
       0.06784335 -0.7386664 0.27555576 -0.25882536
000250 49 41 ab be 63 f9 50 bb b6 bd ad be 55 01 e3 3d
       -0.33448246 -0.0031886927 -0.339338 0.110842384
000260 b9 d4 ae 3a 76 49 e9 3e 89 57 b5 be 1c 1f 41 be
       0.0013338543 0.4556386 -0.35418347 -0.18859524
000270 8f 1b 17 3f fc 56 29 be 03 9a 0e 3f 53 d7 0a 3e
       0.59026426 -0.16537088 0.55703753 0.13558702
000280 7d 4c 97 3e fd 42 9d be 4a e2 86 be 3c 76 d2 3c
       0.29550543 -0.3071517 -0.2634452 0.025691144
000290 3a f5 31 3f f6 15 9f 3e fc bf b0 3d 19 f3 a3 bf
       0.6951481 0.31071442 0.08630368 -1.2808563
0002a0 98 2d 82 3e 9e 44 2f bd 10 76 1f 3f c6 17 08 bd
       0.2542541 -0.042790048 0.62289524 -0.033225797
0002b0 c6 12 5f be 0d 74 d1 3e b3 60 e0 bf b8 ab 99 3e
       -0.21784505 0.40908852 -1.752951 0.30013824
0002c0 d5 55 b4 3e c0 90 d4 3e ee 63 f5 3f aa 69 3c 3e
       0.35221735 0.41516685 1.9171121 0.18399683
0002d0 bc 19 69 be 50 68 28 3e 9c c7 26 be 96 14 a0 be
       -0.22763723 0.16446042 -0.16287082 -0.31265706
0002e0 ba 33 fb be 76 c5 20 3f fb a6 6f bd f7 88 0a c0
       -0.49062902 0.628013 -0.058508854 -2.1646097
0002f0 be 20 85 3e fd ae 99 be de 7d 64 bd 49 61 a4 3b
       0.26001543 -0.30016318 -0.0557841 0.00501648
000300 60 2c 85 bc c0 69 e8 bd 1d 6f 81 bf 2a 12 3d bf
       -0.016256511 -0.11348295 -1.0112034 -0.7385584
000310 b5 24 dd 3e 9c e3 4b be b6 64 00 40 55 ce 31 3f
       0.43192068 -0.19911045 2.006147 0.6945546
000320 b4 06 b7 3e 29 b6 c3 be ec ee ce 3c 9a 96 fe be
       0.35747302 -0.38224915 0.025260411 -0.49724275
000330 c6 f2 2b 3f 71 ae 15 bf a8 5f ee 3e 6d 27 e2 3f
       0.6716732 -0.584693 0.46557355 1.7668282
000340 43 6b 94 bd e1 e6 c1 3e 83 f7 b9 3c 77 56 f4 be
       -0.07247021 0.3787146 0.02270103 -0.47722217
000350 c5 fd 0b 3f ae c3 5d bd 1e 08 1e 3e 52 67 d1 be
       0.54684097 -0.054141693 0.15432784 -0.4089914
000360 e1 67 a0 3d c1 69 ee 3d 2b 79 31 3f 8f 1c d1 3e
       0.07832313 0.11641265 0.6932551 0.408421
000370 b4 91 f4 3c ac 38 c4 3d 54 fa be 3e 4e 4b dc be
       0.029854633 0.09581122 0.3730036 -0.43026203
000380 42 97 cf 3c 52 64 2f be 51 6d e2 be 7e d3 a6 3e
       0.02534068 -0.17128113 -0.44224027 0.3258323
000390 d7 6a cc 3e f7 26 64 bd f6 4c 3a bf d0 94 11 be
       0.39925262 -0.055701222 -0.72773683 -0.14216924
0003a0 79 6e af 3d 32 2c 8a be 23 13 e2 be b8 1f 3a 3f
       0.08565993 -0.26986843 -0.44155225 0.7270465
0003b0 33 b6 a3 3d eb 1c 3c be 54 b9 58 3e 9c d8 75 3d
       0.07993736 -0.18370406 0.21164447 0.060021028
0003c0 b9 f8 bd 3e d1 2a ab be 80 d6 87 3e 61 6c e7 bd
       0.37103823 -0.33431104 0.26530838 -0.112999685
0003d0 44 84 18 bf d5 13 86 bf d2 7a 51 3e 34 60 22 3d
       -0.5957682 -1.0474802 0.20457008 0.039642528
0003e0 e6 81 cd bd 0c 29 21 bf a7 16 06 3f cf 85 a5 bd
       -0.10034542 -0.6295326 0.52378315 -0.080821626
0003f0 78 68 0d 3f c5 8d ba be 31 fd 09 be 74 d1 fb 3d
       0.5523753 -0.36436287 -0.13475491 0.122958094

policy_network.h3.transform.bias f4 [20]
000000 a9 c7 47 be c9 84 df 3d 62 4d ad be 01 7c 73 be
       -0.19509758 0.10913999 -0.338481 -0.23777772
000010 b0 87 55 3f 91 a9 00 bf f9 d5 2b bf 9a 5c d1 3c
       0.8341017 -0.5025874 -0.6712337 0.025556851
000020 e6 a5 e9 3d 80 8a e2 bd ed 27 00 3e b2 86 0b bd
       0.11408596 -0.11061573 0.1251523 -0.034064002
000030 6a 8e 19 3f 18 b5 00 3f bc 0c 24 3e 77 11 4f be
       0.5998293 0.5027633 0.16020483 -0.20221506
000040 1a eb 4d be fd 36 51 3d b6 4c 8d bd 5c 0c d7 bd
       -0.20109215 0.05107783 -0.06899397 -0.10500404

policy_network.critic_linear.weight f4 [1, 20]
000000 6a db 68 bd 17 89 b1 be 96 7a 68 bd d0 51 1c bf
       -0.056849875 -0.34674904 -0.056757532 -0.61062336
000010 0f f6 a3 bf d8 dd bd 3f de 03 e9 3f 68 aa 24 3f
       -1.2809466 1.4833326 1.8204305 0.6432252
000020 b9 0a 44 3f cb 76 c6 3e 98 4b fe be fe bf 43 3d
       0.7657886 0.38762507 -0.49667048 0.04779052
000030 60 fd 0a bf a6 8b 7b be 90 05 34 bf 0b aa 25 3d
       -0.5429287 -0.2456499 -0.7032099 0.04044537
000040 e0 33 65 bd a2 ff 09 bf 64 02 89 3e b8 11 b6 3d
       -0.055957675 -0.5390569 0.26759636 0.08890098

target_network.emb1.transform.weight f4 [20, 2]
000000 80 bb fc 3c e7 45 8d 3e 3c 3b e7 bc 47 cd 2b bf
       0.030851126 0.27592394 -0.028226487 -0.67110103
000010 de 3f f1 bb 48 be a9 be 94 3e 30 be 70 d9 aa be
       -0.00736235 -0.33152986 -0.17211372 -0.33369017
000020 5c af f3 3b 42 80 b0 3e 02 0f 04 bf 25 20 fe 3e
       0.007436676 0.34472853 -0.515854 0.496339
000030 9a 1a 50 be 33 cd 8e bd f1 40 93 be c1 d0 90 be
       -0.20322648 -0.069727324 -0.28760484 -0.28284267
000040 a0 5e 96 3c 22 23 1b 3d f9 33 41 bd 13 bd 7e 3e
       0.018355668 0.037875302 -0.047168706 0.24876814
000050 4d ba 15 be 35 ee ce 3c 5b 3c 46 be cd 81 63 3e
       -0.1462185 0.02526007 -0.19358961 0.22217484
000060 f0 33 8d 3e a7 1e bd be f0 55 99 be 7c 41 a1 3e
       0.27578688 -0.36937448 -0.29948378 0.31495273
000070 a1 22 9f 3d 9c 5c eb bc a2 e9 3e bf 96 46 76 3e
       0.07770277 -0.028730683 -0.74575245 0.24050364
000080 c9 5a 1b bf c6 58 6b be 61 7f da be cd 4e c6 be
       -0.606854 -0.22983083 -0.42675307 -0.38731995
000090 96 44 04 be d0 2e 1f 3c ad 32 9e be c6 77 98 be
       -0.12916788 0.009715751 -0.30898038 -0.2977888

target_network.emb1.transform.bias f4 [20]
000000 c3 cc cc bd 71 cc cc bd 00 00 00 00 00 00 00 00
       -0.09999993 -0.099999316 0.0 0.0
000010 a7 8a e3 bd 00 00 00 00 00 00 00 00 00 00 00 00
       -0.1111043 0.0 0.0 0.0
000020 cb cc cc bd de d2 08 be 00 00 00 00 04 bc 09 bc
       -0.09999999 -0.1336169 0.0 -0.008406643
000030 98 24 fe bd 80 1c ad b9 cb cc cc bd 00 00 00 00
       -0.124093235 -0.00033018366 -0.09999999 0.0
000040 00 00 00 00 00 00 00 00 cb cc cc bd 00 00 00 00
       0.0 0.0 -0.09999999 0.0

target_network.emb2.transform.weight f4 [20, 2]
000000 c8 e9 4e 3d 71 de 0b 3e 20 ca 04 be a3 c8 e9 3e
       0.05051592 0.13659073 -0.1296773 0.45660886
000010 19 8e 92 be 6d 8d 03 3d aa 0d 47 bd d0 37 d2 bd
       -0.28624037 0.032117296 -0.048597015 -0.10264552
000020 2d 8e a6 3e 29 4a 5e be 8d 86 87 bd ae f3 2f 3e
       0.32530347 -0.21707977 -0.066174604 0.171828
000030 7e 0b 7d bc 95 5f 52 3f ac e2 92 be 4a 15 e9 3e
       -0.0154446345 0.82177097 -0.28688562 0.45524055
000040 a6 a0 89 be 88 64 07 3e ba a7 04 3f d8 88 70 3f
       -0.26880378 0.13221943 0.5181843 0.93958807
000050 54 37 ac 3d b2 c4 0d bf 06 b8 5d bf 2c c7 3c be
       0.084089905 -0.5537826 -0.8660892 -0.18435353
000060 65 45 64 bd 83 48 6d 3d 6a d8 92 be 76 63 82 3e
       -0.055730242 0.05793048 -0.28680736 0.25466508
000070 c7 42 8a 3d ef bd 44 3f 16 b4 28 be ec c5 62 3d
       0.06751018 0.76852316 -0.16474947 0.055364534
000080 ce 58 19 bf 27 67 d3 3d 82 77 31 3f 27 68 70 3f
       -0.5990113 0.10322409 0.6932298 0.93908924
000090 c1 2c ba bd 61 8c f8 bd 24 45 83 bc 00 72 ae 3b
       -0.090905674 -0.1213615 -0.01602418 0.0053236485

target_network.emb2.transform.bias f4 [20]
000000 4c b0 4c be e7 3e 93 be 00 00 00 00 00 00 00 00
       -0.19989127 -0.28758928 0.0 0.0
000010 e1 4c 36 be 82 fc f9 bd f1 66 97 be 8c ac 5b be
       -0.17802764 -0.12206365 -0.29570726 -0.2145254
000020 2b c6 cc bd a6 ba 8f be 20 b5 6b bd 00 00 00 00
       -0.09998735 -0.2807209 -0.05754578 0.0
000030 64 07 dc bc 58 42 a9 bd 63 a2 17 be c4 03 42 bd
       -0.026858993 -0.08264607 -0.1480804 -0.047366872
000040 00 00 00 00 d3 f5 48 bd 00 00 00 00 cb cc cc bd
       0.0 -0.04906256 0.0 -0.09999999

target_network.emb3.transform.weight f4 [20, 2]
000000 67 23 06 bf bc 36 5e be 02 de 96 be a7 85 52 bd
       -0.5239777 -0.21700567 -0.29466254 -0.051396992
000010 de d0 81 be a8 03 6c bd e0 54 30 3e ac 98 11 3e
       -0.25354666 -0.057620674 0.17219877 0.14218396
000020 90 2d f9 3b 0f 97 92 3e 59 31 c3 be 12 17 a0 3e
       0.0076043084 0.28630874 -0.38123587 0.312676
000030 4b ba 0e be 90 94 77 3e 08 8a 19 bd 27 b7 94 be
       -0.13938253 0.24177766 -0.037485152 -0.29045984
000040 0e fe b1 bf 62 82 b5 bb 6c f3 87 bc f3 3b ba be
       -1.3905656 -0.0055392245 -0.016595565 -0.36373863
000050 c3 33 8a bd ac a1 cd be fd 12 20 bf b0 42 5f 3e
       -0.06748154 -0.40162408 -0.62528974 0.21802783
000060 7d a5 65 bd a9 0b bf 3d ac 93 25 3e c5 21 1b 3d
       -0.056066025 0.09328396 0.16169614 0.037874002
000070 05 33 51 be 5c 8e 10 be b4 3b 40 bf 86 6b 15 bf
       -0.20429619 -0.14116806 -0.750911 -0.5836719
000080 3b fc 15 3f d5 ef 17 bf 7e c2 51 3e cb a7 2e be
       0.58588 -0.5935033 0.20484349 -0.17056195
000090 a0 b9 ad 3c 45 82 88 3d 49 b7 1a 3e cc 5f 05 3e
       0.021206677 0.06665472 0.1510898 0.13024825

target_network.emb3.transform.bias f4 [20]
000000 00 00 00 00 00 00 00 00 00 00 00 00 5c f5 88 be
       0.0 0.0 0.0 -0.26749694
000010 10 55 90 be 4b 0b 56 be 69 30 9c be be cc cc bd
       -0.28189898 -0.20902745 -0.30505684 -0.09999989
000020 54 d9 ae 3e bb cc cc bd 00 00 00 00 cb 17 d8 bd
       0.34150183 -0.09999987 0.0 -0.10551413
000030 d6 f9 aa bd 54 8e 21 be 00 00 00 00 63 a1 ca 3e
       -0.08348434 -0.1577695 0.0 0.39576253
000040 38 cf c9 be 8c 10 4c be ca cc cc bd 42 04 9b be
       -0.39415908 -0.19928187 -0.09999998 -0.30276686

target_network.emb4.transform.weight f4 [20, 2]
000000 c5 38 19 3e 33 cc ad 3d c8 b4 77 bc 28 c1 94 be
       0.14963062 0.084862135 -0.015118785 -0.29053617
000010 ef d0 18 3e f0 81 a8 3c 7e 70 4f be df e0 20 3f
       0.14923452 0.020569772 -0.20257756 0.62843126
000020 4e 81 2d 3e 16 78 6d be 59 8b 21 3f a6 2a 64 3f
       0.16943857 -0.2319034 0.6310325 0.89127576
000030 1e 02 ea 3d f4 3d 0f be 84 32 57 be 4b 4f 83 be
       0.11426185 -0.13988477 -0.21015364 -0.25646433
000040 3f de 9a be 76 1a ba be 69 53 03 be 9b 34 c1 3d
       -0.30247685 -0.36348313 -0.12824787 0.09433862
000050 68 9b 8c bc 97 37 b8 be f1 73 47 3d cc 12 63 3d
       -0.017163947 -0.35979912 0.048694555 0.055437848
000060 ba a4 83 bd 9e 76 ee 3c aa 2d 1a 3f 1c 3b 1b 3f
       -0.064279035 0.029109295 0.6022593 0.6063707
000070 83 3c 89 be b2 22 47 3e 89 15 8f 3e 28 67 03 bf
       -0.2680398 0.19446829 0.27946118 -0.5132928
000080 7f 8f b3 3d 32 65 bd bc 41 c4 0f bf bf 41 06 3f
       0.08767604 -0.023119543 -0.56158835 0.5244407
000090 2c 10 67 bf 16 20 95 3d 23 03 05 bf 98 bd 02 bf
       -0.9025905 0.072815105 -0.5195791 -0.5107055

target_network.emb4.transform.bias f4 [20]
000000 60 6c 5d be db cb cc bd f9 35 1b be 6e c8 d7 3d
       -0.21623373 -0.0999982 -0.15157308 0.10536276
000010 6a 02 e5 bd d2 67 9b be 89 06 a0 bd 00 00 00 00
       -0.11182101 -0.30352646 -0.078137465 0.0
000020 00 00 00 00 c7 21 57 bd 00 00 00 00 ec 2c d1 bd
       0.0 -0.052522447 0.0 -0.10213646
000030 3c c5 4b bd 37 31 da be 4a 5f 00 be 11 4b 24 be
       -0.049748644 -0.42615673 -0.1253635 -0.1604426
000040 ae f3 e1 bd fa ec 80 be da 9f cc bd 00 00 00 00
       -0.11032806 -0.251808 -0.09991427 0.0

target_network.h2.transform.weight f4 [20, 20]
000000 30 09 b8 bc bc 3b 5a 3d bf a7 c7 be d6 45 8f bd
       -0.022465318 0.053279623 -0.38995168 -0.06995742
000010 5f 69 d3 bd 03 ff 8b 3e 5e 10 01 bf 92 34 4f bf
       -0.10322832 0.27342996 -0.504156 -0.8093959
000020 b1 c1 4b bd 65 8d f3 be e1 8e 9b 3e 8c 9a 21 3e
       -0.049745265 -0.47568813 0.30382445 0.15781611
000030 99 0e e3 3d e0 a9 8e 3c 99 9f 6e be dc ce 8e be
       0.11086769 0.017414987 -0.23303069 -0.27892196
000040 a4 69 a5 be f3 aa 9e be a4 e2 d4 be 69 24 e8 be
       -0.3230716 -0.309898 -0.41579163 -0.4534028
000050 5c bd e2 3c e6 a8 0e 3c 67 81 cb be 1a 42 18 3e
       0.027678184 0.008707261 -0.39747164 0.14868966
000060 40 a8 cf ba e4 b4 56 bf 20 c7 ca 3c e3 a4 10 bf
       -0.0015842989 -0.8386977 0.024753153 -0.565016
000070 f6 61 41 bf 36 77 9a 3e b8 bf 0a bc 2b 13 44 be
       -0.755401 0.30169076 -0.008468561 -0.19147937
000080 17 62 92 be 86 01 f9 be 5a 9f 0e bf 33 e2 a9 be
       -0.28590462 -0.48633975 -0.557119 -0.3318039
000090 0c cf 73 be f3 77 10 be 2d 30 a2 be 52 e3 31 3d
       -0.23809451 -0.14108257 -0.3167738 0.04342968
0000a0 40 40 02 bf 30 16 34 bc 55 d6 cc be 74 47 fa be
       -0.5087929 -0.010991618 -0.40007272 -0.4888264
0000b0 bf 06 bd be cc e2 5a be 38 75 de be 5a 44 3d 3d
       -0.3691921 -0.21375579 -0.43448806 0.046207763
0000c0 12 fb 80 3d 51 78 10 3e 66 eb 74 bd a2 f3 1d be
       0.06297888 0.14108397 -0.059794806 -0.1542497
0000d0 0c 36 66 3e e8 f1 40 be 86 e4 fa 3d 04 11 06 bf
       0.22481555 -0.1884228 0.12250619 -0.52369714
0000e0 5a 92 df 3e 88 4e 86 be c6 d2 44 bf f4 eb a0 3e
       0.43666345 -0.2623179 -0.76884115 0.31430018
0000f0 5e ec ab bc 39 ab 69 bd 31 90 a7 3e 8a 77 f5 be
       -0.020986732 -0.057048056 0.32727197 -0.47942764
000100 7c 83 61 3e b2 e9 9b 3d a8 b9 77 bf 6a 97 b6 bd
       0.22022814 0.07612933 -0.96767664 -0.08915599
000110 da 10 d0 bf 71 dd 8a 3f 1b 4c db be fd 60 2d 3f
       -1.6255143 1.0848829 -0.428315 0.6772612
000120 34 4a 05 be aa c5 ee be e2 ec 1a bf 7e a4 c8 be
       -0.13016587 -0.4663518 -0.60517704 -0.39187998
000130 c5 87 46 bd d1 5a f4 be c6 1d 73 3e 2e c5 cb 3d
       -0.048469324 -0.47725537 0.23741826 0.099497184
000140 2d 70 3f be 34 d7 bc be 4e 36 9c be f5 6a cf 3d
       -0.18695135 -0.36882937 -0.3051018 0.10127822
000150 55 a7 e9 be 9a d1 56 bd 37 10 89 be ca 41 a3 be
       -0.45635477 -0.052445985 -0.26770183 -0.3188613
000160 b2 db f9 bd d9 35 cc 3e 76 48 77 3e 73 7f 0b be
       -0.12200107 0.39884833 0.24148735 -0.13622837
000170 1b 8c 9d bd 27 13 12 3f 43 9e 17 bf f7 94 96 be
       -0.076927386 0.57060474 -0.59225863 -0.29410526
000180 18 63 57 bc a7 58 de 3e 47 04 8c 3e 68 d5 82 bc
       -0.013146184 0.4342701 0.27347013 -0.0159709
000190 b1 8e bf 3d 2c 16 92 bc 38 31 f9 3d 19 ee d9 3e
       0.09353388 -0.017832838 0.12167591 0.42564467
0001a0 91 4c 00 3e f0 29 66 3f 8a 5f ff 3e d4 0c a2 be
       0.12529208 0.8990774 0.49877578 -0.31650412
0001b0 c1 d4 24 c0 dd 7a ab be b3 98 0a be 5c d3 b6 be
       -2.5754855 -0.33492175 -0.13534813 -0.3570813
0001c0 e4 fb 4c be bb f2 30 be 7e e8 db 3e f2 84 64 bf
       -0.20017964 -0.17280094 0.42950815 -0.8926536
0001d0 66 69 88 3d bb b8 36 bf 00 9a 76 3e ce 8c af bd
       0.06660728 -0.71375626 0.24082184 -0.08571778
0001e0 36 dc 5c 3d 2f ce 55 bd 15 3a c8 be 02 04 cb 3e
       0.053920947 -0.052198585 -0.39106813 0.39651495
0001f0 cb 1c 64 3e 0c 83 58 be f4 78 b8 bd 31 3c c5 3e
       0.22276609 -0.2114374 -0.09007445 0.38522485
000200 3b e6 af 3e 3b 67 41 bf 9e 0d 0f bf bf c1 cb 3e
       0.3435534 -0.7554814 -0.55880153 0.39796254
000210 c2 a5 ea 3a 33 4a 0e bf 58 fe da be c9 a4 01 bf
       0.0017902183 -0.5558197 -0.42772174 -0.5064207
000220 f9 63 a3 bd 64 21 de be 29 8f 92 bd e6 00 40 3e
       -0.07978053 -0.4338485 -0.07156212 0.18750343
000230 24 b3 b4 be d4 ce 4f bf 4a ca 92 be 36 a5 59 3e
       -0.35292923 -0.8117497 -0.2866996 0.21254429
000240 4c 01 f2 3c 92 95 2b c0 f4 c8 d5 be 9f f1 9e bf
       0.029541634 -2.681004 -0.41754878 -1.2417487
000250 26 3b 7d 3f e6 87 6d bf 32 5b 55 bd de 52 49 3e
       0.9891838 -0.9278549 -0.052088924 0.19660518
000260 18 2f a8 bc 5b f9 54 c0 e0 91 29 bf 29 e9 15 be
       -0.020530269 -3.3277194 -0.6623821 -0.14639725
000270 88 9f 8f 3e 0a d6 6e bf 38 1f 5f 3e 72 1b 62 bf
       0.280514 -0.9329535 0.21789253 -0.8832313
000280 d8 b0 08 3f 82 f0 3d bf de fb 32 be c2 86 98 be
       0.5339484 -0.7419511 -0.17478892 -0.29790312
000290 cc 3a 12 bf 40 6b ea bb d5 26 8a 3d c2 31 58 be
       -0.57120967 -0.0071538985 0.06745688 -0.21112731
0002a0 62 d2 de be de 65 86 be f8 98 63 bc fa ab 64 3d
       -0.43519884 -0.26249593 -0.013891451 0.055828072
0002b0 12 b4 14 bd 69 eb 11 be b0 42 13 bc a4 fe 02 bf
       -0.03630454 -0.14249958 -0.0089880675 -0.511698
0002c0 56 46 85 3e a9 70 01 bf 6b f4 a3 3e 84 9c ca 3d
       0.26030225 -0.5056253 0.32022414 0.09893134
0002d0 17 ce 21 3d 2b 95 de bd b9 b1 f9 3e 54 03 40 bd
       0.039503183 -0.10868295 0.48768404 -0.046878174
0002e0 42 8b 1f be 30 45 b4 bc c1 ba 9b 3e 98 75 0a be
       -0.15580466 -0.022005647 0.3041592 -0.13521421
0002f0 f9 51 c4 3d 76 39 64 be 60 a4 8f 3e cb cb cd 3e
       0.095859475 -0.22287545 0.28055096 0.40194544
000300 98 f0 c0 3e 15 c2 88 bf 94 2e 3d 3e e2 5e d8 3d
       0.37683558 -1.0684229 0.184748 0.105649725
000310 5e 49 3d 3d d6 b3 92 3e 6f 67 1e be ba 56 fe 3d
       0.046212547 0.2865283 -0.15469144 0.124188855
000320 74 49 3b bd d2 bd c4 be 4b 27 95 3e 39 81 06 3e
       -0.045724347 -0.3842607 0.2913154 0.13135232
000330 bf 21 39 3f 21 e9 f5 be e6 03 0b be 3c 19 eb bd
       0.7231712 -0.48029426 -0.13575706 -0.114794225
000340 07 6d d4 3d bb 74 91 be c9 68 f0 3e 54 fd 61 3e
       0.10372358 -0.2840937 0.46954945 0.22069293
000350 c9 ae fa bd f3 e6 88 3e 62 c9 57 3e 14 b2 07 be
       -0.12240369 0.267387 0.21072915 -0.13251525
000360 3c f8 33 3e 16 95 90 be de f9 14 3d b9 57 da 3e
       0.17575163 -0.28238744 0.036371104 0.42645052
000370 4b 3b d1 bc 17 64 73 be 18 44 d6 be 70 00 e1 be
       -0.025540968 -0.2376865 -0.41848826 -0.43945646
000380 2e 1c 03 3f 88 f8 b7 3e 2d 0c 9e 3e d0 b2 ec bd
       0.51214874 0.35931802 0.30868664 -0.11557543
000390 a7 37 86 3e 77 38 d2 3d 29 29 31 3e 1f 9a 16 bf
       0.26214334 0.10264676 0.17300858 -0.5882892
0003a0 e7 9a 98 3e 33 eb 96 be ce 0e 7c be 9a 54 89 be
       0.2980568 -0.29476318 -0.24615023 -0.26822358
0003b0 c4 37 10 be 49 c6 6e be 5a 48 7e 3e e0 32 6a 3d
       -0.14083773 -0.23317827 0.24832287 0.057177424
0003c0 e1 ce a1 3e 69 ca 8b 3e 9b e3 87 bc c5 3f a2 be
       0.3160315 0.27302864 -0.016588023 -0.31689277
0003d0 78 14 40 3e 52 66 38 be 42 b3 cd be 5a b3 37 3e
       0.18757808 -0.18007782 -0.40175825 0.17939511
0003e0 54 2e 69 3e f1 46 b3 be d0 75 ea 3e e2 f9 41 3d
       0.22771579 -0.35015061 0.4579301 0.047357447
0003f0 bb 46 0b bf 0f 00 f3 be ea 4f b5 3d 0c 1c fa be
       -0.544048 -0.47460982 0.08853133 -0.48849523

target_network.h2.transform.bias f4 [20]
000000 66 2e 3a be 1a 86 1e be 7d cc cc bd 6e 15 b7 bd
       -0.18181762 -0.15480843 -0.099999405 -0.08939634
000010 7d 57 b0 bd a9 8d 4b 3e c6 eb 7a bd 1f e6 31 3f
       -0.08610437 0.19878258 -0.061260007 0.6949176
000020 c8 cc cc bd 94 13 91 be 32 6d db bd 8c d5 3e be
       -0.099999964 -0.2833525 -0.10714187 -0.18636149
000030 22 af 38 be a4 dc 73 be c5 0d e5 3e 9c c6 4c be
       -0.18035558 -0.23814636 0.44737068 -0.19997638
000040 b0 a7 72 be 3b ad 76 be 24 14 c4 3e 3f 04 1d be
       -0.2369678 -0.2408952 0.38296616 -0.15333651

target_network.h3.transform.weight f4 [20, 20]
000000 d5 a7 92 3c bc 11 c3 bd f3 1e 15 3f 52 e8 eb bd
       0.017902294 -0.09524867 0.5825035 -0.11518921
000010 48 ce 02 3e c3 dc 6a bf 58 2f 03 bf d6 1d 86 3e
       0.12774003 -0.91743106 -0.51244116 0.26194638
000020 e6 c2 7e 3e c7 76 ba be 80 36 2e ba da ae a6 3e
       0.24879035 -0.36418745 -0.00066456944 0.32555276
000030 2c 35 ba be 7f ad 92 be 20 a8 f7 be 7c 4e ad be
       -0.36368692 -0.28647992 -0.48370457 -0.3384894
000040 4c 97 0e be f2 57 89 be 61 49 29 bf 61 f6 3d be
       -0.13924903 -0.2682491 -0.6612759 -0.18551017
000050 ec 33 87 bc 25 d3 00 bf 04 ec a9 bd 16 e7 e1 be
       -0.01650425 -0.5032218 -0.082969695 -0.44121617
000060 84 de a3 3e de b2 c7 be 57 83 5a 3f 27 d0 a8 3f
       0.32005703 -0.39003652 0.8535666 1.3188523
000070 a0 03 a7 bc 80 81 94 be 93 46 5e be 17 2a 0c 3f
       -0.02038747 -0.2900505 -0.2170661 0.54751724
000080 76 91 99 be 62 18 2f bd 86 55 1f be f9 86 a5 3d
       -0.2999379 -0.042747863 -0.15559968 0.080823846
000090 b7 01 e7 be dc 05 5b 3c 45 a6 ca 3e 07 44 0c 3f
       -0.45118496 0.013368096 0.3957998 0.547913
0000a0 cf 86 03 3f f6 cd 82 3e ac f0 99 3d eb 5f 2f be
       0.51377577 0.2554776 0.07516608 -0.17126434
0000b0 c3 7a 08 bf 41 c3 3c be d4 60 72 3e 1b 9d dc 3e
       -0.5331232 -0.18433858 0.2366975 0.43088612
0000c0 85 ed bb 3e 78 a3 71 3e c2 a0 23 be 34 33 90 bd
       0.3670465 0.23597515 -0.15979293 -0.07041016
0000d0 2c 6b 37 3e d0 2c 72 3e 04 27 8a be 12 8d f7 be
       0.17911977 0.23649907 -0.26982892 -0.48349816
0000e0 7d 81 3c be f4 29 d6 3e d2 99 76 bd 91 67 79 be
       -0.18408771 0.41828883 -0.06020529 -0.24355914
0000f0 52 42 46 3e a8 50 ed 3e ed 66 ba 3e 6d 2a 80 bd
       0.19361237 0.46350598 0.3640665 -0.06258092
000100 37 15 6d 3f c7 24 8f be dc 0f 9d 3e 70 82 8e bf
       0.92610496 -0.27957746 0.30676162 -1.1133556
000110 77 2d 06 be 8f f4 01 bf 0e f6 45 3e ea 48 89 bd
       -0.13103281 -0.5076379 0.19332144 -0.067033604
000120 b0 32 67 bd 74 2e b0 3e 38 89 6f bd 4a 67 7f 3d
       -0.056444824 0.3441044 -0.05848047 0.062354364
000130 a9 1b b2 be b3 cc e0 bd 3b 2f ad be 29 1d 40 be
       -0.34786728 -0.10976543 -0.33825096 -0.18761124
000140 87 f0 d5 3d de b1 a7 3e 3c ff 32 be 05 9d 50 3c
       0.104462676 0.3275289 -0.17480177 0.012732749
000150 2a a1 0b bf 49 b3 a8 bf 76 03 62 3e ed 7b 02 3e
       -0.5454279 -1.3179713 0.22071633 0.12742586
000160 0e 5c 4e 3f 1b 1b a8 3d f2 81 02 3f 78 ad f3 bd
       0.80609214 0.08208295 0.5097953 -0.11898321
000170 a4 13 2a bf 70 89 38 3d 2a ba 50 be d0 5b f6 bb
       -0.6643622 0.045052946 -0.20383516 -0.007518269
000180 26 db 0e 3f e4 75 0d 3e 8d f5 87 3f f0 24 50 3e
       0.55803144 0.13814503 1.0621811 0.2032659
000190 66 e8 f3 bd 24 6f 37 3f 26 e2 dd 3e 76 dc 99 3e
       -0.11909561 0.7165396 0.433366 0.3005101
0001a0 45 fc 53 bf d5 da 1b bf 9a 16 01 3f 53 4e cf 3e
       -0.8280681 -0.60880786 0.5042511 0.40489444
0001b0 94 ae e1 3c 88 d8 3e 3e cd 93 97 3e 5e 04 18 3d
       0.027549066 0.18637288 0.2960495 0.03711354
0001c0 a1 4f c7 3e 72 7f 4f be cf 7a 08 3f 8f 78 3c bd
       0.3892794 -0.2026346 0.5331239 -0.04601341
0001d0 55 c3 85 3d be 2b 71 3e 7d 79 28 be bc 48 91 3e
       0.06531397 0.23551843 -0.16452594 0.28375804
0001e0 51 70 a1 be 55 9d b3 be 07 d5 09 3f 90 f3 2e bf
       -0.31531003 -0.35080972 0.5384068 -0.68340397
0001f0 9c ca 07 c0 0c b5 46 bd 96 08 4b be d1 5e f5 3e
       -2.1217413 -0.048512504 -0.19827494 0.47923902
000200 92 48 05 be 46 e0 13 3f 5e 88 d5 3e 82 f2 52 3d
       -0.13015965 0.5776409 0.41705602 0.051500805
000210 e9 e3 2e bf d6 47 6a 3e 7f aa 46 3f 86 77 06 3d
       -0.68316513 0.22878966 0.77603906 0.03282883
000220 94 f9 6d 3d c7 68 89 bd 3a 6c aa 3e 35 8d b3 3e
       0.058099344 -0.06709438 0.33285695 0.3506867
000230 c0 21 27 3e c6 e2 1c be 64 f6 32 3e 94 f6 92 3e
       0.16321468 -0.15320882 0.17476803 0.2870375
000240 74 f1 8a 3d 3e 19 3d bf a5 15 8d 3e c2 84 84 be
       0.06784335 -0.7386664 0.27555576 -0.25882536
000250 49 41 ab be 63 f9 50 bb b6 bd ad be 55 01 e3 3d
       -0.33448246 -0.0031886927 -0.339338 0.110842384
000260 b9 d4 ae 3a 76 49 e9 3e 89 57 b5 be 1c 1f 41 be
       0.0013338543 0.4556386 -0.35418347 -0.18859524
000270 8f 1b 17 3f fc 56 29 be 03 9a 0e 3f 53 d7 0a 3e
       0.59026426 -0.16537088 0.55703753 0.13558702
000280 7d 4c 97 3e fd 42 9d be 4a e2 86 be 3c 76 d2 3c
       0.29550543 -0.3071517 -0.2634452 0.025691144
000290 d9 f6 30 3f 0c b0 99 3e fc bf b0 3d f9 44 a6 bf
       0.6912666 0.30017126 0.08630368 -1.2989799
0002a0 98 2d 82 3e 9e 44 2f bd 10 76 1f 3f c6 17 08 bd
       0.2542541 -0.042790048 0.62289524 -0.033225797
0002b0 c6 12 5f be 0d 74 d1 3e a3 b4 e0 bf b8 ab 99 3e
       -0.21784505 0.40908852 -1.7555126 0.30013824
0002c0 d5 55 b4 3e c0 90 d4 3e d2 b5 f2 3f aa 69 3c 3e
       0.35221735 0.41516685 1.8961737 0.18399683
0002d0 bc 19 69 be 50 68 28 3e 9c c7 26 be 96 14 a0 be
       -0.22763723 0.16446042 -0.16287082 -0.31265706
0002e0 48 7c fd be ff 19 1f 3f fb a6 6f bd a3 03 0c c0
       -0.49508882 0.6214904 -0.058508854 -2.187722
0002f0 be 20 85 3e fd ae 99 be de 7d 64 bd 49 61 a4 3b
       0.26001543 -0.30016318 -0.0557841 0.00501648
000300 60 2c 85 bc c0 69 e8 bd ef 80 82 bf 2a 12 3d bf
       -0.016256511 -0.11348295 -1.0195597 -0.7385584
000310 b5 24 dd 3e 9c e3 4b be e5 7f fe 3f 55 ce 31 3f
       0.43192068 -0.19911045 1.988278 0.6945546
000320 b4 06 b7 3e 29 b6 c3 be ec ee ce 3c 9a 96 fe be
       0.35747302 -0.38224915 0.025260411 -0.49724275
000330 4f 5a 2a 3f b5 7b 15 bf a8 5f ee 3e 81 f9 e1 3f
       0.6654405 -0.58391887 0.46557355 1.7654268
000340 43 6b 94 bd e1 e6 c1 3e 83 f7 b9 3c 77 56 f4 be
       -0.07247021 0.3787146 0.02270103 -0.47722217
000350 c5 fd 0b 3f ae c3 5d bd c0 37 22 3e 52 67 d1 be
       0.54684097 -0.054141693 0.1584158 -0.4089914
000360 e1 67 a0 3d c1 69 ee 3d 7a 74 2f 3f 8f 1c d1 3e
       0.07832313 0.11641265 0.68537104 0.408421
000370 b4 91 f4 3c ac 38 c4 3d 54 fa be 3e 4e 4b dc be
       0.029854633 0.09581122 0.3730036 -0.43026203
000380 42 97 cf 3c 52 64 2f be 51 6d e2 be 7e d3 a6 3e
       0.02534068 -0.17128113 -0.44224027 0.3258323
000390 d7 6a cc 3e f7 26 64 bd f6 4c 3a bf d0 94 11 be
       0.39925262 -0.055701222 -0.72773683 -0.14216924
0003a0 79 6e af 3d 32 2c 8a be 23 13 e2 be b8 1f 3a 3f
       0.08565993 -0.26986843 -0.44155225 0.7270465
0003b0 33 b6 a3 3d eb 1c 3c be 54 b9 58 3e 9c d8 75 3d
       0.07993736 -0.18370406 0.21164447 0.060021028
0003c0 b9 f8 bd 3e d1 2a ab be 80 d6 87 3e 61 6c e7 bd
       0.37103823 -0.33431104 0.26530838 -0.112999685
0003d0 74 36 11 bf 68 fd 85 bf d2 7a 51 3e 6b 8b 20 3d
       -0.56723714 -1.0467958 0.20457008 0.03919546
0003e0 e6 81 cd bd 0c 29 21 bf a7 16 06 3f cf 85 a5 bd
       -0.10034542 -0.6295326 0.52378315 -0.080821626
0003f0 78 68 0d 3f c5 8d ba be 77 6b 07 be 74 d1 fb 3d
       0.5523753 -0.36436287 -0.13224588 0.122958094

target_network.h3.transform.bias f4 [20]
000000 a9 c7 47 be a4 d5 dd 3d 62 4d ad be 6a da 6d be
       -0.19509758 0.10831764 -0.338481 -0.2322785
000010 e4 66 56 3f 0e 7b 02 bf cd c8 2b bf 9a 5c d1 3c
       0.8375075 -0.50969017 -0.6710327 0.025556851
000020 3f 70 da 3d bd 11 f2 bd 56 c3 02 3e b2 86 0b bd
       0.106659405 -0.118197896 0.12769827 -0.034064002
000030 b8 93 19 3f 06 b4 00 3f fd 63 35 3e 77 11 4f be
       0.59991026 0.50274694 0.17713924 -0.20221506
000040 1a eb 4d be d2 fb 4c 3d 84 85 91 bd 5c 0c d7 bd
       -0.20109215 0.050044842 -0.07105544 -0.10500404

target_network.critic_linear.weight f4 [1, 20]
000000 6a db 68 bd 8b 6d af be 96 7a 68 bd 7f bf 1c bf
       -0.056849875 -0.34263262 -0.056757532 -0.612297
000010 dc 90 a3 bf 9d d5 bc 3f e3 7d e8 3f 68 aa 24 3f
       -1.2778583 1.475269 1.8163418 0.6432252
000020 88 a6 42 3f df b8 c4 3e 21 b3 fc be fe bf 43 3d
       0.76035357 0.38422295 -0.49355415 0.04779052
000030 ac 1a 0a bf b8 8a 76 be 05 e3 37 bf 0b aa 25 3d
       -0.5394695 -0.24076355 -0.7183078 0.04044537
000040 e0 33 65 bd 30 e3 08 bf ca e9 86 3e b8 11 b6 3d
       -0.055957675 -0.5347166 0.26350242 0.08890098
