pz_risk/mini_0/72.pt (torch, 18513 bytes, 26 tensors)

policy_network.emb1.transform.weight f4 [20, 2]
000000 80 bb fc 3c e7 45 8d 3e 3c 3b e7 bc 47 cd 2b bf
       0.030851126 0.27592394 -0.028226487 -0.67110103
000010 de 3f f1 bb 48 be a9 be 94 3e 30 be 70 d9 aa be
       -0.00736235 -0.33152986 -0.17211372 -0.33369017
000020 5c af f3 3b 42 80 b0 3e 02 0f 04 bf 25 20 fe 3e
       0.007436676 0.34472853 -0.515854 0.496339
000030 9a 1a 50 be 33 cd 8e bd f1 40 93 be c1 d0 90 be
       -0.20322648 -0.069727324 -0.28760484 -0.28284267
000040 a0 5e 96 3c 22 23 1b 3d f9 33 41 bd 13 bd 7e 3e
       0.018355668 0.037875302 -0.047168706 0.24876814
000050 4d ba 15 be 35 ee ce 3c 5b 3c 46 be cd 81 63 3e
       -0.1462185 0.02526007 -0.19358961 0.22217484
000060 f0 33 8d 3e a7 1e bd be f0 55 99 be 7c 41 a1 3e
       0.27578688 -0.36937448 -0.29948378 0.31495273
000070 a1 22 9f 3d 9c 5c eb bc a2 e9 3e bf 96 46 76 3e
       0.07770277 -0.028730683 -0.74575245 0.24050364
000080 c9 5a 1b bf c6 58 6b be 61 7f da be cd 4e c6 be
       -0.606854 -0.22983083 -0.42675307 -0.38731995
000090 96 44 04 be d0 2e 1f 3c ad 32 9e be c6 77 98 be
       -0.12916788 0.009715751 -0.30898038 -0.2977888

policy_network.emb1.transform.bias f4 [20]
000000 c3 cc cc bd 71 cc cc bd 00 00 00 00 00 00 00 00
       -0.09999993 -0.099999316 0.0 0.0
000010 a7 8a e3 bd 00 00 00 00 00 00 00 00 00 00 00 00
       -0.1111043 0.0 0.0 0.0
000020 cb cc cc bd de d2 08 be 00 00 00 00 04 bc 09 bc
       -0.09999999 -0.1336169 0.0 -0.008406643
000030 98 24 fe bd 80 1c ad b9 cb cc cc bd 00 00 00 00
       -0.124093235 -0.00033018366 -0.09999999 0.0
000040 00 00 00 00 00 00 00 00 cb cc cc bd 00 00 00 00
       0.0 0.0 -0.09999999 0.0

policy_network.emb2.transform.weight f4 [20, 2]
000000 c8 e9 4e 3d 71 de 0b 3e 20 ca 04 be a3 c8 e9 3e
       0.05051592 0.13659073 -0.1296773 0.45660886
000010 19 8e 92 be 6d 8d 03 3d aa 0d 47 bd d0 37 d2 bd
       -0.28624037 0.032117296 -0.048597015 -0.10264552
000020 2d 8e a6 3e 29 4a 5e be 8d 86 87 bd ae f3 2f 3e
       0.32530347 -0.21707977 -0.066174604 0.171828
000030 b5 31 af 3d be d2 5e 3f ac e2 92 be 4a 15 e9 3e
       0.08554403 0.8704032 -0.28688562 0.45524055
000040 a6 a0 89 be 88 64 07 3e 88 fb 21 3f bf 30 92 3f
       -0.26880378 0.13221943 0.6327443 1.1421126
000050 54 37 ac 3d b2 c4 0d bf 06 b8 5d bf 2c c7 3c be
       0.084089905 -0.5537826 -0.8660892 -0.18435353
000060 65 45 64 bd 83 48 6d 3d 6a d8 92 be 76 63 82 3e
       -0.055730242 0.05793048 -0.28680736 0.25466508
000070 d7 b8 49 3d 1a d8 4f 3f 16 b4 28 be ec c5 62 3d
       0.049248543 0.8118912 -0.16474947 0.055364534
000080 ce 58 19 bf 27 67 d3 3d ab 86 4a 3f ec 12 92 3f
       -0.5990113 0.10322409 0.79111737 1.1412024
000090 c1 2c ba bd 61 8c f8 bd 24 45 83 bc 00 72 ae 3b
       -0.090905674 -0.1213615 -0.01602418 0.0053236485

policy_network.emb2.transform.bias f4 [20]
000000 4c b0 4c be e7 3e 93 be 00 00 00 00 00 00 00 00
       -0.19989127 -0.28758928 0.0 0.0
000010 e1 4c 36 be 82 fc f9 bd 87 d1 85 be 8c ac 5b be
       -0.17802764 -0.12206365 -0.2613642 -0.2145254
000020 2b c6 cc bd a4 58 98 be 20 b5 6b bd 00 00 00 00
       -0.09998735 -0.29755127 -0.05754578 0.0
000030 64 07 dc bc 58 42 a9 bd e2 90 f4 bd c4 03 42 bd
       -0.026858993 -0.08264607 -0.11941697 -0.047366872
000040 00 00 00 00 1a 06 83 bd 00 00 00 00 cb cc cc bd
       0.0 -0.06397648 0.0 -0.09999999

policy_network.emb3.transform.weight f4 [20, 2]
000000 67 23 06 bf bc 36 5e be 02 de 96 be a7 85 52 bd
       -0.5239777 -0.21700567 -0.29466254 -0.051396992
000010 de d0 81 be a8 03 6c bd e0 54 30 3e ac 98 11 3e
       -0.25354666 -0.057620674 0.17219877 0.14218396
000020 90 2d f9 3b 0f 97 92 3e 59 31 c3 be 12 17 a0 3e
       0.0076043084 0.28630874 -0.38123587 0.312676
000030 4b ba 0e be 90 94 77 3e 08 8a 19 bd 27 b7 94 be
       -0.13938253 0.24177766 -0.037485152 -0.29045984
000040 74 61 ea bf ef 1e 82 be 6c f3 87 bc f3 3b ba be
       -1.831099 -0.25414225 -0.016595565 -0.36373863
000050 c3 33 8a bd ac a1 cd be fd 12 20 bf b0 42 5f 3e
       -0.06748154 -0.40162408 -0.62528974 0.21802783
000060 7d a5 65 bd a9 0b bf 3d ac 93 25 3e c5 21 1b 3d
       -0.056066025 0.09328396 0.16169614 0.037874002
000070 05 33 51 be 5c 8e 10 be d9 9e 22 bf 29 24 0a bf
       -0.20429619 -0.14116806 -0.6352363 -0.53961426
000080 3b fc 15 3f d5 ef 17 bf 7e c2 51 3e cb a7 2e be
       0.58588 -0.5935033 0.20484349 -0.17056195
000090 a0 b9 ad 3c 45 82 88 3d 49 b7 1a 3e cc 5f 05 3e
       0.021206677 0.06665472 0.1510898 0.13024825

policy_network.emb3.transform.bias f4 [20]
000000 00 00 00 00 00 00 00 00 00 00 00 00 5c f5 88 be
       0.0 0.0 0.0 -0.26749694
000010 10 55 90 be 4b 0b 56 be 69 30 9c be be cc cc bd
       -0.28189898 -0.20902745 -0.30505684 -0.09999989
000020 ba c1 10 3f bb cc cc bd 00 00 00 00 cb 17 d8 bd
       0.56545603 -0.09999987 0.0 -0.10551413
000030 d6 f9 aa bd 54 8e 21 be 00 00 00 00 2c 37 ae 3e
       -0.08348434 -0.1577695 0.0 0.34026468
000040 38 cf c9 be 8c 10 4c be ca cc cc bd 42 04 9b be
       -0.39415908 -0.19928187 -0.09999998 -0.30276686

policy_network.emb4.transform.weight f4 [20, 2]
000000 c5 38 19 3e 33 cc ad 3d c8 b4 77 bc 28 c1 94 be
       0.14963062 0.084862135 -0.015118785 -0.29053617
000010 ef d0 18 3e f0 81 a8 3c 98 e8 77 be 80 5a 11 3f
       0.14923452 0.020569772 -0.24209821 0.5677872
000020 4e 81 2d 3e 16 78 6d be 29 99 1d 3f fd 9d 64 3f
       0.16943857 -0.2319034 0.6156183 0.8930357
000030 1e 02 ea 3d f4 3d 0f be 84 32 57 be 4b 4f 83 be
       0.11426185 -0.13988477 -0.21015364 -0.25646433
000040 3f de 9a be 76 1a ba be 69 53 03 be 9b 34 c1 3d
       -0.30247685 -0.36348313 -0.12824787 0.09433862
000050 68 9b 8c bc 97 37 b8 be f1 73 47 3d cc 12 63 3d
       -0.017163947 -0.35979912 0.048694555 0.055437848
000060 ba a4 83 bd 9e 76 ee 3c 46 3d 04 3f 45 32 0e 3f
       -0.064279035 0.029109295 0.51655996 0.55545455
000070 83 3c 89 be b2 22 47 3e 89 15 8f 3e 28 67 03 bf
       -0.2680398 0.19446829 0.27946118 -0.5132928
000080 7f 8f b3 3d 32 65 bd bc 41 c4 0f bf bf 41 06 3f
       0.08767604 -0.023119543 -0.56158835 0.5244407
000090 2c 10 67 bf 16 20 95 3d 23 03 05 bf 98 bd 02 bf
       -0.9025905 0.072815105 -0.5195791 -0.5107055

policy_network.emb4.transform.bias f4 [20]
000000 60 6c 5d be db cb cc bd f9 35 1b be d7 f8 68 3d
       -0.21623373 -0.0999982 -0.15157308 0.056877937
000010 6a 02 e5 bd 51 3b ce be 89 06 a0 bd 00 00 00 00
       -0.11182101 -0.4027963 -0.078137465 0.0
000020 00 00 00 00 c7 21 57 bd 00 00 00 00 ec 2c d1 bd
       0.0 -0.052522447 0.0 -0.10213646
000030 3c c5 4b bd 6e eb dd be 4a 5f 00 be 11 4b 24 be
       -0.049748644 -0.4334368 -0.1253635 -0.1604426
000040 ae f3 e1 bd fa ec 80 be da 9f cc bd 00 00 00 00
       -0.11032806 -0.251808 -0.09991427 0.0

policy_network.h2.transform.weight f4 [20, 20]
000000 30 09 b8 bc bc 3b 5a 3d bf a7 c7 be d6 45 8f bd
       -0.022465318 0.053279623 -0.38995168 -0.06995742
000010 5f 69 d3 bd 03 ff 8b 3e 5e 10 01 bf 92 34 4f bf
       -0.10322832 0.27342996 -0.504156 -0.8093959
000020 b1 c1 4b bd 65 8d f3 be e1 8e 9b 3e 8c 9a 21 3e
       -0.049745265 -0.47568813 0.30382445 0.15781611
000030 99 0e e3 3d e0 a9 8e 3c 99 9f 6e be dc ce 8e be
       0.11086769 0.017414987 -0.23303069 -0.27892196
000040 a4 69 a5 be f3 aa 9e be a4 e2 d4 be 69 24 e8 be
       -0.3230716 -0.309898 -0.41579163 -0.4534028
000050 5c bd e2 3c e6 a8 0e 3c 67 81 cb be 1a 42 18 3e
       0.027678184 0.008707261 -0.39747164 0.14868966
000060 40 a8 cf ba e4 b4 56 bf 20 c7 ca 3c e3 a4 10 bf
       -0.0015842989 -0.8386977 0.024753153 -0.565016
000070 f6 61 41 bf 36 77 9a 3e b8 bf 0a bc 2b 13 44 be
       -0.755401 0.30169076 -0.008468561 -0.19147937
000080 17 62 92 be 86 01 f9 be 5a 9f 0e bf 33 e2 a9 be
       -0.28590462 -0.48633975 -0.557119 -0.3318039
000090 0c cf 73 be f3 77 10 be 2d 30 a2 be 52 e3 31 3d
       -0.23809451 -0.14108257 -0.3167738 0.04342968
0000a0 40 40 02 bf 30 16 34 bc 55 d6 cc be 74 47 fa be
       -0.5087929 -0.010991618 -0.40007272 -0.4888264
0000b0 bf 06 bd be cc e2 5a be 38 75 de be 5a 44 3d 3d
       -0.3691921 -0.21375579 -0.43448806 0.046207763
0000c0 12 fb 80 3d 51 78 10 3e 66 eb 74 bd a2 f3 1d be
       0.06297888 0.14108397 -0.059794806 -0.1542497
0000d0 0c 36 66 3e e8 f1 40 be 86 e4 fa 3d 04 11 06 bf
       0.22481555 -0.1884228 0.12250619 -0.52369714
0000e0 5a 92 df 3e 88 4e 86 be c6 d2 44 bf f4 eb a0 3e
       0.43666345 -0.2623179 -0.76884115 0.31430018
0000f0 5e ec ab bc 39 ab 69 bd 31 90 a7 3e 8a 77 f5 be
       -0.020986732 -0.057048056 0.32727197 -0.47942764
000100 7c 83 61 3e b2 e9 9b 3d a8 b9 77 bf 6a 97 b6 bd
       0.22022814 0.07612933 -0.96767664 -0.08915599
000110 da 10 d0 bf 71 dd 8a 3f 1b 4c db be fd 60 2d 3f
       -1.6255143 1.0848829 -0.428315 0.6772612
000120 34 4a 05 be aa c5 ee be e2 ec 1a bf 7e a4 c8 be
       -0.13016587 -0.4663518 -0.60517704 -0.39187998
000130 c5 87 46 bd d1 5a f4 be c6 1d 73 3e 2e c5 cb 3d
       -0.048469324 -0.47725537 0.23741826 0.099497184
000140 2d 70 3f be 34 d7 bc be 4e 36 9c be 56 aa a0 3d
       -0.18695135 -0.36882937 -0.3051018 0.07844989
000150 55 a7 e9 be 4f 5a 9f bd 04 95 c5 be ca 41 a3 be
       -0.45635477 -0.07780897 -0.38590252 -0.3188613
000160 81 cf 6e 3e 70 41 5f 3e 76 48 77 3e 73 7f 0b be
       0.23321344 0.21802306 0.24148735 -0.13622837
000170 1b 8c 9d bd b9 d4 48 3f fd b9 3e bf cb 6a 63 be
       -0.076927386 0.7844959 -0.74502546 -0.22208707
000180 18 63 57 bc 3a f6 c2 3e 47 04 8c 3e 68 d5 82 bc
       -0.013146184 0.3807848 0.27347013 -0.0159709
000190 b1 8e bf 3d 2c 16 92 bc 38 31 f9 3d db 13 cd 3e
       0.09353388 -0.017832838 0.12167591 0.4005421
0001a0 91 4c 00 3e 38 4a 6b 3f 5d 20 3a 3f d4 0c a2 be
       0.12529208 0.91910124 0.7270563 -0.31650412
0001b0 0b 0d 24 c0 af 2c a9 be b3 98 0a be 5c d3 b6 be
       -2.563296 -0.33041903 -0.13534813 -0.3570813
0001c0 e4 fb 4c be 34 f6 66 bd cc de 17 3f 8a a7 84 bf
       -0.20017964 -0.05638714 0.59324336 -1.0363629
0001d0 66 69 88 3d 3d 37 3a bf 00 9a 76 3e ce 8c af bd
       0.06660728 -0.72740537 0.24082184 -0.08571778
0001e0 36 dc 5c 3d 2f ce 55 bd 15 3a c8 be 02 04 cb 3e
       0.053920947 -0.052198585 -0.39106813 0.39651495
0001f0 cb 1c 64 3e 0c 83 58 be f4 78 b8 bd 31 3c c5 3e
       0.22276609 -0.2114374 -0.09007445 0.38522485
000200 3b e6 af 3e 3b 67 41 bf 9e 0d 0f bf bf c1 cb 3e
       0.3435534 -0.7554814 -0.55880153 0.39796254
000210 c2 a5 ea 3a 33 4a 0e bf 58 fe da be c9 a4 01 bf
       0.0017902183 -0.5558197 -0.42772174 -0.5064207
000220 f9 63 a3 bd 64 21 de be 29 8f 92 bd e6 00 40 3e
       -0.07978053 -0.4338485 -0.07156212 0.18750343
000230 24 b3 b4 be d4 ce 4f bf 4a ca 92 be 10 3f 93 3d
       -0.35292923 -0.8117497 -0.2866996 0.071897626
000240 4c 01 f2 3c 5d 81 47 c0 f0 e6 c1 bd 9f f1 9e bf
       0.029541634 -3.1172707 -0.09467876 -1.2417487
000250 23 d0 bc 3f 16 5b 87 bf 32 5b 55 bd de 52 49 3e
       1.4751018 -1.0574672 -0.052088924 0.19660518
000260 18 2f a8 bc 7d 26 81 c0 77 d6 9e be bd e2 57 bd
       -0.020530269 -4.0359483 -0.31023 -0.05270647
000270 88 9f 8f 3e 2f 07 83 bf 38 1f 5f 3e 72 1b 62 bf
       0.280514 -1.0236567 0.21789253 -0.8832313
000280 d8 b0 08 3f 82 f0 3d bf de fb 32 be c2 86 98 be
       0.5339484 -0.7419511 -0.17478892 -0.29790312
000290 cc 3a 12 bf 40 6b ea bb d5 26 8a 3d c2 31 58 be
       -0.57120967 -0.0071538985 0.06745688 -0.21112731
0002a0 62 d2 de be de 65 86 be f8 98 63 bc fa ab 64 3d
       -0.43519884 -0.26249593 -0.013891451 0.055828072
0002b0 12 b4 14 bd 69 eb 11 be b0 42 13 bc a4 fe 02 bf
       -0.03630454 -0.14249958 -0.0089880675 -0.511698
0002c0 56 46 85 3e a9 70 01 bf 6b f4 a3 3e 84 9c ca 3d
       0.26030225 -0.5056253 0.32022414 0.09893134
0002d0 17 ce 21 3d 2b 95 de bd b9 b1 f9 3e 54 03 40 bd
       0.039503183 -0.10868295 0.48768404 -0.046878174
0002e0 42 8b 1f be 30 45 b4 bc c1 ba 9b 3e 98 75 0a be
       -0.15580466 -0.022005647 0.3041592 -0.13521421
0002f0 f9 51 c4 3d 76 39 64 be 60 a4 8f 3e cb cb cd 3e
       0.095859475 -0.22287545 0.28055096 0.40194544
000300 98 f0 c0 3e 15 c2 88 bf 94 2e 3d 3e e2 5e d8 3d
       0.37683558 -1.0684229 0.184748 0.105649725
000310 5e 49 3d 3d d6 b3 92 3e 6f 67 1e be ba 56 fe 3d
       0.046212547 0.2865283 -0.15469144 0.124188855
000320 74 49 3b bd d2 bd c4 be 4b 27 95 3e 39 81 06 3e
       -0.045724347 -0.3842607 0.2913154 0.13135232
000330 bf 21 39 3f 21 e9 f5 be e6 03 0b be 3c 19 eb bd
       0.7231712 -0.48029426 -0.13575706 -0.114794225
000340 07 6d d4 3d bb 74 91 be c9 68 f0 3e 54 fd 61 3e
       0.10372358 -0.2840937 0.46954945 0.22069293
000350 c9 ae fa bd f3 e6 88 3e 62 c9 57 3e 14 b2 07 be
       -0.12240369 0.267387 0.21072915 -0.13251525
000360 3c f8 33 3e 16 95 90 be de f9 14 3d b9 57 da 3e
       0.17575163 -0.28238744 0.036371104 0.42645052
000370 4b 3b d1 bc 17 64 73 be 18 44 d6 be 70 00 e1 be
       -0.025540968 -0.2376865 -0.41848826 -0.43945646
000380 2e 1c 03 3f 88 f8 b7 3e 2d 0c 9e 3e d0 b2 ec bd
       0.51214874 0.35931802 0.30868664 -0.11557543
000390 a7 37 86 3e 77 38 d2 3d 29 29 31 3e 1f 9a 16 bf
       0.26214334 0.10264676 0.17300858 -0.5882892
0003a0 e7 9a 98 3e 33 eb 96 be ce 0e 7c be 9a 54 89 be
       0.2980568 -0.29476318 -0.24615023 -0.26822358
0003b0 c4 37 10 be 49 c6 6e be 5a 48 7e 3e e0 32 6a 3d
       -0.14083773 -0.23317827 0.24832287 0.057177424
0003c0 e1 ce a1 3e 69 ca 8b 3e 9b e3 87 bc c5 3f a2 be
       0.3160315 0.27302864 -0.016588023 -0.31689277
0003d0 78 14 40 3e 52 66 38 be 42 b3 cd be 5a b3 37 3e
       0.18757808 -0.18007782 -0.40175825 0.17939511
0003e0 54 2e 69 3e f1 46 b3 be d0 75 ea 3e e2 f9 41 3d
       0.22771579 -0.35015061 0.4579301 0.047357447
0003f0 bb 46 0b bf 0f 00 f3 be ea 4f b5 3d 0c 1c fa be
       -0.544048 -0.47460982 0.08853133 -0.48849523

policy_network.h2.transform.bias f4 [20]
000000 66 2e 3a be 1a 86 1e be 7d cc cc bd 6e 15 b7 bd
       -0.18181762 -0.15480843 -0.099999405 -0.08939634
000010 7d da bd bd e5 a1 86 3e c6 eb 7a bd ee fb 36 3f
       -0.09270189 0.2629539 -0.061260007 0.71478164
000020 c8 cc cc bd 94 13 91 be 32 6d db bd 8c d5 3e be
       -0.099999964 -0.2833525 -0.10714187 -0.18636149
000030 22 af 38 be 5d aa 71 be c7 98 ea 3e 9c c6 4c be
       -0.18035558 -0.23600145 0.45819685 -0.19997638
000040 b0 a7 72 be d7 f7 87 be e5 17 e1 3e 3f 04 1d be
       -0.2369678 -0.26556274 0.43963543 -0.15333651

policy_network.h3.transform.weight f4 [20, 20]
000000 d5 a7 92 3c bc 11 c3 bd f3 1e 15 3f 52 e8 eb bd
       0.017902294 -0.09524867 0.5825035 -0.11518921
000010 48 ce 02 3e c3 dc 6a bf 58 2f 03 bf d6 1d 86 3e
       0.12774003 -0.91743106 -0.51244116 0.26194638
000020 e6 c2 7e 3e c7 76 ba be 80 36 2e ba da ae a6 3e
       0.24879035 -0.36418745 -0.00066456944 0.32555276
000030 2c 35 ba be 7f ad 92 be 20 a8 f7 be 7c 4e ad be
       -0.36368692 -0.28647992 -0.48370457 -0.3384894
000040 4c 97 0e be f2 57 89 be 61 49 29 bf 61 f6 3d be
       -0.13924903 -0.2682491 -0.6612759 -0.18551017
000050 ec 33 87 bc 25 d3 00 bf 04 ec a9 bd 16 e7 e1 be
       -0.01650425 -0.5032218 -0.082969695 -0.44121617
000060 3e da 9f 3e 1b 51 8a be 57 83 5a 3f 0f 11 b4 3f
       0.31221193 -0.27015004 0.8535666 1.4067706
000070 a0 03 a7 bc 80 81 94 be 93 46 5e be 17 2a 0c 3f
       -0.02038747 -0.2900505 -0.2170661 0.54751724
000080 76 91 99 be 62 18 2f bd 91 b8 65 be f9 86 a5 3d
       -0.2999379 -0.042747863 -0.22433688 0.080823846
000090 b7 01 e7 be dc 05 5b 3c db e3 26 3f 07 44 0c 3f
       -0.45118496 0.013368096 0.6519143 0.547913
0000a0 cf 86 03 3f f6 cd 82 3e ac f0 99 3d eb 5f 2f be
       0.51377577 0.2554776 0.07516608 -0.17126434
0000b0 c3 7a 08 bf 41 c3 3c be d4 60 72 3e 1b 9d dc 3e
       -0.5331232 -0.18433858 0.2366975 0.43088612
0000c0 85 ed bb 3e 78 a3 71 3e c2 a0 23 be 34 33 90 bd
       0.3670465 0.23597515 -0.15979293 -0.07041016
0000d0 2c 6b 37 3e d0 2c 72 3e 04 27 8a be 12 8d f7 be
       0.17911977 0.23649907 -0.26982892 -0.48349816
0000e0 7d 81 3c be f4 29 d6 3e d2 99 76 bd 91 67 79 be
       -0.18408771 0.41828883 -0.06020529 -0.24355914
0000f0 52 42 46 3e a8 50 ed 3e ed 66 ba 3e 6d 2a 80 bd
       0.19361237 0.46350598 0.3640665 -0.06258092
000100 77 f7 72 3f e5 c6 98 be dc 0f 9d 3e 59 41 88 bf
       0.9490885 -0.29839244 0.30676162 -1.0644943
000110 77 2d 06 be 8f f4 01 bf 0e f6 45 3e ea 48 89 bd
       -0.13103281 -0.5076379 0.19332144 -0.067033604
000120 b0 32 67 bd 74 2e b0 3e 45 b8 b8 bd 4a 67 7f 3d
       -0.056444824 0.3441044 -0.090195216 0.062354364
000130 a9 1b b2 be 70 14 df bd 5a a2 88 be 29 1d 40 be
       -0.34786728 -0.1089257 -0.26686364 -0.18761124
000140 87 f0 d5 3d de b1 a7 3e 3c ff 32 be 05 9d 50 3c
       0.104462676 0.3275289 -0.17480177 0.012732749
000150 c3 1c 31 bf 8d 62 d0 bf 76 03 62 3e d9 14 49 be
       -0.6918451 -1.6280075 0.22071633 -0.19636859
000160 0e 5c 4e 3f 1b 1b a8 3d f2 81 02 3f 78 ad f3 bd
       0.80609214 0.08208295 0.5097953 -0.11898321
000170 a4 13 2a bf 70 89 38 3d 39 76 b8 be d0 5b f6 bb
       -0.6643622 0.045052946 -0.36027697 -0.007518269
000180 26 db 0e 3f e4 75 0d 3e f9 83 7b 3f f0 24 50 3e
       0.55803144 0.13814503 0.9824825 0.2032659
000190 66 e8 f3 bd 24 6f 37 3f 26 e2 dd 3e 76 dc 99 3e
       -0.11909561 0.7165396 0.433366 0.3005101
0001a0 de 13 f3 bf 50 44 80 bc 9a 16 01 3f 59 6e 04 3f
       -1.8990438 -0.015657574 0.5042511 0.5173088
0001b0 94 ae e1 3c 88 d8 3e 3e cd 93 97 3e 5e 04 18 3d
       0.027549066 0.18637288 0.2960495 0.03711354
0001c0 a1 4f c7 3e 72 7f 4f be 4f 0c ea 3e 8f 78 3c bd
       0.3892794 -0.2026346 0.45712516 -0.04601341
0001d0 55 c3 85 3d be 2b 71 3e c3 02 ad be bc 48 91 3e
       0.06531397 0.23551843 -0.3379117 0.28375804
0001e0 51 70 a1 be 55 9d b3 be 07 d5 09 3f 90 f3 2e bf
       -0.31531003 -0.35080972 0.5384068 -0.68340397
0001f0 93 2a ee bf d0 46 a0 bd 96 08 4b be 37 60 21 3f
       -1.8606743 -0.078260064 -0.19827494 0.6303744
000200 92 48 05 be 46 e0 13 3f 5e 88 d5 3e 82 f2 52 3d
       -0.13015965 0.5776409 0.41705602 0.051500805
000210 e9 e3 2e bf d6 47 6a 3e 21 3b 63 3f 86 77 06 3d
       -0.68316513 0.22878966 0.887621 0.03282883
000220 94 f9 6d 3d c7 68 89 bd 7a dc 9c 3e 35 8d b3 3e
       0.058099344 -0.06709438 0.3063696 0.3506867
000230 c0 21 27 3e c6 e2 1c be 64 f6 32 3e 94 f6 92 3e
       0.16321468 -0.15320882 0.17476803 0.2870375
000240 b0 8a a0 bd 81 76 40 bf a5 15 8d 3e 28 77 a1 be
       -0.078389525 -0.7518082 0.27555576 -0.31536222
000250 49 41 ab be 63 f9 50 bb b6 bd ad be 55 01 e3 3d
       -0.33448246 -0.0031886927 -0.339338 0.110842384
000260 b9 d4 ae 3a 76 49 e9 3e 22 30 e0 be 1c 1f 41 be
       0.0013338543 0.4556386 -0.43786722 -0.18859524
000270 8f 1b 17 3f fc 56 29 be 3d 98 e2 3e 53 d7 0a 3e
       0.59026426 -0.16537088 0.44256774 0.13558702
000280 7d 4c 97 3e fd 42 9d be 4a e2 86 be 3c 76 d2 3c
       0.29550543 -0.3071517 -0.2634452 0.025691144
000290 91 b1 35 3f 26 28 b5 3e fc bf b0 3d 15 d2 bf bf
       0.7097407 0.35382193 0.08630368 -1.4985987
0002a0 98 2d 82 3e 9e 44 2f bd 10 76 1f 3f c6 17 08 bd
       0.2542541 -0.042790048 0.62289524 -0.033225797
0002b0 c6 12 5f be 6d 62 d1 3e 39 97 01 c0 b8 ab 99 3e
       -0.21784505 0.40895405 -2.024855 0.30013824
0002c0 d5 55 b4 3e d8 42 d4 3e ab c5 10 40 aa 69 3c 3e
       0.35221735 0.41457248 2.2620647 0.18399683
0002d0 bc 19 69 be 50 68 28 3e 9c c7 26 be 96 14 a0 be
       -0.22763723 0.16446042 -0.16287082 -0.31265706
0002e0 1f 9d 14 bf 1a 76 1a 3f fb a6 6f bd 5b 96 0c c0
       -0.5805225 0.6033646 -0.058508854 -2.196677
0002f0 be 20 85 3e fd ae 99 be de 7d 64 bd 49 61 a4 3b
       0.26001543 -0.30016318 -0.0557841 0.00501648
000300 60 2c 85 bc ff 92 e9 bd 4b 9a 95 bf 2a 12 3d bf
       -0.016256511 -0.114049904 -1.1687711 -0.7385584
000310 b5 24 dd 3e bb 32 4c be ef 55 16 40 55 ce 31 3f
       0.43192068 -0.19941227 2.348995 0.6945546
000320 b4 06 b7 3e 29 b6 c3 be ec ee ce 3c 9a 96 fe be
       0.35747302 -0.38224915 0.025260411 -0.49724275
000330 76 d4 0f 3f e4 16 ed be a8 5f ee 3e c2 51 f1 3f
       0.56183565 -0.46306527 0.46557355 1.8853076
000340 43 6b 94 bd e1 e6 c1 3e 83 f7 b9 3c 77 56 f4 be
       -0.07247021 0.3787146 0.02270103 -0.47722217
000350 c5 fd 0b 3f ae c3 5d bd e9 5e 01 3e 52 67 d1 be
       0.54684097 -0.054141693 0.12633862 -0.4089914
000360 e1 67 a0 3d c1 69 ee 3d be fe 77 3f 8f 1c d1 3e
       0.07832313 0.11641265 0.9687308 0.408421
000370 b4 91 f4 3c ac 38 c4 3d 54 fa be 3e 4e 4b dc be
       0.029854633 0.09581122 0.3730036 -0.43026203
000380 24 fe 81 3e 10 17 64 be 51 6d e2 be 48 c9 b9 3e
       0.25389206 -0.22274423 -0.44224027 0.36286378
000390 d7 6a cc 3e f7 26 64 bd f6 4c 3a bf d0 94 11 be
       0.39925262 -0.055701222 -0.72773683 -0.14216924
0003a0 79 6e af 3d 32 2c 8a be d7 f9 da be b8 1f 3a 3f
       0.08565993 -0.26986843 -0.42768738 0.7270465
0003b0 33 b6 a3 3d eb 1c 3c be 5e 3f 42 3e 9c d8 75 3d
       0.07993736 -0.18370406 0.18969485 0.060021028
0003c0 b9 f8 bd 3e d1 2a ab be 80 d6 87 3e 61 6c e7 bd
       0.37103823 -0.33431104 0.26530838 -0.112999685
0003d0 b0 a7 28 bf a1 6b b9 bf d2 7a 51 3e 58 1b 88 be
       -0.6588087 -1.4485971 0.20457008 -0.26583362
0003e0 e6 81 cd bd 0c 29 21 bf a7 16 06 3f cf 85 a5 bd
       -0.10034542 -0.6295326 0.52378315 -0.080821626
0003f0 78 68 0d 3f c5 8d ba be 78 32 61 be 74 d1 fb 3d
       0.5523753 -0.36436287 -0.21991909 0.122958094

policy_network.h3.transform.bias f4 [20]
000000 a9 c7 47 be 0b c9 f7 3d 62 4d ad be 05 79 d2 be
       -0.19509758 0.12098893 -0.338481 -0.41107956
000010 39 c7 3d 3f 2f 50 0a bf 41 4a 32 bf 16 aa ae bd
       0.74132115 -0.540286 -0.6964455 -0.08528535
000020 fa e0 b1 3d a0 fb a8 bd 12 13 19 3e 9a a0 13 bd
       0.08685489 -0.08251119 0.14948681 -0.036041833
000030 84 73 14 3f fa 8d e5 3e a6 86 19 3d 77 11 4f be
       0.5798876 0.44834882 0.037481926 -0.20221506
000040 1a eb 4d be 60 36 ba 3d 65 a7 e9 bb 5c 0c d7 bd
       -0.20109215 0.090924025 -0.0071305507 -0.10500404

policy_network.critic_linear.weight f4 [1, 20]
000000 6a db 68 bd be e9 d0 be 96 7a 68 bd a9 b2 0b bf
       -0.056849875 -0.4080333 -0.056757532 -0.5456949
000010 58 93 c0 bf d2 af c1 3f 2a a4 e9 3f 0b 91 13 3f
       -1.5044966 1.5131781 1.8253224 0.57643193
000020 b7 1d 52 3f 55 d1 b9 3e eb 9e 1b bf 1d 5a 7d 3d
       0.8207659 0.3629252 -0.60789365 0.061853517
000030 10 6c 4b bf 5d 20 b9 be a0 ea 37 bf 0b aa 25 3d
       -0.79461765 -0.36157504 -0.71842384 0.04044537
000040 e0 33 65 bd a2 5f 2e bf 6f 93 f4 3e b8 11 b6 3d
       -0.055957675 -0.68114674 0.47768733 0.08890098

target_network.emb1.transform.weight f4 [20, 2]
000000 80 bb fc 3c e7 45 8d 3e 3c 3b e7 bc 47 cd 2b bf
       0.030851126 0.27592394 -0.028226487 -0.67110103
000010 de 3f f1 bb 48 be a9 be 94 3e 30 be 70 d9 aa be
       -0.00736235 -0.33152986 -0.17211372 -0.33369017
000020 5c af f3 3b 42 80 b0 3e 02 0f 04 bf 25 20 fe 3e
       0.007436676 0.34472853 -0.515854 0.496339
000030 9a 1a 50 be 33 cd 8e bd f1 40 93 be c1 d0 90 be
       -0.20322648 -0.069727324 -0.28760484 -0.28284267
000040 a0 5e 96 3c 22 23 1b 3d f9 33 41 bd 13 bd 7e 3e
       0.018355668 0.037875302 -0.047168706 0.24876814
000050 4d ba 15 be 35 ee ce 3c 5b 3c 46 be cd 81 63 3e
       -0.1462185 0.02526007 -0.19358961 0.22217484
000060 f0 33 8d 3e a7 1e bd be f0 55 99 be 7c 41 a1 3e
       0.27578688 -0.36937448 -0.29948378 0.31495273
000070 a1 22 9f 3d 9c 5c eb bc a2 e9 3e bf 96 46 76 3e
       0.07770277 -0.028730683 -0.74575245 0.24050364
000080 c9 5a 1b bf c6 58 6b be 61 7f da be cd 4e c6 be
       -0.606854 -0.22983083 -0.42675307 -0.38731995
000090 96 44 04 be d0 2e 1f 3c ad 32 9e be c6 77 98 be
       -0.12916788 0.009715751 -0.30898038 -0.2977888

target_network.emb1.transform.bias f4 [20]
000000 c3 cc cc bd 71 cc cc bd 00 00 00 00 00 00 00 00
       -0.09999993 -0.099999316 0.0 0.0
000010 a7 8a e3 bd 00 00 00 00 00 00 00 00 00 00 00 00
       -0.1111043 0.0 0.0 0.0
000020 cb cc cc bd de d2 08 be 00 00 00 00 04 bc 09 bc
       -0.09999999 -0.1336169 0.0 -0.008406643
000030 98 24 fe bd 80 1c ad b9 cb cc cc bd 00 00 00 00
       -0.124093235 -0.00033018366 -0.09999999 0.0
000040 00 00 00 00 00 00 00 00 cb cc cc bd 00 00 00 00
       0.0 0.0 -0.09999999 0.0

target_network.emb2.transform.weight f4 [20, 2]
000000 c8 e9 4e 3d 71 de 0b 3e 20 ca 04 be a3 c8 e9 3e
       0.05051592 0.13659073 -0.1296773 0.45660886
000010 19 8e 92 be 6d 8d 03 3d aa 0d 47 bd d0 37 d2 bd
       -0.28624037 0.032117296 -0.048597015 -0.10264552
000020 2d 8e a6 3e 29 4a 5e be 8d 86 87 bd ae f3 2f 3e
       0.32530347 -0.21707977 -0.066174604 0.171828
000030 41 af a4 3d d8 3d 5c 3f ac e2 92 be 4a 15 e9 3e
       0.080412395 0.86031866 -0.28688562 0.45524055
000040 a6 a0 89 be 88 64 07 3e 07 68 22 3f eb 90 92 3f
       -0.26880378 0.13221943 0.63439983 1.1450475
000050 54 37 ac 3d b2 c4 0d bf 06 b8 5d bf 2c c7 3c be
       0.084089905 -0.5537826 -0.8660892 -0.18435353
000060 65 45 64 bd 83 48 6d 3d 6a d8 92 be 76 63 82 3e
       -0.055730242 0.05793048 -0.28680736 0.25466508
000070 b0 c0 59 3d fa a4 4d 3f 16 b4 28 be ec c5 62 3d
       0.053162277 0.8032986 -0.16474947 0.055364534
000080 ce 58 19 bf 27 67 d3 3d 23 e1 4a 3f 21 57 92 3f
       -0.5990113 0.10322409 0.7924978 1.143284
000090 c1 2c ba bd 61 8c f8 bd 24 45 83 bc 00 72 ae 3b
       -0.090905674 -0.1213615 -0.01602418 0.0053236485

target_network.emb2.transform.bias f4 [20]
000000 4c b0 4c be e7 3e 93 be 00 00 00 00 00 00 00 00
       -0.19989127 -0.28758928 0.0 0.0
000010 e1 4c 36 be 82 fc f9 bd 07 06 88 be 8c ac 5b be
       -0.17802764 -0.12206365 -0.26567098 -0.2145254
000020 2b c6 cc bd 79 37 96 be 20 b5 6b bd 00 00 00 00
       -0.09998735 -0.29339197 -0.05754578 0.0
000030 64 07 dc bc 58 42 a9 bd b1 de e9 bd c4 03 42 bd
       -0.026858993 -0.08264607 -0.11419428 -0.047366872
000040 00 00 00 00 ac 06 83 bd 00 00 00 00 cb cc cc bd
       0.0 -0.06397757 0.0 -0.09999999

target_network.emb3.transform.weight f4 [20, 2]
000000 67 23 06 bf bc 36 5e be 02 de 96 be a7 85 52 bd
       -0.5239777 -0.21700567 -0.29466254 -0.051396992
000010 de d0 81 be a8 03 6c bd e0 54 30 3e ac 98 11 3e
       -0.25354666 -0.057620674 0.17219877 0.14218396
000020 90 2d f9 3b 0f 97 92 3e 59 31 c3 be 12 17 a0 3e
       0.0076043084 0.28630874 -0.38123587 0.312676
000030 4b ba 0e be 90 94 77 3e 08 8a 19 bd 27 b7 94 be
       -0.13938253 0.24177766 -0.037485152 -0.29045984
000040 db e0 ea bf e5 81 80 be 6c f3 87 bc f3 3b ba be
       -1.834987 -0.25099102 -0.016595565 -0.36373863
000050 c3 33 8a bd ac a1 cd be fd 12 20 bf b0 42 5f 3e
       -0.06748154 -0.40162408 -0.62528974 0.21802783
000060 7d a5 65 bd a9 0b bf 3d ac 93 25 3e c5 21 1b 3d
       -0.056066025 0.09328396 0.16169614 0.037874002
000070 05 33 51 be 5c 8e 10 be 5c 8c 23 bf b4 05 0a bf
       -0.20429619 -0.14116806 -0.63886046 -0.5391495
000080 3b fc 15 3f d5 ef 17 bf 7e c2 51 3e cb a7 2e be
       0.58588 -0.5935033 0.20484349 -0.17056195
000090 a0 b9 ad 3c 45 82 88 3d 49 b7 1a 3e cc 5f 05 3e
       0.021206677 0.06665472 0.1510898 0.13024825

target_network.emb3.transform.bias f4 [20]
000000 00 00 00 00 00 00 00 00 00 00 00 00 5c f5 88 be
       0.0 0.0 0.0 -0.26749694
000010 10 55 90 be 4b 0b 56 be 69 30 9c be be cc cc bd
       -0.28189898 -0.20902745 -0.30505684 -0.09999989
000020 82 c1 0d 3f bb cc cc bd 00 00 00 00 cb 17 d8 bd
       0.55373394 -0.09999987 0.0 -0.10551413
000030 d6 f9 aa bd 54 8e 21 be 00 00 00 00 65 cb ab 3e
       -0.08348434 -0.1577695 0.0 0.33553615
000040 38 cf c9 be 8c 10 4c be ca cc cc bd 42 04 9b be
       -0.39415908 -0.19928187 -0.09999998 -0.30276686

target_network.emb4.transform.weight f4 [20, 2]
000000 c5 38 19 3e 33 cc ad 3d c8 b4 77 bc 28 c1 94 be
       0.14963062 0.084862135 -0.015118785 -0.29053617
000010 ef d0 18 3e f0 81 a8 3c c6 fc 70 be b8 e9 12 3f
       0.14923452 0.020569772 -0.23533925 0.57387877
000020 4e 81 2d 3e 16 78 6d be 53 89 1f 3f 4a f7 65 3f
       0.16943857 -0.2319034 0.62318915 0.8983046
000030 1e 02 ea 3d f4 3d 0f be 84 32 57 be 4b 4f 83 be
       0.11426185 -0.13988477 -0.21015364 -0.25646433
000040 3f de 9a be 76 1a ba be 69 53 03 be 9b 34 c1 3d
       -0.30247685 -0.36348313 -0.12824787 0.09433862
000050 68 9b 8c bc 97 37 b8 be f1 73 47 3d cc 12 63 3d
       -0.017163947 -0.35979912 0.048694555 0.055437848
000060 ba a4 83 bd 9e 76 ee 3c be 40 06 3f c8 16 10 3f
       -0.064279035 0.029109295 0.5244254 0.5628476
000070 83 3c 89 be b2 22 47 3e 89 15 8f 3e 28 67 03 bf
       -0.2680398 0.19446829 0.27946118 -0.5132928
000080 7f 8f b3 3d 32 65 bd bc 41 c4 0f bf bf 41 06 3f
       0.08767604 -0.023119543 -0.56158835 0.5244407
000090 2c 10 67 bf 16 20 95 3d 23 03 05 bf 98 bd 02 bf
       -0.9025905 0.072815105 -0.5195791 -0.5107055

target_network.emb4.transform.bias f4 [20]
000000 60 6c 5d be db cb cc bd f9 35 1b be 16 a6 84 3d
       -0.21623373 -0.0999982 -0.15157308 0.06476991
000010 6a 02 e5 bd 36 a9 c9 be 89 06 a0 bd 00 00 00 00
       -0.11182101 -0.3938691 -0.078137465 0.0
000020 00 00 00 00 c7 21 57 bd 00 00 00 00 ec 2c d1 bd
       0.0 -0.052522447 0.0 -0.10213646
000030 3c c5 4b bd 63 86 db be 4a 5f 00 be 11 4b 24 be
       -0.049748644 -0.42875966 -0.1253635 -0.1604426
000040 ae f3 e1 bd fa ec 80 be da 9f cc bd 00 00 00 00
       -0.11032806 -0.251808 -0.09991427 0.0

target_network.h2.transform.weight f4 [20, 20]
000000 30 09 b8 bc bc 3b 5a 3d bf a7 c7 be d6 45 8f bd
       -0.022465318 0.053279623 -0.38995168 -0.06995742
000010 5f 69 d3 bd 03 ff 8b 3e 5e 10 01 bf 92 34 4f bf
       -0.10322832 0.27342996 -0.504156 -0.8093959
000020 b1 c1 4b bd 65 8d f3 be e1 8e 9b 3e 8c 9a 21 3e
       -0.049745265 -0.47568813 0.30382445 0.15781611
000030 99 0e e3 3d e0 a9 8e 3c 99 9f 6e be dc ce 8e be
       0.11086769 0.017414987 -0.23303069 -0.27892196
000040 a4 69 a5 be f3 aa 9e be a4 e2 d4 be 69 24 e8 be
       -0.3230716 -0.309898 -0.41579163 -0.4534028
000050 5c bd e2 3c e6 a8 0e 3c 67 81 cb be 1a 42 18 3e
       0.027678184 0.008707261 -0.39747164 0.14868966
000060 40 a8 cf ba e4 b4 56 bf 20 c7 ca 3c e3 a4 10 bf
       -0.0015842989 -0.8386977 0.024753153 -0.565016
000070 f6 61 41 bf 36 77 9a 3e b8 bf 0a bc 2b 13 44 be
       -0.755401 0.30169076 -0.008468561 -0.19147937
000080 17 62 92 be 86 01 f9 be 5a 9f 0e bf 33 e2 a9 be
       -0.28590462 -0.48633975 -0.557119 -0.3318039
000090 0c cf 73 be f3 77 10 be 2d 30 a2 be 52 e3 31 3d
       -0.23809451 -0.14108257 -0.3167738 0.04342968
0000a0 40 40 02 bf 30 16 34 bc 55 d6 cc be 74 47 fa be
       -0.5087929 -0.010991618 -0.40007272 -0.4888264
0000b0 bf 06 bd be cc e2 5a be 38 75 de be 5a 44 3d 3d
       -0.3691921 -0.21375579 -0.43448806 0.046207763
0000c0 12 fb 80 3d 51 78 10 3e 66 eb 74 bd a2 f3 1d be
       0.06297888 0.14108397 -0.059794806 -0.1542497
0000d0 0c 36 66 3e e8 f1 40 be 86 e4 fa 3d 04 11 06 bf
       0.22481555 -0.1884228 0.12250619 -0.52369714
0000e0 5a 92 df 3e 88 4e 86 be c6 d2 44 bf f4 eb a0 3e
       0.43666345 -0.2623179 -0.76884115 0.31430018
0000f0 5e ec ab bc 39 ab 69 bd 31 90 a7 3e 8a 77 f5 be
       -0.020986732 -0.057048056 0.32727197 -0.47942764
000100 7c 83 61 3e b2 e9 9b 3d a8 b9 77 bf 6a 97 b6 bd
       0.22022814 0.07612933 -0.96767664 -0.08915599
000110 da 10 d0 bf 71 dd 8a 3f 1b 4c db be fd 60 2d 3f
       -1.6255143 1.0848829 -0.428315 0.6772612
000120 34 4a 05 be aa c5 ee be e2 ec 1a bf 7e a4 c8 be
       -0.13016587 -0.4663518 -0.60517704 -0.39187998
000130 c5 87 46 bd d1 5a f4 be c6 1d 73 3e 2e c5 cb 3d
       -0.048469324 -0.47725537 0.23741826 0.099497184
000140 2d 70 3f be 34 d7 bc be 4e 36 9c be 42 2e b1 3d
       -0.18695135 -0.36882937 -0.3051018 0.08651401
000150 55 a7 e9 be a5 e3 93 bd 95 b9 b9 be ca 41 a3 be
       -0.45635477 -0.07221154 -0.362744 -0.3188613
000160 d4 b9 59 3e 82 d6 69 3e 76 48 77 3e 73 7f 0b be
       0.21262294 0.22835734 0.24148735 -0.13622837
000170 1b 8c 9d bd 42 7f 48 3f 41 a9 3c bf 3d ba 62 be
       -0.076927386 0.7831918 -0.7369576 -0.22141357
000180 18 63 57 bc 13 32 c9 3e 47 04 8c 3e 68 d5 82 bc
       -0.013146184 0.39296016 0.27347013 -0.0159709
000190 b1 8e bf 3d 2c 16 92 bc 38 31 f9 3d 2a 80 d0 3e
       0.09353388 -0.017832838 0.12167591 0.4072278
0001a0 91 4c 00 3e e7 05 6c 3f 18 36 35 3f d4 0c a2 be
       0.12529208 0.92196506 0.70785666 -0.31650412
0001b0 51 7f 22 c0 aa 08 ab be b3 98 0a be 5c d3 b6 be
       -2.5390208 -0.33405048 -0.13534813 -0.3570813
0001c0 e4 fb 4c be b3 93 61 bd 42 62 16 3f a4 70 83 bf
       -0.20017964 -0.055072498 0.5874368 -1.026875
0001d0 66 69 88 3d 69 2f 39 bf 00 9a 76 3e ce 8c af bd
       0.06660728 -0.7233797 0.24082184 -0.08571778
0001e0 36 dc 5c 3d 2f ce 55 bd 15 3a c8 be 02 04 cb 3e
       0.053920947 -0.052198585 -0.39106813 0.39651495
0001f0 cb 1c 64 3e 0c 83 58 be f4 78 b8 bd 31 3c c5 3e
       0.22276609 -0.2114374 -0.09007445 0.38522485
000200 3b e6 af 3e 3b 67 41 bf 9e 0d 0f bf bf c1 cb 3e
       0.3435534 -0.7554814 -0.55880153 0.39796254
000210 c2 a5 ea 3a 33 4a 0e bf 58 fe da be c9 a4 01 bf
       0.0017902183 -0.5558197 -0.42772174 -0.5064207
000220 f9 63 a3 bd 64 21 de be 29 8f 92 bd e6 00 40 3e
       -0.07978053 -0.4338485 -0.07156212 0.18750343
000230 24 b3 b4 be d4 ce 4f bf 4a ca 92 be 24 83 90 3d
       -0.35292923 -0.8117497 -0.2866996 0.07056263
000240 4c 01 f2 3c e4 f2 46 c0 ee 81 d6 bd 9f f1 9e bf
       0.029541634 -3.1085749 -0.10474001 -1.2417487
000250 16 b4 b9 3f 47 d6 86 bf 32 5b 55 bd de 52 49 3e
       1.4508083 -1.0534142 -0.052088924 0.19660518
000260 18 2f a8 bc ca 84 80 c0 b7 52 a0 be 74 e5 6b bd
       -0.020530269 -4.0162096 -0.31313106 -0.05759187
000270 88 9f 8f 3e 59 7f 83 bf 38 1f 5f 3e 72 1b 62 bf
       0.280514 -1.0273238 0.21789253 -0.8832313
000280 d8 b0 08 3f 82 f0 3d bf de fb 32 be c2 86 98 be
       0.5339484 -0.7419511 -0.17478892 -0.29790312
000290 cc 3a 12 bf 40 6b ea bb d5 26 8a 3d c2 31 58 be
       -0.57120967 -0.0071538985 0.06745688 -0.21112731
0002a0 62 d2 de be de 65 86 be f8 98 63 bc fa ab 64 3d
       -0.43519884 -0.26249593 -0.013891451 0.055828072
0002b0 12 b4 14 bd 69 eb 11 be b0 42 13 bc a4 fe 02 bf
       -0.03630454 -0.14249958 -0.0089880675 -0.511698
0002c0 56 46 85 3e a9 70 01 bf 6b f4 a3 3e 84 9c ca 3d
       0.26030225 -0.5056253 0.32022414 0.09893134
0002d0 17 ce 21 3d 2b 95 de bd b9 b1 f9 3e 54 03 40 bd
       0.039503183 -0.10868295 0.48768404 -0.046878174
0002e0 42 8b 1f be 30 45 b4 bc c1 ba 9b 3e 98 75 0a be
       -0.15580466 -0.022005647 0.3041592 -0.13521421
0002f0 f9 51 c4 3d 76 39 64 be 60 a4 8f 3e cb cb cd 3e
       0.095859475 -0.22287545 0.28055096 0.40194544
000300 98 f0 c0 3e 15 c2 88 bf 94 2e 3d 3e e2 5e d8 3d
       0.37683558 -1.0684229 0.184748 0.105649725
000310 5e 49 3d 3d d6 b3 92 3e 6f 67 1e be ba 56 fe 3d
       0.046212547 0.2865283 -0.15469144 0.124188855
000320 74 49 3b bd d2 bd c4 be 4b 27 95 3e 39 81 06 3e
       -0.045724347 -0.3842607 0.2913154 0.13135232
000330 bf 21 39 3f 21 e9 f5 be e6 03 0b be 3c 19 eb bd
       0.7231712 -0.48029426 -0.13575706 -0.114794225
000340 07 6d d4 3d bb 74 91 be c9 68 f0 3e 54 fd 61 3e
       0.10372358 -0.2840937 0.46954945 0.22069293
000350 c9 ae fa bd f3 e6 88 3e 62 c9 57 3e 14 b2 07 be
       -0.12240369 0.267387 0.21072915 -0.13251525
000360 3c f8 33 3e 16 95 90 be de f9 14 3d b9 57 da 3e
       0.17575163 -0.28238744 0.036371104 0.42645052
000370 4b 3b d1 bc 17 64 73 be 18 44 d6 be 70 00 e1 be
       -0.025540968 -0.2376865 -0.41848826 -0.43945646
000380 2e 1c 03 3f 88 f8 b7 3e 2d 0c 9e 3e d0 b2 ec bd
       0.51214874 0.35931802 0.30868664 -0.11557543
000390 a7 37 86 3e 77 38 d2 3d 29 29 31 3e 1f 9a 16 bf
       0.26214334 0.10264676 0.17300858 -0.5882892
0003a0 e7 9a 98 3e 33 eb 96 be ce 0e 7c be 9a 54 89 be
       0.2980568 -0.29476318 -0.24615023 -0.26822358
0003b0 c4 37 10 be 49 c6 6e be 5a 48 7e 3e e0 32 6a 3d
       -0.14083773 -0.23317827 0.24832287 0.057177424
0003c0 e1 ce a1 3e 69 ca 8b 3e 9b e3 87 bc c5 3f a2 be
       0.3160315 0.27302864 -0.016588023 -0.31689277
0003d0 78 14 40 3e 52 66 38 be 42 b3 cd be 5a b3 37 3e
       0.18757808 -0.18007782 -0.40175825 0.17939511
0003e0 54 2e 69 3e f1 46 b3 be d0 75 ea 3e e2 f9 41 3d
       0.22771579 -0.35015061 0.4579301 0.047357447
0003f0 bb 46 0b bf 0f 00 f3 be ea 4f b5 3d 0c 1c fa be
       -0.544048 -0.47460982 0.08853133 -0.48849523

target_network.h2.transform.bias f4 [20]
000000 66 2e 3a be 1a 86 1e be 7d cc cc bd 6e 15 b7 bd
       -0.18181762 -0.15480843 -0.099999405 -0.08939634
000010 05 8c ba bd 6c a1 86 3e c6 eb 7a bd da 40 37 3f
       -0.09108738 0.2629503 -0.061260007 0.7158333
000020 c8 cc cc bd 94 13 91 be 32 6d db bd 8c d5 3e be
       -0.099999964 -0.2833525 -0.10714187 -0.18636149
000030 22 af 38 be 5d aa 71 be 72 7d e7 3e 9c c6 4c be
       -0.18035558 -0.23600145 0.45212895 -0.19997638
000040 b0 a7 72 be df 88 77 be e7 e9 e1 3e 3f 04 1d be
       -0.2369678 -0.24173306 0.44123766 -0.15333651

target_network.h3.transform.weight f4 [20, 20]
000000 d5 a7 92 3c bc 11 c3 bd f3 1e 15 3f 52 e8 eb bd
       0.017902294 -0.09524867 0.5825035 -0.11518921
000010 48 ce 02 3e c3 dc 6a bf 58 2f 03 bf d6 1d 86 3e
       0.12774003 -0.91743106 -0.51244116 0.26194638
000020 e6 c2 7e 3e c7 76 ba be 80 36 2e ba da ae a6 3e
       0.24879035 -0.36418745 -0.00066456944 0.32555276
000030 2c 35 ba be 7f ad 92 be 20 a8 f7 be 7c 4e ad be
       -0.36368692 -0.28647992 -0.48370457 -0.3384894
000040 4c 97 0e be f2 57 89 be 61 49 29 bf 61 f6 3d be
       -0.13924903 -0.2682491 -0.6612759 -0.18551017
000050 ec 33 87 bc 25 d3 00 bf 04 ec a9 bd 16 e7 e1 be
       -0.01650425 -0.5032218 -0.082969695 -0.44121617
000060 17 24 97 3e 38 9b 91 be 57 83 5a 3f 70 c1 b2 3f
       0.29519722 -0.28438735 0.8535666 1.3965282
000070 a0 03 a7 bc 80 81 94 be 93 46 5e be 17 2a 0c 3f
       -0.02038747 -0.2900505 -0.2170661 0.54751724
000080 76 91 99 be 62 18 2f bd 80 aa 68 be f9 86 a5 3d
       -0.2999379 -0.042747863 -0.2272129 0.080823846
000090 b7 01 e7 be dc 05 5b 3c 37 72 24 3f 07 44 0c 3f
       -0.45118496 0.013368096 0.6423678 0.547913
0000a0 cf 86 03 3f f6 cd 82 3e ac f0 99 3d eb 5f 2f be
       0.51377577 0.2554776 0.07516608 -0.17126434
0000b0 c3 7a 08 bf 41 c3 3c be d4 60 72 3e 1b 9d dc 3e
       -0.5331232 -0.18433858 0.2366975 0.43088612
0000c0 85 ed bb 3e 78 a3 71 3e c2 a0 23 be 34 33 90 bd
       0.3670465 0.23597515 -0.15979293 -0.07041016
0000d0 2c 6b 37 3e d0 2c 72 3e 04 27 8a be 12 8d f7 be
       0.17911977 0.23649907 -0.26982892 -0.48349816
0000e0 7d 81 3c be f4 29 d6 3e d2 99 76 bd 91 67 79 be
       -0.18408771 0.41828883 -0.06020529 -0.24355914
0000f0 52 42 46 3e a8 50 ed 3e ed 66 ba 3e 6d 2a 80 bd
       0.19361237 0.46350598 0.3640665 -0.06258092
000100 1b e3 71 3f b0 70 9a be dc 0f 9d 3e 59 41 88 bf
       0.9448716 -0.301641 0.30676162 -1.0644943
000110 77 2d 06 be 8f f4 01 bf 0e f6 45 3e ea 48 89 bd
       -0.13103281 -0.5076379 0.19332144 -0.067033604
000120 b0 32 67 bd 74 2e b0 3e 8f ed d0 bd 4a 67 7f 3d
       -0.056444824 0.3441044 -0.10201561 0.062354364
000130 a9 1b b2 be b3 cc e0 bd 5a a2 88 be 29 1d 40 be
       -0.34786728 -0.10976543 -0.26686364 -0.18761124
000140 87 f0 d5 3d de b1 a7 3e 3c ff 32 be 05 9d 50 3c
       0.104462676 0.3275289 -0.17480177 0.012732749
000150 df f0 2f bf 7d fb cf bf 76 03 62 3e 2c a1 4c be
       -0.68726915 -1.6248623 0.22071633 -0.19983357
000160 0e 5c 4e 3f 1b 1b a8 3d f2 81 02 3f 78 ad f3 bd
       0.80609214 0.08208295 0.5097953 -0.11898321
000170 a4 13 2a bf 70 89 38 3d 48 59 b9 be d0 5b f6 bb
       -0.6643622 0.045052946 -0.3620093 -0.007518269
000180 26 db 0e 3f e4 75 0d 3e ef 13 7a 3f f0 24 50 3e
       0.55803144 0.13814503 0.97686666 0.2032659
000190 66 e8 f3 bd 24 6f 37 3f 26 e2 dd 3e 76 dc 99 3e
       -0.11909561 0.7165396 0.433366 0.3005101
0001a0 54 a0 f1 bf 40 eb ab bd 9a 16 01 3f 5c 17 06 3f
       -1.8877053 -0.0839448 0.5042511 0.52379394
0001b0 94 ae e1 3c 88 d8 3e 3e cd 93 97 3e 5e 04 18 3d
       0.027549066 0.18637288 0.2960495 0.03711354
0001c0 a1 4f c7 3e 72 7f 4f be 82 8e ed 3e 8f 78 3c bd
       0.3892794 -0.2026346 0.46397787 -0.04601341
0001d0 55 c3 85 3d be 2b 71 3e 17 e9 9f be bc 48 91 3e
       0.06531397 0.23551843 -0.3123252 0.28375804
0001e0 51 70 a1 be 55 9d b3 be 07 d5 09 3f 90 f3 2e bf
       -0.31531003 -0.35080972 0.5384068 -0.68340397
0001f0 9d 16 f0 bf 6a 83 9b bd 96 08 4b be a5 1d 22 3f
       -1.8756901 -0.075934246 -0.19827494 0.63326484
000200 92 48 05 be 46 e0 13 3f 5e 88 d5 3e 82 f2 52 3d
       -0.13015965 0.5776409 0.41705602 0.051500805
000210 e9 e3 2e bf d6 47 6a 3e 61 75 62 3f 86 77 06 3d
       -0.68316513 0.22878966 0.88460356 0.03282883
000220 94 f9 6d 3d c7 68 89 bd 4e ed 9f 3e 35 8d b3 3e
       0.058099344 -0.06709438 0.31235737 0.3506867
000230 c0 21 27 3e c6 e2 1c be 64 f6 32 3e 94 f6 92 3e
       0.16321468 -0.15320882 0.17476803 0.2870375
000240 b0 8a a0 bd 81 76 40 bf a5 15 8d 3e 28 77 a1 be
       -0.078389525 -0.7518082 0.27555576 -0.31536222
000250 49 41 ab be 63 f9 50 bb b6 bd ad be 55 01 e3 3d
       -0.33448246 -0.0031886927 -0.339338 0.110842384
000260 b9 d4 ae 3a 76 49 e9 3e 22 30 e0 be 1c 1f 41 be
       0.0013338543 0.4556386 -0.43786722 -0.18859524
000270 8f 1b 17 3f fc 56 29 be 3d 98 e2 3e 53 d7 0a 3e
       0.59026426 -0.16537088 0.44256774 0.13558702
000280 7d 4c 97 3e fd 42 9d be 4a e2 86 be 3c 76 d2 3c
       0.29550543 -0.3071517 -0.2634452 0.025691144
000290 a3 d2 36 3f 9b 27 b5 3e fc bf b0 3d 35 b2 b9 bf
       0.71415156 0.3538178 0.08630368 -1.450751
0002a0 98 2d 82 3e 9e 44 2f bd 10 76 1f 3f c6 17 08 bd
       0.2542541 -0.042790048 0.62289524 -0.033225797
0002b0 c6 12 5f be 6d 62 d1 3e 86 ae 00 c0 b8 ab 99 3e
       -0.21784505 0.40895405 -2.010652 0.30013824
0002c0 d5 55 b4 3e 0d 90 d4 3e 7c 3b 12 40 aa 69 3c 3e
       0.35221735 0.41516152 2.2848806 0.18399683
0002d0 bc 19 69 be 50 68 28 3e 9c c7 26 be 96 14 a0 be
       -0.22763723 0.16446042 -0.16287082 -0.31265706
0002e0 21 09 14 bf 00 d0 1b 3f fb a6 6f bd dc 4e 0b c0
       -0.5782643 0.6086426 -0.058508854 -2.1766882
0002f0 be 20 85 3e fd ae 99 be de 7d 64 bd 49 61 a4 3b
       0.26001543 -0.30016318 -0.0557841 0.00501648
000300 60 2c 85 bc ff 92 e9 bd 6a 99 94 bf 2a 12 3d bf
       -0.016256511 -0.114049904 -1.1609318 -0.7385584
000310 b5 24 dd 3e 53 e4 4b be 78 d5 16 40 55 ce 31 3f
       0.43192068 -0.19911318 2.356779 0.6945546
000320 b4 06 b7 3e 29 b6 c3 be ec ee ce 3c 9a 96 fe be
       0.35747302 -0.38224915 0.025260411 -0.49724275
000330 7e ea 0b 3f b7 2f f3 be a8 5f ee 3e 91 05 f0 3f
       0.5465468 -0.4749734 0.46557355 1.8751699
000340 43 6b 94 bd e1 e6 c1 3e 83 f7 b9 3c 77 56 f4 be
       -0.07247021 0.3787146 0.02270103 -0.47722217
000350 c5 fd 0b 3f ae c3 5d bd 26 3a 01 3e 52 67 d1 be
       0.54684097 -0.054141693 0.12619838 -0.4089914
000360 e1 67 a0 3d c1 69 ee 3d 4e c5 75 3f 8f 1c d1 3e
       0.07832313 0.11641265 0.9600419 0.408421
000370 b4 91 f4 3c ac 38 c4 3d 54 fa be 3e 4e 4b dc be
       0.029854633 0.09581122 0.3730036 -0.43026203
000380 33 4f 82 3e 54 10 64 be 51 6d e2 be 42 4c bb 3e
       0.2545105 -0.22271854 -0.44224027 0.36581618
000390 d7 6a cc 3e f7 26 64 bd f6 4c 3a bf d0 94 11 be
       0.39925262 -0.055701222 -0.72773683 -0.14216924
0003a0 79 6e af 3d 32 2c 8a be b1 c0 d8 be b8 1f 3a 3f
       0.08565993 -0.26986843 -0.42334512 0.7270465
0003b0 33 b6 a3 3d eb 1c 3c be eb 86 47 3e 9c d8 75 3d
       0.07993736 -0.18370406 0.19485061 0.060021028
0003c0 b9 f8 bd 3e d1 2a ab be 80 d6 87 3e 61 6c e7 bd
       0.37103823 -0.33431104 0.26530838 -0.112999685
0003d0 28 a0 27 bf 74 bb b8 bf d2 7a 51 3e a1 c9 8a be
       -0.65478754 -1.4432206 0.20457008 -0.27106956
0003e0 e6 81 cd bd 0c 29 21 bf a7 16 06 3f cf 85 a5 bd
       -0.10034542 -0.6295326 0.52378315 -0.080821626
0003f0 78 68 0d 3f c5 8d ba be 77 df 63 be 74 d1 fb 3d
       0.5523753 -0.36436287 -0.22253214 0.122958094

target_network.h3.transform.bias f4 [20]
000000 a9 c7 47 be 6c b5 e8 3d 62 4d ad be 98 65 d1 be
       -0.19509758 0.113627285 -0.338481 -0.40897822
000010 e7 5c 3d 3f eb fd 08 bf 7f fe 31 bf 16 aa ae bd
       0.7396988 -0.5351245 -0.69528955 -0.08528535
000020 a1 d4 bb 3d bc 62 a8 bd 86 3f 14 3e 93 7b 0e bd
       0.09171415 -0.08221957 0.14477357 -0.03478582
000030 27 af 13 3f 1a 1e e3 3e a6 5a fc 3c 77 11 4f be
       0.57689136 0.44358903 0.030804943 -0.20221506
000040 1a eb 4d be 5c be b0 3d 46 a6 c1 bb 5c 0c d7 bd
       -0.20109215 0.08630058 -0.005909714 -0.10500404

target_network.critic_linear.weight f4 [1, 20]
000000 6a db 68 bd 9b f5 cc be 96 7a 68 bd 38 16 0a bf
       -0.056849875 -0.40031132 -0.056757532 -0.53940153
000010 84 77 bf bf 16 95 c2 3f 9f 2f ea 3f 0b 91 13 3f
       -1.4958348 1.5201747 1.8295783 0.57643193
000020 5b 1d 52 3f 53 df bc 3e d7 13 1a bf 53 0f 7e 3d
       0.8207604 0.36889133 -0.60186523 0.062026333
000030 51 2d 49 bf 4e 9c b1 be 20 4f 36 bf 0b aa 25 3d
       -0.7858477 -0.34689564 -0.71214485 0.04044537
000040 e0 33 65 bd de be 2c bf 4f 40 f0 3e b8 11 b6 3d
       -0.055957675 -0.6747874 0.46924064 0.08890098
