pz_risk/mini_0/76.pt (torch, 18513 bytes, 26 tensors)

policy_network.emb1.transform.weight f4 [20, 2]
00000000: 109a 8dbd ae27 343e 8265 1cbd bc1e 41bf
00000010: de3f f1bb 48be a9be 943e 30be 70d9 aabe
00000020: f43b d0bd 6209 7b3e 020f 04bf 2520 fe3e
00000030: 9a1a 50be 33cd 8ebd f140 93be c1d0 90be
00000040: ac5e 963c 3223 1b3d 7e0a 6abd 8b22 653e
00000050: 4dba 15be 35ee ce3c 6792 48be f830 8c3e
00000060: 71a9 803e 3d67 cabe 1f4e bcbe c8e9 7c3e
00000070: a422 9f3d 745c ebbc a2e9 3ebf 9646 763e
00000080: c95a 1bbf c658 6bbe 617f dabe cd4e c6be
00000090: 9644 04be d82e 1f3c ad32 9ebe c677 98be
-0.06914151 0.17593262 -0.038182743 -0.7543752 -0.00736235 -0.33152986 -0.17211372 -0.33369017
-0.10167685 0.24515298 -0.515854 0.496339 -0.20322648 -0.069727324 -0.28760484 -0.28284267
0.01835569 0.03787536 -0.057138912 0.22376458 -0.1462185 0.02526007 -0.19587098 0.2738111
0.25129274 -0.3953189 -0.36778352 0.24698555 0.07770279 -0.028730609 -0.74575245 0.24050364
-0.606854 -0.22983083 -0.42675307 -0.38731995 -0.12916788 0.009715758 -0.30898038 -0.2977888

policy_network.emb1.transform.bias f4 [20]
00000000: 08cc 4cbe 7e55 d8bd 0000 0000 0000 0000
00000010: 2ef8 50be 0000 0000 0000 0000 0000 0000
00000020: cbcc ccbd 0ba4 fbbd 0000 0000 a0b0 19bd
00000030: 90a8 12be c4cc ccbd c9cc ccbd 0000 0000
00000040: 0000 0000 0000 0000 cbcc ccbd 0000 0000
-0.19999707 -0.10563181 0.0 0.0 -0.20407173 0.0 0.0 0.0
-0.09999999 -0.12287148 0.0 -0.03752196 -0.14322114 -0.099999934 -0.09999997 0.0
0.0 0.0 -0.09999999 0.0

policy_network.emb2.transform.weight f4 [20, 2]
00000000: 48c2 533d 47fc 0b3e 16af a441 517d a240
00000010: 198e 92be 6d8d 033d aa0d 47bd d037 d2bd
00000020: 76ce 9b3e 9af0 26be ed99 5742 82e0 5c42
00000030: 088b c540 b9c7 b241 5869 3cbe 62c3 123e
00000040: 3da9 89c0 a8fa 2742 5ae4 bbbd bb10 ebc0
00000050: c4da 7b41 fa00 be40 06b8 5dbf 2cc7 3cbe
00000060: 9629 3abd a2c1 303d dca7 c0be d69a 733e
00000070: 6750 62c0 e9a2 3640 eadc 8fbf f393 333e
00000080: ce58 19bf 2767 d33d ea65 dfbd 3db3 eebf
00000090: c12c babd 618c f8bd 2445 83bc f071 ae3b
0.051698953 0.13670455 20.585491 5.0777974 -0.28624037 0.032117296 -0.048597015 -0.10264552
0.30430955 -0.1630272 53.90032 55.219246 6.1732216 22.34752 -0.1839956 0.14332345
-4.301909 41.99478 -0.09174414 -7.3457923 15.74091 5.937619 -0.8660892 -0.18435353
-0.045449816 0.043153413 -0.37628067 0.23789534 -3.5361574 2.8536932 -1.1239293 0.17536907
-0.5990113 0.10322409 -0.109081104 -1.8648449 -0.090905674 -0.1213615 -0.01602418 0.005323641

policy_network.emb2.transform.bias f4 [20]
00000000: babe 47be 8377 ad41 0000 0000 0000 0000
00000010: 146d 7bbe 1a09 5a42 508d f240 0c8e dbbd
00000020: 13ef a9be 1a75 83bd e13f 8541 0000 0000
00000030: e474 cabc dae0 3cbe c895 51bf 78f0 af40
00000040: 0000 0000 187d 85bd 0000 0000 cbcc ccbd
-0.1950635 21.683355 0.0 0.0 -0.24553329 54.50889 7.57975 -0.10720453
-0.33190212 -0.0641882 16.65619 0.0 -0.02471394 -0.18445149 -0.81869173 5.498104
0.0 -0.06518 0.0 -0.09999999

policy_network.emb3.transform.weight f4 [20, 2]
00000000: 6723 06bf bc36 5ebe 02de 96be a785 52bd
00000010: ded0 81be a803 6cbd d876 db3d 9df3 963e
00000020: f0fe 153f 1aa4 1dbd 9053 0b42 838d 6742
00000030: 20a7 c33a 77f9 b63e 968d 2abd 72b3 8ebe
00000040: 75ef 27be 7004 8840 2842 f53c f19a 95be
00000050: c333 8abd aca1 cdbe acd2 38bf 308c 013e
00000060: d156 14be 883a 383c 224f 0e3e 66bf 803d
00000070: 0533 51be 5c8e 10be 8082 b5bf b2ff a341
00000080: 70ce b83e cfcf 27bf 1aa3 633d 275d 8dbe
00000090: bcb9 ad3c 4c82 883d 19c1 3b3e a939 073e
-0.5239777 -0.21700567 -0.29466254 -0.051396992 -0.25354666 -0.057620674 0.10716027 0.29482737
0.5859213 -0.038486578 34.831604 57.888195 0.0014927126 0.35737202 -0.041638933 -0.2787128
-0.1639994 4.2505417 0.029938772 -0.29219773 -0.06748154 -0.40162408 -0.7219646 0.12651134
-0.14486243 0.011244424 0.13897374 0.06286506 -0.20429619 -0.14116806 -1.418045 20.499851
0.36095 -0.65551466 0.055575468 -0.27610132 0.02120673 0.06665477 0.1833538 0.1320559

policy_network.emb3.transform.bias f4 [20]
00000000: 0000 0000 0000 0000 0000 0000 4ca7 cdbe
00000010: aba2 f7be 6dc1 ba41 3882 b3be f0fc d6bd
00000020: ac87 b0bd 206c 6cbd 0000 0000 0caf 4cbe
00000030: ca72 10be 6ff1 42be 0000 0000 a091 2640
00000040: a1a9 cbbe 1bad 14be becc ccbd 0691 8fbe
0.0 0.0 0.0 -0.401667 -0.48366293 23.344446 -0.35060287 -0.10497463
-0.08619627 -0.057720304 0.0 -0.1998865 -0.14106289 -0.19037412 0.0 2.6026382
-0.39777854 -0.1451916 -0.09999989 -0.28040332

policy_network.emb4.transform.weight f4 [20, 2]
00000000: 6230 083e 4a2a 873d 50bf 77bc 0fc1 94be
00000010: 6d35 f83d a96b 0bbe c5f7 e5be aeb6 873e
00000020: 5241 a43f 324e 89be 724d 2abd 04e0 913e
00000030: 2998 0c3e f8bd 15be 8432 57be 4b4f 83be
00000040: 3fde 9abe 761a babe e112 07be 498e 943d
00000050: 689b 8cbc 9737 b8be aa80 8cbd 00c0 853d
00000060: 5c82 55bd eb61 1e3d 8098 77ba 3c5e 923c
00000070: cdfb 6abe d1f4 4b3e 6875 e640 0888 2441
00000080: d037 b33d e08b c2bc 4b87 1f42 8f8d 2542
00000090: c53c 67bf f3d4 943d 2303 05bf 98bd 02bf
0.13299707 0.06599863 -0.015121296 -0.29053542 0.12119565 -0.13615288 -0.44915596 0.2650656
1.2832434 -0.2681747 -0.041577764 0.28491223 0.1372992 -0.14623249 -0.21015364 -0.25646433
-0.30247685 -0.36348313 -0.13190795 0.07253701 -0.017163947 -0.35979912 -0.06860478 0.06530762
-0.052126274 0.0386676 -0.00094450265 0.0178672 -0.22947617 0.19917609 7.201832 10.283211
0.0875088 -0.023748338 39.882122 41.38824 -0.903271 0.07267179 -0.5195791 -0.5107055

policy_network.emb4.transform.bias f4 [20]
00000000: 4ed1 73be 6fca ccbd f20c 8ebe da6c 6dbe
00000010: 841a 823f b61d 01bf 51f5 dabd 0000 0000
00000020: 0000 0000 10bc 8dbd 0000 0000 a0a4 3abd
00000030: 3cc5 4bbd abdc 8ebd 546c 0ebe 99db 3cc0
00000040: cbcc ccbd 9f5c 1c42 b0cc ccbd 0000 0000
-0.23810312 -0.09999549 -0.2774425 -0.23186055 1.0164342 -0.5043596 -0.10691322 0.0
0.0 -0.06920636 0.0 -0.045567155 -0.049748644 -0.06975683 -0.13908511 -2.9509032
-0.09999999 39.09045 -0.099999785 0.0

policy_network.h2.transform.weight f4 [20, 20]
00000000: e00e b8bc 6390 5b40 3496 c7be 64c7 993d
00000010: 0472 4d40 9b94 7340 6486 2940 b73c 4fbf
00000020: f87d e83f 4eb5 c0be 9756 7c40 a897 213e
00000030: 7c0d e33d 6fda d43d 3c3a 77be 6c5d 4840
00000040: 6df5 a4be b6ef 4a40 0153 d5be fd47 e7be
00000050: 83a5 93bd 9462 2240 1e85 cbbe 520d 643e
00000060: afaa 7e40 e362 bfbe a266 9d3f e033 bcbe
00000070: 730f e540 2935 e63f 4423 2440 9c10 16c0
00000080: 8663 92be ca83 e9be fc76 02c1 469a 58be
00000090: e56a 0dbe 5fc9 cf3d 5f2e efbd ace1 313d
000000a0: 8a40 02bf c831 34bc 73e1 ccbe d347 fabe
000000b0: e506 bdbe 45e5 5abe 8475 debe 32de 3c3d
000000c0: 70fa 803d 7677 103e e4f4 74bd f7de 5ebd
000000d0: 7434 663e 64f2 40be 47d7 633e f817 06bf
000000e0: f1b9 df3e 354f 86be 7939 2bbf b6ec a03e
000000f0: 5144 0bbe a188 2b41 ce75 5f3e 4175 623c
00000100: 493b 9340 a8f6 acbf 8bbf 0041 89a0 09be
00000110: 80bb 88bf c367 e53f 4268 1e41 0c72 87c0
00000120: 586a d8bd 2c9c 4ebd 818b 64c0 065a a8be
00000130: 2a75 473d 1064 dd3e 63c0 ac3e e68d 653d
00000140: 1fd5 41be 6b04 5ebf 0e0f f8be 0ffe c13e
00000150: 537f 5cbf bf34 e9be 76e0 45bf b68d 153e
00000160: 0adf 14bd 20d2 713e c080 56bc e66c 16bd
00000170: 4c48 1dbe a4ad 6c3e d7c3 d2be bc40 c0bd
00000180: e43d 033d a8e9 543d 113b bf3e 8305 3b3e
00000190: 80d3 313c 20e3 6c3e b4dc e9bc 94a0 063f
000001a0: aa8b d3be 8aaf 0d3f 693e b6be 7276 3f3e
000001b0: 8e40 09bf c04f 84bb d27a 6b3e 439c 0ebf
000001c0: 1cbf bebe 4542 a6be b2b5 9f3e 058b d4bd
000001d0: 9c27 c83e ce81 71bf 6e80 263d bd6b 7ebd
000001e0: 2eb4 5c3d a50e 5dbe bf3a c8be d7d6 1d3f
000001f0: 4b3c fb3d 67b6 4cbe 34a5 94be b9c4 c43e
00000200: ac11 543e d848 05bf 683f 42bf 85ba 4a3e
00000210: b729 d53a 9b83 a1be 4fa5 14bf a5b9 e3be
00000220: 5330 a3bd e534 c2be a2ad 2fbe afb1 3f3e
00000230: 12b3 b4be c8af cabe 19ca 92be 1035 dc3b
00000240: d8c2 0bbc fd07 23bf bb6f 17be 5c83 89be
00000250: ee66 8f3d c969 d03d beca a6be 0082 d4b9
00000260: 6c3e a7bc b39c 9abe 9bef b3be 66ff b4be
00000270: 212e 033f 4a56 1bbf c623 5f3e 1e1b 62bf
00000280: d8b0 083f 84f0 3dbf e2fb 32be c686 98be
00000290: cd3a 12bf 606b eabb ca26 8a3d 30c0 38bc
000002a0: 65d2 debe e065 86be f3fd 5abe e8ab 643d
000002b0: 1ab4 14bd 71eb 11be c042 13bc a9fe 02bf
000002c0: 5046 853e ab70 01bf 58f4 a33e 6d9c ca3d
000002d0: 11ac 8c3d 24ed 8241 692b a23e fd27 acbe
000002e0: 34ec c241 9840 2442 8969 c441 b15c 64be
000002f0: 8e4e fe41 f556 01c0 7510 9b41 e1a1 fd3e
00000300: d846 a93e e05b 5ebf 5029 a441 e910 2642
00000310: 2c63 143e ff43 4942 7e0b 60bd 3063 0c3e
00000320: 5df7 5ebd dbf0 0fbf 2c49 7f3e cc8d 1c3e
00000330: 128c 233f 3e3c ffbe be24 6fbe 71a7 89be
00000340: 2f31 a5bd f0d4 80be 11df c93e ef2d f73d
00000350: 3336 99bd 4848 ac3e 13c0 d83d 925e 8fbe
00000360: f467 903e 44eb aebe 8ef9 143d d997 d63e
00000370: 673c 0cbd 17f7 2640 bfd5 03bf b6f6 bdbe
00000380: 165d bb3f 0e1c e1bf 5b3b 0c40 3b48 81be
00000390: 9316 2841 bae4 683f f184 3140 4a6e 80bf
000003a0: 160f 9f3e 2b61 5dbe ead8 2b41 1df4 3cc0
000003b0: 663a 14be 5e8c 5f3f 6448 7e3e 414b 833d
000003c0: e1ce a13e 086f ef3e 97c5 eebd f8fe 03bf
000003d0: 7698 073f 0785 e0bc 9021 67be 814b 373e
000003e0: 90d1 52bf f075 d5be 5a73 543f 24b2 613e
000003f0: bb46 0bbf 2a14 efbe 4c42 91bd 7c2a b2be
-0.02246803 3.4306877 -0.38981783 0.07508734 3.210084 3.8059452 2.6488276 -0.8095202
1.8163443 -0.37638324 3.942785 0.15780509 0.11086556 0.103932254 -0.24143308 3.130702
-0.32218495 3.1708808 -0.4166489 -0.4517211 -0.07209303 2.5372667 -0.39749998 0.22270706
3.9791677 -0.37380132 1.2296946 -0.36758327 7.158136 1.7984973 2.5646524 -2.3447638
-0.28591555 -0.4560836 -8.154049 -0.211526 -0.13810308 0.1014583 -0.116787665 0.043428108
-0.5087973 -0.010998197 -0.40015754 -0.48882923 -0.36919323 -0.21376522 -0.43449032 0.04611034
0.06297767 0.1410807 -0.05980386 -0.054411855 0.22480947 -0.18842465 0.2225009 -0.52380323
0.4369655 -0.26232305 -0.6688457 0.31430596 -0.1360028 10.720857 0.21822283 0.013821901
4.600987 -1.3512774 8.046763 -0.13440146 -1.068222 1.792229 9.900454 -4.2326717
-0.105671585 -0.050441906 -3.5710146 -0.32881182 0.04869572 0.43240404 0.3374053 0.056043528
-0.18928955 -0.8672549 -0.48448986 0.37889144 -0.8613178 -0.45548055 -0.77295625 0.1460484
-0.03634552 0.23615313 -0.01309222 -0.036724947 -0.1535961 0.23113114 -0.4116504 -0.09387347
0.032041445 0.051980644 0.37349752 0.18263821 0.010853648 0.23133516 -0.028547622 0.5258877
-0.41317493 0.55345976 -0.3559449 0.18697527 -0.5361413 -0.0040378273 0.22996071 -0.55707186
-0.3725518 -0.32472435 0.3119331 -0.10378078 0.3909272 -0.9433869 0.040649824 -0.062114466
0.05388277 -0.21587618 -0.3910732 0.61655945 0.12267359 -0.19991456 -0.2903229 0.38431337
0.20709866 -0.52064276 -0.75878 0.19797714 0.0016263042 -0.3154572 -0.5806474 -0.44477573
-0.079682015 -0.3793098 -0.1715608 0.18720125 -0.3529287 -0.39587235 -0.28669813 0.0067201927
-0.008530341 -0.63684064 -0.14788716 -0.26858032 0.07002054 0.10176427 -0.32576555 -0.0004053265
-0.020415507 -0.30197677 -0.35143742 -0.35351104 0.5124226 -0.6067854 0.2179099 -0.8832263
0.5339484 -0.7419512 -0.17478898 -0.29790324 -0.5712097 -0.0071539134 0.0674568 -0.01127629
-0.43519893 -0.262496 -0.21385936 0.055828005 -0.03630457 -0.1424997 -0.008988082 -0.5116983
0.26030207 -0.5056254 0.32022357 0.09893117 0.068687566 16.365791 0.31673744 -0.3362426
24.365334 41.06308 24.55153 -0.22300984 31.788357 -2.0209324 19.383036 0.49537566
0.33061862 -0.8685894 20.520172 41.516514 0.14490956 50.316402 -0.05469846 0.13709712
-0.054435123 -0.5622689 0.24930257 0.15288466 0.63885605 -0.4985065 -0.2335386 -0.2688556
-0.08066022 -0.25162458 0.39428 0.12069308 -0.07481041 0.33648896 0.1058351 -0.2800184
0.2820431 -0.34163868 0.036370806 0.41912726 -0.03423729 2.6088312 -0.51498026 -0.37102288
1.4637783 -1.7586687 2.1911228 -0.2525042 10.505511 0.9097401 2.773739 -1.0033658
0.31066197 -0.21619098 10.740458 -2.9523995 -0.14475402 0.8732356 0.24832302 0.06410838
0.3160315 0.46764398 -0.11658781 -0.51560926 0.5296701 -0.027407182 -0.22571397 0.17899896
-0.82351017 -0.41691542 0.8298851 0.22040612 -0.544048 -0.4669507 -0.07092723 -0.34798038

policy_network.h2.transform.bias f4 [20]
00000000: 53e5 4b40 cc7b 8b40 cbcc ccbd 2003 7340
00000010: 46c9 e8be e012 98bd 54cc 4cbe 2cba d0be
00000020: cbcc ccbd 1c27 3942 8c58 3cbe 6ce5 d73f
00000030: ba94 273d 3aa6 90c1 aecc 4cbe 1671 29be
00000040: a0dc 5c3e 6553 00bf 48a6 3cbe 4c14 073f
3.1858718 4.358862 -0.09999999 3.7970657 -0.4546606 -0.07425475 -0.1999982 -0.40767038
-0.09999999 46.288193 -0.18393153 1.6866889 0.04091332 -18.081165 -0.19999954 -0.16547045
0.21568537 -0.5012725 -0.18422806 0.52765346

policy_network.h3.transform.weight f4 [20, 20]
00000000: 5e0e 173f f11f 8e40 8cb8 2e3f 7671 eb3f
00000010: 7c69 ae3c 1489 51bf a6e7 4cbe 443a 8a3e
00000020: e6c2 7e3e d24f df3f fc84 ec3c db1e cec0
00000030: 9768 823f ad9d 76c0 84aa 033e 786e a2be
00000040: 82e0 82bf 8047 92bd 522d ecbe de29 753e
00000050: 9ba3 2ebe c6a9 11bf 2059 3bbe b429 6cbe
00000060: c0cc 5fbe db0c 703d d8a3 593f 6255 f6bd
00000070: 740b a33d a578 b9bf acac 15be ff94 0c3f
00000080: ecbc 84be 5b96 2cc0 5426 0dbe 15f9 97bc
00000090: 2cbf acbe bdc2 443e a8a8 4dbe d4b8 c13e
000000a0: 9d87 033f 3c5f 633d 9f44 cbbc e03e a9be
000000b0: ed3c 0abf 899d 12be d67d 213e 34b3 ec3e
000000c0: 86ed bb3e a8d8 13be c2a0 23be 3433 90bd
000000d0: 2c6b 373e 2298 b7bd 08cb 553c 128d f7be
000000e0: 0581 3cbe f429 d63e d88c 103d 9a34 33bd
000000f0: 6f30 7d3e 54a7 b93e ca36 873e f003 42bf
00000100: 308d 823e 3c08 e5bd 63dd 653e ceaf 17be
00000110: 772d 06be 0236 b5bf 0df6 453e 990a 8bbd
00000120: 4627 3abe 9287 253e 6c14 a1be 4eef 0cbd
00000130: 0d62 0bbf c007 24be 4ca2 af3e 7e18 24be
00000140: 7445 d4be 26f6 5840 c6fc 32be a452 f63f
00000150: 22f0 39bd 9dfc e23e 95d2 883e e2c7 c6be
00000160: b45b 4e3f 70e3 e93f e3da b13e 541f 1041
00000170: 8cd5 e6bf 1577 2bbf b40f 073d 8dec 4b3e
00000180: 3ca5 553f ba9e b3bd e377 b63e d063 6abe
00000190: 0c15 f3bd 97ba e93e 59e0 dd3e 79af e8bc
000001a0: 61b5 743d 30ff 9d3d a3c0 213f 2764 b3bd
000001b0: 90ae e13c 45ac c7bd afd6 a93e fa10 73bf
000001c0: e5ed 4b3e a69c 18bf 002c 943e 0433 563d
000001d0: e849 9e3d 6aa5 773e a3b2 6fbe 4ffa 603d
000001e0: 1e1c 8b40 732e 9941 a2d3 093f 1fe0 8841
000001f0: 3c0f 30be 52e7 713f 5634 17bd f771 313e
00000200: 9248 05be 4f8b 7ac0 7c85 e33e 44a7 1341
00000210: ca52 1b3d 4644 6341 9c24 d63e ee56 053e
00000220: 7128 b73f 3b61 86bd 3a32 a83e fca7 d53f
00000230: 4b0a 273e 3211 38c0 fc1f 993d 3833 54c0
00000240: a0cb 73be 6015 15bf 602e 993d a9a5 113e
00000250: 4841 abbe fb01 c8be 4efa 40be 94cb 8c3e
00000260: 1d04 adbd fc79 6a3f 821c 98be 70f7 46be
00000270: 3904 1f3f feab f4bd dcec d83e 9d19 e6bd
00000280: 7a29 a93e 4e38 7cbf ace3 86be 9335 2dbf
00000290: fb06 153f cf85 bc3d 10c6 1b3e 3e7e 243f
000002a0: 982d 823e 4d5e f4be 2481 293f fc22 d4bc
000002b0: f263 27be b304 823e 48ea e23c fb1e cb3e
000002c0: b425 ee3e 207b ed3e 2539 75be 02f1 2dbc
000002d0: b83b 3fbe b8c8 853d aacb 26be 3858 87be
000002e0: a673 7f3e a526 083f 5c18 933c cddb c03e
000002f0: be20 853e 58a6 bbbe e4ef ebbc f8a0 093c
00000300: 70c8 ef3d f178 aabe 9a2d 9f3d bae7 23bf
00000310: f2d5 023f ecb6 27be 4285 b73e 7b86 f63e
00000320: b520 5c3e a5ec 1641 ecee ce3c 0f86 2241
00000330: 6a5f f63e 6cd3 1ebf 6f17 bc3e 4cb3 f0be
00000340: 436b 94bd f68f 6ac1 756e 8bbf b867 9c40
00000350: 7d20 b23e c3ec 8540 32fe 983d 1299 f7bd
00000360: 793b 07bf 6ed2 ce3d b462 2dbd 861c f9bd
00000370: f8f7 fc3d ac38 c43d 54fa be3e 4e4b dcbe
00000380: 574d 4b3d 7bc2 15be 5b6b 233c 7ed3 a63e
00000390: d76a cc3e 08ec abbd f64c 3abf df07 e1bd
000003a0: 796e af3d 322c 8abe b5c0 68bd 1157 533f
000003b0: b73a c1bc 7e2b 6f3c 7003 e83d 5f4c 3e3e
000003c0: 1fc9 8a3e c959 debe f94b 293e 8acc e1bd
000003d0: 6a25 0fbf f82b 42be d207 5d3d a002 193e
000003e0: 5d81 cdbd 5a68 17bf 3e49 fd3e e767 dfbd
000003f0: b8a0 243f 30d9 e6be ea30 3c3e 4f1b 623e
0.590063 4.441399 0.68250346 1.8394 0.021290533 -0.8184979 -0.20010242 0.26997578
0.24879035 1.7446234 0.028872006 -6.4412665 1.0188168 -3.8533738 0.12858015 -0.31724906
-1.0224764 -0.07142544 -0.46128327 0.23941752 -0.17054598 -0.5689968 -0.18295717 -0.23062783
-0.2185545 0.05860601 0.8501563 -0.12028004 0.07961169 -1.4489943 -0.1461665 0.5491485
-0.25925386 -2.696677 -0.13784152 -0.018551389 -0.33739603 0.19214912 -0.20083869 0.37836325
0.51378804 0.055510744 -0.024812995 -0.33055782 -0.53999215 -0.14317907 0.15770659 0.4623047
0.36704654 -0.14438117 -0.15979293 -0.07041016 0.17911977 -0.08964564 0.013048895 -0.48349816
-0.18408592 0.41828883 0.03529057 -0.043751337 0.24725507 0.36260474 0.26408988 -0.7578726
0.25498343 -0.11183211 0.22447734 -0.14813158 -0.13103281 -1.4157107 0.19332142 -0.06789131
-0.18179044 0.16164997 -0.31460893 -0.034407906 -0.5444649 -0.16018581 0.3430351 -0.16024968
-0.4145924 3.3900237 -0.17479238 1.924397 -0.045395024 0.44333354 0.2672316 -0.38824373
0.8060868 1.8272533 0.3473731 9.007648 -1.8033919 -0.6697858 0.03297396 0.19914456
0.8345525 -0.08770509 0.3563834 -0.22889638 -0.11869249 0.4565017 0.43335226 -0.028403984
0.05974329 0.07714689 0.63184565 -0.08759337 0.027549058 -0.09749655 0.33171603 -0.9494778
0.19914968 -0.59614027 0.2893982 0.052294746 0.0772894 0.24184194 -0.23407988 0.054926213
4.3471823 19.14768 0.5383855 17.109434 -0.17193311 0.9449359 -0.036915146 0.1732863
-0.13015965 -3.9147527 0.44437778 9.228336 0.03792075 14.204168 0.41824806 0.13021442
1.4309217 -0.06561514 0.3285082 1.669189 0.1631252 -2.8760495 0.07476804 -3.3156261
-0.23808146 -0.5823574 0.074795485 0.1422335 -0.33448243 -0.3906401 -0.18845484 0.27499068
-0.0844805 0.91592383 -0.2970925 -0.19430327 0.6211582 -0.119468674 0.4236821 -0.11235354
0.33039457 -0.98523414 -0.26345575 -0.6765987 0.58213776 0.092052095 0.15212274 0.6425513
0.2542541 -0.47728196 0.6621268 -0.025895588 -0.1634672 0.2539421 0.027699605 0.39672074
0.4651314 0.46383 -0.2394758 -0.010616543 -0.18675125 0.06532425 -0.16288629 -0.26434493
0.2494646 0.53183967 0.017955951 0.37667695 0.26001543 -0.36650348 -0.028800912 0.008400194
0.11708152 -0.33295396 0.0777237 -0.6402546 0.51107705 -0.16378373 0.35843855 0.48149475
0.21496852 9.432775 0.025260411 10.157729 0.4811967 -0.62041354 0.36736628 -0.47011793
-0.07247021 -14.660147 -1.0893084 4.887661 0.34790412 4.1851516 0.07470359 -0.12089743
-0.52825123 0.1009873 -0.04233046 -0.121636435 0.12351984 0.09581122 0.3730036 -0.43026203
0.049634304 -0.1462497 0.009974326 0.3258323 0.39925262 -0.08394629 -0.72773683 -0.109878294
0.08565993 -0.26986843 -0.056824405 0.8255473 -0.023587568 0.014597772 0.11328781 0.18583821
0.27106568 -0.43427876 0.16532888 -0.11025341 -0.55916464 -0.18962085 0.053962536 0.14942408
-0.1003444 -0.591436 0.49469942 -0.1090849 0.6430774 -0.45087576 0.18378034 0.2208073

policy_network.h3.transform.bias f4 [20]
00000000: 009d 08c3 a774 bb40 e4f1 0cbf e92f c5be
00000010: 3f80 8f42 acd4 e13f ffad b7c2 bc79 58c0
00000020: 3a5b 45bf 886e 16bd 87ab a6c3 0000 0000
00000030: 807a 1fbb 6030 57c3 0000 0000 b5cc ccbd
00000040: 8275 11be a25e d940 6ab0 fcc1 f78a d841
-136.61328 5.85799 -0.55056596 -0.38513115 71.75048 1.7643027 -91.839836 -3.38243
-0.77092326 -0.036726505 -333.34006 0.0 -0.002433449 -215.18896 0.0 -0.09999982
-0.14204982 6.792802 -31.58614 27.067854

policy_network.critic_linear.weight f4 [1, 20]
00000000: 45fa 21bf 584d 13c0 e26f 553d 04f1 383c
00000010: 3691 2740 fd33 38bf 47e8 6e40 2a2a 083f
00000020: ad23 233f a863 903e dbf7 ba40 a02d dc3c
00000030: 0167 a6be 315f 1dbf 570d 2cbf 5cc4 f7bc
00000040: 84f1 173d 2a58 8bbf 971b 853d 0e72 21be
-0.63272506 -2.3015957 0.052108653 0.011287931 2.618238 -0.7195433 3.732927 0.5318934
0.6372631 0.28201032 5.842756 0.026877224 -0.3250046 -0.61473376 -0.67207855 -0.030244999
0.03709556 -1.088628 0.06499403 -0.15766165

target_network.emb1.transform.weight f4 [20, 2]
00000000: 109a 8dbd ae27 343e 8265 1cbd bc1e 41bf
00000010: de3f f1bb 48be a9be 943e 30be 70d9 aabe
00000020: f43b d0bd 6209 7b3e 020f 04bf 2520 fe3e
00000030: 9a1a 50be 33cd 8ebd f140 93be c1d0 90be
00000040: ac5e 963c 3223 1b3d 7e0a 6abd 8b22 653e
00000050: 4dba 15be 35ee ce3c 6792 48be f830 8c3e
00000060: 71a9 803e 3d67 cabe 1f4e bcbe c8e9 7c3e
00000070: a422 9f3d 745c ebbc a2e9 3ebf 9646 763e
00000080: c95a 1bbf c658 6bbe 617f dabe cd4e c6be
00000090: 9644 04be d82e 1f3c ad32 9ebe c677 98be
-0.06914151 0.17593262 -0.038182743 -0.7543752 -0.00736235 -0.33152986 -0.17211372 -0.33369017
-0.10167685 0.24515298 -0.515854 0.496339 -0.20322648 -0.069727324 -0.28760484 -0.28284267
0.01835569 0.03787536 -0.057138912 0.22376458 -0.1462185 0.02526007 -0.19587098 0.2738111
0.25129274 -0.3953189 -0.36778352 0.24698555 0.07770279 -0.028730609 -0.74575245 0.24050364
-0.606854 -0.22983083 -0.42675307 -0.38731995 -0.12916788 0.009715758 -0.30898038 -0.2977888

target_network.emb1.transform.bias f4 [20]
00000000: 08cc 4cbe 7e55 d8bd 0000 0000 0000 0000
00000010: 2ef8 50be 0000 0000 0000 0000 0000 0000
00000020: cbcc ccbd 0ba4 fbbd 0000 0000 a0b0 19bd
00000030: 90a8 12be c4cc ccbd c9cc ccbd 0000 0000
00000040: 0000 0000 0000 0000 cbcc ccbd 0000 0000
-0.19999707 -0.10563181 0.0 0.0 -0.20407173 0.0 0.0 0.0
-0.09999999 -0.12287148 0.0 -0.03752196 -0.14322114 -0.099999934 -0.09999997 0.0
0.0 0.0 -0.09999999 0.0

target_network.emb2.transform.weight f4 [20, 2]
00000000: 48c2 533d 47fc 0b3e 91c3 a441 3dcf a240
00000010: 198e 92be 6d8d 033d aa0d 47bd d037 d2bd
00000020: 76ce 9b3e 9af0 26be b08f 5742 45d6 5c42
00000030: f4dc c540 34dc b241 5869 3cbe 62c3 123e
00000040: 5157 89c0 e504 2842 5ae4 bbbd bb10 ebc0
00000050: ba03 7c41 e652 be40 06b8 5dbf 2cc7 3cbe
00000060: 9629 3abd a2c1 303d dca7 c0be d69a 733e
00000070: 6750 62c0 e9a2 3640 a424 91bf a394 523e
00000080: ce58 19bf 2767 d33d ea65 dfbd 3db3 eebf
00000090: c12c babd 618c f8bd 2445 83bc f071 ae3b
0.051698953 0.13670455 20.595491 5.0877976 -0.28624037 0.032117296 -0.048597015 -0.10264552
0.30430955 -0.1630272 53.89032 55.209248 6.183222 22.357521 -0.1839956 0.14332345
-4.2919087 42.00478 -0.09174414 -7.3457923 15.75091 5.9476194 -0.8660892 -0.18435353
-0.045449816 0.043153413 -0.37628067 0.23789534 -3.5361574 2.8536932 -1.1339307 0.20564513
-0.5990113 0.10322409 -0.109081104 -1.8648449 -0.090905674 -0.1213615 -0.01602418 0.005323641

target_network.emb2.transform.bias f4 [20]
00000000: babe 47be fe8b ad41 0000 0000 0000 0000
00000010: 146d 7bbe ddfe 5942 3cdf f240 0c8e dbbd
00000020: 5ad0 a4be 1a75 83bd 5c54 8541 0000 0000
00000030: e474 cabc dae0 3cbe c895 51bf 8c9e af40
00000040: 0000 0000 187d 85bd 0000 0000 cbcc ccbd
-0.1950635 21.693356 0.0 0.0 -0.24553329 54.49889 7.5897503 -0.10720453
-0.3219021 -0.0641882 16.666191 0.0 -0.02471394 -0.18445149 -0.81869173 5.488104
0.0 -0.06518 0.0 -0.09999999

target_network.emb3.transform.weight f4 [20, 2]
00000000: 6723 06bf bc36 5ebe 02de 96be a785 52bd
00000010: ded0 81be a803 6cbd d876 db3d 9df3 963e
00000020: f0fe 153f 1aa4 1dbd 5349 0b42 4683 6742
00000030: 20a7 c33a 77f9 b63e 968d 2abd 72b3 8ebe
00000040: 03b2 1dbe 5c56 8840 2842 f53c f19a 95be
00000050: c333 8abd aca1 cdbe acd2 38bf 308c 013e
00000060: d156 14be 883a 383c 224f 0e3e 66bf 803d
00000070: 0533 51be 5c8e 10be d23a b4bf 4d14 a441
00000080: 70ce b83e cfcf 27bf 1aa3 633d 275d 8dbe
00000090: bcb9 ad3c 4c82 883d 19c1 3b3e a939 073e
-0.5239777 -0.21700567 -0.29466254 -0.051396992 -0.25354666 -0.057620674 0.10716027 0.29482737
0.5859213 -0.038486578 34.821606 57.878197 0.0014927126 0.35737202 -0.041638933 -0.2787128
-0.15399937 4.260542 0.029938772 -0.29219773 -0.06748154 -0.40162408 -0.7219646 0.12651134
-0.14486243 0.011244424 0.13897374 0.06286506 -0.20429619 -0.14116806 -1.408045 20.509912
0.36095 -0.65551466 0.055575468 -0.27610132 0.02120673 0.06665477 0.1833538 0.1320559

target_network.emb3.transform.bias f4 [20]
00000000: 0000 0000 0000 0000 0000 0000 4ca7 cdbe
00000010: aba2 f7be f2ac ba41 3882 b3be f0fc d6bd
00000020: c90c 9cbd 206c 6cbd 0000 0000 0caf 4cbe
00000030: ca72 10be 6ff1 42be 0000 0000 7735 2740
00000040: a1a9 cbbe 1bad 14be becc ccbd 0691 8fbe
0.0 0.0 0.0 -0.401667 -0.48366293 23.334446 -0.35060287 -0.10497463
-0.07619626 -0.057720304 0.0 -0.1998865 -0.14106289 -0.19037412 0.0 2.6126382
-0.39777854 -0.1451916 -0.09999989 -0.28040332

target_network.emb4.transform.weight f4 [20, 2]
00000000: 6230 083e 4a2a 873d 50bf 77bc 0fc1 94be
00000010: 6d35 f83d a96b 0bbe c5f7 e5be aeb6 873e
00000020: 0089 a53f 792f 84be 724d 2abd 04e0 913e
00000030: 2998 0c3e f8bd 15be 8432 57be 4b4f 83be
00000040: 3fde 9abe 761a babe e112 07be 498e 943d
00000050: 689b 8cbc 9737 b8be aa80 8cbd 00c0 853d
00000060: 5c82 55bd eb61 1e3d 8098 77ba 3c5e 923c
00000070: cdfb 6abe d1f4 4b3e 7c23 e640 125f 2441
00000080: d037 b33d e08b c2bc 0e7d 1f42 5283 2542
00000090: c53c 67bf f3d4 943d 2303 05bf 98bd 02bf
0.13299707 0.06599863 -0.015121296 -0.29053542 0.12119565 -0.13615288 -0.44915596 0.2650656
1.2932434 -0.2581747 -0.041577764 0.28491223 0.1372992 -0.14623249 -0.21015364 -0.25646433
-0.30247685 -0.36348313 -0.13190795 0.07253701 -0.017163947 -0.35979912 -0.06860478 0.06530762
-0.052126274 0.0386676 -0.00094450265 0.0178672 -0.22947617 0.19917609 7.1918316 10.273211
0.0875088 -0.023748338 39.872124 41.378242 -0.903271 0.07267179 -0.5195791 -0.5107055

target_network.emb4.transform.bias f4 [20]
00000000: 4ed1 73be 6fca ccbd f20c 8ebe da6c 6dbe
00000010: 3262 833f b61d 01bf 51f5 dabd 0000 0000
00000020: 0000 0000 10bc 8dbd 0000 0000 a0a4 3abd
00000030: 3cc5 4bbd abdc 8ebd 546c 0ebe 707f 3dc0
00000040: cbcc ccbd 6252 1c42 b0cc ccbd 0000 0000
-0.23810312 -0.09999549 -0.2774425 -0.23186055 1.0264342 -0.5043596 -0.10691322 0.0
0.0 -0.06920636 0.0 -0.045567155 -0.049748644 -0.06975683 -0.13908511 -2.9609032
-0.09999999 39.080452 -0.099999785 0.0

target_network.h2.transform.weight f4 [20, 20]
00000000: e00e b8bc 3a34 5c40 3496 c7be 64c7 993d
00000010: db15 4e40 7238 7440 3b2a 2a40 b73c 4fbf
00000020: a6c5 e93f 4eb5 c0be 6efa 7c40 a897 213e
00000030: 7c0d e33d 6fda d43d 3c3a 77be 4301 4940
00000040: 6df5 a4be 8d93 4b40 0153 d5be fd47 e7be
00000050: 83a5 93bd 6b06 2340 1e85 cbbe 520d 643e
00000060: 864e 7f40 2a44 babe 50ae 9e3f e033 bcbe
00000070: 5f61 e540 2935 e63f 1bc7 2440 9c10 16c0
00000080: 8663 92be ca83 e9be fc76 02c1 d45c 4ebe
00000090: e56a 0dbe 4244 e43d 5f2e efbd ace1 313d
000000a0: 8a40 02bf c831 34bc 73e1 ccbe d347 fabe
000000b0: e506 bdbe 45e5 5abe 8475 debe 32de 3c3d
000000c0: 70fa 803d 7677 103e e4f4 74bd f7de 5ebd
000000d0: 7434 663e 64f2 40be 47d7 633e f817 06bf
000000e0: f1b9 df3e 354f 86be 7939 2bbf b6ec a03e
000000f0: 5144 0bbe 97b1 2b41 ce75 5f3e 4175 623c
00000100: 358d 9340 faae abbf 81e8 0041 89a0 09be
00000110: d273 87bf c367 e53f 3891 1e41 0c72 87c0
00000120: 586a d8bd 2c9c 4ebd 818b 64c0 4d3b a3be
00000130: 2a75 473d c982 e23e 63c0 ac3e e68d 653d
00000140: 1fd5 41be 6b04 5ebf 0e0f f8be 0ffe c13e
00000150: 537f 5cbf bf34 e9be 76e0 45bf b68d 153e
00000160: 0adf 14bd 20d2 713e c080 56bc e66c 16bd
00000170: 4c48 1dbe a4ad 6c3e d7c3 d2be bc40 c0bd
00000180: e43d 033d a8e9 543d 113b bf3e 8305 3b3e
00000190: 80d3 313c 9220 773e b4dc e9bc 94a0 063f
000001a0: f16c cebe e63e 103f b01f b1be 7276 3f3e
000001b0: 32b1 06bf c04f 84bb 44b8 753e 439c 0ebf
000001c0: 1cbf bebe 4542 a6be b2b5 9f3e 2210 c0bd
000001d0: 9c27 c83e 72f2 6ebf 6e80 263d bd6b 7ebd
000001e0: 2eb4 5c3d a50e 5dbe bf3a c8be d7d6 1d3f
000001f0: 4b3c fb3d 67b6 4cbe 34a5 94be b9c4 c43e
00000200: ac11 543e d848 05bf 683f 42bf 85ba 4a3e
00000210: b729 d53a 9b83 a1be 4fa5 14bf a5b9 e3be
00000220: 5330 a3bd e534 c2be a2ad 2fbe afb1 3f3e
00000230: 12b3 b4be c8af cabe 19ca 92be 1035 dc3b
00000240: d8c2 0bbc fd07 23bf bb6f 17be 5c83 89be
00000250: ee66 8f3d c969 d03d beca a6be 0082 d4b9
00000260: 6c3e a7bc b39c 9abe 9bef b3be 66ff b4be
00000270: 212e 033f 4a56 1bbf c623 5f3e 1e1b 62bf
00000280: d8b0 083f 84f0 3dbf e2fb 32be c686 98be
00000290: cd3a 12bf 606b eabb ca26 8a3d 30c0 38bc
000002a0: 65d2 debe e065 86be f3fd 5abe e8ab 643d
000002b0: 1ab4 14bd 71eb 11be c042 13bc a9fe 02bf
000002c0: 5046 853e ab70 01bf 58f4 a33e 6d9c ca3d
000002d0: 11ac 8c3d a9d8 8241 692b a23e fd27 acbe
000002e0: b9d7 c241 5b36 2442 0e55 c441 b15c 64be
000002f0: 133a fe41 f556 01c0 fafb 9a41 e1a1 fd3e
00000300: d846 a93e e05b 5ebf 5029 a441 ac06 2642
00000310: 2c63 143e c239 4942 7e0b 60bd 3063 0c3e
00000320: 5df7 5ebd dbf0 0fbf 2c49 7f3e cc8d 1c3e
00000330: 128c 233f 3e3c ffbe be24 6fbe 71a7 89be
00000340: 2f31 a5bd f0d4 80be 11df c93e ef2d f73d
00000350: 3336 99bd 4848 ac3e 13c0 d83d 925e 8fbe
00000360: f467 903e 44eb aebe 8ef9 143d d997 d63e
00000370: 673c 0cbd ee9a 2740 bfd5 03bf b6f6 bdbe
00000380: c4a4 bc3f 60d4 dfbf 32df 0c40 3b48 81be
00000390: 893f 2841 bae4 683f c828 3240 4a6e 80bf
000003a0: 160f 9f3e 2b61 5dbe ead8 2b41 4650 3cc0
000003b0: 663a 14be ba1b 623f 6448 7e3e 414b 833d
000003c0: e1ce a13e 4f50 ea3e 97c5 eebd f8fe 03bf
000003d0: 1a09 053f 4a38 19bd 025f 71be 814b 373e
000003e0: ec60 55bf f075 d5be fee3 513f 24b2 613e
000003f0: bb46 0bbf 2a14 efbe 4c42 91bd 3549 b7be
-0.02246803 3.4406877 -0.38981783 0.07508734 3.220084 3.8159451 2.6588275 -0.8095202
1.8263443 -0.37638324 3.952785 0.15780509 0.11086556 0.103932254 -0.24143308 3.140702
-0.32218495 3.1808808 -0.4166489 -0.4517211 -0.07209303 2.5472667 -0.39749998 0.22270706
3.9891677 -0.3638013 1.2396946 -0.36758327 7.168136 1.7984973 2.5746524 -2.3447638
-0.28591555 -0.4560836 -8.154049 -0.20152599 -0.13810308 0.11145832 -0.116787665 0.043428108
-0.5087973 -0.010998197 -0.40015754 -0.48882923 -0.36919323 -0.21376522 -0.43449032 0.04611034
0.06297767 0.1410807 -0.05980386 -0.054411855 0.22480947 -0.18842465 0.2225009 -0.52380323
0.4369655 -0.26232305 -0.6688457 0.31430596 -0.1360028 10.730857 0.21822283 0.013821901
4.610987 -1.3412774 8.056764 -0.13440146 -1.058222 1.792229 9.910454 -4.2326717
-0.105671585 -0.050441906 -3.5710146 -0.3188118 0.04869572 0.44240406 0.3374053 0.056043528
-0.18928955 -0.8672549 -0.48448986 0.37889144 -0.8613178 -0.45548055 -0.77295625 0.1460484
-0.03634552 0.23615313 -0.01309222 -0.036724947 -0.1535961 0.23113114 -0.4116504 -0.09387347
0.032041445 0.051980644 0.37349752 0.18263821 0.010853648 0.24133518 -0.028547622 0.5258877
-0.4031749 0.56345975 -0.34594488 0.18697527 -0.5261413 -0.0040378273 0.23996073 -0.55707186
-0.3725518 -0.32472435 0.3119331 -0.09378077 0.3909272 -0.9333869 0.040649824 -0.062114466
0.05388277 -0.21587618 -0.3910732 0.61655945 0.12267359 -0.19991456 -0.2903229 0.38431337
0.20709866 -0.52064276 -0.75878 0.19797714 0.0016263042 -0.3154572 -0.5806474 -0.44477573
-0.079682015 -0.3793098 -0.1715608 0.18720125 -0.3529287 -0.39587235 -0.28669813 0.0067201927
-0.008530341 -0.63684064 -0.14788716 -0.26858032 0.07002054 0.10176427 -0.32576555 -0.0004053265
-0.020415507 -0.30197677 -0.35143742 -0.35351104 0.5124226 -0.6067854 0.2179099 -0.8832263
0.5339484 -0.7419512 -0.17478898 -0.29790324 -0.5712097 -0.0071539134 0.0674568 -0.01127629
-0.43519893 -0.262496 -0.21385936 0.055828005 -0.03630457 -0.1424997 -0.008988082 -0.5116983
0.26030207 -0.5056254 0.32022357 0.09893117 0.068687566 16.355791 0.31673744 -0.3362426
24.355333 41.05308 24.54153 -0.22300984 31.778357 -2.0209324 19.373035 0.49537566
0.33061862 -0.8685894 20.520172 41.506516 0.14490956 50.306404 -0.05469846 0.13709712
-0.054435123 -0.5622689 0.24930257 0.15288466 0.63885605 -0.4985065 -0.2335386 -0.2688556
-0.08066022 -0.25162458 0.39428 0.12069308 -0.07481041 0.33648896 0.1058351 -0.2800184
0.2820431 -0.34163868 0.036370806 0.41912726 -0.03423729 2.6188312 -0.51498026 -0.37102288
1.4737782 -1.7486687 2.2011228 -0.2525042 10.5155115 0.9097401 2.783739 -1.0033658
0.31066197 -0.21619098 10.740458 -2.9423995 -0.14475402 0.8832356 0.24832302 0.06410838
0.3160315 0.45764396 -0.11658781 -0.51560926 0.5196701 -0.037407197 -0.23571399 0.17899896
-0.83351016 -0.41691542 0.81988513 0.22040612 -0.544048 -0.4669507 -0.07092723 -0.3579804

target_network.h2.transform.bias f4 [20]
00000000: 2a89 4c40 b8cd 8b40 cbcc ccbd f7a6 7340
00000010: 46c9 e8be fd97 83bd 54cc 4cbe 2cba d0be
00000020: cbcc ccbd df1c 3942 8c58 3cbe 1a2d d93f
00000030: e73d fd3c bf91 90c1 aecc 4cbe 1671 29be
00000040: 121a 673e 6553 00bf 48a6 3cbe a8a3 093f
3.1958718 4.368862 -0.09999999 3.8070657 -0.4546606 -0.06425474 -0.1999982 -0.40767038
-0.09999999 46.278194 -0.18393153 1.6966889 0.030913306 -18.071165 -0.19999954 -0.16547045
0.22568539 -0.5012725 -0.18422806 0.53765345

target_network.h3.transform.weight f4 [20, 20]
00000000: 027f 143f 05ce 8d40 8cb8 2e3f c829 ea3f
00000010: 7c69 ae3c 7018 54bf a6e7 4cbe 443a 8a3e
00000020: e6c2 7e3e 2408 de3f fc84 ec3c c770 cec0
00000030: e920 813f 8441 77c0 84aa 033e 786e a2be
00000040: 3028 84bf 8047 92bd 522d ecbe 6cec 6a3e
00000050: 9ba3 2ebe c6a9 11bf 2059 3bbe b429 6cbe
00000060: c0cc 5fbe db0c 703d d8a3 593f 6255 f6bd
00000070: 740b a33d a578 b9bf acac 15be ff94 0c3f
00000080: ecbc 84be 5b96 2cc0 5426 0dbe 15f9 97bc
00000090: 2cbf acbe bdc2 443e a8a8 4dbe d4b8 c13e
000000a0: 9d87 033f 3c5f 633d 9f44 cbbc e03e a9be
000000b0: ed3c 0abf 899d 12be d67d 213e 34b3 ec3e
000000c0: 86ed bb3e a8d8 13be c2a0 23be 3433 90bd
000000d0: 2c6b 373e 2298 b7bd 08cb 553c 128d f7be
000000e0: 0581 3cbe f429 d63e d88c 103d 9a34 33bd
000000f0: 6f30 7d3e 54a7 b93e ca36 873e f003 42bf
00000100: 308d 823e 3c08 e5bd 63dd 653e ceaf 17be
00000110: 772d 06be 0236 b5bf 0df6 453e 990a 8bbd
00000120: 4627 3abe 9287 253e 6c14 a1be 4eef 0cbd
00000130: 0d62 0bbf c007 24be 4ca2 af3e 7e18 24be
00000140: bb26 cfbe fd99 5940 c6fc 32be 529a f73f
00000150: 22f0 39bd 561b e83e 95d2 883e e2c7 c6be
00000160: b45b 4e3f 1e2b eb3f e3da b13e 4a48 1041
00000170: de8d e5bf b9e7 28bf b40f 073d 8dec 4b3e
00000180: 9834 583f ba9e b3bd e377 b63e 5e26 60be
00000190: 0c15 f3bd 97ba e93e 59e0 dd3e 79af e8bc
000001a0: 61b5 743d 30ff 9d3d a3c0 213f 2764 b3bd
000001b0: 90ae e13c 45ac c7bd afd6 a93e fa10 73bf
000001c0: e5ed 4b3e a69c 18bf 002c 943e 0433 563d
000001d0: e849 9e3d 6aa5 773e a3b2 6fbe 4ffa 603d
000001e0: 0a6e 8b40 ee42 9941 a2d3 093f 9af4 8841
000001f0: 3c0f 30be ae76 743f 5634 17bd f771 313e
00000200: 9248 05be 78e7 79c0 7c85 e33e 3ad0 1341
00000210: 9048 443d 3c6d 6341 9c24 d63e ee56 053e
00000220: 1f70 b83f 3b61 86bd 3a32 a83e aaef d63f
00000230: 4b0a 273e 3211 38c0 fc1f 993d 3833 54c0
00000240: a0cb 73be 6015 15bf 602e 993d a9a5 113e
00000250: 4841 abbe fb01 c8be 4efa 40be 94cb 8c3e
00000260: 1d04 adbd fc79 6a3f 821c 98be 70f7 46be
00000270: 3904 1f3f feab f4bd dcec d83e 9d19 e6bd
00000280: 7a29 a93e 4e38 7cbf ace3 86be 9335 2dbf
00000290: fb06 153f cf85 bc3d 10c6 1b3e 3e7e 243f
000002a0: 982d 823e 4d5e f4be 2481 293f fc22 d4bc
000002b0: f263 27be b304 823e 48ea e23c fb1e cb3e
000002c0: b425 ee3e 207b ed3e 2539 75be 02f1 2dbc
000002d0: b83b 3fbe b8c8 853d aacb 26be 3858 87be
000002e0: a673 7f3e a526 083f 5c18 933c cddb c03e
000002f0: be20 853e 58a6 bbbe e4ef ebbc f8a0 093c
00000300: 70c8 ef3d f178 aabe 9a2d 9f3d bae7 23bf
00000310: f2d5 023f ecb6 27be 4285 b73e 7b86 f63e
00000320: b520 5c3e a5ec 1641 ecee ce3c 0f86 2241
00000330: 6a5f f63e 6cd3 1ebf 6f17 bc3e 4cb3 f0be
00000340: 436b 94bd f68f 6ac1 756e 8bbf b867 9c40
00000350: 7d20 b23e c3ec 8540 32fe 983d 1299 f7bd
00000360: 793b 07bf 6ed2 ce3d b462 2dbd 861c f9bd
00000370: f8f7 fc3d ac38 c43d 54fa be3e 4e4b dcbe
00000380: 574d 4b3d 7bc2 15be 5b6b 233c 7ed3 a63e
00000390: d76a cc3e 08ec abbd f64c 3abf df07 e1bd
000003a0: 796e af3d 322c 8abe b5c0 68bd 1157 533f
000003b0: b73a c1bc 7e2b 6f3c 7003 e83d 5f4c 3e3e
000003c0: 1fc9 8a3e c959 debe f94b 293e 8acc e1bd
000003d0: 6a25 0fbf f82b 42be d207 5d3d a002 193e
000003e0: 5d81 cdbd 5a68 17bf 3e49 fd3e e767 dfbd
000003f0: b8a0 243f 30d9 e6be ea30 3c3e 4f1b 623e
0.580063 4.431399 0.68250346 1.8294001 0.021290533 -0.8284979 -0.20010242 0.26997578
0.24879035 1.7346234 0.028872006 -6.451267 1.0088168 -3.8633738 0.12858015 -0.31724906
-1.0324764 -0.07142544 -0.46128327 0.2294175 -0.17054598 -0.5689968 -0.18295717 -0.23062783
-0.2185545 0.05860601 0.8501563 -0.12028004 0.07961169 -1.4489943 -0.1461665 0.5491485
-0.25925386 -2.696677 -0.13784152 -0.018551389 -0.33739603 0.19214912 -0.20083869 0.37836325
0.51378804 0.055510744 -0.024812995 -0.33055782 -0.53999215 -0.14317907 0.15770659 0.4623047
0.36704654 -0.14438117 -0.15979293 -0.07041016 0.17911977 -0.08964564 0.013048895 -0.48349816
-0.18408592 0.41828883 0.03529057 -0.043751337 0.24725507 0.36260474 0.26408988 -0.7578726
0.25498343 -0.11183211 0.22447734 -0.14813158 -0.13103281 -1.4157107 0.19332142 -0.06789131
-0.18179044 0.16164997 -0.31460893 -0.034407906 -0.5444649 -0.16018581 0.3430351 -0.16024968
-0.40459237 3.4000237 -0.17479238 1.934397 -0.045395024 0.45333356 0.2672316 -0.38824373
0.8060868 1.8372533 0.3473731 9.017649 -1.793392 -0.6597858 0.03297396 0.19914456
0.8445525 -0.08770509 0.3563834 -0.21889636 -0.11869249 0.4565017 0.43335226 -0.028403984
0.05974329 0.07714689 0.63184565 -0.08759337 0.027549058 -0.09749655 0.33171603 -0.9494778
0.19914968 -0.59614027 0.2893982 0.052294746 0.0772894 0.24184194 -0.23407988 0.054926213
4.3571825 19.15768 0.5383855 17.119434 -0.17193311 0.9549359 -0.036915146 0.1732863
-0.13015965 -3.9047527 0.44437778 9.238337 0.047920763 14.214169 0.41824806 0.13021442
1.4409217 -0.06561514 0.3285082 1.679189 0.1631252 -2.8760495 0.07476804 -3.3156261
-0.23808146 -0.5823574 0.074795485 0.1422335 -0.33448243 -0.3906401 -0.18845484 0.27499068
-0.0844805 0.91592383 -0.2970925 -0.19430327 0.6211582 -0.119468674 0.4236821 -0.11235354
0.33039457 -0.98523414 -0.26345575 -0.6765987 0.58213776 0.092052095 0.15212274 0.6425513
0.2542541 -0.47728196 0.6621268 -0.025895588 -0.1634672 0.2539421 0.027699605 0.39672074
0.4651314 0.46383 -0.2394758 -0.010616543 -0.18675125 0.06532425 -0.16288629 -0.26434493
0.2494646 0.53183967 0.017955951 0.37667695 0.26001543 -0.36650348 -0.028800912 0.008400194
0.11708152 -0.33295396 0.0777237 -0.6402546 0.51107705 -0.16378373 0.35843855 0.48149475
0.21496852 9.432775 0.025260411 10.157729 0.4811967 -0.62041354 0.36736628 -0.47011793
-0.07247021 -14.660147 -1.0893084 4.887661 0.34790412 4.1851516 0.07470359 -0.12089743
-0.52825123 0.1009873 -0.04233046 -0.121636435 0.12351984 0.09581122 0.3730036 -0.43026203
0.049634304 -0.1462497 0.009974326 0.3258323 0.39925262 -0.08394629 -0.72773683 -0.109878294
0.08565993 -0.26986843 -0.056824405 0.8255473 -0.023587568 0.014597772 0.11328781 0.18583821
0.27106568 -0.43427876 0.16532888 -0.11025341 -0.55916464 -0.18962085 0.053962536 0.14942408
-0.1003444 -0.591436 0.49469942 -0.1090849 0.6430774 -0.45087576 0.18378034 0.2208073

target_network.h3.transform.bias f4 [20]
00000000: 6c9f 08c3 a774 bb40 e4f1 0cbf e92f c5be
00000010: 5e85 8f42 acd4 e13f e0a8 b7c2 bc79 58c0
00000020: 3a5b 45bf 886e 16bd 87ab a6c3 0000 0000
00000030: 807a 1fbb ab32 57c3 0000 0000 b5cc ccbd
00000040: 8275 11be a25e d940 6ab0 fcc1 f78a d841
-136.62274 5.85799 -0.55056596 -0.38513115 71.76048 1.7643027 -91.829834 -3.38243
-0.77092326 -0.036726505 -333.34006 0.0 -0.002433449 -215.19792 0.0 -0.09999982
-0.14204982 6.792802 -31.58614 27.067854

target_network.critic_linear.weight f4 [1, 20]
00000000: e96a 1fbf 584d 13c0 e26f 553d 04f1 383c
00000010: 0d35 2840 fd33 38bf 1e8c 6f40 2a2a 083f
00000020: ad23 233f a863 903e dbf7 ba40 a02d dc3c
00000030: 0167 a6be d5cf 1abf 570d 2cbf 5cc4 f7bc
00000040: 84f1 173d 2a58 8bbf 971b 853d 0e72 21be
-0.62272507 -2.3015957 0.052108653 0.011287931 2.628238 -0.7195433 3.742927 0.5318934
0.6372631 0.28201032 5.842756 0.026877224 -0.3250046 -0.60473377 -0.67207855 -0.030244999
0.03709556 -1.088628 0.06499403 -0.15766165
