pz_risk/mini_1/1.pt (torch, 18513 bytes, 26 tensors)

policy_network.emb1.transform.weight f4 [20, 2]
00000000: cbfd 053e 0979 c03e 20fd 923d 8c34 12bf
00000010: de3f f1bb 48be a9be 943e 30be 70d9 aabe
00000020: 245f fd3d 3da0 f73e 020f 04bf 2520 fe3e
00000030: 9a1a 50be 33cd 8ebd f140 93be c1d0 90be
00000040: 7464 f23d 2d2f 0d3e e575 983d fe45 b73e
00000050: 4dba 15be 35ee ce3c ed53 41be e22e 693e
00000060: 16bd cc3e 1804 7abe f11a 89be 10a8 b13e
00000070: b5f7 353e 99f5 913d a2e9 3ebf 9646 763e
00000080: c95a 1bbf c658 6bbe 617f dabe cd4e c6be
00000090: 86f1 eebc a2b2 e03d ad32 9ebe c677 98be
0.13085096 0.37592342 0.07177186 -0.5711143 -0.00736235 -0.33152986 -0.17211372 -0.33369017
0.12371662 0.4836444 -0.515854 0.496339 -0.20322648 -0.069727324 -0.28760484 -0.28284267
0.11835566 0.13787527 0.074443616 0.35795587 -0.1462185 0.02526007 -0.18879671 0.2277179
0.3998801 -0.24415624 -0.26778367 0.34698534 0.17770274 0.07126922 -0.74575245 0.24050364
-0.606854 -0.22983083 -0.42675307 -0.38731995 -0.029167902 0.109715715 -0.30898038 -0.2977888

policy_network.emb1.transform.bias f4 [20]
00000000: 0000 0000 0000 0000 0000 0000 0000 0000
00000010: 0000 0000 0000 0000 0000 0000 0000 0000
00000020: 0000 0000 0000 0000 0000 0000 0000 0000
00000030: 0000 0000 0000 0000 0000 0000 0000 0000
00000040: 0000 0000 0000 0000 0000 0000 0000 0000
0.0 0.0 0.0 0.0 0.0 0.0 0.0 0.0
0.0 0.0 0.0 0.0 0.0 0.0 0.0 0.0
0.0 0.0 0.0 0.0

policy_network.emb2.transform.weight f4 [20, 2]
00000000: 2543 803e 2b53 ac3e 8e38 203e 62aa ec3e
00000010: 198e 92be 6d8d 033d aa0d 47bd d037 d2bd
00000020: aeeb 023f 34e6 92bd 1444 913d 2d9a c33e
00000030: f318 fb3c 3ec1 9f3e f9c8 cfbd 5bbb 873e
00000040: 73dd 2cbe 96c7 6d3e 2b96 073f 6c76 26bd
00000050: 3991 1c3e 19ab 04bf 06b8 5dbf 2cc7 3cbe
00000060: 0187 abbc 28c6 c73d 9dc2 46be 1eee de3e
00000070: 9e4b f33d 6ca6 313f 3235 e8bd 4f2a f43d
00000080: ce58 19bf 2767 d33d 333c 2e3e 54d6 00bf
00000090: c12c babd 618c f8bd 83fb ab3d e8b3 d73d
0.25051227 0.33657202 0.15646574 0.46223742 -0.28624037 0.032117296 -0.048597015 -0.10264552
0.5114087 -0.07172814 0.07093063 0.38203564 0.030651545 0.3120212 -0.10145754 0.26510128
-0.16881351 0.23220667 0.52963513 -0.04064028 0.15289773 -0.51823574 -0.8660892 -0.18435353
-0.020938398 0.09754592 -0.19410177 0.43541044 0.11879657 0.69394565 -0.11338271 0.11922132
-0.5990113 0.10322409 0.17015152 -0.5032704 -0.090905674 -0.1213615 0.083975814 0.10532361

policy_network.emb2.transform.bias f4 [20]
00000000: 0000 0000 0000 0000 0000 0000 0000 0000
00000010: 0000 0000 0000 0000 0000 0000 0000 0000
00000020: 0000 0000 0000 0000 0000 0000 0000 0000
00000030: 0000 0000 0000 0000 0000 0000 0000 0000
00000040: 0000 0000 0000 0000 0000 0000 0000 0000
0.0 0.0 0.0 0.0 0.0 0.0 0.0 0.0
0.0 0.0 0.0 0.0 0.0 0.0 0.0 0.0
0.0 0.0 0.0 0.0

policy_network.emb3.transform.weight f4 [20, 2]
00000000: 6723 06bf bc36 5ebe 02de 96be a785 52bd
00000010: ded0 81be a803 6cbd 05c0 663e 826a 463e
00000020: 87cf 873e bbe3 0c3f 9fa4 92be be85 f03e
00000030: e4af e53d 7401 043f 9207 803d 5008 43be
00000040: 29dc 52be 31b4 133f b1cf aa3d fe08 87be
00000050: c333 8abd aca1 cdbe c4c1 05bf ba09 a73e
00000060: 9d61 ce3c ceab 2f3e 4c50 af3e bad1 863e
00000070: 0533 51be 5c8e 10be 4d33 43be 98c2 053e
00000080: f068 443f 069b 8bbe 058e 513e da24 2fbe
00000090: 303b f83d 86a7 2a3e 3d2d dd3e 0add c33e
-0.5239777 -0.21700567 -0.29466254 -0.051396992 -0.25354666 -0.057620674 0.22534187 0.19376567
0.26525518 0.5503499 -0.2864122 0.46977037 0.11215189 0.5156472 0.06251444 -0.1904614
-0.20591797 0.57696825 0.08340395 -0.26374048 -0.06748154 -0.40162408 -0.5224879 0.32624608
0.02519303 0.17155382 0.3424095 0.26331884 -0.20429619 -0.14116806 -0.19062538 0.13062513
0.7672262 -0.2726671 0.20464332 -0.17103902 0.12120664 0.16665468 0.43198577 0.38254577

policy_network.emb3.transform.bias f4 [20]
00000000: 0000 0000 0000 0000 0000 0000 0000 0000
00000010: 0000 0000 0000 0000 0000 0000 0000 0000
00000020: 0000 0000 0000 0000 0000 0000 0000 0000
00000030: 0000 0000 0000 0000 0000 0000 0000 0000
00000040: 0000 0000 0000 0000 0000 0000 0000 0000
0.0 0.0 0.0 0.0 0.0 0.0 0.0 0.0
0.0 0.0 0.0 0.0 0.0 0.0 0.0 0.0
0.0 0.0 0.0 0.0

policy_network.emb4.transform.weight f4 [20, 2]
00000000: c955 c13e 65e2 9f3e 28d0 ad3d 3e21 43be
00000010: c9db a63e c1aa 4b3e 77e1 9dbe 558e f63e
00000020: 650e 913e 003f 10be 2d0e 753e 4087 073f
00000030: 0067 4e3e ad3d 6fbd 8432 57be 4b4f 83be
00000040: 3fde 9abe 761a babe cc80 c2bd f478 063e
00000050: 689b 8cbc 9737 b8be 6d5a 1a3e cba6 213e
00000060: e4d1 1bbb abaf b73d 76f2 8d3d 5d8c b43d
00000070: 71ae d6bd 4085 ad3e e5e4 e93e 5e2e c3be
00000080: 4d02 403e d129 9c3d eb52 b7be ec48 173f
00000090: 41a3 4dbf ced0 303e 2303 05bf 98bd 02bf
0.3776076 0.31227413 0.08486968 -0.1905565 0.32589558 0.19889356 -0.3083608 0.48155466
0.28331295 -0.14086533 0.23931189 0.5294075 0.20156479 -0.058408428 -0.21015364 -0.25646433
-0.30247685 -0.36348313 -0.09497222 0.13132077 -0.017163947 -0.35979912 0.15073557 0.15786283
-0.0023776228 0.08969053 0.069310114 0.08815835 -0.10482491 0.33890724 0.45682445 -0.38121313
0.18750878 0.07625163 -0.3580545 0.59095645 -0.8032723 0.17267153 -0.5195791 -0.5107055

policy_network.emb4.transform.bias f4 [20]
00000000: 0000 0000 0000 0000 0000 0000 0000 0000
00000010: 0000 0000 0000 0000 0000 0000 0000 0000
00000020: 0000 0000 0000 0000 0000 0000 0000 0000
00000030: 0000 0000 0000 0000 0000 0000 0000 0000
00000040: 0000 0000 0000 0000 0000 0000 0000 0000
0.0 0.0 0.0 0.0 0.0 0.0 0.0 0.0
0.0 0.0 0.0 0.0 0.0 0.0 0.0 0.0
0.0 0.0 0.0 0.0

policy_network.h2.transform.weight f4 [20, 20]
00000000: 01c9 9e3d d528 3fbd 0f63 94be d049 333e
00000010: cf2c d1ba b5a6 fc3e 247e 1cbf 5ea5 35bf
00000020: 0f48 24be 2782 8dbe 46ac ce3e effe 833e
00000030: 12ed 573e 59d3 503e e9d3 10be 356c 51be
00000040: a584 63be 89ae 7abd 4020 a2be 1615 b4be
00000050: eabb 023e 5079 093e 6781 cbbe d95a a23e
00000060: 5c8d c93d d5a8 23bf e128 613e 72fa bbbe
00000070: 6cc9 27bf 074c d93e 9364 bb3d 2b13 44be
00000080: a660 3ebe 9850 b6be 1da6 c5be 4961 6dbe
00000090: 1f69 0dbe b942 39bc 7cfb 5dbe c4de 123e
000000a0: e24d d1be 9146 b63d 40ae 99be a014 c7be
000000b0: b2d3 89be c0fd e8bd 5142 abbe e59d 153e
000000c0: 58e0 263e dcdd 763e c48a 243d f7de 5ebd
000000d0: 6d4d a63e 0118 b5bd 47d7 633e bdfc d8be
000000e0: b162 093f 0438 26be 7939 2bbf fa1e d43e
000000f0: 4a38 8bba 8a86 3a3d e20b d13e 80bf fabd
00000100: cf48 863e 277d b23e 0d59 a1be 8658 343e
00000110: 282b e2bd a38e 5a3f 2d98 6abe 7ec7 133f
00000120: b93f aeba a65a fcbc 171d f4be e3eb 1fbe
00000130: d225 95bd 3dbc 98be aab7 0c3e b6eb 5e3d
00000140: a83c b3bd 57d4 debe 67c3 d3be 9020 d33e
00000150: c517 eebe a507 22bd 4a44 b6be 618e 153e
00000160: 8a61 953e a5c4 d53e 3fd7 ae3e e66c 16bd
00000170: f66c a9bd 24e9 803e b090 9fbe 8cf3 ae3e
00000180: 9978 0b3e 8df4 e23e 113b bf3e d0b5 903e
00000190: 1507 e33d d869 b13e edf9 033e 5aef 433f
000001a0: f7fd dd3d 58a0 0c3f 3d02 35be b17a b23d
000001b0: 4b06 40be e4a1 433e 386c 813d 8805 eabe
000001c0: 19f7 41be 8a1e 66be 92f7 f53e baff d8bd
000001d0: d753 003f 0295 29be 3705 103e 3f2c 1b3d
000001e0: 2eb4 5c3d 7f50 edbd bf3a c8be d7d6 1d3f
000001f0: 8104 643e f3aa a138 b1fb b8bd b9c4 c43e
00000200: 266f d03e d848 05bf c40c 0fbf 3790 983e
00000210: b729 d53a 9b83 a1be b8e5 c2be 3aa8 7abe
00000220: 5330 a3bd da9d 37be a2ad 2fbe afb1 3f3e
00000230: 0080 81be c690 8cbc 8b2e 3fbe 938c da3d
00000240: 85a6 043e 9552 b1be 30a5 653e 897a bcbe
00000250: 6aa5 f73e 0a1b 543e 9c3a 443d 2463 993e
00000260: 55fc a23d 52d4 4ebe 3019 e53c a320 eebc
00000270: 7bc7 1c3f fd42 7abe b7c2 a23e dc81 48bf
00000280: 714a 223f ec56 24bf fd2a 99bd 2ba7 4abe
00000290: 6742 f1be 1326 be3d c879 2b3e 6edc e3bd
000002a0: 339f abbe 5b65 26be 6c3d e9bd 5b91 1f3e
000002b0: bb72 823d 3f14 2ebd 7064 ba3d 27ca d2be
000002c0: 8279 b83e 26ae cfbe 8327 d73e 98b4 4b3e
000002d0: babd f13c 0307 96be 340a 003f 3df5 273e
000002e0: 0156 12be 2177 0a3e ea3e 403e 8a35 03be
000002f0: 1cd1 ab3c 40fc 8dbc b8a5 8f3e a898 9a3e
00000300: 4b98 e33e 14b0 67bf 06f2 c73c fefb 3f3e
00000310: baae 393d 9d34 fb3e e466 82be cffb fb3d
00000320: 7585 7ebd b275 f4be 7235 bd3e 49c8 5a3e
00000330: c30c 513f 0863 c0be 4509 48bd 2cbc 89bd
00000340: 2f72 783c 8248 24be b1b4 fe3e 022e f73d
00000350: c1a3 b43a e7f9 c93e 6a82 ee3d cceb 28bd
00000360: 2869 7a3e 55a0 3fbe c54f 82bd ff6f ec3e
00000370: 0c7c b53c 815a 95be a560 bdbe 6df4 a1be
00000380: 8ef3 053f 6c6f 083f 6f33 bc3e c5a8 29bd
00000390: 9102 a63e f29f 523e b971 303e 9c33 30bf
000003a0: 7fd2 b13e bcba 48be d1b8 9abe b133 36be
000003b0: eddb 1dbe d1d2 12bd 18e2 173e a16f 5e3d
000003c0: e1ce a13e 69ca 8b3e 9be3 87bc 7364 d5be
000003d0: 7814 403e 45a7 39be b2b7 fbbe 814b 373e
000003e0: 242d 803e 2d5c 4abe d075 ea3e e2f9 413d
000003f0: bb46 0bbf 2a14 efbe d685 3abc 291c fabe
0.07753182 -0.0466698 -0.28981826 0.17508626 -0.0015958789 0.49345937 -0.61129975 -0.70955455
-0.16043113 -0.2763836 0.4036581 0.25780436 0.21086529 0.20393123 -0.14143337 -0.20451434
-0.22218569 -0.061201606 -0.3166523 -0.35172337 0.12766996 0.13425183 -0.39747164 0.31709936
0.09841415 -0.6392949 0.2198825 -0.36714512 -0.6554172 0.42440817 0.091500424 -0.19147937
-0.18591556 -0.35608363 -0.38603297 -0.23181643 -0.13809632 -0.011307412 -0.21677965 0.14342791
-0.40879732 0.08900178 -0.30015755 -0.38882923 -0.26919323 -0.11376524 -0.33449033 0.14611013
0.16296518 0.2410807 0.0401714 -0.054411855 0.32480946 -0.08842469 0.2225009 -0.42380324
0.53666216 -0.16232306 -0.6688457 0.41429883 -0.0010621634 0.045538463 0.40829378 -0.12243557
0.26227424 0.3486111 -0.31513253 0.17611894 -0.11043388 0.85373896 -0.22909613 0.57726276
-0.0013294137 -0.030804943 -0.47678444 -0.15617327 -0.07282604 -0.29831114 0.13741937 0.05442401
-0.08751804 -0.43521377 -0.41360018 0.4123578 -0.4650251 -0.03955807 -0.35598975 0.14605094
0.2917598 0.4175159 0.34148595 -0.036724947 -0.08272736 0.25177872 -0.31165075 0.34170187
0.13620223 0.44327202 0.37349752 0.28263712 0.11085335 0.34651065 0.12888308 0.76537097
0.108394556 0.54932165 -0.17676635 0.08714808 -0.187524 0.19104725 0.06319469 -0.45707345
-0.18941917 -0.22472587 0.48040444 -0.10595651 0.5012793 -0.16560748 0.1406449 0.037883993
0.05388277 -0.11587619 -0.3910732 0.61655945 0.22267343 7.70892e-05 -0.09032381 0.38431337
0.407098 -0.52064276 -0.55878854 0.29797527 0.0016263042 -0.3154572 -0.38065886 -0.24478236
-0.079682015 -0.1793131 -0.1715608 0.18720125 -0.2529297 -0.017158877 -0.18670098 0.10671344
0.12954147 -0.34633318 0.22426295 -0.36812237 0.48368388 0.2071344 0.047907457 0.2995845
0.07958285 -0.20198181 0.027966112 -0.029068297 0.61241883 -0.24439617 0.3178918 -0.7832315
0.6339484 -0.6419513 -0.074789025 -0.19790332 -0.47120973 0.09284606 0.16745675 -0.11126028
-0.33519897 -0.16249602 -0.113886684 0.15582792 0.06369539 -0.042499777 0.09101188 -0.41169855
0.36030203 -0.40562552 0.42022333 0.1989311 0.029509414 -0.29302225 0.5001557 0.16402145
-0.1429062 0.13522007 0.18774 -0.12813392 0.020973735 -0.017332196 0.2805612 0.30194592
0.44452128 -0.9050305 0.024407398 0.18748471 0.045332648 0.49063578 -0.25469124 0.12303888
-0.062138993 -0.47746044 0.36954838 0.21365465 0.816601 -0.37575555 -0.048836965 -0.06725344
0.015163942 -0.16043285 0.49747232 0.12069322 0.0013781713 0.39448473 0.11645968 -0.0412405
0.24454176 -0.18713506 -0.06362871 0.46179196 0.022153877 -0.29170612 -0.36987796 -0.31631795
0.5232476 0.53295016 0.3675799 -0.041420717 0.32423833 0.20568827 0.17230882 -0.6882875
0.34730908 -0.19602484 -0.3021913 -0.17793156 -0.15415926 -0.03584558 0.14832342 0.054305676
0.3160315 0.27302864 -0.016588023 -0.416782 0.18757808 -0.18130215 -0.49163586 0.17899896
0.2503444 -0.19761725 0.4579301 0.047357447 -0.544048 -0.4669507 -0.011384448 -0.4884961

policy_network.h2.transform.bias f4 [20]
00000000: 0000 0000 0000 0000 0000 0000 0000 0000
00000010: 0000 0000 0000 0000 0000 0000 0000 0000
00000020: 0000 0000 0000 0000 0000 0000 0000 0000
00000030: 0000 0000 0000 0000 0000 0000 0000 0000
00000040: 0000 0000 0000 0000 0000 0000 0000 0000
0.0 0.0 0.0 0.0 0.0 0.0 0.0 0.0
0.0 0.0 0.0 0.0 0.0 0.0 0.0 0.0
0.0 0.0 0.0 0.0

policy_network.h3.transform.weight f4 [20, 20]
00000000: d5a7 923c bc11 c3bd f31e 153f 36dc 78bc
00000010: b5a4 cb3d e8ae 18bf 96cb ccbe d61d 863e
00000020: e6c2 7e3e 664a 87be 5e70 cb3d 2477 c83e
00000030: 2c35 babe 7fad 92be ad2b ea3c f0a1 dfbe
00000040: 9ab8 80bd 1468 30be 42b0 0fbf 11c9 afbd
00000050: 9ba3 2ebe 5c18 01bf 2059 3bbe cfa4 00be
00000060: c0cc 5fbe db0c 703d d8a3 593f 6255 f6bd
00000070: 740b a33d c93f 57be acac 15be 6642 1e3f
00000080: ecbc 84be af77 82bd 5426 0dbe 15f9 97bc
00000090: 2cbf acbe bdc2 443e a8a8 4dbe d4b8 c13e
000000a0: d0dd d33e 283e 1f3e 9f44 cbbc 0df3 91bd
000000b0: ed3c 0abf 8fdc 30bd d67d 213e 768c 293f
000000c0: b520 ef3e 8306 ac3e 76e9 74bd 5666 f23c
000000d0: 2c6b 373e 9b49 ac3e 2a86 e73d 128d f7be
000000e0: 3136 acbd 93ae 043f 9c89 0a3e 1aee 12be
000000f0: 3ad4 163e 61da ec3e ca36 873e ea7c cfbe
00000100: 308d 823e 8fdb 41bc 63dd 653e d129 45bd
00000110: c938 febc e804 33bf 392e 963e 6084 033d
00000120: 4627 3abe cee2 093f 74c2 5bbe 4eef 0cbd
00000130: e890 e3be 6c85 76bd 7ed5 e23e b118 85be
00000140: d092 923b 4601 693e 96b1 8cbe 7ad3 55bd
00000150: 2db3 d3be da2e a7be 2af6 893d 8289 fdbe
00000160: 7cc2 343f c824 d3bc 5fe1 aa3e 21ac b5be
00000170: 3b5c 1bbf e69a 36be c606 2bbe 1f9a bb3d
00000180: 20b1 ba3e cdff 13bb 5b24 203e 002e e33d
00000190: c933 99bc 5207 513f c689 083f 7d1b b63e
000001a0: 8515 a23d 83ec 9bbd a3c0 213f 9a17 40be
000001b0: 1e61 94bd 620f 673e e1cb 783e ec3f 753d
000001c0: f1fb 983e c3b2 8dbe 9af1 413e 3bd4 583d
000001d0: fbe8 793d 9c54 113e 12c1 86be 18cd 783e
000001e0: af46 29bd 886e 80be 3b6d 233f c045 bdbe
000001f0: 92eb 21be 118e 993e 5634 17bd d819 963d
00000200: f1ae 6bbe c2b4 1f3f 900b ba3e d8a3 723d
00000210: f3da 0ebf b8a4 533e 6af1 a23e 06d4 063e
00000220: 9592 603d b17e 29be 97fc 9b3e 277e 9e3e
00000230: 73b7 863e c6e2 1cbe 64f6 323e 5aac 9b3e
00000240: e14e e6bd f530 36bf 548b 8c3e fbb0 58bd
00000250: 7974 debe 786f 123d 8ea7 c3be addf 0d3e
00000260: b9d4 ae3a d6b2 c93e be1e 98be 83ea b6bd
00000270: 83d8 183f 455e 80be 1b05 ca3e b6bd 943d
00000280: c65b dc3e 9580 9cbe f360 27be 83b2 d03d
00000290: 9655 353f 9136 14bd 10c6 1b3e 19de c43e
000002a0: ccf4 1d3e 7a44 7dbd f010 123f 7c97 8abc
000002b0: 3592 83bd 0a46 763e 3812 94bd 8884 cc3e
000002c0: cf27 e23e 4054 ba3e 5384 89be ea3b 323e
000002d0: edaf b1bd c24a 293e 8aca 80bd 04a8 76be
000002e0: 03d0 883e 171a dd3e 5c18 933c 18a9 8d3e
000002f0: 1bdb 233e ac80 abbe 739b dfbd 8e5e ff3c
00000300: 70c8 ef3d 5159 92be bb7c b6bc a7b9 23bf
00000310: d457 083f 8d03 87be fcc8 a93e ffa7 2b3f
00000320: b520 5c3e 5086 90be ecee ce3c bf09 4bbf
00000330: fc31 c03e a3a9 d8be 7a9a 2b3e 791c f3be
00000340: 436b 94bd 36c8 b53e 83f7 b93c a844 b9be
00000350: 799c c13e 09a2 57be fa26 cfbc e6e3 cebe
00000360: a6c3 f8bd c6ab 4d3e b462 2dbd e339 a0ba
00000370: f8f7 fc3d ac38 c43d 54fa be3e 4e4b dcbe
00000380: 574d 4b3d 7bc2 15be 5b6b 233c 7ed3 a63e
00000390: d76a cc3e 08ec abbd f64c 3abf df07 e1bd
000003a0: 796e af3d 322c 8abe b5c0 68bd 1157 533f
000003b0: b73a c1bc 7e2b 6f3c 7003 e83d 5f4c 3e3e
000003c0: 1fc9 8a3e c959 debe f94b 293e ddb9 99ba
000003d0: 6a25 0fbf 5e8b b7bd d207 5d3d c472 4a3d
000003e0: 829e b5b9 70e0 eebe 2e3e 183f 99dc 14bc
000003f0: b8a0 243f 0ba6 b3be 824b 913e 4f1b 623e
0.017902294 -0.09524867 0.5825035 -0.015189221 0.09943525 -0.59641886 -0.39999074 0.26194638
0.24879035 -0.2642395 0.09933542 0.39153397 -0.36368692 -0.28647992 0.02858528 -0.43678236
-0.0628521 -0.17227203 -0.56128323 -0.08583272 -0.17054598 -0.50427794 -0.18295717 -0.1256287
-0.2185545 0.05860601 0.8501563 -0.12028004 0.07961169 -0.21020426 -0.1461665 0.61820066
-0.25925386 -0.06370484 -0.13784152 -0.018551389 -0.33739603 0.19214912 -0.20083869 0.37836325
0.41380167 0.15551054 -0.024812995 -0.071264364 -0.53999215 -0.04317909 0.15770659 0.6622995
0.4670464 0.33598718 -0.05979296 0.029589813 0.17911977 0.33649907 0.11304887 -0.48349816
-0.08408774 0.5182888 0.13529056 -0.14348641 0.14729396 0.4626036 0.26408988 -0.4052499
0.25498343 -0.011832132 0.22447734 -0.048135582 -0.031032937 -0.6992936 0.2933214 0.032108665
-0.18179044 0.538617 -0.21460897 -0.034407906 -0.44446492 -0.060185835 0.44303507 -0.259954
0.004473068 0.22754392 -0.27479237 -0.052203633 -0.41347638 -0.32652932 0.06736405 -0.49518973
0.7060926 -0.025774375 0.3337507 -0.35482886 -0.6068761 -0.17832527 -0.16701803 0.09160256
0.3646326 -0.002258289 0.15638869 0.11092758 -0.01870145 0.81651795 0.53335226 0.35567847
0.07914261 -0.076134704 0.63184565 -0.18759003 -0.07245086 0.22564462 0.24296524 0.059875414
0.29879716 -0.27675447 0.1893982 0.052936774 0.061013203 0.14192432 -0.26319176 0.24296987
-0.041327175 -0.2508433 0.6383855 -0.36967278 -0.15812519 0.299912 -0.036915146 0.07329148
-0.23015954 0.6238519 0.36336946 0.059238285 -0.5580284 0.20668304 0.3182481 0.13166818
0.05482729 -0.16552235 0.30466148 0.30955622 0.26311836 -0.15320882 0.17476803 0.3040493
-0.11245514 -0.7116845 0.2745005 -0.052903157 -0.43448237 0.035750836 -0.38213772 0.13854857
0.0013338543 0.39394253 -0.29710954 -0.08931448 0.5970537 -0.25071922 0.3945702 0.07262747
0.43038768 -0.3056685 -0.16345577 0.101902984 0.7083372 -0.03618485 0.15212274 0.38450697
0.15425414 -0.061832882 0.57057095 -0.016917937 -0.06424371 0.24050155 -0.072300375 0.39944863
0.44170997 0.36392403 -0.26858768 0.17405668 -0.08676133 0.16532424 -0.06288631 -0.2408753
0.267212 0.43183967 0.017955951 0.2766807 0.16001551 -0.33496606 -0.109183215 0.031173017
0.11708152 -0.28583768 -0.022276273 -0.6395516 0.53259015 -0.26369897 0.3316115 0.67053217
0.21496852 -0.28227472 0.025260411 -0.79311746 0.37538135 -0.42316923 0.16758147 -0.4748266
-0.07247021 0.3550431 0.02270103 -0.36185193 0.37814692 -0.21057905 -0.02528714 -0.40408248
-0.12146692 0.20085058 -0.04233046 -0.0012224283 0.12351984 0.09581122 0.3730036 -0.43026203
0.049634304 -0.1462497 0.009974326 0.3258323 0.39925262 -0.08394629 -0.72773683 -0.109878294
0.08565993 -0.26986843 -0.056824405 0.8255473 -0.023587568 0.014597772 0.11328781 0.18583821
0.27106568 -0.43427876 0.16532888 -0.0011728365 -0.55916464 -0.08962129 0.053962536 0.049425855
-0.00034641108 -0.46655607 0.5946988 -0.009085798 0.6430774 -0.35087618 0.2837792 0.2208073

policy_network.h3.transform.bias f4 [20]
00000000: 0000 0000 0000 0000 0000 0000 0000 0000
00000010: 0000 0000 0000 0000 0000 0000 0000 0000
00000020: 0000 0000 0000 0000 0000 0000 0000 0000
00000030: 0000 0000 0000 0000 0000 0000 0000 0000
00000040: 0000 0000 0000 0000 0000 0000 0000 0000
0.0 0.0 0.0 0.0 0.0 0.0 0.0 0.0
0.0 0.0 0.0 0.0 0.0 0.0 0.0 0.0
0.0 0.0 0.0 0.0

policy_network.critic_linear.weight f4 [1, 20]
00000000: d8fa 98be 6789 cfbe 609f 62be d3fc 4abe
00000010: 8730 10bf b78f ac3e a16d 5e3e 3d92 e13e
00000020: 5972 e03e d825 993e ae32 5b3d a02d dc3c
00000030: 4560 67be 4842 2abd 570d 2cbf f15e 05be
00000040: b1a9 b1bd 2131 7bbe e28c 8c3e 1121 433e
-0.2987888 -0.40534517 -0.22131109 -0.19823007 -0.56324047 0.33703396 0.21721508 0.44056883
0.4383724 0.29911685 0.05351513 0.026877224 -0.22595318 -0.041567117 -0.67207855 -0.13024499
-0.08674944 -0.2453046 0.27451235 0.19055583

target_network.emb1.transform.weight f4 [20, 2]
00000000: cbfd 053e 0979 c03e 20fd 923d 8c34 12bf
00000010: de3f f1bb 48be a9be 943e 30be 70d9 aabe
00000020: 245f fd3d 3da0 f73e 020f 04bf 2520 fe3e
00000030: 9a1a 50be 33cd 8ebd f140 93be c1d0 90be
00000040: 7464 f23d 2d2f 0d3e e575 983d fe45 b73e
00000050: 4dba 15be 35ee ce3c ed53 41be e22e 693e
00000060: 16bd cc3e 1804 7abe f11a 89be 10a8 b13e
00000070: b5f7 353e 99f5 913d a2e9 3ebf 9646 763e
00000080: c95a 1bbf c658 6bbe 617f dabe cd4e c6be
00000090: 86f1 eebc a2b2 e03d ad32 9ebe c677 98be
0.13085096 0.37592342 0.07177186 -0.5711143 -0.00736235 -0.33152986 -0.17211372 -0.33369017
0.12371662 0.4836444 -0.515854 0.496339 -0.20322648 -0.069727324 -0.28760484 -0.28284267
0.11835566 0.13787527 0.074443616 0.35795587 -0.1462185 0.02526007 -0.18879671 0.2277179
0.3998801 -0.24415624 -0.26778367 0.34698534 0.17770274 0.07126922 -0.74575245 0.24050364
-0.606854 -0.22983083 -0.42675307 -0.38731995 -0.029167902 0.109715715 -0.30898038 -0.2977888

target_network.emb1.transform.bias f4 [20]
00000000: 0000 0000 0000 0000 0000 0000 0000 0000
00000010: 0000 0000 0000 0000 0000 0000 0000 0000
00000020: 0000 0000 0000 0000 0000 0000 0000 0000
00000030: 0000 0000 0000 0000 0000 0000 0000 0000
00000040: 0000 0000 0000 0000 0000 0000 0000 0000
0.0 0.0 0.0 0.0 0.0 0.0 0.0 0.0
0.0 0.0 0.0 0.0 0.0 0.0 0.0 0.0
0.0 0.0 0.0 0.0

target_network.emb2.transform.weight f4 [20, 2]
00000000: 2543 803e 2b53 ac3e 8e38 203e 62aa ec3e
00000010: 198e 92be 6d8d 033d aa0d 47bd d037 d2bd
00000020: aeeb 023f 34e6 92bd 1444 913d 2d9a c33e
00000030: f318 fb3c 3ec1 9f3e f9c8 cfbd 5bbb 873e
00000040: 73dd 2cbe 96c7 6d3e 2b96 073f 6c76 26bd
00000050: 3991 1c3e 19ab 04bf 06b8 5dbf 2cc7 3cbe
00000060: 0187 abbc 28c6 c73d 9dc2 46be 1eee de3e
00000070: 9e4b f33d 6ca6 313f 3235 e8bd 4f2a f43d
00000080: ce58 19bf 2767 d33d 333c 2e3e 54d6 00bf
00000090: c12c babd 618c f8bd 83fb ab3d e8b3 d73d
0.25051227 0.33657202 0.15646574 0.46223742 -0.28624037 0.032117296 -0.048597015 -0.10264552
0.5114087 -0.07172814 0.07093063 0.38203564 0.030651545 0.3120212 -0.10145754 0.26510128
-0.16881351 0.23220667 0.52963513 -0.04064028 0.15289773 -0.51823574 -0.8660892 -0.18435353
-0.020938398 0.09754592 -0.19410177 0.43541044 0.11879657 0.69394565 -0.11338271 0.11922132
-0.5990113 0.10322409 0.17015152 -0.5032704 -0.090905674 -0.1213615 0.083975814 0.10532361

target_network.emb2.transform.bias f4 [20]
00000000: 0000 0000 0000 0000 0000 0000 0000 0000
00000010: 0000 0000 0000 0000 0000 0000 0000 0000
00000020: 0000 0000 0000 0000 0000 0000 0000 0000
00000030: 0000 0000 0000 0000 0000 0000 0000 0000
00000040: 0000 0000 0000 0000 0000 0000 0000 0000
0.0 0.0 0.0 0.0 0.0 0.0 0.0 0.0
0.0 0.0 0.0 0.0 0.0 0.0 0.0 0.0
0.0 0.0 0.0 0.0

target_network.emb3.transform.weight f4 [20, 2]
00000000: 6723 06bf bc36 5ebe 02de 96be a785 52bd
00000010: ded0 81be a803 6cbd 05c0 663e 826a 463e
00000020: 87cf 873e bbe3 0c3f 9fa4 92be be85 f03e
00000030: e4af e53d 7401 043f 9207 803d 5008 43be
00000040: 29dc 52be 31b4 133f b1cf aa3d fe08 87be
00000050: c333 8abd aca1 cdbe c4c1 05bf ba09 a73e
00000060: 9d61 ce3c ceab 2f3e 4c50 af3e bad1 863e
00000070: 0533 51be 5c8e 10be 4d33 43be 98c2 053e
00000080: f068 443f 069b 8bbe 058e 513e da24 2fbe
00000090: 303b f83d 86a7 2a3e 3d2d dd3e 0add c33e
-0.5239777 -0.21700567 -0.29466254 -0.051396992 -0.25354666 -0.057620674 0.22534187 0.19376567
0.26525518 0.5503499 -0.2864122 0.46977037 0.11215189 0.5156472 0.06251444 -0.1904614
-0.20591797 0.57696825 0.08340395 -0.26374048 -0.06748154 -0.40162408 -0.5224879 0.32624608
0.02519303 0.17155382 0.3424095 0.26331884 -0.20429619 -0.14116806 -0.19062538 0.13062513
0.7672262 -0.2726671 0.20464332 -0.17103902 0.12120664 0.16665468 0.43198577 0.38254577

target_network.emb3.transform.bias f4 [20]
00000000: 0000 0000 0000 0000 0000 0000 0000 0000
00000010: 0000 0000 0000 0000 0000 0000 0000 0000
00000020: 0000 0000 0000 0000 0000 0000 0000 0000
00000030: 0000 0000 0000 0000 0000 0000 0000 0000
00000040: 0000 0000 0000 0000 0000 0000 0000 0000
0.0 0.0 0.0 0.0 0.0 0.0 0.0 0.0
0.0 0.0 0.0 0.0 0.0 0.0 0.0 0.0
0.0 0.0 0.0 0.0

target_network.emb4.transform.weight f4 [20, 2]
00000000: c955 c13e 65e2 9f3e 28d0 ad3d 3e21 43be
00000010: c9db a63e c1aa 4b3e 77e1 9dbe 558e f63e
00000020: 650e 913e 003f 10be 2d0e 753e 4087 073f
00000030: 0067 4e3e ad3d 6fbd 8432 57be 4b4f 83be
00000040: 3fde 9abe 761a babe cc80 c2bd f478 063e
00000050: 689b 8cbc 9737 b8be 6d5a 1a3e cba6 213e
00000060: e4d1 1bbb abaf b73d 76f2 8d3d 5d8c b43d
00000070: 71ae d6bd 4085 ad3e e5e4 e93e 5e2e c3be
00000080: 4d02 403e d129 9c3d eb52 b7be ec48 173f
00000090: 41a3 4dbf ced0 303e 2303 05bf 98bd 02bf
0.3776076 0.31227413 0.08486968 -0.1905565 0.32589558 0.19889356 -0.3083608 0.48155466
0.28331295 -0.14086533 0.23931189 0.5294075 0.20156479 -0.058408428 -0.21015364 -0.25646433
-0.30247685 -0.36348313 -0.09497222 0.13132077 -0.017163947 -0.35979912 0.15073557 0.15786283
-0.0023776228 0.08969053 0.069310114 0.08815835 -0.10482491 0.33890724 0.45682445 -0.38121313
0.18750878 0.07625163 -0.3580545 0.59095645 -0.8032723 0.17267153 -0.5195791 -0.5107055

target_network.emb4.transform.bias f4 [20]
00000000: 0000 0000 0000 0000 0000 0000 0000 0000
00000010: 0000 0000 0000 0000 0000 0000 0000 0000
00000020: 0000 0000 0000 0000 0000 0000 0000 0000
00000030: 0000 0000 0000 0000 0000 0000 0000 0000
00000040: 0000 0000 0000 0000 0000 0000 0000 0000
0.0 0.0 0.0 0.0 0.0 0.0 0.0 0.0
0.0 0.0 0.0 0.0 0.0 0.0 0.0 0.0
0.0 0.0 0.0 0.0

target_network.h2.transform.weight f4 [20, 20]
00000000: 01c9 9e3d d528 3fbd 0f63 94be d049 333e
00000010: cf2c d1ba b5a6 fc3e 247e 1cbf 5ea5 35bf
00000020: 0f48 24be 2782 8dbe 46ac ce3e effe 833e
00000030: 12ed 573e 59d3 503e e9d3 10be 356c 51be
00000040: a584 63be 89ae 7abd 4020 a2be 1615 b4be
00000050: eabb 023e 5079 093e 6781 cbbe d95a a23e
00000060: 5c8d c93d d5a8 23bf e128 613e 72fa bbbe
00000070: 6cc9 27bf 074c d93e 9364 bb3d 2b13 44be
00000080: a660 3ebe 9850 b6be 1da6 c5be 4961 6dbe
00000090: 1f69 0dbe b942 39bc 7cfb 5dbe c4de 123e
000000a0: e24d d1be 9146 b63d 40ae 99be a014 c7be
000000b0: b2d3 89be c0fd e8bd 5142 abbe e59d 153e
000000c0: 58e0 263e dcdd 763e c48a 243d f7de 5ebd
000000d0: 6d4d a63e 0118 b5bd 47d7 633e bdfc d8be
000000e0: b162 093f 0438 26be 7939 2bbf fa1e d43e
000000f0: 4a38 8bba 8a86 3a3d e20b d13e 80bf fabd
00000100: cf48 863e 277d b23e 0d59 a1be 8658 343e
00000110: 282b e2bd a38e 5a3f 2d98 6abe 7ec7 133f
00000120: b93f aeba a65a fcbc 171d f4be e3eb 1fbe
00000130: d225 95bd 3dbc 98be aab7 0c3e b6eb 5e3d
00000140: a83c b3bd 57d4 debe 67c3 d3be 9020 d33e
00000150: c517 eebe a507 22bd 4a44 b6be 618e 153e
00000160: 8a61 953e a5c4 d53e 3fd7 ae3e e66c 16bd
00000170: f66c a9bd 24e9 803e b090 9fbe 8cf3 ae3e
00000180: 9978 0b3e 8df4 e23e 113b bf3e d0b5 903e
00000190: 1507 e33d d869 b13e edf9 033e 5aef 433f
000001a0: f7fd dd3d 58a0 0c3f 3d02 35be b17a b23d
000001b0: 4b06 40be e4a1 433e 386c 813d 8805 eabe
000001c0: 19f7 41be 8a1e 66be 92f7 f53e baff d8bd
000001d0: d753 003f 0295 29be 3705 103e 3f2c 1b3d
000001e0: 2eb4 5c3d 7f50 edbd bf3a c8be d7d6 1d3f
000001f0: 8104 643e f3aa a138 b1fb b8bd b9c4 c43e
00000200: 266f d03e d848 05bf c40c 0fbf 3790 983e
00000210: b729 d53a 9b83 a1be b8e5 c2be 3aa8 7abe
00000220: 5330 a3bd da9d 37be a2ad 2fbe afb1 3f3e
00000230: 0080 81be c690 8cbc 8b2e 3fbe 938c da3d
00000240: 85a6 043e 9552 b1be 30a5 653e 897a bcbe
00000250: 6aa5 f73e 0a1b 543e 9c3a 443d 2463 993e
00000260: 55fc a23d 52d4 4ebe 3019 e53c a320 eebc
00000270: 7bc7 1c3f fd42 7abe b7c2 a23e dc81 48bf
00000280: 714a 223f ec56 24bf fd2a 99bd 2ba7 4abe
00000290: 6742 f1be 1326 be3d c879 2b3e 6edc e3bd
000002a0: 339f abbe 5b65 26be 6c3d e9bd 5b91 1f3e
000002b0: bb72 823d 3f14 2ebd 7064 ba3d 27ca d2be
000002c0: 8279 b83e 26ae cfbe 8327 d73e 98b4 4b3e
000002d0: babd f13c 0307 96be 340a 003f 3df5 273e
000002e0: 0156 12be 2177 0a3e ea3e 403e 8a35 03be
000002f0: 1cd1 ab3c 40fc 8dbc b8a5 8f3e a898 9a3e
00000300: 4b98 e33e 14b0 67bf 06f2 c73c fefb 3f3e
00000310: baae 393d 9d34 fb3e e466 82be cffb fb3d
00000320: 7585 7ebd b275 f4be 7235 bd3e 49c8 5a3e
00000330: c30c 513f 0863 c0be 4509 48bd 2cbc 89bd
00000340: 2f72 783c 8248 24be b1b4 fe3e 022e f73d
00000350: c1a3 b43a e7f9 c93e 6a82 ee3d cceb 28bd
00000360: 2869 7a3e 55a0 3fbe c54f 82bd ff6f ec3e
00000370: 0c7c b53c 815a 95be a560 bdbe 6df4 a1be
00000380: 8ef3 053f 6c6f 083f 6f33 bc3e c5a8 29bd
00000390: 9102 a63e f29f 523e b971 303e 9c33 30bf
000003a0: 7fd2 b13e bcba 48be d1b8 9abe b133 36be
000003b0: eddb 1dbe d1d2 12bd 18e2 173e a16f 5e3d
000003c0: e1ce a13e 69ca 8b3e 9be3 87bc 7364 d5be
000003d0: 7814 403e 45a7 39be b2b7 fbbe 814b 373e
000003e0: 242d 803e 2d5c 4abe d075 ea3e e2f9 413d
000003f0: bb46 0bbf 2a14 efbe d685 3abc 291c fabe
0.07753182 -0.0466698 -0.28981826 0.17508626 -0.0015958789 0.49345937 -0.61129975 -0.70955455
-0.16043113 -0.2763836 0.4036581 0.25780436 0.21086529 0.20393123 -0.14143337 -0.20451434
-0.22218569 -0.061201606 -0.3166523 -0.35172337 0.12766996 0.13425183 -0.39747164 0.31709936
0.09841415 -0.6392949 0.2198825 -0.36714512 -0.6554172 0.42440817 0.091500424 -0.19147937
-0.18591556 -0.35608363 -0.38603297 -0.23181643 -0.13809632 -0.011307412 -0.21677965 0.14342791
-0.40879732 0.08900178 -0.30015755 -0.38882923 -0.26919323 -0.11376524 -0.33449033 0.14611013
0.16296518 0.2410807 0.0401714 -0.054411855 0.32480946 -0.08842469 0.2225009 -0.42380324
0.53666216 -0.16232306 -0.6688457 0.41429883 -0.0010621634 0.045538463 0.40829378 -0.12243557
0.26227424 0.3486111 -0.31513253 0.17611894 -0.11043388 0.85373896 -0.22909613 0.57726276
-0.0013294137 -0.030804943 -0.47678444 -0.15617327 -0.07282604 -0.29831114 0.13741937 0.05442401
-0.08751804 -0.43521377 -0.41360018 0.4123578 -0.4650251 -0.03955807 -0.35598975 0.14605094
0.2917598 0.4175159 0.34148595 -0.036724947 -0.08272736 0.25177872 -0.31165075 0.34170187
0.13620223 0.44327202 0.37349752 0.28263712 0.11085335 0.34651065 0.12888308 0.76537097
0.108394556 0.54932165 -0.17676635 0.08714808 -0.187524 0.19104725 0.06319469 -0.45707345
-0.18941917 -0.22472587 0.48040444 -0.10595651 0.5012793 -0.16560748 0.1406449 0.037883993
0.05388277 -0.11587619 -0.3910732 0.61655945 0.22267343 7.70892e-05 -0.09032381 0.38431337
0.407098 -0.52064276 -0.55878854 0.29797527 0.0016263042 -0.3154572 -0.38065886 -0.24478236
-0.079682015 -0.1793131 -0.1715608 0.18720125 -0.2529297 -0.017158877 -0.18670098 0.10671344
0.12954147 -0.34633318 0.22426295 -0.36812237 0.48368388 0.2071344 0.047907457 0.2995845
0.07958285 -0.20198181 0.027966112 -0.029068297 0.61241883 -0.24439617 0.3178918 -0.7832315
0.6339484 -0.6419513 -0.074789025 -0.19790332 -0.47120973 0.09284606 0.16745675 -0.11126028
-0.33519897 -0.16249602 -0.113886684 0.15582792 0.06369539 -0.042499777 0.09101188 -0.41169855
0.36030203 -0.40562552 0.42022333 0.1989311 0.029509414 -0.29302225 0.5001557 0.16402145
-0.1429062 0.13522007 0.18774 -0.12813392 0.020973735 -0.017332196 0.2805612 0.30194592
0.44452128 -0.9050305 0.024407398 0.18748471 0.045332648 0.49063578 -0.25469124 0.12303888
-0.062138993 -0.47746044 0.36954838 0.21365465 0.816601 -0.37575555 -0.048836965 -0.06725344
0.015163942 -0.16043285 0.49747232 0.12069322 0.0013781713 0.39448473 0.11645968 -0.0412405
0.24454176 -0.18713506 -0.06362871 0.46179196 0.022153877 -0.29170612 -0.36987796 -0.31631795
0.5232476 0.53295016 0.3675799 -0.041420717 0.32423833 0.20568827 0.17230882 -0.6882875
0.34730908 -0.19602484 -0.3021913 -0.17793156 -0.15415926 -0.03584558 0.14832342 0.054305676
0.3160315 0.27302864 -0.016588023 -0.416782 0.18757808 -0.18130215 -0.49163586 0.17899896
0.2503444 -0.19761725 0.4579301 0.047357447 -0.544048 -0.4669507 -0.011384448 -0.4884961

target_network.h2.transform.bias f4 [20]
00000000: 0000 0000 0000 0000 0000 0000 0000 0000
00000010: 0000 0000 0000 0000 0000 0000 0000 0000
00000020: 0000 0000 0000 0000 0000 0000 0000 0000
00000030: 0000 0000 0000 0000 0000 0000 0000 0000
00000040: 0000 0000 0000 0000 0000 0000 0000 0000
0.0 0.0 0.0 0.0 0.0 0.0 0.0 0.0
0.0 0.0 0.0 0.0 0.0 0.0 0.0 0.0
0.0 0.0 0.0 0.0

target_network.h3.transform.weight f4 [20, 20]
00000000: d5a7 923c bc11 c3bd f31e 153f 36dc 78bc
00000010: b5a4 cb3d e8ae 18bf 96cb ccbe d61d 863e
00000020: e6c2 7e3e 664a 87be 5e70 cb3d 2477 c83e
00000030: 2c35 babe 7fad 92be ad2b ea3c f0a1 dfbe
00000040: 9ab8 80bd 1468 30be 42b0 0fbf 11c9 afbd
00000050: 9ba3 2ebe 5c18 01bf 2059 3bbe cfa4 00be
00000060: c0cc 5fbe db0c 703d d8a3 593f 6255 f6bd
00000070: 740b a33d c93f 57be acac 15be 6642 1e3f
00000080: ecbc 84be af77 82bd 5426 0dbe 15f9 97bc
00000090: 2cbf acbe bdc2 443e a8a8 4dbe d4b8 c13e
000000a0: d0dd d33e 283e 1f3e 9f44 cbbc 0df3 91bd
000000b0: ed3c 0abf 8fdc 30bd d67d 213e 768c 293f
000000c0: b520 ef3e 8306 ac3e 76e9 74bd 5666 f23c
000000d0: 2c6b 373e 9b49 ac3e 2a86 e73d 128d f7be
000000e0: 3136 acbd 93ae 043f 9c89 0a3e 1aee 12be
000000f0: 3ad4 163e 61da ec3e ca36 873e ea7c cfbe
00000100: 308d 823e 8fdb 41bc 63dd 653e d129 45bd
00000110: c938 febc e804 33bf 392e 963e 6084 033d
00000120: 4627 3abe cee2 093f 74c2 5bbe 4eef 0cbd
00000130: e890 e3be 6c85 76bd 7ed5 e23e b118 85be
00000140: d092 923b 4601 693e 96b1 8cbe 7ad3 55bd
00000150: 2db3 d3be da2e a7be 2af6 893d 8289 fdbe
00000160: 7cc2 343f c824 d3bc 5fe1 aa3e 21ac b5be
00000170: 3b5c 1bbf e69a 36be c606 2bbe 1f9a bb3d
00000180: 20b1 ba3e cdff 13bb 5b24 203e 002e e33d
00000190: c933 99bc 5207 513f c689 083f 7d1b b63e
000001a0: 8515 a23d 83ec 9bbd a3c0 213f 9a17 40be
000001b0: 1e61 94bd 620f 673e e1cb 783e ec3f 753d
000001c0: f1fb 983e c3b2 8dbe 9af1 413e 3bd4 583d
000001d0: fbe8 793d 9c54 113e 12c1 86be 18cd 783e
000001e0: af46 29bd 886e 80be 3b6d 233f c045 bdbe
000001f0: 92eb 21be 118e 993e 5634 17bd d819 963d
00000200: f1ae 6bbe c2b4 1f3f 900b ba3e d8a3 723d
00000210: f3da 0ebf b8a4 533e 6af1 a23e 06d4 063e
00000220: 9592 603d b17e 29be 97fc 9b3e 277e 9e3e
00000230: 73b7 863e c6e2 1cbe 64f6 323e 5aac 9b3e
00000240: e14e e6bd f530 36bf 548b 8c3e fbb0 58bd
00000250: 7974 debe 786f 123d 8ea7 c3be addf 0d3e
00000260: b9d4 ae3a d6b2 c93e be1e 98be 83ea b6bd
00000270: 83d8 183f 455e 80be 1b05 ca3e b6bd 943d
00000280: c65b dc3e 9580 9cbe f360 27be 83b2 d03d
00000290: 9655 353f 9136 14bd 10c6 1b3e 19de c43e
000002a0: ccf4 1d3e 7a44 7dbd f010 123f 7c97 8abc
000002b0: 3592 83bd 0a46 763e 3812 94bd 8884 cc3e
000002c0: cf27 e23e 4054 ba3e 5384 89be ea3b 323e
000002d0: edaf b1bd c24a 293e 8aca 80bd 04a8 76be
000002e0: 03d0 883e 171a dd3e 5c18 933c 18a9 8d3e
000002f0: 1bdb 233e ac80 abbe 739b dfbd 8e5e ff3c
00000300: 70c8 ef3d 5159 92be bb7c b6bc a7b9 23bf
00000310: d457 083f 8d03 87be fcc8 a93e ffa7 2b3f
00000320: b520 5c3e 5086 90be ecee ce3c bf09 4bbf
00000330: fc31 c03e a3a9 d8be 7a9a 2b3e 791c f3be
00000340: 436b 94bd 36c8 b53e 83f7 b93c a844 b9be
00000350: 799c c13e 09a2 57be fa26 cfbc e6e3 cebe
00000360: a6c3 f8bd c6ab 4d3e b462 2dbd e339 a0ba
00000370: f8f7 fc3d ac38 c43d 54fa be3e 4e4b dcbe
00000380: 574d 4b3d 7bc2 15be 5b6b 233c 7ed3 a63e
00000390: d76a cc3e 08ec abbd f64c 3abf df07 e1bd
000003a0: 796e af3d 322c 8abe b5c0 68bd 1157 533f
000003b0: b73a c1bc 7e2b 6f3c 7003 e83d 5f4c 3e3e
000003c0: 1fc9 8a3e c959 debe f94b 293e ddb9 99ba
000003d0: 6a25 0fbf 5e8b b7bd d207 5d3d c472 4a3d
000003e0: 829e b5b9 70e0 eebe 2e3e 183f 99dc 14bc
000003f0: b8a0 243f 0ba6 b3be 824b 913e 4f1b 623e
0.017902294 -0.09524867 0.5825035 -0.015189221 0.09943525 -0.59641886 -0.39999074 0.26194638
0.24879035 -0.2642395 0.09933542 0.39153397 -0.36368692 -0.28647992 0.02858528 -0.43678236
-0.0628521 -0.17227203 -0.56128323 -0.08583272 -0.17054598 -0.50427794 -0.18295717 -0.1256287
-0.2185545 0.05860601 0.8501563 -0.12028004 0.07961169 -0.21020426 -0.1461665 0.61820066
-0.25925386 -0.06370484 -0.13784152 -0.018551389 -0.33739603 0.19214912 -0.20083869 0.37836325
0.41380167 0.15551054 -0.024812995 -0.071264364 -0.53999215 -0.04317909 0.15770659 0.6622995
0.4670464 0.33598718 -0.05979296 0.029589813 0.17911977 0.33649907 0.11304887 -0.48349816
-0.08408774 0.5182888 0.13529056 -0.14348641 0.14729396 0.4626036 0.26408988 -0.4052499
0.25498343 -0.011832132 0.22447734 -0.048135582 -0.031032937 -0.6992936 0.2933214 0.032108665
-0.18179044 0.538617 -0.21460897 -0.034407906 -0.44446492 -0.060185835 0.44303507 -0.259954
0.004473068 0.22754392 -0.27479237 -0.052203633 -0.41347638 -0.32652932 0.06736405 -0.49518973
0.7060926 -0.025774375 0.3337507 -0.35482886 -0.6068761 -0.17832527 -0.16701803 0.09160256
0.3646326 -0.002258289 0.15638869 0.11092758 -0.01870145 0.81651795 0.53335226 0.35567847
0.07914261 -0.076134704 0.63184565 -0.18759003 -0.07245086 0.22564462 0.24296524 0.059875414
0.29879716 -0.27675447 0.1893982 0.052936774 0.061013203 0.14192432 -0.26319176 0.24296987
-0.041327175 -0.2508433 0.6383855 -0.36967278 -0.15812519 0.299912 -0.036915146 0.07329148
-0.23015954 0.6238519 0.36336946 0.059238285 -0.5580284 0.20668304 0.3182481 0.13166818
0.05482729 -0.16552235 0.30466148 0.30955622 0.26311836 -0.15320882 0.17476803 0.3040493
-0.11245514 -0.7116845 0.2745005 -0.052903157 -0.43448237 0.035750836 -0.38213772 0.13854857
0.0013338543 0.39394253 -0.29710954 -0.08931448 0.5970537 -0.25071922 0.3945702 0.07262747
0.43038768 -0.3056685 -0.16345577 0.101902984 0.7083372 -0.03618485 0.15212274 0.38450697
0.15425414 -0.061832882 0.57057095 -0.016917937 -0.06424371 0.24050155 -0.072300375 0.39944863
0.44170997 0.36392403 -0.26858768 0.17405668 -0.08676133 0.16532424 -0.06288631 -0.2408753
0.267212 0.43183967 0.017955951 0.2766807 0.16001551 -0.33496606 -0.109183215 0.031173017
0.11708152 -0.28583768 -0.022276273 -0.6395516 0.53259015 -0.26369897 0.3316115 0.67053217
0.21496852 -0.28227472 0.025260411 -0.79311746 0.37538135 -0.42316923 0.16758147 -0.4748266
-0.07247021 0.3550431 0.02270103 -0.36185193 0.37814692 -0.21057905 -0.02528714 -0.40408248
-0.12146692 0.20085058 -0.04233046 -0.0012224283 0.12351984 0.09581122 0.3730036 -0.43026203
0.049634304 -0.1462497 0.009974326 0.3258323 0.39925262 -0.08394629 -0.72773683 -0.109878294
0.08565993 -0.26986843 -0.056824405 0.8255473 -0.023587568 0.014597772 0.11328781 0.18583821
0.27106568 -0.43427876 0.16532888 -0.0011728365 -0.55916464 -0.08962129 0.053962536 0.049425855
-0.00034641108 -0.46655607 0.5946988 -0.009085798 0.6430774 -0.35087618 0.2837792 0.2208073

target_network.h3.transform.bias f4 [20]
00000000: 0000 0000 0000 0000 0000 0000 0000 0000
00000010: 0000 0000 0000 0000 0000 0000 0000 0000
00000020: 0000 0000 0000 0000 0000 0000 0000 0000
00000030: 0000 0000 0000 0000 0000 0000 0000 0000
00000040: 0000 0000 0000 0000 0000 0000 0000 0000
0.0 0.0 0.0 0.0 0.0 0.0 0.0 0.0
0.0 0.0 0.0 0.0 0.0 0.0 0.0 0.0
0.0 0.0 0.0 0.0

target_network.critic_linear.weight f4 [1, 20]
00000000: d8fa 98be 6789 cfbe 609f 62be d3fc 4abe
00000010: 8730 10bf b78f ac3e a16d 5e3e 3d92 e13e
00000020: 5972 e03e d825 993e ae32 5b3d a02d dc3c
00000030: 4560 67be 4842 2abd 570d 2cbf f15e 05be
00000040: b1a9 b1bd 2131 7bbe e28c 8c3e 1121 433e
-0.2987888 -0.40534517 -0.22131109 -0.19823007 -0.56324047 0.33703396 0.21721508 0.44056883
0.4383724 0.29911685 0.05351513 0.026877224 -0.22595318 -0.041567117 -0.67207855 -0.13024499
-0.08674944 -0.2453046 0.27451235 0.19055583
