pz_risk/mini_1/12.pt (torch, 18513 bytes, 26 tensors)

policy_network.emb1.transform.weight f4 [20, 2]
0.13682154 0.55113256 0.0572149 -0.6041272 -0.00736235 -0.33152986 -0.17211372 -0.33369017
-0.05253314 0.25618175 -0.6100881 0.39981577 -0.20322648 -0.069727324 -0.28760484 -0.28284267
0.18285364 0.34986815 -0.051713318 0.22570533 -0.1462185 0.02526007 0.0009162673 0.6363567
0.26413187 -0.37560493 -0.29731572 0.29566878 0.26335335 0.35333365 -0.74575245 0.24050364
-0.606854 -0.22983083 -0.42675307 -0.38731995 -0.05532968 0.075435765 -0.30898038 -0.2977888
00000000: f21a 0c3e 0617 0d3f 2c5a 6a3d 15a8 1abf
00000010: de3f f1bb 48be a9be 943e 30be 70d9 aabe
00000020: fd2c 57bd 412a 833e bc2e 1cbf a7b4 cc3e
00000030: 9a1a 50be 33cd 8ebd f140 93be c1d0 90be
00000040: fc3d 3b3e eb21 b33e 58d1 53bd 4c1f 673e
00000050: 4dba 15be 35ee ce3c a831 703a 46e8 223f
00000060: 4b3c 873e 4a4f c0be c439 98be e661 973e
00000070: 40d6 863e 26e8 b43e a2e9 3ebf 9646 763e
00000080: c95a 1bbf c658 6bbe 617f dabe cd4e c6be
00000090: 60a1 62bd 117e 9a3d ad32 9ebe c677 98be

policy_network.emb1.transform.bias f4 [20]
0.1011504 -0.013758851 0.0 0.0 -0.18563 -0.09423403 0.0 0.0
0.086423114 -0.12608472 0.0 0.17708682 -0.13236693 -0.049847506 0.07511538 0.0
0.0 0.0 -0.024046665 0.0
00000000: f127 cf3d ce6c 61bc 0000 0000 0000 0000
00000010: ca15 3ebe c5fd c0bd 0000 0000 0000 0000
00000020: 9afe b03d 5a1c 01be 0000 0000 3f56 353e
00000030: 328b 07be e62c 4cbd 18d6 993d 0000 0000
00000040: 0000 0000 0000 0000 83fd c4bc 0000 0000

policy_network.emb2.transform.weight f4 [20, 2]
-0.17663354 0.70590824 -0.06486036 0.3473319 -0.28624037 0.032117296 -0.048597015 -0.10264552
0.3372491 -0.24944006 -0.23544642 0.29617637 0.10059994 -0.036977395 -0.5057511 0.70647824
-0.5369764 0.666849 0.34065545 -0.20686252 0.016137525 -0.6542374 -0.8660892 -0.18435353
-0.0528562 0.05690128 -0.33453217 0.24175863 -0.28743774 1.0248607 -0.4769871 0.5452819
-0.5990113 0.10322409 0.118296616 -0.5426362 -0.090905674 -0.1213615 0.036758155 0.047837332
00000000: 6cdf 34be 67b6 343f 82d5 84bd 7dd5 b13e
00000010: 198e 92be 6d8d 033d aa0d 47bd d037 d2bd
00000020: eaab ac3e 376d 7fbe de18 71be 6ea4 973e
00000030: 5707 ce3d 9c75 17bd e778 01bf c2db 343f
00000040: 4977 09bf 9eb6 2a3f 646a ae3e c5d3 53be
00000050: d832 843c 1a7c 27bf 06b8 5dbf 2cc7 3cbe
00000060: be7f 58bd 5111 693d cd47 abbe 938f 773e
00000070: 0a2b 93be a32e 833f a737 f4be 9897 0b3f
00000080: ce58 19bf 2767 d33d 7f45 f23d 35ea 0abf
00000090: c12c babd 618c f8bd b88f 163d 14f1 433d

policy_network.emb2.transform.bias f4 [20]
-0.11350225 -0.18557093 0.0 0.0 -0.16854231 -0.1786444 -0.055795502 -0.030147837
-0.014633975 -0.20240515 -0.1310854 0.0 -0.03343839 -0.16304015 -0.15494853 -0.004869463
0.0 -0.053557534 0.0 -0.06084922
00000000: de73 e8bd 4e06 3ebe 0000 0000 0000 0000
00000010: 5b96 2cbe 8fee 36be d389 64bd 99f8 f6bc
00000020: 57c3 6fbc 4c43 4fbe 403b 06be 0000 0000
00000030: b1f6 08bd fff3 26be d4aa 1ebe 0490 9fbb
00000040: 0000 0000 255f 5bbd 0000 0000 083d 79bd

policy_network.emb3.transform.weight f4 [20, 2]
-0.5239777 -0.21700567 -0.29466254 -0.051396992 -0.25354666 -0.057620674 0.42190367 0.124164216
0.11207222 0.21221969 -0.5682771 0.34934595 0.1036822 0.3855129 0.044741385 -0.20215155
-0.67826265 0.6208439 0.066507764 -0.27321073 -0.06748154 -0.40162408 -0.6148405 0.2592601
-0.011110814 0.055933196 0.53104067 0.22900712 -0.20429619 -0.14116806 -0.5864621 0.19169629
0.7561195 -0.1953885 0.084186025 -0.22280058 -0.029378906 0.05969824 0.21653827 0.055796217
00000000: 6723 06bf bc36 5ebe 02de 96be a785 52bd
00000010: ded0 81be a803 6cbd c203 d83e cf49 fe3d
00000020: 1f86 e53d 1e50 593e 9c7a 11bf 79dd b23e
00000030: 5557 d43d f261 c53e be42 373d d100 4fbe
00000040: 9fa2 2dbf a0ef 1e3f 3935 883d 47e2 8bbe
00000050: c333 8abd aca1 cdbe 3066 1dbf bdbd 843e
00000060: 220a 36bc 351a 653d 48f2 073f d880 6a3e
00000070: 0533 51be 5c8e 10be 6122 16bf 084c 443e
00000080: 0c91 413f ec13 48be b969 ac3d d625 64be
00000090: 08ac f0bc 2486 743d 35bc 5d3e 938a 643d

policy_network.emb3.transform.bias f4 [20]
0.0 0.0 0.0 -0.14900117 -0.16858031 -0.066152 -0.08490835 -0.025967713
0.007190997 -0.01874803 0.0 -0.09713388 -0.046512917 -0.0020192768 0.0 0.17631172
-0.14036843 -0.13862783 -0.14192063 -0.18763496
00000000: 0000 0000 0000 0000 0000 0000 c393 18be
00000010: 51a0 2cbe b37a 87bd 6ee4 adbd 3eba d4bc
00000020: 74a2 eb3b 7895 99bc 0000 0000 21ee c6bd
00000030: 5484 3ebd d855 04bb 0000 0000 0f8b 343e
00000040: bebc 0fbe 74f4 0dbe a453 11be 6123 40be

policy_network.emb4.transform.weight f4 [20, 2]
0.1107317 0.17920622 0.062482033 -0.20621358 0.22959282 0.09879481 -0.46277028 0.27991757
0.18003301 -0.23183799 0.11882476 0.41808632 0.21539895 -0.03617719 -0.21015364 -0.25646433
-0.30247685 -0.36348313 -0.5355889 0.21744098 -0.017163947 -0.35979912 0.20320764 0.2719795
-0.055610824 0.04382745 0.020361144 0.042177714 -0.5380738 0.38293996 0.2958544 -0.55717605
0.11401783 0.013971452 -0.8289757 0.5981981 -0.8032723 0.17267153 -0.5195791 -0.5107055
00000000: 4dc7 e23d d681 373e 29ed 7f3d a729 53be
00000010: 611a 6b3e ef54 ca3d 3af0 ecbe 5b51 8f3e
00000020: 935a 383e f066 6dbe 655a f33d 690f d63e
00000030: 8b91 5c3e 882e 14bd 8432 57be 4b4f 83be
00000040: 3fde 9abe 761a babe 5b1c 09bf d9a8 5e3e
00000050: 689b 8cbc 9737 b8be aa15 503e e640 8b3e
00000060: 2dc8 63bd 6a84 333d 6acc a63c 8ac2 2c3d
00000070: 34bf 09bf b510 c43e 3a7a 973e 17a3 0ebf
00000080: 2e82 e93d 84e8 643c c037 54bf 8323 193f
00000090: 41a3 4dbf ced0 303e 2303 05bf 98bd 02bf

policy_network.emb4.transform.bias f4 [20]
-0.0010716822 -0.021092052 -0.28318846 -0.21343538 -0.10563452 0.050491586 -0.019402422 0.0
0.0 0.091656335 0.0 0.1882994 -0.05474933 -0.05764426 0.021993592 -0.14232486
-0.12833486 0.046497658 0.0 0.0
00000000: b077 8cba 3dc9 acbc 14fe 90be ce8e 5abe
00000010: e956 d8bd 44d0 4e3d d4f1 9ebc 0000 0000
00000020: 0000 0000 51b6 bb3d 0000 0000 8fd1 403e
00000030: d540 60bd 631c 6cbd e82b b43c 9cbd 11be
00000040: 376a 03be 5474 3e3d 0000 0000 0000 0000

policy_network.h2.transform.weight f4 [20, 20]
0.01845732 -0.08320914 -0.31859583 0.033525903 -0.08937895 0.4419192 -0.71240276 -0.7580372
-0.22554012 -0.27787495 0.38672885 0.16595466 0.09599996 0.059279703 -0.21389371 -0.29585615
-0.41500244 -0.14146104 -0.33099717 -0.48850253 0.05181462 0.035965208 -0.39747164 0.22634518
0.004733473 -0.66259277 0.13843688 -0.44600156 -0.65032727 0.39499086 0.07534883 -0.19147937
-0.27655256 -0.4454334 -0.48498678 -0.2485193 -0.21705054 -0.012107105 -0.24056838 0.039959084
-0.4533736 0.016375193 -0.33255327 -0.5039385 -0.32114345 -0.13278453 -0.41555014 0.13977173
0.12630472 0.22498657 0.024829248 -0.07560792 0.25516966 -0.19927324 0.124663755 -0.4304225
0.40755993 -0.18735838 -0.699235 0.33364516 -0.16386047 -0.05594464 0.24826747 -0.19751562
0.2316895 0.22335505 -0.4387278 0.1163896 -0.2235744 0.7812849 -0.25236732 0.34806985
-0.093845546 -0.10320014 -0.67404044 -0.2330257 -0.14124523 -0.3661825 0.113164164 -0.01675072
-0.14089939 -0.58234495 -0.48357043 0.23170748 -0.60903305 -0.07501429 -0.4955346 0.1368076
0.2656585 0.3774643 0.30904973 -0.10659796 -0.21369256 0.07537348 -0.477529 0.2888459
-0.039193276 0.41697365 0.36926794 0.13096818 -0.031838533 0.21644181 -0.04841871 0.5001569
-0.07066925 0.39470148 -0.3545062 -0.1135372 -0.32930586 0.026594855 0.025921047 -0.6345972
-0.25823945 -0.4365784 0.2665264 -0.23702654 0.32878503 -0.29704693 0.13204466 -0.17512849
-0.0014209901 -0.24836057 -0.44751474 0.4778239 0.07748399 -0.030802447 -0.23055828 0.39222255
0.35535738 -0.56767744 -0.541286 0.25118452 -0.12526423 -0.45103812 -0.47687924 -0.25957903
-0.20159727 -0.18984124 -0.2109585 0.05390446 -0.35776135 -0.084855966 -0.27336103 -0.042343423
0.027835786 -0.46100864 0.048225824 -0.4195327 0.3825591 0.11196116 0.03794486 0.15121906
-0.10284459 -0.3412796 -0.09523371 -0.10133834 0.47888765 -0.2924975 0.2842243 -0.91354626
0.6099178 -0.5721654 -0.08936847 -0.8361627 -0.5962411 0.06150207 -1.5648548e-05 0.8371209
-0.13229598 -0.10137321 -0.112243444 0.24881029 -0.19590917 -0.7020307 0.1921011 -0.022750353
-0.75466394 -0.067312956 0.40302297 -0.28847846 0.038556527 -0.31281433 0.5921764 -0.22829959
-0.18776123 0.1388816 0.21006282 0.28237274 0.19429508 0.178366 0.22841047 0.37375775
0.37830892 -1.3656671 0.14261284 0.7255667 -0.6492891 0.89367884 -0.25875947 -0.25494057
0.0066936426 -0.29738092 0.2812042 0.06762931 0.4297738 -0.3575544 -0.14297397 0.16646045
-0.13850568 -0.05252015 0.37077844 0.048694145 0.09188332 0.36191034 -0.03144678 -0.43456516
0.29015172 -0.039505675 -0.05503721 0.21211629 -0.5137956 -0.72099906 -0.5505276 -0.4032839
0.49327862 0.80170155 0.24032573 -0.81472343 0.8485583 -0.10833593 0.21112552 -1.0490266
0.2279376 -0.23025332 -0.9819284 0.36432156 -0.35764462 -0.38026306 0.13975325 0.0058080787
0.35492557 0.36615705 0.11055889 -0.8521099 0.22120254 -0.13708082 -0.40511212 1.2029932
0.5077028 -0.0144342445 0.4579301 0.19767538 -0.6860082 -1.068376 0.20678021 0.17345344
00000000: ce33 973c 8e69 aabd fe1e a3be 7552 093d
00000010: 500c b7bd 3c43 e23e 0760 36bf ba0e 42bf
00000020: fdf3 66be a045 8ebe 5301 c63e 05f0 293e
00000030: a19b c43d 46cf 723d f406 5bbe 757a 97be
00000040: 337b d4be 2adb 10be 7678 a9be 011d fabe
00000050: 913b 543d 4150 133d 6781 cbbe 08c7 673e
00000060: 401b 9b3b ae9f 29bf 66c2 0d3e 515a e4be
00000070: d97b 26bf 3e3c ca3e 7d50 9a3d 2b13 44be
00000080: 4c98 8dbe d90f e4be 3050 f8be d87b 7ebe
00000090: 7f42 5ebe e15c 46bc 8f57 76be 23ac 233d
000000a0: 9620 e8be 4525 863c 6c44 aabe 1d02 01bf
000000b0: ea6c a4be abf8 07be fdc2 d4be 5220 0f3e
000000c0: 0656 013e e162 663e b566 cb3c 53d8 9abd
000000d0: 99a5 823e 490e 4cbe b64f ff3d 5760 dcbe
000000e0: b2ab d03e e0da 3fbe 1101 33bf 8ad3 aa3e
000000f0: 0acb 27be 3526 65bd d439 7e3e 8941 4abe
00000100: 0340 6d3e 30b7 643e eea0 e0be ac5d ee3d
00000110: b0f0 64be 4a02 483f 4a36 81be 3636 b23e
00000120: 1832 c0bd 985a d3bd ea8d 2cbf 4a9e 6ebe
00000130: 97a2 10be 467c bbbe 9dc2 e73d ce38 89bc
00000140: ee47 10be 8f14 15bf 8b96 f7be ba44 6d3e
00000150: 97e9 1bbf 18a1 99bd b6b6 fdbe 4b17 0c3e
00000160: 6404 883e 0043 c13e c43b 9e3e 0850 dabd
00000170: 39d2 5abe 695d 9a3d ae7e f4be 9ce3 933e
00000180: 2189 20bd 927d d53e b010 bd3e 861c 063e
00000190: 1f69 02bd eca2 5d3e b252 46bd 480a 003f
000001a0: 0abb 90bd 5016 ca3e d681 b5be 3186 e8bd
000001b0: c79a a8be 74dd d93c 6058 d43c f674 22bf
000001c0: f637 84be 3487 dfbe 2676 883e 16b7 72be
000001d0: 8356 a83e 8916 98be b736 073e e254 33be
000001e0: 8440 baba 3c52 7ebe a720 e5be 56a5 f43e
000001f0: edaf 9e3d 6a55 fcbc 7817 6cbe 65d1 c83e
00000200: 67f1 b53e 4f53 11bf b891 0abf 429b 803e
00000210: 4445 00be 78ee e6be 8429 f4be 8be7 84be
00000220: 846f 4ebe be65 42be 8105 58be ecca 5c3d
00000230: 7f2c b7be f7c8 adbd faf5 8bbe 4c70 2dbd
00000240: e007 e43c 5309 ecbe 7188 453d fdcc d6be
00000250: c9de c33e e54b e53d 126c 1b3d 2bd9 1a3e
00000260: 2fa0 d2bd 33bc aebe e409 c3bd 7a8a cfbd
00000270: c330 f53e 3bc2 95be d985 913e 2bde 69bf
00000280: 9323 1c3f 6f79 12bf d106 b7bd c20e 56bf
00000290: 42a3 18bf 98e9 7b3d 0045 83b7 8e4d 563f
000002a0: 9978 07be c29c cfbd e4df e5bd 20c8 7e3e
000002b0: 6a9c 48be 49b8 33bf 27b6 443e f35e babc
000002c0: a831 41bf 60db 89bd 0759 ce3e 73b3 93be
000002d0: 73ed 1d3d 3329 a0be df98 173f 5ec7 69be
000002e0: 7b44 40be fa36 0e3e b51a 573e 2993 903e
000002f0: 4af5 463e 94a5 363e 6fe4 693e 2d5d bf3e
00000300: b5b1 c13e 2ece aebf 1a09 123e bdbe 393f
00000310: cf37 26bf 23c8 643f 1f7c 84be 9287 82be
00000320: 5856 db3b 5042 98be fff9 8f3e 3c81 8a3d
00000330: 500b dc3e 5f11 b7be c567 12be 9c74 2a3e
00000340: 6fd4 0dbe 5e1f 57bd acd6 bd3e 8373 473d
00000350: 522d bc3d 504c b93e 57ce 00bd 537f debe
00000360: c48e 943e b4d0 21bd b36e 61bd 0335 593e
00000370: 1c88 03bf 6593 38bf 60ef 0cbf 3a7b cebe
00000380: 048f fc3e 503c 4d3f f317 763e b791 50bf
00000390: 1e3b 593f 3adf ddbd 4a31 583e 8146 86bf
000003a0: 7968 693e 87c7 6bbe a95f 7bbf 5b88 ba3e
000003b0: 321d b7be d7b1 c2be 7a1b 0f3e b251 be3b
000003c0: ceb8 b53e f078 bb3e b36c e23d e023 5abf
000003d0: eb82 623e ea5e 0cbe db6a cfbe aefb 993f
000003e0: d0f8 013f 9c7d 6cbc d075 ea3e 6a6b 4a3e
000003f0: 3c9e 2fbf 8bc0 88bf 31be 533e c79d 313e

policy_network.h2.transform.bias f4 [20]
-0.1313467 -0.10975982 -0.13722056 -0.15615433 -0.20207727 -0.19683366 -0.13458768 -0.1613098
0.02277205 0.1510252 0.045168545 0.23252708 0.2416162 -0.055868603 0.14892614 0.0
-0.17771915 -0.23526195 0.08424506 -0.2082094
00000000: c07f 06be c2c9 e0bd 8c83 0cbe ece6 1fbe
00000010: 58ed 4ebe c38e 49be 5ad1 09be 652e 25be
00000020: 738c ba3c 5aa6 1a3e a702 393d 941b 6e3e
00000030: 3d6a 773e 7ad6 64bd 1880 183e 0000 0000
00000040: 02fc 35be 82e8 70be ad88 ac3d d834 55be

policy_network.h3.transform.weight f4 [20, 20]
0.017902294 -0.09524867 0.5825035 -0.015189221 0.09943525 -0.60171574 -0.49017286 0.26194638
0.24879035 -0.2642395 -0.113983326 0.06493776 -0.36368692 -0.5109185 0.12785871 -0.43678236
-0.14944074 -0.2719477 -0.56128323 -0.08583272 -0.17054598 -0.50792706 -0.12723836 -0.097608775
-0.1265501 0.14900908 0.8427357 -0.10651559 -0.031518668 -0.31708714 -0.12741637 0.7084312
-0.30975193 -0.28552547 0.28663886 -0.018551389 -0.12513572 0.1802765 -0.22564308 0.3894077
0.38415742 0.1615207 -0.08705105 0.008150838 -0.44117144 -0.05142641 0.14732075 0.670461
0.42584217 0.8090747 -0.22930159 0.09866674 0.6992297 0.45061344 0.60222393 -0.48349816
0.17286801 0.49633873 0.35040918 -0.09343847 0.11765461 0.46747398 0.2999181 -0.3281465
0.3813811 -0.0005470241 0.21129279 -0.032310642 -0.109791994 -0.27672252 0.22787137 0.09051748
0.3151089 0.5093124 0.22809206 -0.034407906 -0.33995688 -0.0039622188 0.6088223 -0.20836431
0.024273528 0.19474521 -0.26858824 -0.09034314 -0.31673372 -0.4304636 0.05496025 -0.5461603
0.6560058 -0.18270098 0.29044467 -0.5557737 -0.6075133 -0.8515955 -0.22469915 0.09160256
0.33864707 -0.09736677 0.124127686 0.088196635 -0.01885 0.80554765 0.48973265 0.32671538
-0.036646515 -0.18694872 0.6281632 -0.18112509 -0.011001635 0.18499914 0.028651856 -0.013229027
0.29879716 -0.376594 0.22535647 0.052936774 -0.05350049 0.122907296 -0.18479335 0.20477267
0.010465903 -0.26186416 0.6065856 -0.40111512 -0.29226342 0.24502863 -0.03519461 0.04448069
-0.07779439 0.21281236 0.27659005 -0.163472 -1.0638359 0.1766627 0.013134793 0.13166818
-0.06785488 -0.23696148 0.122941054 0.24511524 0.3012349 -0.15320882 0.17476803 0.29161432
-0.11245514 -0.70471686 0.2745005 -0.053525306 -0.5604307 -0.08330976 -0.7077267 0.5386703
-0.14850083 0.27966776 -0.5646153 -0.08931448 0.68511045 -0.26231351 0.20569047 0.07260213
0.46335033 -0.31525654 -0.19674979 0.07017875 0.57045215 -0.036469057 0.14446272 0.37292838
0.32831845 -0.35651278 0.68496895 -0.20914066 -0.24389876 0.36538345 -0.27405226 0.39944863
0.31071097 0.29579574 -0.2884296 0.12456592 -0.08693627 0.14047578 -0.09585887 -0.27181467
0.2177074 0.3427897 -0.019815844 0.18574323 0.096981555 -0.44342342 -0.07812946 0.041048348
0.18056554 -0.26989806 -0.1542134 -0.6395516 0.58877057 -0.25938484 0.30285305 0.6022755
0.2138741 -0.28227472 0.025260411 -0.7957286 0.375234 -0.4250493 0.16758147 -0.4748266
-0.11018589 0.2835151 -0.0073980317 -0.4234121 0.32532832 -0.22307865 -0.09017944 -0.40408248
-0.022592232 0.20085058 -0.09410329 -0.0012224283 0.12351984 0.09581122 0.3730036 -0.43026203
0.049634304 -0.1462497 0.009974326 0.3258323 0.39925262 -0.08394629 -0.72773683 -0.109878294
0.08565993 -0.26986843 -0.056824405 0.8255473 -0.023587568 0.014597772 0.11328781 0.18583821
0.18358257 -0.4154012 0.19912538 0.02032723 -0.3924644 -0.065475404 0.043715656 0.0641808
0.0026033078 -0.3567651 0.52914864 -0.0424027 0.86851674 -0.5862229 -0.13173689 0.2208073
00000000: d5a7 923c bc11 c3bd f31e 153f 36dc 78bc
00000010: b5a4 cb3d 0b0a 1abf f0f7 fabe d61d 863e
00000020: e6c2 7e3e 664a 87be 1770 e9bd 17fe 843d
00000030: 2c35 babe 8ecb 02bf 65ed 023e f0a1 dfbe
00000040: fe06 19be bb3c 8bbe 42b0 0fbf 11c9 afbd
00000050: 9ba3 2ebe 8207 02bf c64a 02be 1ce7 c7bd
00000060: 5996 01be d695 183e 87bd 573f d824 dabd
00000070: b819 01bd 3f59 a2be 7079 02be bf5b 353f
00000080: ce97 9ebe 6530 92be 54c2 923e 15f9 97bc
00000090: 9423 00be 679a 383e fb0e 67be 7260 c73e
000000a0: 48b0 c43e af65 253e d247 b2bd 188b 053c
000000b0: 39e1 e1be 80a4 52bd 40db 163e 55a3 2b3f
000000c0: fc07 da3e 851f 4f3f 09ce 6abe ca11 ca3d
000000d0: b800 333f ceb6 e63e 592b 1a3f 128d f7be
000000e0: 5004 313e 1c20 fe3e d568 b33e ab5c bfbd
000000f0: e6f4 f03d c058 ef3e dd8e 993e d102 a8be
00000100: 6244 c33e 2a66 0fba 235d 583e 2a58 04bd
00000110: a0da e0bd 93ae 8dbe 1d57 693e 3b61 b93d
00000120: f455 a13e 4c62 023f f790 693e 4eef 0cbd
00000130: d40e aebe 80d5 81bb c7db 1b3f 745d 55be
00000140: 47d9 c63c 4a6b 473e 6684 89be d305 b9bd
00000150: ec2a a2be ba65 dcbe 001e 613d 29d1 0bbf
00000160: ffef 273f f715 3bbe 2ab5 943e 2f47 0ebf
00000170: fe85 1bbf 2a02 5abf 8917 66be 1f9a bb3d
00000180: 2663 ad3e 3b68 c7bd a836 fe3d 70a0 b43d
00000190: 516b 9abc 5f38 4e3f 3dbe fa3e 3d47 a73e
000001a0: a81a 16bd 7c6f 3fbe 4ecf 203f db78 39be
000001b0: 3440 34bc 6a70 3d3e 4cb7 ea3c 90be 58bc
000001c0: f1fb 983e eed0 c0be d9c3 663e 3bd4 583d
000001d0: 5423 5bbd d2b6 fb3d 783a 3dbe edaf 513e
000001e0: 2e79 2b3c 0f13 86be 3249 1b3f f65e cdbe
000001f0: 8da3 95be c9e8 7a3e 3928 10bd 6231 363d
00000200: aa52 9fbd 7ceb 593e 369d 8d3e 3465 27be
00000210: c62b 88bf 11e7 343e 5133 573c 06d4 063e
00000220: 80f7 8abd 08a6 72be 85c8 fb3d 7dff 7a3e
00000230: 763b 9a3e c6e2 1cbe 64f6 323e 794e 953e
00000240: e14e e6bd 5368 34bf 548b 8c3e 5a3d 5bbd
00000250: 6378 0fbf 4f9e aabd 942d 35bf 4ce6 093f
00000260: 9a10 18be 9d30 8f3e a18a 10bf 83ea b6bd
00000270: 6663 2f3f f54d 86be 86a0 523e 6db0 943d
00000280: 413c ed3e 4e69 a1be c778 49be e0b9 8f3d
00000290: 2709 123f 9460 15bd 09ee 133e 78f0 be3e
000002a0: 5b19 a83e d888 b6be 205a 2f3f f828 56be
000002b0: 99c0 79be 8a13 bb3e 9450 8cbe 8884 cc3e
000002c0: 8215 9f3e 8a72 973e 0bad 93be 6b1c ff3d
000002d0: a50b b2bd e2d8 0f3e a851 c4bd 4b2b 8bbe
000002e0: b0ee 5e3e 2282 af3e d654 a2bc 7933 3e3e
000002f0: 449e c63d 6508 e3be 5702 a0bd 5022 283d
00000300: 2ce6 383e 1430 8abe 1eea 1dbe a7b9 23bf
00000310: abb9 163f 17ce 84be 8e0f 9b3e ba2e 1a3f
00000320: d001 5b3e 5086 90be ecee ce3c dfb4 4bbf
00000330: ac1e c03e 10a0 d9be 7a9a 2b3e 791c f3be
00000340: 24a9 e1bd e428 913e 306b f2bb 79c9 d8be
00000350: 6f91 a63e bb6e 64be 00b0 b8bd e6e3 cebe
00000360: 5813 b9bc c6ab 4d3e 3ab9 c0bd e339 a0ba
00000370: f8f7 fc3d ac38 c43d 54fa be3e 4e4b dcbe
00000380: 574d 4b3d 7bc2 15be 5b6b 233c 7ed3 a63e
00000390: d76a cc3e 08ec abbd f64c 3abf df07 e1bd
000003a0: 796e af3d 322c 8abe b5c0 68bd 1157 533f
000003b0: b73a c1bc 7e2b 6f3c 7003 e83d 5f4c 3e3e
000003c0: 12fd 3b3e 77af d4be 86e7 4b3e 4b85 a63c
000003d0: 18f1 c8be f817 86bd 300f 333d 3971 833d
000003e0: 429c 2a3b eaa9 b6be 4976 073f 74ae 2dbd
000003f0: 1d57 5e3f b412 16bf 09e6 06be 4f1b 623e

policy_network.h3.transform.bias f4 [20]
-0.18896633 0.3311671 -0.018965632 -0.1204605 -0.14888714 -0.2531802 -0.01576265 -0.17550722
0.035679225 -0.0051763854 -0.04226879 0.0 -0.28295004 -0.38282642 0.13029997 -0.24595879
-0.19905688 0.0515883 -0.23375507 -0.10608981
00000000: 6480 41be bc8e a93e d05d 9bbc ffb3 f6bd
00000010: df75 18be d6a0 81be ac20 81bc 2ab8 33be
00000020: 6124 123d ab9e a9bb 0a22 2dbd 0000 0000
00000030: d4de 90be d301 c4be 5b6d 053e 9fdc 7bbe
00000040: 91d5 4bbe 414e 533d 7d5d 6fbe 9d45 d9bd

policy_network.critic_linear.weight f4 [1, 20]
-0.22033572 -0.4980387 -0.51625836 -0.15243453 -0.5270015 0.09649715 0.26345053 0.60726154
0.6047174 0.2994804 0.047118198 0.026877224 -0.35056907 -0.007891275 -0.7307784 0.05796712
0.07555542 -0.3048457 0.45605686 0.1634277
00000000: b09f 61be eefe febe 8229 04bf cc17 1cbe
00000010: 92e9 06bf 4ca0 c53d fde2 863e 7e75 1b3f
00000020: c2ce 1a3f 7f55 993e 03ff 403d a02d dc3c
00000030: ca7d b3be 684a 01bc 4b14 3bbf ee6e 6d3d
00000040: cdbc 9a3d bc14 9cbe 4980 e93e 9759 273e

target_network.emb1.transform.weight f4 [20, 2]
0.1335358 0.5449712 0.0572149 -0.6041272 -0.00736235 -0.33152986 -0.17211372 -0.33369017
-0.05253314 0.25618175 -0.6100881 0.39981577 -0.20322648 -0.069727324 -0.28760484 -0.28284267
0.17528291 0.34143937 -0.051713318 0.22570533 -0.1462185 0.02526007 0.00054347795 0.6325644
0.26413187 -0.37560493 -0.29731572 0.29566878 0.26042587 0.34827414 -0.74575245 0.24050364
-0.606854 -0.22983083 -0.42675307 -0.38731995 -0.05532968 0.075435765 -0.30898038 -0.2977888
00000000: 9cbd 083e 3c83 0b3f 2c5a 6a3d 15a8 1abf
00000010: de3f f1bb 48be a9be 943e 30be 70d9 aabe
00000020: fd2c 57bd 412a 833e bc2e 1cbf a7b4 cc3e
00000030: 9a1a 50be 33cd 8ebd f140 93be c1d0 90be
00000040: 5d7d 333e 24d1 ae3e 58d1 53bd 4c1f 673e
00000050: 4dba 15be 35ee ce3c 3078 0e3a beef 213f
00000060: 4b3c 873e 4a4f c0be c439 98be e661 973e
00000070: 8a56 853e fd50 b23e a2e9 3ebf 9646 763e
00000080: c95a 1bbf c658 6bbe 617f dabe cd4e c6be
00000090: 60a1 62bd 117e 9a3d ad32 9ebe c677 98be

target_network.emb1.transform.bias f4 [20]
0.09489938 -0.013758851 0.0 0.0 -0.18563 -0.09423403 0.0 0.0
0.08081143 -0.12608472 0.0 0.17659411 -0.13236693 -0.049847506 0.070891604 0.0
0.0 0.0 -0.024046665 0.0
00000000: 9b5a c23d ce6c 61bc 0000 0000 0000 0000
00000010: ca15 3ebe c5fd c0bd 0000 0000 0000 0000
00000020: 7780 a53d 5a1c 01be 0000 0000 16d5 343e
00000030: 328b 07be e62c 4cbd 9e2f 913d 0000 0000
00000040: 0000 0000 0000 0000 83fd c4bc 0000 0000

target_network.emb2.transform.weight f4 [20, 2]
-0.16526107 0.6962823 -0.0752963 0.33363056 -0.28624037 0.032117296 -0.048597015 -0.10264552
0.3372491 -0.24944006 -0.23544642 0.29617637 0.10059994 -0.036977395 -0.4912983 0.69635105
-0.5291546 0.6551115 0.34065545 -0.20686252 0.016137525 -0.6542374 -0.8660892 -0.18435353
-0.0528562 0.05690128 -0.33453217 0.24175863 -0.2768737 1.015112 -0.48419917 0.5261036
-0.5990113 0.10322409 0.118296616 -0.5426362 -0.090905674 -0.1213615 0.036758155 0.047837332
00000000: 333a 29be 8f3f 323f f234 9abd a0d1 aa3e
00000010: 198e 92be 6d8d 033d aa0d 47bd d037 d2bd
00000020: eaab ac3e 376d 7fbe de18 71be 6ea4 973e
00000030: 5707 ce3d 9c75 17bd 738b fbbe 1044 323f
00000040: ad76 07bf 63b5 273f 646a ae3e c5d3 53be
00000050: d832 843c 1a7c 27bf 06b8 5dbf 2cc7 3cbe
00000060: be7f 58bd 5111 693d cd47 abbe 938f 773e
00000070: 64c2 8dbe 31ef 813f f4e8 f7be baae 063f
00000080: ce58 19bf 2767 d33d 7f45 f23d 35ea 0abf
00000090: c12c babd 618c f8bd b88f 163d 14f1 433d

target_network.emb2.transform.bias f4 [20]
-0.11317266 -0.19735454 0.0 0.0 -0.16854231 -0.1786444 -0.055795502 -0.027772892
-0.017330201 -0.20240515 -0.1310854 0.0 -0.03343839 -0.16304015 -0.15564443 -0.020361438
0.0 -0.053557534 0.0 -0.06084922
00000000: 11c7 e7bd 4f17 4abe 0000 0000 0000 0000
00000010: 5b96 2cbe 8fee 36be d389 64bd fa83 e3bc
00000020: 11f8 8dbc 4c43 4fbe 403b 06be 0000 0000
00000030: b1f6 08bd fff3 26be 4161 1fbe 08cd a6bc
00000040: 0000 0000 255f 5bbd 0000 0000 083d 79bd

target_network.emb3.transform.weight f4 [20, 2]
-0.5239777 -0.21700567 -0.29466254 -0.051396992 -0.25354666 -0.057620674 0.39646766 0.11295918
0.114031084 0.21800534 -0.5688798 0.34751132 0.09699371 0.37056294 0.044741385 -0.20215155
-0.6797811 0.608186 0.066507764 -0.27321073 -0.06748154 -0.40162408 -0.6148405 0.2592601
-0.011110814 0.055933196 0.5323979 0.23184419 -0.20429619 -0.14116806 -0.5637498 0.1988936
0.7570296 -0.20112441 0.084186025 -0.22280058 -0.029378906 0.05969824 0.21653827 0.055796217
00000000: 6723 06bf bc36 5ebe 02de 96be a785 52bd
00000010: ded0 81be a803 6cbd cffd ca3e 2457 e73d
00000020: 2189 e93d cb3c 5f3e 1ba2 11bf 01ed b13e
00000030: a3a4 c63d 6dba bd3e be42 373d d100 4fbe
00000040: 2206 2ebf 14b2 1b3f 3935 883d 47e2 8bbe
00000050: c333 8abd aca1 cdbe 3066 1dbf bdbd 843e
00000060: 220a 36bc 351a 653d 3b4b 083f 9068 6d3e
00000070: 0533 51be 5c8e 10be e851 10bf c4aa 4b3e
00000080: b1cc 413f 8ff3 4dbe b969 ac3d d625 64be
00000090: 08ac f0bc 2486 743d 35bc 5d3e 938a 643d

target_network.emb3.transform.bias f4 [20]
0.0 0.0 0.0 -0.14627369 -0.16448061 -0.06759574 -0.09897477 -0.025967713
-0.009208882 -0.01874803 0.0 -0.09713388 -0.046512917 0.0006368002 0.0 0.16222748
-0.13603608 -0.13862783 -0.14192063 -0.18763496
00000000: 0000 0000 0000 0000 0000 0000 c5c8 15be
00000010: 9b6d 28be a36f 8abd 49b3 cabd 3eba d4bc
00000020: dae0 16bc 7895 99bc 0000 0000 21ee c6bd
00000030: 5484 3ebd f0ee 263a 0000 0000 f61e 263e
00000040: 0b4d 0bbe 74f4 0dbe a453 11be 6123 40be

target_network.emb4.transform.weight f4 [20, 2]
0.11267109 0.18015537 0.062482033 -0.20621358 0.22959282 0.09879481 -0.46277028 0.27991757
0.18003301 -0.23183799 0.09978058 0.3961795 0.21401533 -0.037742782 -0.21015364 -0.25646433
-0.30247685 -0.36348313 -0.53795743 0.20773803 -0.017163947 -0.35979912 0.20795755 0.27542868
-0.055610824 0.04382745 0.020361144 0.042177714 -0.5347499 0.37491873 0.2958544 -0.55717605
0.11401783 0.013971452 -0.824515 0.5897672 -0.8032723 0.17267153 -0.5195791 -0.5107055
00000000: 1ac0 e63d a67a 383e 29ed 7f3d a729 53be
00000010: 611a 6b3e ef54 ca3d 3af0 ecbe 5b51 8f3e
00000020: 935a 383e f066 6dbe c359 cc3d 0ad8 ca3e
00000030: d626 5b3e 2d98 1abd 8432 57be 4b4f 83be
00000040: 3fde 9abe 761a babe 94b7 09bf 47b9 543e
00000050: 689b 8cbc 9737 b8be d3f2 543e fd04 8d3e
00000060: 2dc8 63bd 6a84 333d 6acc a63c 8ac2 2c3d
00000070: 5fe5 08bf 59f5 bf3e 3a7a 973e 17a3 0ebf
00000080: 2e82 e93d 84e8 643c 6a13 53bf fcfa 163f
00000090: 41a3 4dbf ced0 303e 2303 05bf 98bd 02bf

target_network.emb4.transform.bias f4 [20]
-0.0043218844 -0.021092052 -0.28318846 -0.21343538 -0.10563452 0.024938367 -0.018258745 0.0
0.0 0.079323426 0.0 0.18970911 -0.05474933 -0.05764426 0.013968772 -0.14232486
-0.12833486 0.037788425 0.0 0.0
00000000: 989e 8dbb 3dc9 acbc 14fe 90be ce8e 5abe
00000010: e956 d8bd 8c4b cc3c 5d93 95bc 0000 0000
00000020: 0000 0000 5274 a23d 0000 0000 1b43 423e
00000030: d540 60bd 631c 6cbd 47dd 643c 9cbd 11be
00000040: 376a 03be 09c8 1a3d 0000 0000 0000 0000

target_network.h2.transform.weight f4 [20, 20]
0.01845732 -0.08320914 -0.31859583 0.033525903 -0.08937895 0.4419192 -0.71240276 -0.7580372
-0.22554012 -0.27787495 0.38672885 0.16595466 0.09599996 0.059279703 -0.21389371 -0.29585615
-0.41500244 -0.14146104 -0.33099717 -0.48850253 0.05181462 0.035965208 -0.39747164 0.22634518
0.004733473 -0.66259277 0.13843688 -0.44600156 -0.65032727 0.39499086 0.07534883 -0.19147937
-0.27655256 -0.4454334 -0.48498678 -0.2485193 -0.21705054 -0.012107105 -0.24056838 0.039959084
-0.4533736 0.016375193 -0.33255327 -0.5039385 -0.32114345 -0.13278453 -0.41555014 0.13977173
0.12630472 0.22498657 0.024829248 -0.07560792 0.25516966 -0.19927324 0.124663755 -0.4304225
0.40755993 -0.18735838 -0.699235 0.33364516 -0.16386047 -0.05594464 0.24826747 -0.19751562
0.2316895 0.22335505 -0.4387278 0.1163896 -0.2235744 0.7812849 -0.25236732 0.34806985
-0.093845546 -0.10320014 -0.67404044 -0.2330257 -0.14124523 -0.3661825 0.113164164 -0.01675072
-0.14089939 -0.58234495 -0.48357043 0.23170748 -0.60903305 -0.07501429 -0.4955346 0.1368076
0.2656585 0.3774643 0.30904973 -0.10659796 -0.21369256 0.07537348 -0.477529 0.2888459
-0.039193276 0.41697365 0.36926794 0.13096818 -0.031838533 0.21644181 -0.04841871 0.5001569
-0.07066925 0.39470148 -0.3545062 -0.1135372 -0.32930586 0.026594855 0.025921047 -0.6345972
-0.25823945 -0.4365784 0.2665264 -0.23702654 0.32878503 -0.29704693 0.13204466 -0.17512849
-0.0014209901 -0.24836057 -0.44751474 0.4778239 0.07748399 -0.030802447 -0.23055828 0.39222255
0.35535738 -0.56767744 -0.541286 0.25118452 -0.12526423 -0.45103812 -0.47687924 -0.25957903
-0.20159727 -0.18984124 -0.2109585 0.05390446 -0.35776135 -0.084855966 -0.27336103 -0.042343423
0.027835786 -0.46100864 0.048225824 -0.4195327 0.3825591 0.11196116 0.03794486 0.15121906
-0.10284459 -0.3412796 -0.09523371 -0.10133834 0.47888765 -0.2924975 0.2842243 -0.91354626
0.6044151 -0.5859988 -0.08936847 -0.8146444 -0.5985375 0.058883667 -0.005675154 0.8248231
-0.14007966 -0.113102525 -0.112243444 0.24510017 -0.19590917 -0.6911907 0.18423599 -0.0333465
-0.7152787 -0.07922153 0.40302297 -0.28847846 0.02850502 -0.32992575 0.5921764 -0.21544173
-0.19130567 0.13408574 0.19650955 0.26143232 0.18091846 0.15366992 0.22841047 0.36338076
0.37830892 -1.3507588 0.12854552 0.7069304 -0.6234789 0.8744586 -0.25875947 -0.25494057
0.024677467 -0.29718545 0.2812042 0.08352488 0.4312609 -0.33964682 -0.13738677 0.18497261
-0.11653893 -0.053243175 0.37077844 0.050894465 0.09188332 0.3616033 -0.01075536 -0.42289752
0.2896062 -0.043887075 -0.05503721 0.21211629 -0.5129843 -0.72099906 -0.5505276 -0.40663877
0.49327862 0.8017022 0.25009042 -0.7525158 0.83524466 -0.10833593 0.21112552 -1.0490266
0.2279376 -0.23739181 -0.9783776 0.3511338 -0.35479248 -0.38026306 0.13975325 0.0058080787
0.35194445 0.35101816 0.11055889 -0.83483446 0.21723802 -0.13325971 -0.40857348 1.1847343
0.50018024 -0.03614062 0.4579301 0.19444175 -0.6860082 -1.0392323 0.19861974 0.15842676
00000000: ce33 973c 8e69 aabd fe1e a3be 7552 093d
00000010: 500c b7bd 3c43 e23e 0760 36bf ba0e 42bf
00000020: fdf3 66be a045 8ebe 5301 c63e 05f0 293e
00000030: a19b c43d 46cf 723d f406 5bbe 757a 97be
00000040: 337b d4be 2adb 10be 7678 a9be 011d fabe
00000050: 913b 543d 4150 133d 6781 cbbe 08c7 673e
00000060: 401b 9b3b ae9f 29bf 66c2 0d3e 515a e4be
00000070: d97b 26bf 3e3c ca3e 7d50 9a3d 2b13 44be
00000080: 4c98 8dbe d90f e4be 3050 f8be d87b 7ebe
00000090: 7f42 5ebe e15c 46bc 8f57 76be 23ac 233d
000000a0: 9620 e8be 4525 863c 6c44 aabe 1d02 01bf
000000b0: ea6c a4be abf8 07be fdc2 d4be 5220 0f3e
000000c0: 0656 013e e162 663e b566 cb3c 53d8 9abd
000000d0: 99a5 823e 490e 4cbe b64f ff3d 5760 dcbe
000000e0: b2ab d03e e0da 3fbe 1101 33bf 8ad3 aa3e
000000f0: 0acb 27be 3526 65bd d439 7e3e 8941 4abe
00000100: 0340 6d3e 30b7 643e eea0 e0be ac5d ee3d
00000110: b0f0 64be 4a02 483f 4a36 81be 3636 b23e
00000120: 1832 c0bd 985a d3bd ea8d 2cbf 4a9e 6ebe
00000130: 97a2 10be 467c bbbe 9dc2 e73d ce38 89bc
00000140: ee47 10be 8f14 15bf 8b96 f7be ba44 6d3e
00000150: 97e9 1bbf 18a1 99bd b6b6 fdbe 4b17 0c3e
00000160: 6404 883e 0043 c13e c43b 9e3e 0850 dabd
00000170: 39d2 5abe 695d 9a3d ae7e f4be 9ce3 933e
00000180: 2189 20bd 927d d53e b010 bd3e 861c 063e
00000190: 1f69 02bd eca2 5d3e b252 46bd 480a 003f
000001a0: 0abb 90bd 5016 ca3e d681 b5be 3186 e8bd
000001b0: c79a a8be 74dd d93c 6058 d43c f674 22bf
000001c0: f637 84be 3487 dfbe 2676 883e 16b7 72be
000001d0: 8356 a83e 8916 98be b736 073e e254 33be
000001e0: 8440 baba 3c52 7ebe a720 e5be 56a5 f43e
000001f0: edaf 9e3d 6a55 fcbc 7817 6cbe 65d1 c83e
00000200: 67f1 b53e 4f53 11bf b891 0abf 429b 803e
00000210: 4445 00be 78ee e6be 8429 f4be 8be7 84be
00000220: 846f 4ebe be65 42be 8105 58be ecca 5c3d
00000230: 7f2c b7be f7c8 adbd faf5 8bbe 4c70 2dbd
00000240: e007 e43c 5309 ecbe 7188 453d fdcc d6be
00000250: c9de c33e e54b e53d 126c 1b3d 2bd9 1a3e
00000260: 2fa0 d2bd 33bc aebe e409 c3bd 7a8a cfbd
00000270: c330 f53e 3bc2 95be d985 913e 2bde 69bf
00000280: f3ba 1a3f 0404 16bf d106 b7bd 898c 50bf
00000290: c139 19bf 0030 713d a4f6 b9bb 9b27 533f
000002a0: 0b71 0fbe 4ca2 e7bd e4df e5bd 8afb 7a3e
000002b0: 6a9c 48be e0f1 30bf 5ca8 3c3e 5796 08bd
000002c0: 811c 37bf e63e a2bd 0759 ce3e 73b3 93be
000002d0: 5c83 e93c 07ec a8be df98 173f c29c 5cbe
000002e0: a2e5 43be c64d 093e cd39 493e 75da 853e
000002f0: b042 393e a65b 1d3e 6fe4 693e 0b0d ba3e
00000300: b5b1 c13e aae5 acbf 70a1 033e 64f9 343f
00000310: 509c 1fbf 85dc 5f3f 1f7c 84be 9287 82be
00000320: 6628 ca3c b128 98be fff9 8f3e 180f ab3d
00000330: 3bce dc3e 30e6 adbe 1eaf 0cbe 7669 3d3e
00000340: f6ab eebd 8415 5abd acd6 bd3e b776 503d
00000350: 522d bc3d 1124 b93e 4037 30bc 0686 d8be
00000360: 4447 943e efc2 33bd b36e 61bd 0335 593e
00000370: f052 03bf 6593 38bf 60ef 0cbf f532 d0be
00000380: 048f fc3e 5b3c 4d3f da0b 803e e0a4 40bf
00000390: 98d2 553f 3adf ddbd 4a31 583e 8146 86bf
000003a0: 7968 693e d716 73be f476 7abf cfc7 b33e
000003b0: 5ca7 b5be d7b1 c2be 7a1b 0f3e b251 be3b
000003c0: 1032 b43e a7b8 b33e b36c e23d b6b7 55bf
000003d0: a573 5e3e 3c75 08be 8b30 d1be 60a5 973f
000003e0: d00b 003f 3008 14bd d075 ea3e bd1b 473e
000003f0: 3c9e 2fbf 9005 85bf f962 4b3e a03a 223e

target_network.h2.transform.bias f4 [20]
-0.1313467 -0.10975982 -0.13722056 -0.15615433 -0.20207727 -0.19683366 -0.13458768 -0.1613098
0.019665185 0.13941947 0.045153067 0.21296525 0.23690236 -0.05682888 0.13971919 0.0
-0.17771915 -0.23526195 0.078309715 -0.2082094
00000000: c07f 06be c2c9 e0bd 8c83 0cbe ece6 1fbe
00000010: 58ed 4ebe c38e 49be 5ad1 09be 652e 25be
00000020: e218 a13c fac3 0e3e 6cf2 383d 9013 5a3e
00000030: 8896 723e 66c5 68bd 8c12 0f3e 0000 0000
00000040: 02fc 35be 82e8 70be d860 a03d d834 55be

target_network.h3.transform.weight f4 [20, 20]
0.017902294 -0.09524867 0.5825035 -0.015189221 0.09943525 -0.60171574 -0.49017286 0.26194638
0.24879035 -0.2642395 -0.113983326 0.06493776 -0.36368692 -0.5109185 0.12785871 -0.43678236
-0.14944074 -0.2719477 -0.56128323 -0.08583272 -0.17054598 -0.50792706 -0.12723836 -0.097608775
-0.1265501 0.14900908 0.8427357 -0.10651559 -0.031518668 -0.31708714 -0.13071245 0.7013502
-0.30975193 -0.2713536 0.26213294 -0.018551389 -0.12513572 0.1802765 -0.26282725 0.3894077
0.38415742 0.1615207 -0.08705105 0.008150838 -0.44117144 -0.05142641 0.14732075 0.670461
0.4092578 0.79155356 -0.20711485 0.08967515 0.68365264 0.44734144 0.5866957 -0.48349816
0.17286801 0.49633873 0.33402866 -0.09343847 0.11765461 0.46747398 0.2999181 -0.3281465
0.3813811 -0.0005470241 0.21129279 -0.032310642 -0.123504765 -0.2914677 0.22657403 0.08919556
0.30219826 0.49885434 0.21508175 -0.034407906 -0.33995688 -0.0039622188 0.5950019 -0.20836431
0.024273528 0.19474521 -0.26858824 -0.09034314 -0.31673372 -0.4304636 0.05496025 -0.5461603
0.6560058 -0.18270098 0.27538395 -0.60063314 -0.6075133 -0.8026805 -0.22469915 0.09160256
0.33864707 -0.09736677 0.124127686 0.088196635 -0.01885 0.80554765 0.48973265 0.32671538
-0.036646515 -0.18694872 0.6281632 -0.18112509 -0.011001635 0.18499914 0.028651856 -0.013229027
0.29879716 -0.376594 0.22535647 0.052936774 -0.05350049 0.122907296 -0.18479335 0.20477267
0.010465903 -0.26186416 0.6065856 -0.40111512 -0.29226342 0.24502863 -0.03519461 0.04448069
-0.05760399 0.2439224 0.28243786 -0.14857684 -1.0457923 0.18620095 0.03445473 0.13166818
-0.06785488 -0.23696148 0.14729927 0.24511524 0.3012349 -0.15320882 0.17476803 0.29161432
-0.11245514 -0.70471686 0.2745005 -0.053525306 -0.5611527 -0.081255525 -0.69809175 0.5140613
-0.15209024 0.27650928 -0.56773865 -0.08931448 0.68511045 -0.26231351 0.20370725 0.07260213
0.46335033 -0.31525654 -0.19674979 0.07017875 0.57045215 -0.036469057 0.14446272 0.37292838
0.34950227 -0.32945463 0.6844192 -0.2024109 -0.22428526 0.36670274 -0.25113288 0.39944863
0.31071097 0.29579574 -0.26457056 0.12456592 -0.08693627 0.14047578 -0.09585887 -0.27181467
0.2177074 0.3427897 -0.019815844 0.18574323 0.096981555 -0.44342342 -0.07812946 0.041048348
0.18056554 -0.26989806 -0.1542134 -0.6395516 0.58877057 -0.25938484 0.30285305 0.6022755
0.2138741 -0.28227472 0.025260411 -0.7957286 0.375234 -0.4250493 0.16758147 -0.4748266
-0.11018589 0.2835151 -0.0073980317 -0.4234121 0.32532832 -0.22307865 -0.09017944 -0.40408248
-0.022592232 0.20085058 -0.09410329 -0.0012224283 0.12351984 0.09581122 0.3730036 -0.43026203
0.049634304 -0.1462497 0.009974326 0.3258323 0.39925262 -0.08394629 -0.72773683 -0.109878294
0.08565993 -0.26986843 -0.056824405 0.8255473 -0.023587568 0.014597772 0.11328781 0.18583821
0.18358257 -0.4154012 0.19912538 0.02032723 -0.3924644 -0.065475404 0.043715656 0.0641808
0.0024158023 -0.3567932 0.53756624 -0.036947675 0.8683954 -0.5704203 -0.13186604 0.2208073
00000000: d5a7 923c bc11 c3bd f31e 153f 36dc 78bc
00000010: b5a4 cb3d 0b0a 1abf f0f7 fabe d61d 863e
00000020: e6c2 7e3e 664a 87be 1770 e9bd 17fe 843d
00000030: 2c35 babe 8ecb 02bf 65ed 023e f0a1 dfbe
00000040: fe06 19be bb3c 8bbe 42b0 0fbf 11c9 afbd
00000050: 9ba3 2ebe 8207 02bf c64a 02be 1ce7 c7bd
00000060: 5996 01be d695 183e 87bd 573f d824 dabd
00000070: b819 01bd 3f59 a2be 7cd9 05be b08b 333f
00000080: ce97 9ebe dcee 8abe 4a36 863e 15f9 97bc
00000090: 9423 00be 679a 383e 4b91 86be 7260 c73e
000000a0: 48b0 c43e af65 253e d247 b2bd 188b 053c
000000b0: 39e1 e1be 80a4 52bd 40db 163e 55a3 2b3f
000000c0: 3d8a d13e 41a3 4a3f ea15 54be 9ba7 b73d
000000d0: dc03 2f3f f009 e53e b031 163f 128d f7be
000000e0: 5004 313e 1c20 fe3e ce05 ab3e ab5c bfbd
000000f0: e6f4 f03d c058 ef3e dd8e 993e d102 a8be
00000100: 6244 c33e 2a66 0fba 235d 583e 2a58 04bd
00000110: 11f0 fcbd 413b 95be 0603 683e 29ac b63d
00000120: bbb9 9a3e d669 ff3e 643e 5c3e 4eef 0cbd
00000130: d40e aebe 80d5 81bb 0b52 183f 745d 55be
00000140: 47d9 c63c 4a6b 473e 6684 89be d305 b9bd
00000150: ec2a a2be ba65 dcbe 001e 613d 29d1 0bbf
00000160: ffef 273f f715 3bbe 20ff 8c3e 18c3 19bf
00000170: fe85 1bbf 787c 4dbf 8917 66be 1f9a bb3d
00000180: 2663 ad3e 3b68 c7bd a836 fe3d 70a0 b43d
00000190: 516b 9abc 5f38 4e3f 3dbe fa3e 3d47 a73e
000001a0: a81a 16bd 7c6f 3fbe 4ecf 203f db78 39be
000001b0: 3440 34bc 6a70 3d3e 4cb7 ea3c 90be 58bc
000001c0: f1fb 983e eed0 c0be d9c3 663e 3bd4 583d
000001d0: 5423 5bbd d2b6 fb3d 783a 3dbe edaf 513e
000001e0: 2e79 2b3c 0f13 86be 3249 1b3f f65e cdbe
000001f0: 8da3 95be c9e8 7a3e 3928 10bd 6231 363d
00000200: 29f2 6bbd cbc6 793e b29b 903e 8724 18be
00000210: 86dc 85bf 76ab 3e3e 6720 0d3d 06d4 063e
00000220: 80f7 8abd 08a6 72be 9fd5 163e 7dff 7a3e
00000230: 763b 9a3e c6e2 1cbe 64f6 323e 794e 953e
00000240: e14e e6bd 5368 34bf 548b 8c3e 5a3d 5bbd
00000250: b4a7 0fbf 4c69 a6bd 24b6 32bf 8599 033f
00000260: 8bbd 1bbe a092 8d3e 5257 11bf 83ea b6bd
00000270: 6663 2f3f f54d 86be a298 503e 6db0 943d
00000280: 413c ed3e 4e69 a1be c778 49be e0b9 8f3d
00000290: 2709 123f 9460 15bd 09ee 133e 78f0 be3e
000002a0: f6f1 b23e 47ae a8be 1936 2f3f ce44 4fbe
000002b0: 09ab 65be 76c0 bb3e 7d94 80be 8884 cc3e
000002c0: 8215 9f3e 8a72 973e cb75 87be 6b1c ff3d
000002d0: a50b b2bd e2d8 0f3e a851 c4bd 4b2b 8bbe
000002e0: b0ee 5e3e 2282 af3e d654 a2bc 7933 3e3e
000002f0: 449e c63d 6508 e3be 5702 a0bd 5022 283d
00000300: 2ce6 383e 1430 8abe 1eea 1dbe a7b9 23bf
00000310: abb9 163f 17ce 84be 8e0f 9b3e ba2e 1a3f
00000320: d001 5b3e 5086 90be ecee ce3c dfb4 4bbf
00000330: ac1e c03e 10a0 d9be 7a9a 2b3e 791c f3be
00000340: 24a9 e1bd e428 913e 306b f2bb 79c9 d8be
00000350: 6f91 a63e bb6e 64be 00b0 b8bd e6e3 cebe
00000360: 5813 b9bc c6ab 4d3e 3ab9 c0bd e339 a0ba
00000370: f8f7 fc3d ac38 c43d 54fa be3e 4e4b dcbe
00000380: 574d 4b3d 7bc2 15be 5b6b 233c 7ed3 a63e
00000390: d76a cc3e 08ec abbd f64c 3abf df07 e1bd
000003a0: 796e af3d 322c 8abe b5c0 68bd 1157 533f
000003b0: b73a c1bc 7e2b 6f3c 7003 e83d 5f4c 3e3e
000003c0: 12fd 3b3e 77af d4be 86e7 4b3e 4b85 a63c
000003d0: 18f1 c8be f817 86bd 300f 333d 3971 833d
000003e0: 7052 1e3b 99ad b6be f19d 093f 7256 17bd
000003f0: 294f 5e3f 1107 12bf e407 07be 4f1b 623e

target_network.h3.transform.bias f4 [20]
-0.18896633 0.31315163 -0.014543634 -0.12653415 -0.16398291 -0.2531802 -0.007934734 -0.17830326
0.037070084 -0.0051763854 -0.04226879 0.0 -0.2748141 -0.38282642 0.1260534 -0.24595879
-0.19905688 0.022774499 -0.25560147 -0.10608981
00000000: 6480 41be 6955 a03e 6c48 6ebc 2b92 01be
00000010: 23eb 27be d6a0 81be b000 02bc 2195 36be
00000020: cdd6 173d ab9e a9bb 0a22 2dbd 0000 0000
00000030: 6fb4 8cbe d301 c4be 2414 013e 9fdc 7bbe
00000040: 91d5 4bbe 9691 ba3c 32de 82be 9d45 d9bd

target_network.critic_linear.weight f4 [1, 20]
-0.22033572 -0.4885711 -0.50682616 -0.14505872 -0.48835146 0.09649715 0.26287195 0.59006625
0.60470366 0.2994804 0.047118198 0.026877224 -0.34082717 -0.007891275 -0.7157204 0.05796712
0.07555542 -0.27386376 0.42797807 0.1634277
00000000: b09f 61be fe25 fabe 5cbf 01bf 468a 14be
00000010: 3409 fabe 4ca0 c53d 2797 863e 950e 173f
00000020: dccd 1a3f 7f55 993e 03ff 403d a02d dc3c
00000030: e680 aebe 684a 01bc 7439 37bf ee6e 6d3d
00000040: cdbc 9a3d df37 8cbe f11f db3e 9759 273e
