pz_risk/mini_1/17.pt (torch, 18513 bytes, 26 tensors)

policy_network.emb1.transform.weight f4 [20, 2]
000000 80 bb fc 3c e7 45 8d 3e 3c 3b e7 bc 47 cd 2b bf
       0.030851126 0.27592394 -0.028226487 -0.67110103
000010 de 3f f1 bb 48 be a9 be 94 3e 30 be 70 d9 aa be
       -0.00736235 -0.33152986 -0.17211372 -0.33369017
000020 5c af f3 3b 42 80 b0 3e 02 0f 04 bf 25 20 fe 3e
       0.007436676 0.34472853 -0.515854 0.496339
000030 9a 1a 50 be 33 cd 8e bd f1 40 93 be c1 d0 90 be
       -0.20322648 -0.069727324 -0.28760484 -0.28284267
000040 a0 5e 96 3c 22 23 1b 3d f9 33 41 bd 13 bd 7e 3e
       0.018355668 0.037875302 -0.047168706 0.24876814
000050 4d ba 15 be 35 ee ce 3c 5b 3c 46 be cd 81 63 3e
       -0.1462185 0.02526007 -0.19358961 0.22217484
000060 f0 33 8d 3e a7 1e bd be f0 55 99 be 7c 41 a1 3e
       0.27578688 -0.36937448 -0.29948378 0.31495273
000070 a1 22 9f 3d 9c 5c eb bc a2 e9 3e bf 96 46 76 3e
       0.07770277 -0.028730683 -0.74575245 0.24050364
000080 c9 5a 1b bf c6 58 6b be 61 7f da be cd 4e c6 be
       -0.606854 -0.22983083 -0.42675307 -0.38731995
000090 96 44 04 be d0 2e 1f 3c ad 32 9e be c6 77 98 be
       -0.12916788 0.009715751 -0.30898038 -0.2977888

policy_network.emb1.transform.bias f4 [20]
000000 c3 cc cc bd 71 cc cc bd 00 00 00 00 00 00 00 00
       -0.09999993 -0.099999316 0.0 0.0
000010 a7 8a e3 bd 00 00 00 00 00 00 00 00 00 00 00 00
       -0.1111043 0.0 0.0 0.0
000020 cb cc cc bd de d2 08 be 00 00 00 00 04 bc 09 bc
       -0.09999999 -0.1336169 0.0 -0.008406643
000030 98 24 fe bd 80 1c ad b9 cb cc cc bd 00 00 00 00
       -0.124093235 -0.00033018366 -0.09999999 0.0
000040 00 00 00 00 00 00 00 00 cb cc cc bd 00 00 00 00
       0.0 0.0 -0.09999999 0.0

policy_network.emb2.transform.weight f4 [20, 2]
000000 c8 e9 4e 3d 71 de 0b 3e a8 36 f9 bd 72 f6 da 3e
       0.05051592 0.13659073 -0.12168628 0.42766148
000010 19 8e 92 be 6d 8d 03 3d aa 0d 47 bd d0 37 d2 bd
       -0.28624037 0.032117296 -0.048597015 -0.10264552
000020 2d 8e a6 3e 29 4a 5e be 8d 86 87 bd ae f3 2f 3e
       0.32530347 -0.21707977 -0.066174604 0.171828
000030 37 05 8c bc 5a 14 54 3f 0a fc 82 be c0 5e e4 3e
       -0.01709233 0.82843554 -0.25582916 0.4460354
000040 a6 a0 89 be 88 64 07 3e 94 39 12 3f b7 ea 3f 3f
       -0.26880378 0.13221943 0.5711911 0.7496752
000050 54 37 ac 3d b2 c4 0d bf 06 b8 5d bf 2c c7 3c be
       0.084089905 -0.5537826 -0.8660892 -0.18435353
000060 65 45 64 bd 83 48 6d 3d 6a d8 92 be 76 63 82 3e
       -0.055730242 0.05793048 -0.28680736 0.25466508
000070 e2 bc 5c 3d ed 83 59 3f 16 b4 28 be ec c5 62 3d
       0.05389107 0.8496693 -0.16474947 0.055364534
000080 ce 58 19 bf 27 67 d3 3d 5a ec 18 3f 12 77 06 3f
       -0.5990113 0.10322409 0.59735644 0.52525437
000090 c1 2c ba bd 61 8c f8 bd 24 45 83 bc 00 72 ae 3b
       -0.090905674 -0.1213615 -0.01602418 0.0053236485

policy_network.emb2.transform.bias f4 [20]
000000 4c b0 4c be 61 22 8f be 00 00 00 00 00 00 00 00
       -0.19989127 -0.27955917 0.0 0.0
000010 e1 4c 36 be 82 fc f9 bd 9b a6 42 be bb 14 3b be
       -0.17802764 -0.12206365 -0.19008867 -0.18269627
000020 2b c6 cc bd 3e 64 47 be 20 b5 6b bd 00 00 00 00
       -0.09998735 -0.19471833 -0.05754578 0.0
000030 64 07 dc bc 58 42 a9 bd 47 d3 2b be c4 03 42 bd
       -0.026858993 -0.08264607 -0.16779815 -0.047366872
000040 00 00 00 00 5c 48 f7 bc 00 00 00 00 cb cc cc bd
       0.0 -0.03018587 0.0 -0.09999999

policy_network.emb3.transform.weight f4 [20, 2]
000000 67 23 06 bf bc 36 5e be 02 de 96 be a7 85 52 bd
       -0.5239777 -0.21700567 -0.29466254 -0.051396992
000010 de d0 81 be a8 03 6c bd e0 54 30 3e ac 98 11 3e
       -0.25354666 -0.057620674 0.17219877 0.14218396
000020 90 2d f9 3b 0f 97 92 3e 59 31 c3 be 12 17 a0 3e
       0.0076043084 0.28630874 -0.38123587 0.312676
000030 4b ba 0e be 90 94 77 3e 08 8a 19 bd 27 b7 94 be
       -0.13938253 0.24177766 -0.037485152 -0.29045984
000040 da bb 8d bf c8 fa 94 3d 6c f3 87 bc f3 3b ba be
       -1.1072953 0.07274395 -0.016595565 -0.36373863
000050 c3 33 8a bd ac a1 cd be fd 12 20 bf b0 42 5f 3e
       -0.06748154 -0.40162408 -0.62528974 0.21802783
000060 7d a5 65 bd a9 0b bf 3d ac 93 25 3e c5 21 1b 3d
       -0.056066025 0.09328396 0.16169614 0.037874002
000070 05 33 51 be 5c 8e 10 be aa fc 28 bf 03 56 ca be
       -0.20429619 -0.14116806 -0.66010535 -0.39518747
000080 4e 28 1e 3f ba 92 09 bf 7e c2 51 3e cb a7 2e be
       0.6178025 -0.5373951 0.20484349 -0.17056195
000090 a0 b9 ad 3c 45 82 88 3d 49 b7 1a 3e cc 5f 05 3e
       0.021206677 0.06665472 0.1510898 0.13024825

policy_network.emb3.transform.bias f4 [20]
000000 00 00 00 00 00 00 00 00 00 00 00 00 5c f5 88 be
       0.0 0.0 0.0 -0.26749694
000010 10 55 90 be 4b 0b 56 be 69 30 9c be be cc cc bd
       -0.28189898 -0.20902745 -0.30505684 -0.09999989
000020 34 71 9a 3e bb cc cc bd 00 00 00 00 cb 17 d8 bd
       0.30164492 -0.09999987 0.0 -0.10551413
000030 d6 f9 aa bd 54 8e 21 be 00 00 00 00 e5 ab c1 3e
       -0.08348434 -0.1577695 0.0 0.37826458
000040 93 13 b4 be 8c 10 4c be ca cc cc bd 42 04 9b be
       -0.35171184 -0.19928187 -0.09999998 -0.30276686

policy_network.emb4.transform.weight f4 [20, 2]
000000 c5 38 19 3e 33 cc ad 3d c8 b4 77 bc 28 c1 94 be
       0.14963062 0.084862135 -0.015118785 -0.29053617
000010 ef d0 18 3e f0 81 a8 3c ab 2c 29 be fc da 31 3f
       0.14923452 0.020569772 -0.16520946 0.6947477
000020 4e 81 2d 3e 16 78 6d be 04 41 1e 3f af cf 63 3f
       0.16943857 -0.2319034 0.61817956 0.88988775
000030 1e 02 ea 3d f4 3d 0f be 84 32 57 be 4b 4f 83 be
       0.11426185 -0.13988477 -0.21015364 -0.25646433
000040 3f de 9a be 76 1a ba be 69 53 03 be 9b 34 c1 3d
       -0.30247685 -0.36348313 -0.12824787 0.09433862
000050 68 9b 8c bc 97 37 b8 be f1 73 47 3d cc 12 63 3d
       -0.017163947 -0.35979912 0.048694555 0.055437848
000060 ba a4 83 bd 9e 76 ee 3c 0b 01 1c 3f 51 9d 20 3f
       -0.064279035 0.029109295 0.6093909 0.62740046
000070 83 3c 89 be b2 22 47 3e 89 15 8f 3e 28 67 03 bf
       -0.2680398 0.19446829 0.27946118 -0.5132928
000080 7f 8f b3 3d 32 65 bd bc 67 78 0c bf 9f d7 0b 3f
       0.08767604 -0.023119543 -0.5487122 0.54625887
000090 2c 10 67 bf 16 20 95 3d 23 03 05 bf 98 bd 02 bf
       -0.9025905 0.072815105 -0.5195791 -0.5107055

policy_network.emb4.transform.bias f4 [20]
000000 60 6c 5d be db cb cc bd f9 35 1b be 53 44 e4 3d
       -0.21623373 -0.0999982 -0.15157308 0.11145844
000010 6a 02 e5 bd 72 d8 6c be 89 06 a0 bd 00 00 00 00
       -0.11182101 -0.23129442 -0.078137465 0.0
000020 00 00 00 00 c7 21 57 bd 00 00 00 00 ec 2c d1 bd
       0.0 -0.052522447 0.0 -0.10213646
000030 3c c5 4b bd cc b5 c7 be 4a 5f 00 be 11 4b 24 be
       -0.049748644 -0.39005888 -0.1253635 -0.1604426
000040 ae f3 e1 bd ea 26 68 be da 9f cc bd 00 00 00 00
       -0.11032806 -0.22671095 -0.09991427 0.0

policy_network.h2.transform.weight f4 [20, 20]
000000 30 09 b8 bc bc 3b 5a 3d bf a7 c7 be d6 45 8f bd
       -0.022465318 0.053279623 -0.38995168 -0.06995742
000010 5f 69 d3 bd 03 ff 8b 3e 5e 10 01 bf 92 34 4f bf
       -0.10322832 0.27342996 -0.504156 -0.8093959
000020 b1 c1 4b bd 65 8d f3 be e1 8e 9b 3e 8c 9a 21 3e
       -0.049745265 -0.47568813 0.30382445 0.15781611
000030 99 0e e3 3d e0 a9 8e 3c 99 9f 6e be dc ce 8e be
       0.11086769 0.017414987 -0.23303069 -0.27892196
000040 a4 69 a5 be f3 aa 9e be a4 e2 d4 be 69 24 e8 be
       -0.3230716 -0.309898 -0.41579163 -0.4534028
000050 5c bd e2 3c e6 a8 0e 3c 67 81 cb be 1a 42 18 3e
       0.027678184 0.008707261 -0.39747164 0.14868966
000060 40 a8 cf ba e4 b4 56 bf 20 c7 ca 3c e3 a4 10 bf
       -0.0015842989 -0.8386977 0.024753153 -0.565016
000070 f6 61 41 bf 36 77 9a 3e b8 bf 0a bc 2b 13 44 be
       -0.755401 0.30169076 -0.008468561 -0.19147937
000080 17 62 92 be 86 01 f9 be 5a 9f 0e bf 33 e2 a9 be
       -0.28590462 -0.48633975 -0.557119 -0.3318039
000090 0c cf 73 be f3 77 10 be 2d 30 a2 be 52 e3 31 3d
       -0.23809451 -0.14108257 -0.3167738 0.04342968
0000a0 40 40 02 bf 30 16 34 bc 55 d6 cc be 74 47 fa be
       -0.5087929 -0.010991618 -0.40007272 -0.4888264
0000b0 bf 06 bd be cc e2 5a be 38 75 de be 5a 44 3d 3d
       -0.3691921 -0.21375579 -0.43448806 0.046207763
0000c0 12 fb 80 3d 51 78 10 3e 66 eb 74 bd a2 f3 1d be
       0.06297888 0.14108397 -0.059794806 -0.1542497
0000d0 0c 36 66 3e e8 f1 40 be 86 e4 fa 3d 04 11 06 bf
       0.22481555 -0.1884228 0.12250619 -0.52369714
0000e0 5a 92 df 3e 88 4e 86 be c6 d2 44 bf f4 eb a0 3e
       0.43666345 -0.2623179 -0.76884115 0.31430018
0000f0 5e ec ab bc 39 ab 69 bd 31 90 a7 3e 8a 77 f5 be
       -0.020986732 -0.057048056 0.32727197 -0.47942764
000100 7c 83 61 3e b2 e9 9b 3d a8 b9 77 bf 6a 97 b6 bd
       0.22022814 0.07612933 -0.96767664 -0.08915599
000110 da 10 d0 bf 71 dd 8a 3f 1b 4c db be fd 60 2d 3f
       -1.6255143 1.0848829 -0.428315 0.6772612
000120 34 4a 05 be aa c5 ee be e2 ec 1a bf 7e a4 c8 be
       -0.13016587 -0.4663518 -0.60517704 -0.39187998
000130 c5 87 46 bd d1 5a f4 be c6 1d 73 3e 2e c5 cb 3d
       -0.048469324 -0.47725537 0.23741826 0.099497184
000140 2d 70 3f be 3c aa c1 be 4e 36 9c be cf 56 c5 3d
       -0.18695135 -0.3782519 -0.3051018 0.09635698
000150 55 a7 e9 be 9b 8c 9c bd e0 ae 82 be 57 19 a4 be
       -0.45635477 -0.07644006 -0.25524044 -0.32050583
000160 65 32 f4 be 80 7b de 3e 76 48 77 3e 73 7f 0b be
       -0.47694698 0.43453598 0.24148735 -0.13622837
000170 1b 8c 9d bd 84 6f 15 3f 5e a1 06 bf ed 02 3c be
       -0.076927386 0.58373284 -0.52589977 -0.18360491
000180 90 5d 5d 3d a5 58 d0 3e 47 04 8c 3e 68 d5 82 bc
       0.054044306 0.4069263 0.27347013 -0.0159709
000190 b1 8e bf 3d 88 f3 1b 3e 38 31 f9 3d 51 5f da 3e
       0.09353388 0.15229619 0.12167591 0.42650846
0001a0 91 4c 00 3e 0b 63 5b 3f 58 30 0c 3e 86 56 fd bd
       0.12529208 0.85698 0.13690317 -0.12370019
0001b0 08 0b 12 c0 47 40 66 be b3 98 0a be 5c d3 b6 be
       -2.2819233 -0.22485457 -0.13534813 -0.3570813
0001c0 e4 fb 4c be 24 ee 1c be 92 f7 9e 3e e7 8b 72 bf
       -0.20017964 -0.15325218 0.31048256 -0.94744724
0001d0 fa b5 0d 3e 00 0a 3b bf 00 9a 76 3e ce 8c af bd
       0.1383895 -0.73062134 0.24082184 -0.08571778
0001e0 36 dc 5c 3d 2f ce 55 bd 15 3a c8 be 02 04 cb 3e
       0.053920947 -0.052198585 -0.39106813 0.39651495
0001f0 cb 1c 64 3e 0c 83 58 be f4 78 b8 bd 31 3c c5 3e
       0.22276609 -0.2114374 -0.09007445 0.38522485
000200 3b e6 af 3e 3b 67 41 bf 9e 0d 0f bf bf c1 cb 3e
       0.3435534 -0.7554814 -0.55880153 0.39796254
000210 c2 a5 ea 3a 33 4a 0e bf 58 fe da be c9 a4 01 bf
       0.0017902183 -0.5558197 -0.42772174 -0.5064207
000220 f9 63 a3 bd 64 21 de be 29 8f 92 bd e6 00 40 3e
       -0.07978053 -0.4338485 -0.07156212 0.18750343
000230 24 b3 b4 be d1 33 4f bf 4a ca 92 be 13 35 db 3e
       -0.35292923 -0.8093844 -0.2866996 0.4281393
000240 4c 01 f2 3c f7 a7 0f c0 79 df 35 bf 6a ac 9e bf
       0.029541634 -2.2446268 -0.7104412 -1.2396367
000250 4d 3b 45 3f 26 92 7c bf 32 5b 55 bd de 52 49 3e
       0.7704361 -0.98660505 -0.052088924 0.19660518
000260 18 2f a8 bc a9 e4 37 c0 a0 82 83 bf d6 f3 76 3b
       -0.020530269 -2.8733313 -1.0274239 0.0037681959
000270 76 65 8b 3e 25 59 5f bf 38 1f 5f 3e 72 1b 62 bf
       0.27225846 -0.872454 0.21789253 -0.8832313
000280 d8 b0 08 3f 82 f0 3d bf de fb 32 be c2 86 98 be
       0.5339484 -0.7419511 -0.17478892 -0.29790312
000290 cc 3a 12 bf 40 6b ea bb d5 26 8a 3d c2 31 58 be
       -0.57120967 -0.0071538985 0.06745688 -0.21112731
0002a0 62 d2 de be de 65 86 be f8 98 63 bc fa ab 64 3d
       -0.43519884 -0.26249593 -0.013891451 0.055828072
0002b0 12 b4 14 bd 69 eb 11 be b0 42 13 bc a4 fe 02 bf
       -0.03630454 -0.14249958 -0.0089880675 -0.511698
0002c0 56 46 85 3e a9 70 01 bf 6b f4 a3 3e 84 9c ca 3d
       0.26030225 -0.5056253 0.32022414 0.09893134
0002d0 17 ce 21 3d 2b 95 de bd b9 b1 f9 3e e0 94 ad 3a
       0.039503183 -0.10868295 0.48768404 0.0013243221
0002e0 42 8b 1f be 1a c0 0f 3d 32 56 93 3e 98 75 0a be
       -0.15580466 0.03509531 0.287767 -0.13521421
0002f0 48 aa 0d 3e 00 f4 5c be 60 a4 8f 3e cb cb cd 3e
       0.13834488 -0.21577454 0.28055096 0.40194544
000300 98 f0 c0 3e 96 cf 85 bf 57 de 0b 3e 86 12 b7 3d
       0.37683558 -1.0453975 0.13659035 0.0893908
000310 5e 49 3d 3d 8d a8 ab 3e 6f 67 1e be ba 56 fe 3d
       0.046212547 0.33527032 -0.15469144 0.124188855
000320 74 49 3b bd d2 bd c4 be 4b 27 95 3e 39 81 06 3e
       -0.045724347 -0.3842607 0.2913154 0.13135232
000330 bf 21 39 3f 21 e9 f5 be e6 03 0b be 3c 19 eb bd
       0.7231712 -0.48029426 -0.13575706 -0.114794225
000340 07 6d d4 3d bb 74 91 be c9 68 f0 3e 54 fd 61 3e
       0.10372358 -0.2840937 0.46954945 0.22069293
000350 c9 ae fa bd f3 e6 88 3e 62 c9 57 3e 14 b2 07 be
       -0.12240369 0.267387 0.21072915 -0.13251525
000360 3c f8 33 3e 16 95 90 be de f9 14 3d b9 57 da 3e
       0.17575163 -0.28238744 0.036371104 0.42645052
000370 4b 3b d1 bc 17 64 73 be 18 44 d6 be 70 00 e1 be
       -0.025540968 -0.2376865 -0.41848826 -0.43945646
000380 2e 1c 03 3f 88 f8 b7 3e 2d 0c 9e 3e d0 b2 ec bd
       0.51214874 0.35931802 0.30868664 -0.11557543
000390 a7 37 86 3e 77 38 d2 3d 29 29 31 3e 1f 9a 16 bf
       0.26214334 0.10264676 0.17300858 -0.5882892
0003a0 e7 9a 98 3e 33 eb 96 be ce 0e 7c be 9a 54 89 be
       0.2980568 -0.29476318 -0.24615023 -0.26822358
0003b0 c4 37 10 be 49 c6 6e be 5a 48 7e 3e e0 32 6a 3d
       -0.14083773 -0.23317827 0.24832287 0.057177424
0003c0 e1 ce a1 3e 69 ca 8b 3e 9b e3 87 bc 73 64 d5 be
       0.3160315 0.27302864 -0.016588023 -0.416782
0003d0 78 14 40 3e 45 a7 39 be b2 b7 fb be 81 4b 37 3e
       0.18757808 -0.18130215 -0.49163586 0.17899896
0003e0 c2 6e 7b 3e 90 49 98 be d0 75 ea 3e e2 f9 41 3d
       0.2455397 -0.29743624 0.4579301 0.047357447
0003f0 bb 46 0b bf 2a 14 ef be d6 85 3a bc 25 20 fa be
       -0.544048 -0.4669507 -0.011384448 -0.4885265

policy_network.h2.transform.bias f4 [20]
000000 66 2e 3a be 1a 86 1e be 7d cc cc bd 6e 15 b7 bd
       -0.18181762 -0.15480843 -0.099999405 -0.08939634
000010 c9 4a f6 bd 67 43 1d 3e c6 eb 7a bd 5a 8c 0f 3f
       -0.12025983 0.15357743 -0.061260007 0.56073534
000020 c8 cc cc bd 9a f5 67 be 32 6d db bd 8c d5 3e be
       -0.099999964 -0.22652283 -0.10714187 -0.18636149
000030 f2 b5 cd bd a4 dc 73 be c3 55 f9 3e 28 cb cc bd
       -0.10044469 -0.23814636 0.48698243 -0.099996865
000040 c4 49 26 be 78 63 3d be a8 71 85 3e 3f 04 1d be
       -0.16239077 -0.18494976 0.26063275 -0.15333651

policy_network.h3.transform.weight f4 [20, 20]
000000 d5 a7 92 3c bc 11 c3 bd f3 1e 15 3f 52 e8 eb bd
       0.017902294 -0.09524867 0.5825035 -0.11518921
000010 48 ce 02 3e c3 dc 6a bf 58 2f 03 bf d6 1d 86 3e
       0.12774003 -0.91743106 -0.51244116 0.26194638
000020 e6 c2 7e 3e c7 76 ba be 80 36 2e ba da ae a6 3e
       0.24879035 -0.36418745 -0.00066456944 0.32555276
000030 2c 35 ba be 7f ad 92 be 20 a8 f7 be 7c 4e ad be
       -0.36368692 -0.28647992 -0.48370457 -0.3384894
000040 4c 97 0e be f2 57 89 be 61 49 29 bf 61 f6 3d be
       -0.13924903 -0.2682491 -0.6612759 -0.18551017
000050 ec 33 87 bc 25 d3 00 bf 04 ec a9 bd 16 e7 e1 be
       -0.01650425 -0.5032218 -0.082969695 -0.44121617
000060 c4 0b 35 3e d9 bc 45 be 57 83 5a 3f da 75 b8 3f
       0.1768027 -0.19310321 0.8535666 1.4410965
000070 a0 03 a7 bc 03 ce 92 be 93 46 5e be 17 2a 0c 3f
       -0.02038747 -0.286728 -0.2170661 0.54751724
000080 05 80 5a be 62 18 2f bd 0d 49 7e 3c f9 86 a5 3d
       -0.21337898 -0.042747863 0.015520346 0.080823846
000090 65 44 b8 be f1 42 84 3c 98 fe 88 3e 07 44 0c 3f
       -0.3598968 0.016145201 0.2675674 0.547913
0000a0 cf 86 03 3f f6 cd 82 3e ac f0 99 3d eb 5f 2f be
       0.51377577 0.2554776 0.07516608 -0.17126434
0000b0 c3 7a 08 bf e3 ee 15 be d4 60 72 3e 2e c4 06 3f
       -0.5331232 -0.1464191 0.2366975 0.52643096
0000c0 85 ed bb 3e 78 a3 71 3e c2 a0 23 be 34 33 90 bd
       0.3670465 0.23597515 -0.15979293 -0.07041016
0000d0 2c 6b 37 3e d0 2c 72 3e 6d 5e 45 be 12 8d f7 be
       0.17911977 0.23649907 -0.19274302 -0.48349816
0000e0 7d 81 3c be f4 29 d6 3e 6e cc 01 3c 91 67 79 be
       -0.18408771 0.41828883 0.007922275 -0.24355914
0000f0 52 42 46 3e a8 50 ed 3e ed 66 ba 3e 6d 2a 80 bd
       0.19361237 0.46350598 0.3640665 -0.06258092
000100 a1 70 70 3f c2 f4 90 be dc 0f 9d 3e ba bb c7 bf
       0.9392186 -0.28311735 0.30676162 -1.5604165
000110 77 2d 06 be 10 70 e9 be 0e f6 45 3e ea 48 89 bd
       -0.13103281 -0.4559331 0.19332144 -0.067033604
000120 53 31 20 be 74 2e b0 3e f5 17 e1 3c 4a 67 7f 3d
       -0.15643816 0.3441044 0.027477244 0.062354364
000130 b5 3e e3 be c3 27 1a be 0f 9c 7c be 29 1d 40 be
       -0.4438378 -0.1505423 -0.24668907 -0.18761124
000140 87 f0 d5 3d de b1 a7 3e 3c ff 32 be 05 9d 50 3c
       0.104462676 0.3275289 -0.17480177 0.012732749
000150 ea 76 a7 bf 28 96 f1 bf 76 03 62 3e 82 f1 66 3e
       -1.3083165 -1.8873949 0.22071633 0.22553065
000160 0e 5c 4e 3f 7e be af 3d f2 81 02 3f 78 ad f3 bd
       0.80609214 0.085812554 0.5097953 -0.11898321
000170 bd ec 1a bf 70 89 38 3d 20 2b 4e be 1f 9a bb 3d
       -0.60517484 0.045052946 -0.20133638 0.09160256
000180 db 2d 09 3f e4 75 0d 3e a0 f4 68 3f f0 24 50 3e
       0.53585595 0.13814503 0.9099827 0.2032659
000190 66 e8 f3 bd 24 6f 37 3f 26 e2 dd 3e 76 dc 99 3e
       -0.11909561 0.7165396 0.433366 0.3005101
0001a0 fb ab 03 bf 78 70 69 bf 9a 16 01 3f 8d 00 61 3e
       -0.51434296 -0.9118724 0.5042511 0.21972866
0001b0 94 ae e1 3c 8c 1e 3e 3e cd 93 97 3e 5e 04 18 3d
       0.027549066 0.1856634 0.2960495 0.03711354
0001c0 c8 e4 98 3e 72 7f 4f be 3e c6 fa 3e 8f 78 3c bd
       0.29862046 -0.2026346 0.48979372 -0.04601341
0001d0 55 c3 85 3d be 2b 71 3e 53 ee 0b be bc 48 91 3e
       0.06531397 0.23551843 -0.13665132 0.28375804
0001e0 51 70 a1 be 55 9d b3 be 07 d5 09 3f 90 f3 2e bf
       -0.31531003 -0.35080972 0.5384068 -0.68340397
0001f0 2a a0 c9 bf e9 56 17 3e 96 08 4b be ae 33 82 3e
       -1.5752003 0.14779247 -0.19827494 0.25430053
000200 92 48 05 be f7 98 13 3f 5e 88 d5 3e 82 f2 52 3d
       -0.13015965 0.5765528 0.41705602 0.051500805
000210 26 5d 1c bf d6 47 6a 3e f4 85 34 3f 86 77 06 3d
       -0.61079633 0.22878966 0.70516896 0.03282883
000220 94 f9 6d 3d c7 68 89 bd d9 ea cc 3e 35 8d b3 3e
       0.058099344 -0.06709438 0.40022925 0.3506867
000230 c0 21 27 3e c6 e2 1c be 64 f6 32 3e 94 f6 92 3e
       0.16321468 -0.15320882 0.17476803 0.2870375
000240 64 2b da bc 7a 58 3b bf a5 15 8d 3e f4 91 1c be
       -0.026632018 -0.7318188 0.27555576 -0.15290052
000250 49 41 ab be 0a c6 5b bb b6 bd ad be 55 01 e3 3d
       -0.33448246 -0.0033534789 -0.339338 0.110842384
000260 b9 d4 ae 3a 76 49 e9 3e bd 13 89 be 1c 1f 41 be
       0.0013338543 0.4556386 -0.26772872 -0.18859524
000270 8f 1b 17 3f fc 56 29 be 18 7d fc 3e 53 d7 0a 3e
       0.59026426 -0.16537088 0.4931419 0.13558702
000280 7d 4c 97 3e fd 42 9d be 4a e2 86 be 3c 76 d2 3c
       0.29550543 -0.3071517 -0.2634452 0.025691144
000290 93 e4 5c 3f 9b af 5d 3e fc bf b0 3d 8e 0d b5 bf
       0.86286277 0.2164902 0.08630368 -1.4144762
0002a0 98 2d 82 3e a0 f9 d7 bd 10 76 1f 3f c6 17 08 bd
       0.2542541 -0.10545659 0.62289524 -0.033225797
0002b0 86 b8 f4 bd 0d 74 d1 3e 97 9b ac bf b8 ab 99 3e
       -0.119492576 0.40908852 -1.3484982 0.30013824
0002c0 42 a3 bc 3e 6c 7d e6 3e 22 4f be 3f aa 69 3c 3e
       0.36843306 0.45017564 1.48679 0.18399683
0002d0 bc 19 69 be 50 68 28 3e 9c c7 26 be 96 14 a0 be
       -0.22763723 0.16446042 -0.16287082 -0.31265706
0002e0 7e 4e 61 be f6 23 18 3f fb a6 6f bd e6 8c 11 c0
       -0.22002599 0.5942987 -0.058508854 -2.2742248
0002f0 be 20 85 3e a7 ae b7 be de 7d 64 bd 49 61 a4 3b
       0.26001543 -0.35875437 -0.0557841 0.00501648
000300 1c 7d ab 3d c0 69 e8 bd 61 78 59 bf 2a 12 3d bf
       0.08373472 -0.11348295 -0.8494931 -0.7385584
000310 95 af e3 3e d7 78 2d be f9 e4 d4 3f 55 ce 31 3f
       0.44469896 -0.16940628 1.6632377 0.6945546
000320 b4 06 b7 3e 29 b6 c3 be ec ee ce 3c 9a 96 fe be
       0.35747302 -0.38224915 0.025260411 -0.49724275
000330 00 86 32 3f 9f 84 cd be a8 5f ee 3e 26 9d ef 3f
       0.6973572 -0.40140244 0.46557355 1.8719833
000340 43 6b 94 bd b6 b0 ea 3e 83 f7 b9 3c 77 56 f4 be
       -0.07247021 0.45837945 0.02270103 -0.47722217
000350 66 99 ed 3e ae c3 5d bd af cd a4 3e da 3a 9f be
       0.46406096 -0.054141693 0.32188174 -0.31099588
000360 18 e2 27 3e 64 ac 51 3e 0b 5e 0e 3f 8f 1c d1 3e
       0.16394842 0.20475918 0.5561225 0.408421
000370 b4 91 f4 3c ac 38 c4 3d 54 fa be 3e 4e 4b dc be
       0.029854633 0.09581122 0.3730036 -0.43026203
000380 42 97 cf 3c 52 64 2f be 51 6d e2 be 7e d3 a6 3e
       0.02534068 -0.17128113 -0.44224027 0.3258323
000390 d7 6a cc 3e f7 26 64 bd f6 4c 3a bf d0 94 11 be
       0.39925262 -0.055701222 -0.72773683 -0.14216924
0003a0 79 6e af 3d 32 2c 8a be 23 13 e2 be b8 1f 3a 3f
       0.08565993 -0.26986843 -0.44155225 0.7270465
0003b0 33 b6 a3 3d eb 1c 3c be 54 b9 58 3e 9c d8 75 3d
       0.07993736 -0.18370406 0.21164447 0.060021028
0003c0 b9 f8 bd 3e d1 2a ab be 80 d6 87 3e 61 6c e7 bd
       0.37103823 -0.33431104 0.26530838 -0.112999685
0003d0 3f 9a a1 bf 71 7c cb bf d2 7a 51 3e 4a 7c 17 3e
       -1.2625197 -1.5897352 0.20457008 0.14793506
0003e0 e6 81 cd bd fc f1 1c bf a7 16 06 3f cf 85 a5 bd
       -0.10034542 -0.6130674 0.52378315 -0.080821626
0003f0 75 af 24 3f c5 8d ba be c4 d5 85 bd 4f 1b 62 3e
       0.64330226 -0.36436287 -0.06534913 0.2208073

policy_network.h3.transform.bias f4 [20]
000000 a9 c7 47 be 46 a2 4b 3e d1 0b 8e be 5d 33 11 be
       -0.19509758 0.19886121 -0.2774339 -0.1417975
000010 e4 b8 32 3f 2c dd 0b bf 22 b4 23 bf 4c 28 68 bc
       0.6981337 -0.54634356 -0.63946736 -0.014169764
000020 16 68 9c 3d e9 ea e1 bd d6 45 55 3e b2 86 0b bd
       0.0763704 -0.11031134 0.20827422 -0.034064002
000030 18 30 03 3f f2 5b ef 3e 22 d8 3b 3e 77 11 4f be
       0.5124526 0.46749836 0.18344167 -0.20221506
000040 1a eb 4d be e8 eb 2a 3e 9b a8 74 be 5c 0c d7 bd
       -0.20109215 0.16691554 -0.23892443 -0.10500404

policy_network.critic_linear.weight f4 [1, 20]
000000 6a db 68 bd c2 11 d9 be ef db 73 bd 81 c3 31 bf
       -0.056849875 -0.4239636 -0.059535917 -0.6943894
000010 4d 8e a5 bf 78 60 c3 3f 1e cb d6 3f 03 21 df 3e
       -1.2934052 1.5263815 1.6780736 0.43579873
000020 05 0f 38 3f b7 cc b2 3e 11 53 e8 be fe bf 43 3d
       0.7189792 0.3492181 -0.45375875 0.04779052
000030 f7 87 0f bf f0 8f af be 42 2b 38 bf 0b aa 25 3d
       -0.5606684 -0.34289503 -0.71941006 0.04044537
000040 e0 33 65 bd f6 22 f7 be ae cc bc 3d b8 11 b6 3d
       -0.055957675 -0.4826886 0.09218727 0.08890098

target_network.emb1.transform.weight f4 [20, 2]
000000 80 bb fc 3c e7 45 8d 3e 3c 3b e7 bc 47 cd 2b bf
       0.030851126 0.27592394 -0.028226487 -0.67110103
000010 de 3f f1 bb 48 be a9 be 94 3e 30 be 70 d9 aa be
       -0.00736235 -0.33152986 -0.17211372 -0.33369017
000020 5c af f3 3b 42 80 b0 3e 02 0f 04 bf 25 20 fe 3e
       0.007436676 0.34472853 -0.515854 0.496339
000030 9a 1a 50 be 33 cd 8e bd f1 40 93 be c1 d0 90 be
       -0.20322648 -0.069727324 -0.28760484 -0.28284267
000040 a0 5e 96 3c 22 23 1b 3d f9 33 41 bd 13 bd 7e 3e
       0.018355668 0.037875302 -0.047168706 0.24876814
000050 4d ba 15 be 35 ee ce 3c 5b 3c 46 be cd 81 63 3e
       -0.1462185 0.02526007 -0.19358961 0.22217484
000060 f0 33 8d 3e a7 1e bd be f0 55 99 be 7c 41 a1 3e
       0.27578688 -0.36937448 -0.29948378 0.31495273
000070 a1 22 9f 3d 9c 5c eb bc a2 e9 3e bf 96 46 76 3e
       0.07770277 -0.028730683 -0.74575245 0.24050364
000080 c9 5a 1b bf c6 58 6b be 61 7f da be cd 4e c6 be
       -0.606854 -0.22983083 -0.42675307 -0.38731995
000090 96 44 04 be d0 2e 1f 3c ad 32 9e be c6 77 98 be
       -0.12916788 0.009715751 -0.30898038 -0.2977888

target_network.emb1.transform.bias f4 [20]
000000 c3 cc cc bd 71 cc cc bd 00 00 00 00 00 00 00 00
       -0.09999993 -0.099999316 0.0 0.0
000010 a7 8a e3 bd 00 00 00 00 00 00 00 00 00 00 00 00
       -0.1111043 0.0 0.0 0.0
000020 cb cc cc bd de d2 08 be 00 00 00 00 04 bc 09 bc
       -0.09999999 -0.1336169 0.0 -0.008406643
000030 98 24 fe bd 80 1c ad b9 cb cc cc bd 00 00 00 00
       -0.124093235 -0.00033018366 -0.09999999 0.0
000040 00 00 00 00 00 00 00 00 cb cc cc bd 00 00 00 00
       0.0 0.0 -0.09999999 0.0

target_network.emb2.transform.weight f4 [20, 2]
000000 c8 e9 4e 3d 71 de 0b 3e a8 36 f9 bd 72 f6 da 3e
       0.05051592 0.13659073 -0.12168628 0.42766148
000010 19 8e 92 be 6d 8d 03 3d aa 0d 47 bd d0 37 d2 bd
       -0.28624037 0.032117296 -0.048597015 -0.10264552
000020 2d 8e a6 3e 29 4a 5e be 8d 86 87 bd ae f3 2f 3e
       0.32530347 -0.21707977 -0.066174604 0.171828
000030 37 05 8c bc 5a 14 54 3f 0a fc 82 be c0 5e e4 3e
       -0.01709233 0.82843554 -0.25582916 0.4460354
000040 a6 a0 89 be 88 64 07 3e 94 39 12 3f b7 ea 3f 3f
       -0.26880378 0.13221943 0.5711911 0.7496752
000050 54 37 ac 3d b2 c4 0d bf 06 b8 5d bf 2c c7 3c be
       0.084089905 -0.5537826 -0.8660892 -0.18435353
000060 65 45 64 bd 83 48 6d 3d 6a d8 92 be 76 63 82 3e
       -0.055730242 0.05793048 -0.28680736 0.25466508
000070 e2 bc 5c 3d ed 83 59 3f 16 b4 28 be ec c5 62 3d
       0.05389107 0.8496693 -0.16474947 0.055364534
000080 ce 58 19 bf 27 67 d3 3d 5a ec 18 3f 12 77 06 3f
       -0.5990113 0.10322409 0.59735644 0.52525437
000090 c1 2c ba bd 61 8c f8 bd 24 45 83 bc 00 72 ae 3b
       -0.090905674 -0.1213615 -0.01602418 0.0053236485

target_network.emb2.transform.bias f4 [20]
000000 4c b0 4c be 61 22 8f be 00 00 00 00 00 00 00 00
       -0.19989127 -0.27955917 0.0 0.0
000010 e1 4c 36 be 82 fc f9 bd 9b a6 42 be bb 14 3b be
       -0.17802764 -0.12206365 -0.19008867 -0.18269627
000020 2b c6 cc bd 3e 64 47 be 20 b5 6b bd 00 00 00 00
       -0.09998735 -0.19471833 -0.05754578 0.0
000030 64 07 dc bc 58 42 a9 bd 47 d3 2b be c4 03 42 bd
       -0.026858993 -0.08264607 -0.16779815 -0.047366872
000040 00 00 00 00 5c 48 f7 bc 00 00 00 00 cb cc cc bd
       0.0 -0.03018587 0.0 -0.09999999

target_network.emb3.transform.weight f4 [20, 2]
000000 67 23 06 bf bc 36 5e be 02 de 96 be a7 85 52 bd
       -0.5239777 -0.21700567 -0.29466254 -0.051396992
000010 de d0 81 be a8 03 6c bd e0 54 30 3e ac 98 11 3e
       -0.25354666 -0.057620674 0.17219877 0.14218396
000020 90 2d f9 3b 0f 97 92 3e 59 31 c3 be 12 17 a0 3e
       0.0076043084 0.28630874 -0.38123587 0.312676
000030 4b ba 0e be 90 94 77 3e 08 8a 19 bd 27 b7 94 be
       -0.13938253 0.24177766 -0.037485152 -0.29045984
000040 da bb 8d bf c8 fa 94 3d 6c f3 87 bc f3 3b ba be
       -1.1072953 0.07274395 -0.016595565 -0.36373863
000050 c3 33 8a bd ac a1 cd be fd 12 20 bf b0 42 5f 3e
       -0.06748154 -0.40162408 -0.62528974 0.21802783
000060 7d a5 65 bd a9 0b bf 3d ac 93 25 3e c5 21 1b 3d
       -0.056066025 0.09328396 0.16169614 0.037874002
000070 05 33 51 be 5c 8e 10 be aa fc 28 bf 03 56 ca be
       -0.20429619 -0.14116806 -0.66010535 -0.39518747
000080 4e 28 1e 3f ba 92 09 bf 7e c2 51 3e cb a7 2e be
       0.6178025 -0.5373951 0.20484349 -0.17056195
000090 a0 b9 ad 3c 45 82 88 3d 49 b7 1a 3e cc 5f 05 3e
       0.021206677 0.06665472 0.1510898 0.13024825

target_network.emb3.transform.bias f4 [20]
000000 00 00 00 00 00 00 00 00 00 00 00 00 5c f5 88 be
       0.0 0.0 0.0 -0.26749694
000010 10 55 90 be 4b 0b 56 be 69 30 9c be be cc cc bd
       -0.28189898 -0.20902745 -0.30505684 -0.09999989
000020 34 71 9a 3e bb cc cc bd 00 00 00 00 cb 17 d8 bd
       0.30164492 -0.09999987 0.0 -0.10551413
000030 d6 f9 aa bd 54 8e 21 be 00 00 00 00 e5 ab c1 3e
       -0.08348434 -0.1577695 0.0 0.37826458
000040 93 13 b4 be 8c 10 4c be ca cc cc bd 42 04 9b be
       -0.35171184 -0.19928187 -0.09999998 -0.30276686

target_network.emb4.transform.weight f4 [20, 2]
000000 c5 38 19 3e 33 cc ad 3d c8 b4 77 bc 28 c1 94 be
       0.14963062 0.084862135 -0.015118785 -0.29053617
000010 ef d0 18 3e f0 81 a8 3c ab 2c 29 be fc da 31 3f
       0.14923452 0.020569772 -0.16520946 0.6947477
000020 4e 81 2d 3e 16 78 6d be 04 41 1e 3f af cf 63 3f
       0.16943857 -0.2319034 0.61817956 0.88988775
000030 1e 02 ea 3d f4 3d 0f be 84 32 57 be 4b 4f 83 be
       0.11426185 -0.13988477 -0.21015364 -0.25646433
000040 3f de 9a be 76 1a ba be 69 53 03 be 9b 34 c1 3d
       -0.30247685 -0.36348313 -0.12824787 0.09433862
000050 68 9b 8c bc 97 37 b8 be f1 73 47 3d cc 12 63 3d
       -0.017163947 -0.35979912 0.048694555 0.055437848
000060 ba a4 83 bd 9e 76 ee 3c 0b 01 1c 3f 51 9d 20 3f
       -0.064279035 0.029109295 0.6093909 0.62740046
000070 83 3c 89 be b2 22 47 3e 89 15 8f 3e 28 67 03 bf
       -0.2680398 0.19446829 0.27946118 -0.5132928
000080 7f 8f b3 3d 32 65 bd bc 67 78 0c bf 9f d7 0b 3f
       0.08767604 -0.023119543 -0.5487122 0.54625887
000090 2c 10 67 bf 16 20 95 3d 23 03 05 bf 98 bd 02 bf
       -0.9025905 0.072815105 -0.5195791 -0.5107055

target_network.emb4.transform.bias f4 [20]
000000 60 6c 5d be db cb cc bd f9 35 1b be 53 44 e4 3d
       -0.21623373 -0.0999982 -0.15157308 0.11145844
000010 6a 02 e5 bd 72 d8 6c be 89 06 a0 bd 00 00 00 00
       -0.11182101 -0.23129442 -0.078137465 0.0
000020 00 00 00 00 c7 21 57 bd 00 00 00 00 ec 2c d1 bd
       0.0 -0.052522447 0.0 -0.10213646
000030 3c c5 4b bd cc b5 c7 be 4a 5f 00 be 11 4b 24 be
       -0.049748644 -0.39005888 -0.1253635 -0.1604426
000040 ae f3 e1 bd ea 26 68 be da 9f cc bd 00 00 00 00
       -0.11032806 -0.22671095 -0.09991427 0.0

target_network.h2.transform.weight f4 [20, 20]
000000 30 09 b8 bc bc 3b 5a 3d bf a7 c7 be d6 45 8f bd
       -0.022465318 0.053279623 -0.38995168 -0.06995742
000010 5f 69 d3 bd 03 ff 8b 3e 5e 10 01 bf 92 34 4f bf
       -0.10322832 0.27342996 -0.504156 -0.8093959
000020 b1 c1 4b bd 65 8d f3 be e1 8e 9b 3e 8c 9a 21 3e
       -0.049745265 -0.47568813 0.30382445 0.15781611
000030 99 0e e3 3d e0 a9 8e 3c 99 9f 6e be dc ce 8e be
       0.11086769 0.017414987 -0.23303069 -0.27892196
000040 a4 69 a5 be f3 aa 9e be a4 e2 d4 be 69 24 e8 be
       -0.3230716 -0.309898 -0.41579163 -0.4534028
000050 5c bd e2 3c e6 a8 0e 3c 67 81 cb be 1a 42 18 3e
       0.027678184 0.008707261 -0.39747164 0.14868966
000060 40 a8 cf ba e4 b4 56 bf 20 c7 ca 3c e3 a4 10 bf
       -0.0015842989 -0.8386977 0.024753153 -0.565016
000070 f6 61 41 bf 36 77 9a 3e b8 bf 0a bc 2b 13 44 be
       -0.755401 0.30169076 -0.008468561 -0.19147937
000080 17 62 92 be 86 01 f9 be 5a 9f 0e bf 33 e2 a9 be
       -0.28590462 -0.48633975 -0.557119 -0.3318039
000090 0c cf 73 be f3 77 10 be 2d 30 a2 be 52 e3 31 3d
       -0.23809451 -0.14108257 -0.3167738 0.04342968
0000a0 40 40 02 bf 30 16 34 bc 55 d6 cc be 74 47 fa be
       -0.5087929 -0.010991618 -0.40007272 -0.4888264
0000b0 bf 06 bd be cc e2 5a be 38 75 de be 5a 44 3d 3d
       -0.3691921 -0.21375579 -0.43448806 0.046207763
0000c0 12 fb 80 3d 51 78 10 3e 66 eb 74 bd a2 f3 1d be
       0.06297888 0.14108397 -0.059794806 -0.1542497
0000d0 0c 36 66 3e e8 f1 40 be 86 e4 fa 3d 04 11 06 bf
       0.22481555 -0.1884228 0.12250619 -0.52369714
0000e0 5a 92 df 3e 88 4e 86 be c6 d2 44 bf f4 eb a0 3e
       0.43666345 -0.2623179 -0.76884115 0.31430018
0000f0 5e ec ab bc 39 ab 69 bd 31 90 a7 3e 8a 77 f5 be
       -0.020986732 -0.057048056 0.32727197 -0.47942764
000100 7c 83 61 3e b2 e9 9b 3d a8 b9 77 bf 6a 97 b6 bd
       0.22022814 0.07612933 -0.96767664 -0.08915599
000110 da 10 d0 bf 71 dd 8a 3f 1b 4c db be fd 60 2d 3f
       -1.6255143 1.0848829 -0.428315 0.6772612
000120 34 4a 05 be aa c5 ee be e2 ec 1a bf 7e a4 c8 be
       -0.13016587 -0.4663518 -0.60517704 -0.39187998
000130 c5 87 46 bd d1 5a f4 be c6 1d 73 3e 2e c5 cb 3d
       -0.048469324 -0.47725537 0.23741826 0.099497184
000140 2d 70 3f be 3c aa c1 be 4e 36 9c be cf 56 c5 3d
       -0.18695135 -0.3782519 -0.3051018 0.09635698
000150 55 a7 e9 be 9b 8c 9c bd e0 ae 82 be 57 19 a4 be
       -0.45635477 -0.07644006 -0.25524044 -0.32050583
000160 65 32 f4 be 80 7b de 3e 76 48 77 3e 73 7f 0b be
       -0.47694698 0.43453598 0.24148735 -0.13622837
000170 1b 8c 9d bd 84 6f 15 3f 5e a1 06 bf ed 02 3c be
       -0.076927386 0.58373284 -0.52589977 -0.18360491
000180 90 5d 5d 3d a5 58 d0 3e 47 04 8c 3e 68 d5 82 bc
       0.054044306 0.4069263 0.27347013 -0.0159709
000190 b1 8e bf 3d 88 f3 1b 3e 38 31 f9 3d 51 5f da 3e
       0.09353388 0.15229619 0.12167591 0.42650846
0001a0 91 4c 00 3e 0b 63 5b 3f 58 30 0c 3e 86 56 fd bd
       0.12529208 0.85698 0.13690317 -0.12370019
0001b0 08 0b 12 c0 47 40 66 be b3 98 0a be 5c d3 b6 be
       -2.2819233 -0.22485457 -0.13534813 -0.3570813
0001c0 e4 fb 4c be 24 ee 1c be 92 f7 9e 3e e7 8b 72 bf
       -0.20017964 -0.15325218 0.31048256 -0.94744724
0001d0 fa b5 0d 3e 00 0a 3b bf 00 9a 76 3e ce 8c af bd
       0.1383895 -0.73062134 0.24082184 -0.08571778
0001e0 36 dc 5c 3d 2f ce 55 bd 15 3a c8 be 02 04 cb 3e
       0.053920947 -0.052198585 -0.39106813 0.39651495
0001f0 cb 1c 64 3e 0c 83 58 be f4 78 b8 bd 31 3c c5 3e
       0.22276609 -0.2114374 -0.09007445 0.38522485
000200 3b e6 af 3e 3b 67 41 bf 9e 0d 0f bf bf c1 cb 3e
       0.3435534 -0.7554814 -0.55880153 0.39796254
000210 c2 a5 ea 3a 33 4a 0e bf 58 fe da be c9 a4 01 bf
       0.0017902183 -0.5558197 -0.42772174 -0.5064207
000220 f9 63 a3 bd 64 21 de be 29 8f 92 bd e6 00 40 3e
       -0.07978053 -0.4338485 -0.07156212 0.18750343
000230 24 b3 b4 be d1 33 4f bf 4a ca 92 be 13 35 db 3e
       -0.35292923 -0.8093844 -0.2866996 0.4281393
000240 4c 01 f2 3c f7 a7 0f c0 79 df 35 bf 6a ac 9e bf
       0.029541634 -2.2446268 -0.7104412 -1.2396367
000250 4d 3b 45 3f 26 92 7c bf 32 5b 55 bd de 52 49 3e
       0.7704361 -0.98660505 -0.052088924 0.19660518
000260 18 2f a8 bc a9 e4 37 c0 a0 82 83 bf d6 f3 76 3b
       -0.020530269 -2.8733313 -1.0274239 0.0037681959
000270 76 65 8b 3e 25 59 5f bf 38 1f 5f 3e 72 1b 62 bf
       0.27225846 -0.872454 0.21789253 -0.8832313
000280 d8 b0 08 3f 82 f0 3d bf de fb 32 be c2 86 98 be
       0.5339484 -0.7419511 -0.17478892 -0.29790312
000290 cc 3a 12 bf 40 6b ea bb d5 26 8a 3d c2 31 58 be
       -0.57120967 -0.0071538985 0.06745688 -0.21112731
0002a0 62 d2 de be de 65 86 be f8 98 63 bc fa ab 64 3d
       -0.43519884 -0.26249593 -0.013891451 0.055828072
0002b0 12 b4 14 bd 69 eb 11 be b0 42 13 bc a4 fe 02 bf
       -0.03630454 -0.14249958 -0.0089880675 -0.511698
0002c0 56 46 85 3e a9 70 01 bf 6b f4 a3 3e 84 9c ca 3d
       0.26030225 -0.5056253 0.32022414 0.09893134
0002d0 17 ce 21 3d 2b 95 de bd b9 b1 f9 3e e0 94 ad 3a
       0.039503183 -0.10868295 0.48768404 0.0013243221
0002e0 42 8b 1f be 1a c0 0f 3d 32 56 93 3e 98 75 0a be
       -0.15580466 0.03509531 0.287767 -0.13521421
0002f0 48 aa 0d 3e 00 f4 5c be 60 a4 8f 3e cb cb cd 3e
       0.13834488 -0.21577454 0.28055096 0.40194544
000300 98 f0 c0 3e 96 cf 85 bf 57 de 0b 3e 86 12 b7 3d
       0.37683558 -1.0453975 0.13659035 0.0893908
000310 5e 49 3d 3d 8d a8 ab 3e 6f 67 1e be ba 56 fe 3d
       0.046212547 0.33527032 -0.15469144 0.124188855
000320 74 49 3b bd d2 bd c4 be 4b 27 95 3e 39 81 06 3e
       -0.045724347 -0.3842607 0.2913154 0.13135232
000330 bf 21 39 3f 21 e9 f5 be e6 03 0b be 3c 19 eb bd
       0.7231712 -0.48029426 -0.13575706 -0.114794225
000340 07 6d d4 3d bb 74 91 be c9 68 f0 3e 54 fd 61 3e
       0.10372358 -0.2840937 0.46954945 0.22069293
000350 c9 ae fa bd f3 e6 88 3e 62 c9 57 3e 14 b2 07 be
       -0.12240369 0.267387 0.21072915 -0.13251525
000360 3c f8 33 3e 16 95 90 be de f9 14 3d b9 57 da 3e
       0.17575163 -0.28238744 0.036371104 0.42645052
000370 4b 3b d1 bc 17 64 73 be 18 44 d6 be 70 00 e1 be
       -0.025540968 -0.2376865 -0.41848826 -0.43945646
000380 2e 1c 03 3f 88 f8 b7 3e 2d 0c 9e 3e d0 b2 ec bd
       0.51214874 0.35931802 0.30868664 -0.11557543
000390 a7 37 86 3e 77 38 d2 3d 29 29 31 3e 1f 9a 16 bf
       0.26214334 0.10264676 0.17300858 -0.5882892
0003a0 e7 9a 98 3e 33 eb 96 be ce 0e 7c be 9a 54 89 be
       0.2980568 -0.29476318 -0.24615023 -0.26822358
0003b0 c4 37 10 be 49 c6 6e be 5a 48 7e 3e e0 32 6a 3d
       -0.14083773 -0.23317827 0.24832287 0.057177424
0003c0 e1 ce a1 3e 69 ca 8b 3e 9b e3 87 bc 73 64 d5 be
       0.3160315 0.27302864 -0.016588023 -0.416782
0003d0 78 14 40 3e 45 a7 39 be b2 b7 fb be 81 4b 37 3e
       0.18757808 -0.18130215 -0.49163586 0.17899896
0003e0 c2 6e 7b 3e 90 49 98 be d0 75 ea 3e e2 f9 41 3d
       0.2455397 -0.29743624 0.4579301 0.047357447
0003f0 bb 46 0b bf 2a 14 ef be d6 85 3a bc 25 20 fa be
       -0.544048 -0.4669507 -0.011384448 -0.4885265

target_network.h2.transform.bias f4 [20]
000000 66 2e 3a be 1a 86 1e be 7d cc cc bd 6e 15 b7 bd
       -0.18181762 -0.15480843 -0.099999405 -0.08939634
000010 c9 4a f6 bd 67 43 1d 3e c6 eb 7a bd 5a 8c 0f 3f
       -0.12025983 0.15357743 -0.061260007 0.56073534
000020 c8 cc cc bd 9a f5 67 be 32 6d db bd 8c d5 3e be
       -0.099999964 -0.22652283 -0.10714187 -0.18636149
000030 f2 b5 cd bd a4 dc 73 be c3 55 f9 3e 28 cb cc bd
       -0.10044469 -0.23814636 0.48698243 -0.099996865
000040 c4 49 26 be 78 63 3d be a8 71 85 3e 3f 04 1d be
       -0.16239077 -0.18494976 0.26063275 -0.15333651

target_network.h3.transform.weight f4 [20, 20]
000000 d5 a7 92 3c bc 11 c3 bd f3 1e 15 3f 52 e8 eb bd
       0.017902294 -0.09524867 0.5825035 -0.11518921
000010 48 ce 02 3e c3 dc 6a bf 58 2f 03 bf d6 1d 86 3e
       0.12774003 -0.91743106 -0.51244116 0.26194638
000020 e6 c2 7e 3e c7 76 ba be 80 36 2e ba da ae a6 3e
       0.24879035 -0.36418745 -0.00066456944 0.32555276
000030 2c 35 ba be 7f ad 92 be 20 a8 f7 be 7c 4e ad be
       -0.36368692 -0.28647992 -0.48370457 -0.3384894
000040 4c 97 0e be f2 57 89 be 61 49 29 bf 61 f6 3d be
       -0.13924903 -0.2682491 -0.6612759 -0.18551017
000050 ec 33 87 bc 25 d3 00 bf 04 ec a9 bd 16 e7 e1 be
       -0.01650425 -0.5032218 -0.082969695 -0.44121617
000060 c4 0b 35 3e d9 bc 45 be 57 83 5a 3f da 75 b8 3f
       0.1768027 -0.19310321 0.8535666 1.4410965
000070 a0 03 a7 bc 03 ce 92 be 93 46 5e be 17 2a 0c 3f
       -0.02038747 -0.286728 -0.2170661 0.54751724
000080 05 80 5a be 62 18 2f bd 0d 49 7e 3c f9 86 a5 3d
       -0.21337898 -0.042747863 0.015520346 0.080823846
000090 65 44 b8 be f1 42 84 3c 98 fe 88 3e 07 44 0c 3f
       -0.3598968 0.016145201 0.2675674 0.547913
0000a0 cf 86 03 3f f6 cd 82 3e ac f0 99 3d eb 5f 2f be
       0.51377577 0.2554776 0.07516608 -0.17126434
0000b0 c3 7a 08 bf e3 ee 15 be d4 60 72 3e 2e c4 06 3f
       -0.5331232 -0.1464191 0.2366975 0.52643096
0000c0 85 ed bb 3e 78 a3 71 3e c2 a0 23 be 34 33 90 bd
       0.3670465 0.23597515 -0.15979293 -0.07041016
0000d0 2c 6b 37 3e d0 2c 72 3e 6d 5e 45 be 12 8d f7 be
       0.17911977 0.23649907 -0.19274302 -0.48349816
0000e0 7d 81 3c be f4 29 d6 3e 6e cc 01 3c 91 67 79 be
       -0.18408771 0.41828883 0.007922275 -0.24355914
0000f0 52 42 46 3e a8 50 ed 3e ed 66 ba 3e 6d 2a 80 bd
       0.19361237 0.46350598 0.3640665 -0.06258092
000100 a1 70 70 3f c2 f4 90 be dc 0f 9d 3e ba bb c7 bf
       0.9392186 -0.28311735 0.30676162 -1.5604165
000110 77 2d 06 be 10 70 e9 be 0e f6 45 3e ea 48 89 bd
       -0.13103281 -0.4559331 0.19332144 -0.067033604
000120 53 31 20 be 74 2e b0 3e f5 17 e1 3c 4a 67 7f 3d
       -0.15643816 0.3441044 0.027477244 0.062354364
000130 b5 3e e3 be c3 27 1a be 0f 9c 7c be 29 1d 40 be
       -0.4438378 -0.1505423 -0.24668907 -0.18761124
000140 87 f0 d5 3d de b1 a7 3e 3c ff 32 be 05 9d 50 3c
       0.104462676 0.3275289 -0.17480177 0.012732749
000150 ea 76 a7 bf 28 96 f1 bf 76 03 62 3e 82 f1 66 3e
       -1.3083165 -1.8873949 0.22071633 0.22553065
000160 0e 5c 4e 3f 7e be af 3d f2 81 02 3f 78 ad f3 bd
       0.80609214 0.085812554 0.5097953 -0.11898321
000170 bd ec 1a bf 70 89 38 3d 20 2b 4e be 1f 9a bb 3d
       -0.60517484 0.045052946 -0.20133638 0.09160256
000180 db 2d 09 3f e4 75 0d 3e a0 f4 68 3f f0 24 50 3e
       0.53585595 0.13814503 0.9099827 0.2032659
000190 66 e8 f3 bd 24 6f 37 3f 26 e2 dd 3e 76 dc 99 3e
       -0.11909561 0.7165396 0.433366 0.3005101
0001a0 fb ab 03 bf 78 70 69 bf 9a 16 01 3f 8d 00 61 3e
       -0.51434296 -0.9118724 0.5042511 0.21972866
0001b0 94 ae e1 3c 8c 1e 3e 3e cd 93 97 3e 5e 04 18 3d
       0.027549066 0.1856634 0.2960495 0.03711354
0001c0 c8 e4 98 3e 72 7f 4f be 3e c6 fa 3e 8f 78 3c bd
       0.29862046 -0.2026346 0.48979372 -0.04601341
0001d0 55 c3 85 3d be 2b 71 3e 53 ee 0b be bc 48 91 3e
       0.06531397 0.23551843 -0.13665132 0.28375804
0001e0 51 70 a1 be 55 9d b3 be 07 d5 09 3f 90 f3 2e bf
       -0.31531003 -0.35080972 0.5384068 -0.68340397
0001f0 2a a0 c9 bf e9 56 17 3e 96 08 4b be ae 33 82 3e
       -1.5752003 0.14779247 -0.19827494 0.25430053
000200 92 48 05 be f7 98 13 3f 5e 88 d5 3e 82 f2 52 3d
       -0.13015965 0.5765528 0.41705602 0.051500805
000210 26 5d 1c bf d6 47 6a 3e f4 85 34 3f 86 77 06 3d
       -0.61079633 0.22878966 0.70516896 0.03282883
000220 94 f9 6d 3d c7 68 89 bd d9 ea cc 3e 35 8d b3 3e
       0.058099344 -0.06709438 0.40022925 0.3506867
000230 c0 21 27 3e c6 e2 1c be 64 f6 32 3e 94 f6 92 3e
       0.16321468 -0.15320882 0.17476803 0.2870375
000240 64 2b da bc 7a 58 3b bf a5 15 8d 3e f4 91 1c be
       -0.026632018 -0.7318188 0.27555576 -0.15290052
000250 49 41 ab be 0a c6 5b bb b6 bd ad be 55 01 e3 3d
       -0.33448246 -0.0033534789 -0.339338 0.110842384
000260 b9 d4 ae 3a 76 49 e9 3e bd 13 89 be 1c 1f 41 be
       0.0013338543 0.4556386 -0.26772872 -0.18859524
000270 8f 1b 17 3f fc 56 29 be 18 7d fc 3e 53 d7 0a 3e
       0.59026426 -0.16537088 0.4931419 0.13558702
000280 7d 4c 97 3e fd 42 9d be 4a e2 86 be 3c 76 d2 3c
       0.29550543 -0.3071517 -0.2634452 0.025691144
000290 93 e4 5c 3f 9b af 5d 3e fc bf b0 3d 8e 0d b5 bf
       0.86286277 0.2164902 0.08630368 -1.4144762
0002a0 98 2d 82 3e a0 f9 d7 bd 10 76 1f 3f c6 17 08 bd
       0.2542541 -0.10545659 0.62289524 -0.033225797
0002b0 86 b8 f4 bd 0d 74 d1 3e 97 9b ac bf b8 ab 99 3e
       -0.119492576 0.40908852 -1.3484982 0.30013824
0002c0 42 a3 bc 3e 6c 7d e6 3e 22 4f be 3f aa 69 3c 3e
       0.36843306 0.45017564 1.48679 0.18399683
0002d0 bc 19 69 be 50 68 28 3e 9c c7 26 be 96 14 a0 be
       -0.22763723 0.16446042 -0.16287082 -0.31265706
0002e0 7e 4e 61 be f6 23 18 3f fb a6 6f bd e6 8c 11 c0
       -0.22002599 0.5942987 -0.058508854 -2.2742248
0002f0 be 20 85 3e a7 ae b7 be de 7d 64 bd 49 61 a4 3b
       0.26001543 -0.35875437 -0.0557841 0.00501648
000300 1c 7d ab 3d c0 69 e8 bd 61 78 59 bf 2a 12 3d bf
       0.08373472 -0.11348295 -0.8494931 -0.7385584
000310 95 af e3 3e d7 78 2d be f9 e4 d4 3f 55 ce 31 3f
       0.44469896 -0.16940628 1.6632377 0.6945546
000320 b4 06 b7 3e 29 b6 c3 be ec ee ce 3c 9a 96 fe be
       0.35747302 -0.38224915 0.025260411 -0.49724275
000330 00 86 32 3f 9f 84 cd be a8 5f ee 3e 26 9d ef 3f
       0.6973572 -0.40140244 0.46557355 1.8719833
000340 43 6b 94 bd b6 b0 ea 3e 83 f7 b9 3c 77 56 f4 be
       -0.07247021 0.45837945 0.02270103 -0.47722217
000350 66 99 ed 3e ae c3 5d bd af cd a4 3e da 3a 9f be
       0.46406096 -0.054141693 0.32188174 -0.31099588
000360 18 e2 27 3e 64 ac 51 3e 0b 5e 0e 3f 8f 1c d1 3e
       0.16394842 0.20475918 0.5561225 0.408421
000370 b4 91 f4 3c ac 38 c4 3d 54 fa be 3e 4e 4b dc be
       0.029854633 0.09581122 0.3730036 -0.43026203
000380 42 97 cf 3c 52 64 2f be 51 6d e2 be 7e d3 a6 3e
       0.02534068 -0.17128113 -0.44224027 0.3258323
000390 d7 6a cc 3e f7 26 64 bd f6 4c 3a bf d0 94 11 be
       0.39925262 -0.055701222 -0.72773683 -0.14216924
0003a0 79 6e af 3d 32 2c 8a be 23 13 e2 be b8 1f 3a 3f
       0.08565993 -0.26986843 -0.44155225 0.7270465
0003b0 33 b6 a3 3d eb 1c 3c be 54 b9 58 3e 9c d8 75 3d
       0.07993736 -0.18370406 0.21164447 0.060021028
0003c0 b9 f8 bd 3e d1 2a ab be 80 d6 87 3e 61 6c e7 bd
       0.37103823 -0.33431104 0.26530838 -0.112999685
0003d0 3f 9a a1 bf 71 7c cb bf d2 7a 51 3e 4a 7c 17 3e
       -1.2625197 -1.5897352 0.20457008 0.14793506
0003e0 e6 81 cd bd fc f1 1c bf a7 16 06 3f cf 85 a5 bd
       -0.10034542 -0.6130674 0.52378315 -0.080821626
0003f0 75 af 24 3f c5 8d ba be c4 d5 85 bd 4f 1b 62 3e
       0.64330226 -0.36436287 -0.06534913 0.2208073

target_network.h3.transform.bias f4 [20]
000000 a9 c7 47 be 46 a2 4b 3e d1 0b 8e be 5d 33 11 be
       -0.19509758 0.19886121 -0.2774339 -0.1417975
000010 e4 b8 32 3f 2c dd 0b bf 22 b4 23 bf 4c 28 68 bc
       0.6981337 -0.54634356 -0.63946736 -0.014169764
000020 16 68 9c 3d e9 ea e1 bd d6 45 55 3e b2 86 0b bd
       0.0763704 -0.11031134 0.20827422 -0.034064002
000030 18 30 03 3f f2 5b ef 3e 22 d8 3b 3e 77 11 4f be
       0.5124526 0.46749836 0.18344167 -0.20221506
000040 1a eb 4d be e8 eb 2a 3e 9b a8 74 be 5c 0c d7 bd
       -0.20109215 0.16691554 -0.23892443 -0.10500404

target_network.critic_linear.weight f4 [1, 20]
000000 6a db 68 bd c2 11 d9 be ef db 73 bd 81 c3 31 bf
       -0.056849875 -0.4239636 -0.059535917 -0.6943894
000010 4d 8e a5 bf 78 60 c3 3f 1e cb d6 3f 03 21 df 3e
       -1.2934052 1.5263815 1.6780736 0.43579873
000020 05 0f 38 3f b7 cc b2 3e 11 53 e8 be fe bf 43 3d
       0.7189792 0.3492181 -0.45375875 0.04779052
000030 f7 87 0f bf f0 8f af be 42 2b 38 bf 0b aa 25 3d
       -0.5606684 -0.34289503 -0.71941006 0.04044537
000040 e0 33 65 bd f6 22 f7 be ae cc bc 3d b8 11 b6 3d
       -0.055957675 -0.4826886 0.09218727 0.08890098
