pz_risk/mini_1/18.pt (torch, 18513 bytes, 26 tensors)

policy_network.emb1.transform.weight f4 [20, 2]
00000000: 80bb fc3c e745 8d3e 3c3b e7bc 47cd 2bbf
00000010: de3f f1bb 48be a9be 943e 30be 70d9 aabe
00000020: 5caf f33b 4280 b03e 020f 04bf 2520 fe3e
00000030: 9a1a 50be 33cd 8ebd f140 93be c1d0 90be
00000040: a05e 963c 2223 1b3d f933 41bd 13bd 7e3e
00000050: 4dba 15be 35ee ce3c 5b3c 46be cd81 633e
00000060: f033 8d3e a71e bdbe f055 99be 7c41 a13e
00000070: a122 9f3d 9c5c ebbc a2e9 3ebf 9646 763e
00000080: c95a 1bbf c658 6bbe 617f dabe cd4e c6be
00000090: 9644 04be d02e 1f3c ad32 9ebe c677 98be
0.030851126 0.27592394 -0.028226487 -0.67110103 -0.00736235 -0.33152986 -0.17211372 -0.33369017
0.007436676 0.34472853 -0.515854 0.496339 -0.20322648 -0.069727324 -0.28760484 -0.28284267
0.018355668 0.037875302 -0.047168706 0.24876814 -0.1462185 0.02526007 -0.19358961 0.22217484
0.27578688 -0.36937448 -0.29948378 0.31495273 0.07770277 -0.028730683 -0.74575245 0.24050364
-0.606854 -0.22983083 -0.42675307 -0.38731995 -0.12916788 0.009715751 -0.30898038 -0.2977888

policy_network.emb1.transform.bias f4 [20]
00000000: c3cc ccbd 71cc ccbd 0000 0000 0000 0000
00000010: a78a e3bd 0000 0000 0000 0000 0000 0000
00000020: cbcc ccbd ded2 08be 0000 0000 04bc 09bc
00000030: 9824 febd 801c adb9 cbcc ccbd 0000 0000
00000040: 0000 0000 0000 0000 cbcc ccbd 0000 0000
-0.09999993 -0.099999316 0.0 0.0 -0.1111043 0.0 0.0 0.0
-0.09999999 -0.1336169 0.0 -0.008406643 -0.124093235 -0.00033018366 -0.09999999 0.0
0.0 0.0 -0.09999999 0.0

policy_network.emb2.transform.weight f4 [20, 2]
00000000: c8e9 4e3d 71de 0b3e a836 f9bd 72f6 da3e
00000010: 198e 92be 6d8d 033d aa0d 47bd d037 d2bd
00000020: 2d8e a63e 294a 5ebe 8d86 87bd aef3 2f3e
00000030: c1b7 b0bd 2e2f 3c3f 7817 86be e1e1 df3e
00000040: a6a0 89be 8864 073e 6f63 103f 66b3 4d3f
00000050: 5437 ac3d b2c4 0dbf 06b8 5dbf 2cc7 3cbe
00000060: 6545 64bd 8348 6d3d 6ad8 92be 7663 823e
00000070: c8d4 c23c 68c5 523f 16b4 28be ecc5 623d
00000080: ce58 19bf 2767 d33d 78aa 2e3f e422 093f
00000090: c12c babd 618c f8bd 2445 83bc 0072 ae3b
0.05051592 0.13659073 -0.12168628 0.42766148 -0.28624037 0.032117296 -0.048597015 -0.10264552
0.32530347 -0.21707977 -0.066174604 0.171828 -0.08628798 0.7350949 -0.2618978 0.4372702
-0.26880378 0.13221943 0.56401724 0.80351865 0.084089905 -0.5537826 -0.8660892 -0.18435353
-0.055730242 0.05793048 -0.28680736 0.25466508 0.023783103 0.8233247 -0.16474947 0.055364534
-0.5990113 0.10322409 0.68228865 0.53568864 -0.090905674 -0.1213615 -0.01602418 0.0053236485

policy_network.emb2.transform.bias f4 [20]
00000000: 4cb0 4cbe 6122 8fbe 0000 0000 0000 0000
00000010: e14c 36be 82fc f9bd 1afc 8bbe 8d93 41be
00000020: 2bc6 ccbd b4ac 5abe 20b5 6bbd 0000 0000
00000030: 6407 dcbc 5842 a9bd 07be 56be c403 42bd
00000040: 0000 0000 bb56 0e3d 0000 0000 cbcc ccbd
-0.19989127 -0.27955917 0.0 0.0 -0.17802764 -0.12206365 -0.27340776 -0.18903942
-0.09998735 -0.21354944 -0.05754578 0.0 -0.026858993 -0.08264607 -0.20970927 -0.047366872
0.0 0.03475068 0.0 -0.09999999

policy_network.emb3.transform.weight f4 [20, 2]
00000000: 6723 06bf bc36 5ebe 02de 96be a785 52bd
00000010: ded0 81be a803 6cbd e054 303e ac98 113e
00000020: 902d f93b 0f97 923e 5931 c3be 1217 a03e
00000030: 4bba 0ebe 9094 773e 088a 19bd 27b7 94be
00000040: 9fca 90bf e284 683d 6cf3 87bc f33b babe
00000050: c333 8abd aca1 cdbe fd12 20bf b042 5f3e
00000060: 7da5 65bd a90b bf3d ac93 253e c521 1b3d
00000070: 0533 51be 5c8e 10be b03d 35bf d358 f0be
00000080: eee2 1c3f 4942 0abf 7ec2 513e cba7 2ebe
00000090: a0b9 ad3c 4582 883d 49b7 1a3e cc5f 053e
-0.5239777 -0.21700567 -0.29466254 -0.051396992 -0.25354666 -0.057620674 0.17219877 0.14218396
0.0076043084 0.28630874 -0.38123587 0.312676 -0.13938253 0.24177766 -0.037485152 -0.29045984
-1.1311835 0.056767352 -0.016595565 -0.36373863 -0.06748154 -0.40162408 -0.62528974 0.21802783
-0.056066025 0.09328396 0.16169614 0.037874002 -0.20429619 -0.14116806 -0.7079725 -0.46942768
0.6128377 -0.54007393 0.20484349 -0.17056195 0.021206677 0.06665472 0.1510898 0.13024825

policy_network.emb3.transform.bias f4 [20]
00000000: 0000 0000 0000 0000 0000 0000 5cf5 88be
00000010: 1055 90be 4b0b 56be 6930 9cbe becc ccbd
00000020: 21b4 973e bbcc ccbd 0000 0000 cb17 d8bd
00000030: d6f9 aabd 548e 21be 0000 0000 a320 b53e
00000040: a1e9 b5be 8c10 4cbe cacc ccbd 4204 9bbe
0.0 0.0 0.0 -0.26749694 -0.28189898 -0.20902745 -0.30505684 -0.09999989
0.29629615 -0.09999987 0.0 -0.10551413 -0.08348434 -0.1577695 0.0 0.35376462
-0.35529807 -0.19928187 -0.09999998 -0.30276686

policy_network.emb4.transform.weight f4 [20, 2]
00000000: c538 193e 33cc ad3d c8b4 77bc 28c1 94be
00000010: efd0 183e f081 a83c 823d 13be 85df 363f
00000020: 4e81 2d3e 1678 6dbe 0db1 223f b1ba 673f
00000030: 1e02 ea3d f43d 0fbe 8432 57be 4b4f 83be
00000040: 3fde 9abe 761a babe 6953 03be 9b34 c13d
00000050: 689b 8cbc 9737 b8be f173 473d cc12 633d
00000060: baa4 83bd 9e76 ee3c 0f3e 213f bfbb 253f
00000070: 833c 89be b222 473e 8915 8f3e 2867 03bf
00000080: 7f8f b33d 3265 bdbc 6c00 0cbf 20dc 0c3f
00000090: 2c10 67bf 1620 953d 2303 05bf 98bd 02bf
0.14963062 0.084862135 -0.015118785 -0.29053617 0.14923452 0.020569772 -0.14378932 0.71434814
0.16943857 -0.2319034 0.6355141 0.90519243 0.11426185 -0.13988477 -0.21015364 -0.25646433
-0.30247685 -0.36348313 -0.12824787 0.09433862 -0.017163947 -0.35979912 0.048694555 0.055437848
-0.064279035 0.029109295 0.6298532 0.647396 -0.2680398 0.19446829 0.27946118 -0.5132928
0.08767604 -0.023119543 -0.54688144 0.55023384 -0.9025905 0.072815105 -0.5195791 -0.5107055

policy_network.emb4.transform.bias f4 [20]
00000000: 606c 5dbe dbcb ccbd f935 1bbe f322 053e
00000010: 6a02 e5bd a483 5fbe 8906 a0bd 0000 0000
00000020: 0000 0000 c721 57bd 0000 0000 ec2c d1bd
00000030: 3cc5 4bbd c3e8 cdbe 4a5f 00be 114b 24be
00000040: aef3 e1bd 2a3b 63be da9f ccbd 0000 0000
-0.21623373 -0.0999982 -0.15157308 0.13001613 -0.11182101 -0.2182756 -0.078137465 0.0
0.0 -0.052522447 0.0 -0.10213646 -0.049748644 -0.40216646 -0.1253635 -0.1604426
-0.11032806 -0.22190538 -0.09991427 0.0

policy_network.h2.transform.weight f4 [20, 20]
00000000: 3009 b8bc bc3b 5a3d bfa7 c7be d645 8fbd
00000010: 5f69 d3bd 03ff 8b3e 5e10 01bf 9234 4fbf
00000020: b1c1 4bbd 658d f3be e18e 9b3e 8c9a 213e
00000030: 990e e33d e0a9 8e3c 999f 6ebe dcce 8ebe
00000040: a469 a5be f3aa 9ebe a4e2 d4be 6924 e8be
00000050: 5cbd e23c e6a8 0e3c 6781 cbbe 1a42 183e
00000060: 40a8 cfba e4b4 56bf 20c7 ca3c e3a4 10bf
00000070: f661 41bf 3677 9a3e b8bf 0abc 2b13 44be
00000080: 1762 92be 8601 f9be 5a9f 0ebf 33e2 a9be
00000090: 0ccf 73be f377 10be 2d30 a2be 52e3 313d
000000a0: 4040 02bf 3016 34bc 55d6 ccbe 7447 fabe
000000b0: bf06 bdbe cce2 5abe 3875 debe 5a44 3d3d
000000c0: 12fb 803d 5178 103e 66eb 74bd a2f3 1dbe
000000d0: 0c36 663e e8f1 40be 86e4 fa3d 0411 06bf
000000e0: 5a92 df3e 884e 86be c6d2 44bf f4eb a03e
000000f0: 5eec abbc 39ab 69bd 3190 a73e 8a77 f5be
00000100: 7c83 613e b2e9 9b3d a8b9 77bf 6a97 b6bd
00000110: da10 d0bf 71dd 8a3f 1b4c dbbe fd60 2d3f
00000120: 344a 05be aac5 eebe e2ec 1abf 7ea4 c8be
00000130: c587 46bd d15a f4be c61d 733e 2ec5 cb3d
00000140: 2d70 3fbe 3caa c1be 4e36 9cbe 3a28 ba3d
00000150: 55a7 e9be fe36 aabd 901d 93be f89b a3be
00000160: d89d d8be aec5 ee3e 7648 773e 737f 0bbe
00000170: 1b8c 9dbd d998 1a3f d014 04bf 45ec 5abe
00000180: b155 563d 5c7a d23e 4704 8c3e 68d5 82bc
00000190: b18e bf3d 88f3 1b3e 3831 f93d 7415 e43e
000001a0: 914c 003e d735 623f 0dc8 3a3e 2ddd f8bd
000001b0: dbe6 13c0 1a2a 89be b398 0abe 5cd3 b6be
000001c0: e4fb 4cbe 72f1 03be 5e7c b43e 193c 78bf
000001d0: c449 0c3e a4b9 35bf 009a 763e ce8c afbd
000001e0: 36dc 5c3d 2fce 55bd 153a c8be 0204 cb3e
000001f0: cb1c 643e 0c83 58be f478 b8bd 313c c53e
00000200: 3be6 af3e 3b67 41bf 9e0d 0fbf bfc1 cb3e
00000210: c2a5 ea3a 334a 0ebf 58fe dabe c9a4 01bf
00000220: f963 a3bd 6421 debe 298f 92bd e600 403e
00000230: 24b3 b4be d133 4fbf 4aca 92be 6e19 cb3e
00000240: 4c01 f23c 23f2 12c0 3435 29bf 6aac 9ebf
00000250: 74dd 433f 20a3 7cbf 325b 55bd de52 493e
00000260: 182f a8bc face 39c0 9bce 7bbf 5601 f83c
00000270: 7665 8b3e 043f 65bf 381f 5f3e 721b 62bf
00000280: d8b0 083f 82f0 3dbf defb 32be c286 98be
00000290: cc3a 12bf 406b eabb d526 8a3d c231 58be
000002a0: 62d2 debe de65 86be f898 63bc faab 643d
000002b0: 12b4 14bd 69eb 11be b042 13bc a4fe 02bf
000002c0: 5646 853e a970 01bf 6bf4 a33e 849c ca3d
000002d0: 17ce 213d 2b95 debd b9b1 f93e e094 ad3a
000002e0: 428b 1fbe 1ac0 0f3d 3256 933e 9875 0abe
000002f0: 48aa 0d3e 00f4 5cbe 60a4 8f3e cbcb cd3e
00000300: 98f0 c03e 96cf 85bf 57de 0b3e 8612 b73d
00000310: 5e49 3d3d 8da8 ab3e 6f67 1ebe ba56 fe3d
00000320: 7449 3bbd d2bd c4be 4b27 953e 3981 063e
00000330: bf21 393f 21e9 f5be e603 0bbe 3c19 ebbd
00000340: 076d d43d bb74 91be c968 f03e 54fd 613e
00000350: c9ae fabd f3e6 883e 62c9 573e 14b2 07be
00000360: 3cf8 333e 1695 90be def9 143d b957 da3e
00000370: 4b3b d1bc 1764 73be 1844 d6be 7000 e1be
00000380: 2e1c 033f 88f8 b73e 2d0c 9e3e d0b2 ecbd
00000390: a737 863e 7738 d23d 2929 313e 1f9a 16bf
000003a0: e79a 983e 33eb 96be ce0e 7cbe 9a54 89be
000003b0: c437 10be 49c6 6ebe 5a48 7e3e e032 6a3d
000003c0: e1ce a13e 69ca 8b3e 9be3 87bc c53f a2be
000003d0: 7814 403e 5266 38be 42b3 cdbe 5ab3 373e
000003e0: 542e 693e f146 b3be d075 ea3e e2f9 413d
000003f0: bb46 0bbf 0f00 f3be ea4f b53d 0c1c fabe
-0.022465318 0.053279623 -0.38995168 -0.06995742 -0.10322832 0.27342996 -0.504156 -0.8093959
-0.049745265 -0.47568813 0.30382445 0.15781611 0.11086769 0.017414987 -0.23303069 -0.27892196
-0.3230716 -0.309898 -0.41579163 -0.4534028 0.027678184 0.008707261 -0.39747164 0.14868966
-0.0015842989 -0.8386977 0.024753153 -0.565016 -0.755401 0.30169076 -0.008468561 -0.19147937
-0.28590462 -0.48633975 -0.557119 -0.3318039 -0.23809451 -0.14108257 -0.3167738 0.04342968
-0.5087929 -0.010991618 -0.40007272 -0.4888264 -0.3691921 -0.21375579 -0.43448806 0.046207763
0.06297888 0.14108397 -0.059794806 -0.1542497 0.22481555 -0.1884228 0.12250619 -0.52369714
0.43666345 -0.2623179 -0.76884115 0.31430018 -0.020986732 -0.057048056 0.32727197 -0.47942764
0.22022814 0.07612933 -0.96767664 -0.08915599 -1.6255143 1.0848829 -0.428315 0.6772612
-0.13016587 -0.4663518 -0.60517704 -0.39187998 -0.048469324 -0.47725537 0.23741826 0.099497184
-0.18695135 -0.3782519 -0.3051018 0.09089704 -0.45635477 -0.0831127 -0.28733492 -0.31954932
-0.42307925 0.46635193 0.24148735 -0.13622837 -0.076927386 0.60389477 -0.5159426 -0.21379192
0.052327815 0.41108978 0.27347013 -0.0159709 0.09353388 0.15229619 0.12167591 0.44547617
0.12529208 0.88363403 0.18240376 -0.12151561 -2.3109653 -0.26789933 -0.13534813 -0.3570813
-0.20017964 -0.12885073 0.35251135 -0.969667 0.13700014 -0.7098639 0.24082184 -0.08571778
0.053920947 -0.052198585 -0.39106813 0.39651495 0.22276609 -0.2114374 -0.09007445 0.38522485
0.3435534 -0.7554814 -0.55880153 0.39796254 0.0017902183 -0.5558197 -0.42772174 -0.5064207
-0.07978053 -0.4338485 -0.07156212 0.18750343 -0.35292923 -0.8093844 -0.2866996 0.3966784
0.029541634 -2.2960289 -0.66096807 -1.2396367 0.76509786 -0.9868641 -0.052088924 0.19660518
-0.020530269 -2.9032578 -0.9836213 0.030274075 0.27225846 -0.8954928 0.21789253 -0.8832313
0.5339484 -0.7419511 -0.17478892 -0.29790312 -0.57120967 -0.0071538985 0.06745688 -0.21112731
-0.43519884 -0.26249593 -0.013891451 0.055828072 -0.03630454 -0.14249958 -0.0089880675 -0.511698
0.26030225 -0.5056253 0.32022414 0.09893134 0.039503183 -0.10868295 0.48768404 0.0013243221
-0.15580466 0.03509531 0.287767 -0.13521421 0.13834488 -0.21577454 0.28055096 0.40194544
0.37683558 -1.0453975 0.13659035 0.0893908 0.046212547 0.33527032 -0.15469144 0.124188855
-0.045724347 -0.3842607 0.2913154 0.13135232 0.7231712 -0.48029426 -0.13575706 -0.114794225
0.10372358 -0.2840937 0.46954945 0.22069293 -0.12240369 0.267387 0.21072915 -0.13251525
0.17575163 -0.28238744 0.036371104 0.42645052 -0.025540968 -0.2376865 -0.41848826 -0.43945646
0.51214874 0.35931802 0.30868664 -0.11557543 0.26214334 0.10264676 0.17300858 -0.5882892
0.2980568 -0.29476318 -0.24615023 -0.26822358 -0.14083773 -0.23317827 0.24832287 0.057177424
0.3160315 0.27302864 -0.016588023 -0.31689277 0.18757808 -0.18007782 -0.40175825 0.17939511
0.22771579 -0.35015061 0.4579301 0.047357447 -0.544048 -0.47460982 0.08853133 -0.48849523

policy_network.h2.transform.bias f4 [20]
00000000: 662e 3abe 1a86 1ebe 7dcc ccbd 6e15 b7bd
00000010: 3ee6 0bbe d3aa 2d3e c6eb 7abd 5d40 123f
00000020: c8cc ccbd 9af5 67be 326d dbbd 8cd5 3ebe
00000030: 22af 38be a4dc 73be 6d3b fc3e 28cb ccbd
00000040: ac72 5cbe 0ead 6bbe c4cb 8d3e 3f04 1dbe
-0.18181762 -0.15480843 -0.099999405 -0.08939634 -0.13662049 0.16959696 -0.061260007 0.5712946
-0.099999964 -0.22652283 -0.10714187 -0.18636149 -0.18035558 -0.23814636 0.49264088 -0.099996865
-0.21528119 -0.23015234 0.27694523 -0.15333651

policy_network.h3.transform.weight f4 [20, 20]
00000000: d5a7 923c bc11 c3bd f31e 153f 52e8 ebbd
00000010: 48ce 023e c3dc 6abf 582f 03bf d61d 863e
00000020: e6c2 7e3e c776 babe 8036 2eba daae a63e
00000030: 2c35 babe 7fad 92be 20a8 f7be 7c4e adbe
00000040: 4c97 0ebe f257 89be 6149 29bf 61f6 3dbe
00000050: ec33 87bc 25d3 00bf 04ec a9bd 16e7 e1be
00000060: a419 0d3e e15f 49be 5783 5a3f 2dd1 b93f
00000070: a003 a7bc 03ce 92be 9346 5ebe 172a 0c3f
00000080: 7691 99be 6218 2fbd 0b41 bd3c f986 a53d
00000090: d48c eabe dc05 5b3c dfcd 943e 0744 0c3f
000000a0: cf86 033f f6cd 823e acf0 993d eb5f 2fbe
000000b0: c37a 08bf e3ee 15be d460 723e 2ec4 063f
000000c0: 85ed bb3e 78a3 713e c2a0 23be 3433 90bd
000000d0: 2c6b 373e d02c 723e 6d5e 45be 128d f7be
000000e0: 7d81 3cbe f429 d63e 6ecc 013c 9167 79be
000000f0: 5242 463e a850 ed3e ed66 ba3e 6d2a 80bd
00000100: c587 733f 0218 84be dc0f 9d3e caa9 c8bf
00000110: 772d 06be 1070 e9be 0ef6 453e ea48 89bd
00000120: b032 67bd 742e b03e 113c 36bd 4a67 7f3d
00000130: 29a2 b3be c8b3 e9bd 1a3b c6be 291d 40be
00000140: 87f0 d53d deb1 a73e 3cff 32be 059d 503c
00000150: 5b4b 9bbf 6513 d7bf 7603 623e aa79 703e
00000160: 0e5c 4e3f 7ebe af3d f281 023f 78ad f3bd
00000170: a413 2abf 7089 383d 1ebd 3ebe 1f9a bb3d
00000180: db2d 093f e475 0d3e a4c4 6f3f f024 503e
00000190: 66e8 f3bd 246f 373f 26e2 dd3e 76dc 993e
000001a0: d722 0dbf f118 5bbf 9a16 013f ccb3 8b3e
000001b0: 94ae e13c 8c1e 3e3e cd93 973e 5e04 183d
000001c0: a14f c73e 727f 4fbe 4af9 123f 8f78 3cbd
000001d0: 55c3 853d be2b 713e 68fd b1bd bc48 913e
000001e0: 5170 a1be 559d b3be 07d5 093f 90f3 2ebf
000001f0: f5ba d1bf 11a9 02bd 9608 4bbe a136 833e
00000200: 9248 05be f798 133f 5e88 d53e 82f2 523d
00000210: e9e3 2ebf d647 6a3e 6f56 323f 8677 063d
00000220: 94f9 6d3d c768 89bd 7c43 c83e 358d b33e
00000230: c021 273e c6e2 1cbe 64f6 323e 94f6 923e
00000240: fd99 853d 3159 39bf a515 8d3e 3b16 6cbe
00000250: 4941 abbe 0ac6 5bbb b6bd adbe 5501 e33d
00000260: b9d4 ae3a 7649 e93e 24f7 a7be 1c1f 41be
00000270: 8f1b 173f fc56 29be e821 ef3e 53d7 0a3e
00000280: 7d4c 973e fd42 9dbe 4ae2 86be 3c76 d23c
00000290: 0e5a 653f 1821 7f3e fcbf b03d 2d54 b8bf
000002a0: 982d 823e a0f9 d7bd 1076 1f3f c617 08bd
000002b0: c612 5fbe 0d74 d13e 2137 bbbf b8ab 993e
000002c0: 7afc b43e 723a d63e 1039 cf3f aa69 3c3e
000002d0: bc19 69be 5068 283e 9cc7 26be 9614 a0be
000002e0: efaa 67be 83b3 213f fba6 6fbd 1abb 13c0
000002f0: be20 853e a7ae b7be de7d 64bd 4961 a43b
00000300: 602c 85bc c069 e8bd 6a91 77bf 2a12 3dbf
00000310: 4fbc dd3e 42fa 48be cf1f e23f 55ce 313f
00000320: b406 b73e 29b6 c3be ecee ce3c 9a96 febe
00000330: b3bb 1c3f 47c6 ddbe a85f ee3e 3f3c f13f
00000340: 436b 94bd b6b0 ea3e 83f7 b93c 7756 f4be
00000350: c5fd 0b3f aec3 5dbd 62eb ac3e da3a 9fbe
00000360: 5f6d 913d 6041 bd3d e01c 153f 8f1c d13e
00000370: b491 f43c ac38 c43d 54fa be3e 4e4b dcbe
00000380: 4297 cf3c 5264 2fbe 516d e2be 7ed3 a63e
00000390: d76a cc3e f726 64bd f64c 3abf d094 11be
000003a0: 796e af3d 322c 8abe 2313 e2be b81f 3a3f
000003b0: 33b6 a33d eb1c 3cbe 54b9 583e 9cd8 753d
000003c0: b9f8 bd3e d12a abbe 80d6 873e 616c e7bd
000003d0: 8f0b 96bf 7801 b2bf d27a 513e 559e 1e3e
000003e0: e681 cdbd fcf1 1cbf a716 063f cf85 a5bd
000003f0: 7868 0d3f c58d babe 4867 3fbd 4f1b 623e
0.017902294 -0.09524867 0.5825035 -0.11518921 0.12774003 -0.91743106 -0.51244116 0.26194638
0.24879035 -0.36418745 -0.00066456944 0.32555276 -0.36368692 -0.28647992 -0.48370457 -0.3384894
-0.13924903 -0.2682491 -0.6612759 -0.18551017 -0.01650425 -0.5032218 -0.082969695 -0.44121617
0.13779312 -0.19665481 0.8535666 1.451696 -0.02038747 -0.286728 -0.2170661 0.54751724
-0.2999379 -0.042747863 0.023102304 0.080823846 -0.45810568 0.013368096 0.29063317 0.547913
0.51377577 0.2554776 0.07516608 -0.17126434 -0.5331232 -0.1464191 0.2366975 0.52643096
0.3670465 0.23597515 -0.15979293 -0.07041016 0.17911977 0.23649907 -0.19274302 -0.48349816
-0.18408771 0.41828883 0.007922275 -0.24355914 0.19361237 0.46350598 0.3640665 -0.06258092
0.9512904 -0.25799567 0.30676162 -1.5676816 -0.13103281 -0.4559331 0.19332144 -0.067033604
-0.056444824 0.3441044 -0.044490878 0.062354364 -0.35084656 -0.11411244 -0.38716966 -0.18761124
0.104462676 0.3275289 -0.17480177 0.012732749 -1.2132372 -1.6802794 0.22071633 0.23483911
0.80609214 0.085812554 0.5097953 -0.11898321 -0.6643622 0.045052946 -0.1862683 0.09160256
0.53585595 0.13814503 0.93659425 0.2032659 -0.11909561 0.7165396 0.433366 0.3005101
-0.55131286 -0.8558493 0.5042511 0.27285612 0.027549066 0.1856634 0.2960495 0.03711354
0.3892794 -0.2026346 0.57411635 -0.04601341 0.06531397 0.23551843 -0.086909115 0.28375804
-0.31531003 -0.35080972 0.5384068 -0.68340397 -1.638518 -0.031899516 -0.19827494 0.25627616
-0.13015965 0.5765528 0.41705602 0.051500805 -0.68316513 0.22878966 0.6966314 0.03282883
0.058099344 -0.06709438 0.39113986 0.3506867 0.16321468 -0.15320882 0.17476803 0.2870375
0.065235116 -0.7240172 0.27555576 -0.23055355 -0.33448246 -0.0033534789 -0.339338 0.110842384
0.0013338543 0.4556386 -0.3280574 -0.18859524 0.59026426 -0.16537088 0.46705556 0.13558702
0.29550543 -0.3071517 -0.2634452 0.025691144 0.8959054 0.24914968 0.08630368 -1.4400688
0.2542541 -0.10545659 0.62289524 -0.033225797 -0.21784505 0.40908852 -1.4626199 0.30013824
0.35348874 0.41841465 1.6189289 0.18399683 -0.22763723 0.16446042 -0.16287082 -0.31265706
-0.226238 0.6316454 -0.058508854 -2.3082948 0.26001543 -0.35875437 -0.0557841 0.00501648
-0.016256511 -0.11348295 -0.9670626 -0.7385584 0.4330773 -0.19626716 1.7665957 0.6945546
0.35747302 -0.38224915 0.025260411 -0.49724275 0.61223906 -0.43315336 0.46557355 1.8846511
-0.07247021 0.45837945 0.02270103 -0.47722217 0.54684097 -0.054141693 0.33773333 -0.31099588
0.07100939 0.09240985 0.58247185 0.408421 0.029854633 0.09581122 0.3730036 -0.43026203
0.02534068 -0.17128113 -0.44224027 0.3258323 0.39925262 -0.055701222 -0.72773683 -0.14216924
0.08565993 -0.26986843 -0.44155225 0.7270465 0.07993736 -0.18370406 0.21164447 0.060021028
0.37103823 -0.33431104 0.26530838 -0.112999685 -1.1722277 -1.3906698 0.20457008 0.15490086
-0.10034542 -0.6130674 0.52378315 -0.080821626 0.5523753 -0.36436287 -0.046729356 0.2208073

policy_network.h3.transform.bias f4 [20]
00000000: a9c7 47be 7158 473e d10b 8ebe 16ec 28be
00000010: 13dd 393f cfa7 eebe 79c7 25bf ae4d 40bd
00000020: c284 e93d ec4b 89bd b99f 573e b286 0bbd
00000030: 4481 093f bb41 e63e 0258 1d3e 7711 4fbe
00000040: 1aeb 4dbe eb22 313e 19b9 54be 5c0c d7bd
-0.19509758 0.19467331 -0.2774339 -0.1649631 0.7260296 -0.46612403 -0.64757496 -0.04694908
0.11402275 -0.06703934 0.21057023 -0.034064002 0.5371287 0.44972023 0.15365604 -0.20221506
-0.20109215 0.17298476 -0.20773734 -0.10500404

policy_network.critic_linear.weight f4 [1, 20]
00000000: 6adb 68bd 2115 ddbe efdb 73bd e367 28bf
00000010: eba7 a0bf 2e97 c13f b395 d43f d3d7 c73e
00000020: 0df2 423f 6966 c53e f670 edbe febf 433d
00000030: 9e2a 07bf 732e 86be d915 36bf 0baa 253d
00000040: e033 65bd bc36 ffbe f90f e93d b811 b63d
-0.056849875 -0.43180183 -0.059535917 -0.6578352 -1.2551244 1.5124261 1.6608185 0.39031848
0.7615059 0.38554695 -0.46375245 0.04779052 -0.52799404 -0.26207313 -0.71127087 0.04044537
-0.055957675 -0.49846447 0.1138 0.08890098

target_network.emb1.transform.weight f4 [20, 2]
00000000: 80bb fc3c e745 8d3e 3c3b e7bc 47cd 2bbf
00000010: de3f f1bb 48be a9be 943e 30be 70d9 aabe
00000020: 5caf f33b 4280 b03e 020f 04bf 2520 fe3e
00000030: 9a1a 50be 33cd 8ebd f140 93be c1d0 90be
00000040: a05e 963c 2223 1b3d f933 41bd 13bd 7e3e
00000050: 4dba 15be 35ee ce3c 5b3c 46be cd81 633e
00000060: f033 8d3e a71e bdbe f055 99be 7c41 a13e
00000070: a122 9f3d 9c5c ebbc a2e9 3ebf 9646 763e
00000080: c95a 1bbf c658 6bbe 617f dabe cd4e c6be
00000090: 9644 04be d02e 1f3c ad32 9ebe c677 98be
0.030851126 0.27592394 -0.028226487 -0.67110103 -0.00736235 -0.33152986 -0.17211372 -0.33369017
0.007436676 0.34472853 -0.515854 0.496339 -0.20322648 -0.069727324 -0.28760484 -0.28284267
0.018355668 0.037875302 -0.047168706 0.24876814 -0.1462185 0.02526007 -0.19358961 0.22217484
0.27578688 -0.36937448 -0.29948378 0.31495273 0.07770277 -0.028730683 -0.74575245 0.24050364
-0.606854 -0.22983083 -0.42675307 -0.38731995 -0.12916788 0.009715751 -0.30898038 -0.2977888

target_network.emb1.transform.bias f4 [20]
00000000: c3cc ccbd 71cc ccbd 0000 0000 0000 0000
00000010: a78a e3bd 0000 0000 0000 0000 0000 0000
00000020: cbcc ccbd ded2 08be 0000 0000 04bc 09bc
00000030: 9824 febd 801c adb9 cbcc ccbd 0000 0000
00000040: 0000 0000 0000 0000 cbcc ccbd 0000 0000
-0.09999993 -0.099999316 0.0 0.0 -0.1111043 0.0 0.0 0.0
-0.09999999 -0.1336169 0.0 -0.008406643 -0.124093235 -0.00033018366 -0.09999999 0.0
0.0 0.0 -0.09999999 0.0

target_network.emb2.transform.weight f4 [20, 2]
00000000: c8e9 4e3d 71de 0b3e a836 f9bd 72f6 da3e
00000010: 198e 92be 6d8d 033d aa0d 47bd d037 d2bd
00000020: 2d8e a63e 294a 5ebe 8d86 87bd aef3 2f3e
00000030: c1b7 b0bd 2e2f 3c3f 7817 86be e1e1 df3e
00000040: a6a0 89be 8864 073e 6f63 103f 66b3 4d3f
00000050: 5437 ac3d b2c4 0dbf 06b8 5dbf 2cc7 3cbe
00000060: 6545 64bd 8348 6d3d 6ad8 92be 7663 823e
00000070: c8d4 c23c 68c5 523f 16b4 28be ecc5 623d
00000080: ce58 19bf 2767 d33d 78aa 2e3f e422 093f
00000090: c12c babd 618c f8bd 2445 83bc 0072 ae3b
0.05051592 0.13659073 -0.12168628 0.42766148 -0.28624037 0.032117296 -0.048597015 -0.10264552
0.32530347 -0.21707977 -0.066174604 0.171828 -0.08628798 0.7350949 -0.2618978 0.4372702
-0.26880378 0.13221943 0.56401724 0.80351865 0.084089905 -0.5537826 -0.8660892 -0.18435353
-0.055730242 0.05793048 -0.28680736 0.25466508 0.023783103 0.8233247 -0.16474947 0.055364534
-0.5990113 0.10322409 0.68228865 0.53568864 -0.090905674 -0.1213615 -0.01602418 0.0053236485

target_network.emb2.transform.bias f4 [20]
00000000: 4cb0 4cbe 6122 8fbe 0000 0000 0000 0000
00000010: e14c 36be 82fc f9bd 1afc 8bbe 8d93 41be
00000020: 2bc6 ccbd b4ac 5abe 20b5 6bbd 0000 0000
00000030: 6407 dcbc 5842 a9bd 07be 56be c403 42bd
00000040: 0000 0000 bb56 0e3d 0000 0000 cbcc ccbd
-0.19989127 -0.27955917 0.0 0.0 -0.17802764 -0.12206365 -0.27340776 -0.18903942
-0.09998735 -0.21354944 -0.05754578 0.0 -0.026858993 -0.08264607 -0.20970927 -0.047366872
0.0 0.03475068 0.0 -0.09999999

target_network.emb3.transform.weight f4 [20, 2]
00000000: 6723 06bf bc36 5ebe 02de 96be a785 52bd
00000010: ded0 81be a803 6cbd e054 303e ac98 113e
00000020: 902d f93b 0f97 923e 5931 c3be 1217 a03e
00000030: 4bba 0ebe 9094 773e 088a 19bd 27b7 94be
00000040: 9fca 90bf e284 683d 6cf3 87bc f33b babe
00000050: c333 8abd aca1 cdbe fd12 20bf b042 5f3e
00000060: 7da5 65bd a90b bf3d ac93 253e c521 1b3d
00000070: 0533 51be 5c8e 10be b03d 35bf d358 f0be
00000080: eee2 1c3f 4942 0abf 7ec2 513e cba7 2ebe
00000090: a0b9 ad3c 4582 883d 49b7 1a3e cc5f 053e
-0.5239777 -0.21700567 -0.29466254 -0.051396992 -0.25354666 -0.057620674 0.17219877 0.14218396
0.0076043084 0.28630874 -0.38123587 0.312676 -0.13938253 0.24177766 -0.037485152 -0.29045984
-1.1311835 0.056767352 -0.016595565 -0.36373863 -0.06748154 -0.40162408 -0.62528974 0.21802783
-0.056066025 0.09328396 0.16169614 0.037874002 -0.20429619 -0.14116806 -0.7079725 -0.46942768
0.6128377 -0.54007393 0.20484349 -0.17056195 0.021206677 0.06665472 0.1510898 0.13024825

target_network.emb3.transform.bias f4 [20]
00000000: 0000 0000 0000 0000 0000 0000 5cf5 88be
00000010: 1055 90be 4b0b 56be 6930 9cbe becc ccbd
00000020: 21b4 973e bbcc ccbd 0000 0000 cb17 d8bd
00000030: d6f9 aabd 548e 21be 0000 0000 a320 b53e
00000040: a1e9 b5be 8c10 4cbe cacc ccbd 4204 9bbe
0.0 0.0 0.0 -0.26749694 -0.28189898 -0.20902745 -0.30505684 -0.09999989
0.29629615 -0.09999987 0.0 -0.10551413 -0.08348434 -0.1577695 0.0 0.35376462
-0.35529807 -0.19928187 -0.09999998 -0.30276686

target_network.emb4.transform.weight f4 [20, 2]
00000000: c538 193e 33cc ad3d c8b4 77bc 28c1 94be
00000010: efd0 183e f081 a83c 823d 13be 85df 363f
00000020: 4e81 2d3e 1678 6dbe 0db1 223f b1ba 673f
00000030: 1e02 ea3d f43d 0fbe 8432 57be 4b4f 83be
00000040: 3fde 9abe 761a babe 6953 03be 9b34 c13d
00000050: 689b 8cbc 9737 b8be f173 473d cc12 633d
00000060: baa4 83bd 9e76 ee3c 0f3e 213f bfbb 253f
00000070: 833c 89be b222 473e 8915 8f3e 2867 03bf
00000080: 7f8f b33d 3265 bdbc 6c00 0cbf 20dc 0c3f
00000090: 2c10 67bf 1620 953d 2303 05bf 98bd 02bf
0.14963062 0.084862135 -0.015118785 -0.29053617 0.14923452 0.020569772 -0.14378932 0.71434814
0.16943857 -0.2319034 0.6355141 0.90519243 0.11426185 -0.13988477 -0.21015364 -0.25646433
-0.30247685 -0.36348313 -0.12824787 0.09433862 -0.017163947 -0.35979912 0.048694555 0.055437848
-0.064279035 0.029109295 0.6298532 0.647396 -0.2680398 0.19446829 0.27946118 -0.5132928
0.08767604 -0.023119543 -0.54688144 0.55023384 -0.9025905 0.072815105 -0.5195791 -0.5107055

target_network.emb4.transform.bias f4 [20]
00000000: 606c 5dbe dbcb ccbd f935 1bbe f322 053e
00000010: 6a02 e5bd a483 5fbe 8906 a0bd 0000 0000
00000020: 0000 0000 c721 57bd 0000 0000 ec2c d1bd
00000030: 3cc5 4bbd c3e8 cdbe 4a5f 00be 114b 24be
00000040: aef3 e1bd 2a3b 63be da9f ccbd 0000 0000
-0.21623373 -0.0999982 -0.15157308 0.13001613 -0.11182101 -0.2182756 -0.078137465 0.0
0.0 -0.052522447 0.0 -0.10213646 -0.049748644 -0.40216646 -0.1253635 -0.1604426
-0.11032806 -0.22190538 -0.09991427 0.0

target_network.h2.transform.weight f4 [20, 20]
00000000: 3009 b8bc bc3b 5a3d bfa7 c7be d645 8fbd
00000010: 5f69 d3bd 03ff 8b3e 5e10 01bf 9234 4fbf
00000020: b1c1 4bbd 658d f3be e18e 9b3e 8c9a 213e
00000030: 990e e33d e0a9 8e3c 999f 6ebe dcce 8ebe
00000040: a469 a5be f3aa 9ebe a4e2 d4be 6924 e8be
00000050: 5cbd e23c e6a8 0e3c 6781 cbbe 1a42 183e
00000060: 40a8 cfba e4b4 56bf 20c7 ca3c e3a4 10bf
00000070: f661 41bf 3677 9a3e b8bf 0abc 2b13 44be
00000080: 1762 92be 8601 f9be 5a9f 0ebf 33e2 a9be
00000090: 0ccf 73be f377 10be 2d30 a2be 52e3 313d
000000a0: 4040 02bf 3016 34bc 55d6 ccbe 7447 fabe
000000b0: bf06 bdbe cce2 5abe 3875 debe 5a44 3d3d
000000c0: 12fb 803d 5178 103e 66eb 74bd a2f3 1dbe
000000d0: 0c36 663e e8f1 40be 86e4 fa3d 0411 06bf
000000e0: 5a92 df3e 884e 86be c6d2 44bf f4eb a03e
000000f0: 5eec abbc 39ab 69bd 3190 a73e 8a77 f5be
00000100: 7c83 613e b2e9 9b3d a8b9 77bf 6a97 b6bd
00000110: da10 d0bf 71dd 8a3f 1b4c dbbe fd60 2d3f
00000120: 344a 05be aac5 eebe e2ec 1abf 7ea4 c8be
00000130: c587 46bd d15a f4be c61d 733e 2ec5 cb3d
00000140: 2d70 3fbe 3caa c1be 4e36 9cbe 3a28 ba3d
00000150: 55a7 e9be fe36 aabd 901d 93be f89b a3be
00000160: d89d d8be aec5 ee3e 7648 773e 737f 0bbe
00000170: 1b8c 9dbd d998 1a3f d014 04bf 45ec 5abe
00000180: b155 563d 5c7a d23e 4704 8c3e 68d5 82bc
00000190: b18e bf3d 88f3 1b3e 3831 f93d 7415 e43e
000001a0: 914c 003e d735 623f 0dc8 3a3e 2ddd f8bd
000001b0: dbe6 13c0 1a2a 89be b398 0abe 5cd3 b6be
000001c0: e4fb 4cbe 72f1 03be 5e7c b43e 193c 78bf
000001d0: c449 0c3e a4b9 35bf 009a 763e ce8c afbd
000001e0: 36dc 5c3d 2fce 55bd 153a c8be 0204 cb3e
000001f0: cb1c 643e 0c83 58be f478 b8bd 313c c53e
00000200: 3be6 af3e 3b67 41bf 9e0d 0fbf bfc1 cb3e
00000210: c2a5 ea3a 334a 0ebf 58fe dabe c9a4 01bf
00000220: f963 a3bd 6421 debe 298f 92bd e600 403e
00000230: 24b3 b4be d133 4fbf 4aca 92be 6e19 cb3e
00000240: 4c01 f23c 23f2 12c0 3435 29bf 6aac 9ebf
00000250: 74dd 433f 20a3 7cbf 325b 55bd de52 493e
00000260: 182f a8bc face 39c0 9bce 7bbf 5601 f83c
00000270: 7665 8b3e 043f 65bf 381f 5f3e 721b 62bf
00000280: d8b0 083f 82f0 3dbf defb 32be c286 98be
00000290: cc3a 12bf 406b eabb d526 8a3d c231 58be
000002a0: 62d2 debe de65 86be f898 63bc faab 643d
000002b0: 12b4 14bd 69eb 11be b042 13bc a4fe 02bf
000002c0: 5646 853e a970 01bf 6bf4 a33e 849c ca3d
000002d0: 17ce 213d 2b95 debd b9b1 f93e e094 ad3a
000002e0: 428b 1fbe 1ac0 0f3d 3256 933e 9875 0abe
000002f0: 48aa 0d3e 00f4 5cbe 60a4 8f3e cbcb cd3e
00000300: 98f0 c03e 96cf 85bf 57de 0b3e 8612 b73d
00000310: 5e49 3d3d 8da8 ab3e 6f67 1ebe ba56 fe3d
00000320: 7449 3bbd d2bd c4be 4b27 953e 3981 063e
00000330: bf21 393f 21e9 f5be e603 0bbe 3c19 ebbd
00000340: 076d d43d bb74 91be c968 f03e 54fd 613e
00000350: c9ae fabd f3e6 883e 62c9 573e 14b2 07be
00000360: 3cf8 333e 1695 90be def9 143d b957 da3e
00000370: 4b3b d1bc 1764 73be 1844 d6be 7000 e1be
00000380: 2e1c 033f 88f8 b73e 2d0c 9e3e d0b2 ecbd
00000390: a737 863e 7738 d23d 2929 313e 1f9a 16bf
000003a0: e79a 983e 33eb 96be ce0e 7cbe 9a54 89be
000003b0: c437 10be 49c6 6ebe 5a48 7e3e e032 6a3d
000003c0: e1ce a13e 69ca 8b3e 9be3 87bc c53f a2be
000003d0: 7814 403e 5266 38be 42b3 cdbe 5ab3 373e
000003e0: 542e 693e f146 b3be d075 ea3e e2f9 413d
000003f0: bb46 0bbf 0f00 f3be ea4f b53d 0c1c fabe
-0.022465318 0.053279623 -0.38995168 -0.06995742 -0.10322832 0.27342996 -0.504156 -0.8093959
-0.049745265 -0.47568813 0.30382445 0.15781611 0.11086769 0.017414987 -0.23303069 -0.27892196
-0.3230716 -0.309898 -0.41579163 -0.4534028 0.027678184 0.008707261 -0.39747164 0.14868966
-0.0015842989 -0.8386977 0.024753153 -0.565016 -0.755401 0.30169076 -0.008468561 -0.19147937
-0.28590462 -0.48633975 -0.557119 -0.3318039 -0.23809451 -0.14108257 -0.3167738 0.04342968
-0.5087929 -0.010991618 -0.40007272 -0.4888264 -0.3691921 -0.21375579 -0.43448806 0.046207763
0.06297888 0.14108397 -0.059794806 -0.1542497 0.22481555 -0.1884228 0.12250619 -0.52369714
0.43666345 -0.2623179 -0.76884115 0.31430018 -0.020986732 -0.057048056 0.32727197 -0.47942764
0.22022814 0.07612933 -0.96767664 -0.08915599 -1.6255143 1.0848829 -0.428315 0.6772612
-0.13016587 -0.4663518 -0.60517704 -0.39187998 -0.048469324 -0.47725537 0.23741826 0.099497184
-0.18695135 -0.3782519 -0.3051018 0.09089704 -0.45635477 -0.0831127 -0.28733492 -0.31954932
-0.42307925 0.46635193 0.24148735 -0.13622837 -0.076927386 0.60389477 -0.5159426 -0.21379192
0.052327815 0.41108978 0.27347013 -0.0159709 0.09353388 0.15229619 0.12167591 0.44547617
0.12529208 0.88363403 0.18240376 -0.12151561 -2.3109653 -0.26789933 -0.13534813 -0.3570813
-0.20017964 -0.12885073 0.35251135 -0.969667 0.13700014 -0.7098639 0.24082184 -0.08571778
0.053920947 -0.052198585 -0.39106813 0.39651495 0.22276609 -0.2114374 -0.09007445 0.38522485
0.3435534 -0.7554814 -0.55880153 0.39796254 0.0017902183 -0.5558197 -0.42772174 -0.5064207
-0.07978053 -0.4338485 -0.07156212 0.18750343 -0.35292923 -0.8093844 -0.2866996 0.3966784
0.029541634 -2.2960289 -0.66096807 -1.2396367 0.76509786 -0.9868641 -0.052088924 0.19660518
-0.020530269 -2.9032578 -0.9836213 0.030274075 0.27225846 -0.8954928 0.21789253 -0.8832313
0.5339484 -0.7419511 -0.17478892 -0.29790312 -0.57120967 -0.0071538985 0.06745688 -0.21112731
-0.43519884 -0.26249593 -0.013891451 0.055828072 -0.03630454 -0.14249958 -0.0089880675 -0.511698
0.26030225 -0.5056253 0.32022414 0.09893134 0.039503183 -0.10868295 0.48768404 0.0013243221
-0.15580466 0.03509531 0.287767 -0.13521421 0.13834488 -0.21577454 0.28055096 0.40194544
0.37683558 -1.0453975 0.13659035 0.0893908 0.046212547 0.33527032 -0.15469144 0.124188855
-0.045724347 -0.3842607 0.2913154 0.13135232 0.7231712 -0.48029426 -0.13575706 -0.114794225
0.10372358 -0.2840937 0.46954945 0.22069293 -0.12240369 0.267387 0.21072915 -0.13251525
0.17575163 -0.28238744 0.036371104 0.42645052 -0.025540968 -0.2376865 -0.41848826 -0.43945646
0.51214874 0.35931802 0.30868664 -0.11557543 0.26214334 0.10264676 0.17300858 -0.5882892
0.2980568 -0.29476318 -0.24615023 -0.26822358 -0.14083773 -0.23317827 0.24832287 0.057177424
0.3160315 0.27302864 -0.016588023 -0.31689277 0.18757808 -0.18007782 -0.40175825 0.17939511
0.22771579 -0.35015061 0.4579301 0.047357447 -0.544048 -0.47460982 0.08853133 -0.48849523

target_network.h2.transform.bias f4 [20]
00000000: 662e 3abe 1a86 1ebe 7dcc ccbd 6e15 b7bd
00000010: 3ee6 0bbe d3aa 2d3e c6eb 7abd 5d40 123f
00000020: c8cc ccbd 9af5 67be 326d dbbd 8cd5 3ebe
00000030: 22af 38be a4dc 73be 6d3b fc3e 28cb ccbd
00000040: ac72 5cbe 0ead 6bbe c4cb 8d3e 3f04 1dbe
-0.18181762 -0.15480843 -0.099999405 -0.08939634 -0.13662049 0.16959696 -0.061260007 0.5712946
-0.099999964 -0.22652283 -0.10714187 -0.18636149 -0.18035558 -0.23814636 0.49264088 -0.099996865
-0.21528119 -0.23015234 0.27694523 -0.15333651

target_network.h3.transform.weight f4 [20, 20]
00000000: d5a7 923c bc11 c3bd f31e 153f 52e8 ebbd
00000010: 48ce 023e c3dc 6abf 582f 03bf d61d 863e
00000020: e6c2 7e3e c776 babe 8036 2eba daae a63e
00000030: 2c35 babe 7fad 92be 20a8 f7be 7c4e adbe
00000040: 4c97 0ebe f257 89be 6149 29bf 61f6 3dbe
00000050: ec33 87bc 25d3 00bf 04ec a9bd 16e7 e1be
00000060: a419 0d3e e15f 49be 5783 5a3f 2dd1 b93f
00000070: a003 a7bc 03ce 92be 9346 5ebe 172a 0c3f
00000080: 7691 99be 6218 2fbd 0b41 bd3c f986 a53d
00000090: d48c eabe dc05 5b3c dfcd 943e 0744 0c3f
000000a0: cf86 033f f6cd 823e acf0 993d eb5f 2fbe
000000b0: c37a 08bf e3ee 15be d460 723e 2ec4 063f
000000c0: 85ed bb3e 78a3 713e c2a0 23be 3433 90bd
000000d0: 2c6b 373e d02c 723e 6d5e 45be 128d f7be
000000e0: 7d81 3cbe f429 d63e 6ecc 013c 9167 79be
000000f0: 5242 463e a850 ed3e ed66 ba3e 6d2a 80bd
00000100: c587 733f 0218 84be dc0f 9d3e caa9 c8bf
00000110: 772d 06be 1070 e9be 0ef6 453e ea48 89bd
00000120: b032 67bd 742e b03e 113c 36bd 4a67 7f3d
00000130: 29a2 b3be c8b3 e9bd 1a3b c6be 291d 40be
00000140: 87f0 d53d deb1 a73e 3cff 32be 059d 503c
00000150: 5b4b 9bbf 6513 d7bf 7603 623e aa79 703e
00000160: 0e5c 4e3f 7ebe af3d f281 023f 78ad f3bd
00000170: a413 2abf 7089 383d 1ebd 3ebe 1f9a bb3d
00000180: db2d 093f e475 0d3e a4c4 6f3f f024 503e
00000190: 66e8 f3bd 246f 373f 26e2 dd3e 76dc 993e
000001a0: d722 0dbf f118 5bbf 9a16 013f ccb3 8b3e
000001b0: 94ae e13c 8c1e 3e3e cd93 973e 5e04 183d
000001c0: a14f c73e 727f 4fbe 4af9 123f 8f78 3cbd
000001d0: 55c3 853d be2b 713e 68fd b1bd bc48 913e
000001e0: 5170 a1be 559d b3be 07d5 093f 90f3 2ebf
000001f0: f5ba d1bf 11a9 02bd 9608 4bbe a136 833e
00000200: 9248 05be f798 133f 5e88 d53e 82f2 523d
00000210: e9e3 2ebf d647 6a3e 6f56 323f 8677 063d
00000220: 94f9 6d3d c768 89bd 7c43 c83e 358d b33e
00000230: c021 273e c6e2 1cbe 64f6 323e 94f6 923e
00000240: fd99 853d 3159 39bf a515 8d3e 3b16 6cbe
00000250: 4941 abbe 0ac6 5bbb b6bd adbe 5501 e33d
00000260: b9d4 ae3a 7649 e93e 24f7 a7be 1c1f 41be
00000270: 8f1b 173f fc56 29be e821 ef3e 53d7 0a3e
00000280: 7d4c 973e fd42 9dbe 4ae2 86be 3c76 d23c
00000290: 0e5a 653f 1821 7f3e fcbf b03d 2d54 b8bf
000002a0: 982d 823e a0f9 d7bd 1076 1f3f c617 08bd
000002b0: c612 5fbe 0d74 d13e 2137 bbbf b8ab 993e
000002c0: 7afc b43e 723a d63e 1039 cf3f aa69 3c3e
000002d0: bc19 69be 5068 283e 9cc7 26be 9614 a0be
000002e0: efaa 67be 83b3 213f fba6 6fbd 1abb 13c0
000002f0: be20 853e a7ae b7be de7d 64bd 4961 a43b
00000300: 602c 85bc c069 e8bd 6a91 77bf 2a12 3dbf
00000310: 4fbc dd3e 42fa 48be cf1f e23f 55ce 313f
00000320: b406 b73e 29b6 c3be ecee ce3c 9a96 febe
00000330: b3bb 1c3f 47c6 ddbe a85f ee3e 3f3c f13f
00000340: 436b 94bd b6b0 ea3e 83f7 b93c 7756 f4be
00000350: c5fd 0b3f aec3 5dbd 62eb ac3e da3a 9fbe
00000360: 5f6d 913d 6041 bd3d e01c 153f 8f1c d13e
00000370: b491 f43c ac38 c43d 54fa be3e 4e4b dcbe
00000380: 4297 cf3c 5264 2fbe 516d e2be 7ed3 a63e
00000390: d76a cc3e f726 64bd f64c 3abf d094 11be
000003a0: 796e af3d 322c 8abe 2313 e2be b81f 3a3f
000003b0: 33b6 a33d eb1c 3cbe 54b9 583e 9cd8 753d
000003c0: b9f8 bd3e d12a abbe 80d6 873e 616c e7bd
000003d0: 8f0b 96bf 7801 b2bf d27a 513e 559e 1e3e
000003e0: e681 cdbd fcf1 1cbf a716 063f cf85 a5bd
000003f0: 7868 0d3f c58d babe 4867 3fbd 4f1b 623e
0.017902294 -0.09524867 0.5825035 -0.11518921 0.12774003 -0.91743106 -0.51244116 0.26194638
0.24879035 -0.36418745 -0.00066456944 0.32555276 -0.36368692 -0.28647992 -0.48370457 -0.3384894
-0.13924903 -0.2682491 -0.6612759 -0.18551017 -0.01650425 -0.5032218 -0.082969695 -0.44121617
0.13779312 -0.19665481 0.8535666 1.451696 -0.02038747 -0.286728 -0.2170661 0.54751724
-0.2999379 -0.042747863 0.023102304 0.080823846 -0.45810568 0.013368096 0.29063317 0.547913
0.51377577 0.2554776 0.07516608 -0.17126434 -0.5331232 -0.1464191 0.2366975 0.52643096
0.3670465 0.23597515 -0.15979293 -0.07041016 0.17911977 0.23649907 -0.19274302 -0.48349816
-0.18408771 0.41828883 0.007922275 -0.24355914 0.19361237 0.46350598 0.3640665 -0.06258092
0.9512904 -0.25799567 0.30676162 -1.5676816 -0.13103281 -0.4559331 0.19332144 -0.067033604
-0.056444824 0.3441044 -0.044490878 0.062354364 -0.35084656 -0.11411244 -0.38716966 -0.18761124
0.104462676 0.3275289 -0.17480177 0.012732749 -1.2132372 -1.6802794 0.22071633 0.23483911
0.80609214 0.085812554 0.5097953 -0.11898321 -0.6643622 0.045052946 -0.1862683 0.09160256
0.53585595 0.13814503 0.93659425 0.2032659 -0.11909561 0.7165396 0.433366 0.3005101
-0.55131286 -0.8558493 0.5042511 0.27285612 0.027549066 0.1856634 0.2960495 0.03711354
0.3892794 -0.2026346 0.57411635 -0.04601341 0.06531397 0.23551843 -0.086909115 0.28375804
-0.31531003 -0.35080972 0.5384068 -0.68340397 -1.638518 -0.031899516 -0.19827494 0.25627616
-0.13015965 0.5765528 0.41705602 0.051500805 -0.68316513 0.22878966 0.6966314 0.03282883
0.058099344 -0.06709438 0.39113986 0.3506867 0.16321468 -0.15320882 0.17476803 0.2870375
0.065235116 -0.7240172 0.27555576 -0.23055355 -0.33448246 -0.0033534789 -0.339338 0.110842384
0.0013338543 0.4556386 -0.3280574 -0.18859524 0.59026426 -0.16537088 0.46705556 0.13558702
0.29550543 -0.3071517 -0.2634452 0.025691144 0.8959054 0.24914968 0.08630368 -1.4400688
0.2542541 -0.10545659 0.62289524 -0.033225797 -0.21784505 0.40908852 -1.4626199 0.30013824
0.35348874 0.41841465 1.6189289 0.18399683 -0.22763723 0.16446042 -0.16287082 -0.31265706
-0.226238 0.6316454 -0.058508854 -2.3082948 0.26001543 -0.35875437 -0.0557841 0.00501648
-0.016256511 -0.11348295 -0.9670626 -0.7385584 0.4330773 -0.19626716 1.7665957 0.6945546
0.35747302 -0.38224915 0.025260411 -0.49724275 0.61223906 -0.43315336 0.46557355 1.8846511
-0.07247021 0.45837945 0.02270103 -0.47722217 0.54684097 -0.054141693 0.33773333 -0.31099588
0.07100939 0.09240985 0.58247185 0.408421 0.029854633 0.09581122 0.3730036 -0.43026203
0.02534068 -0.17128113 -0.44224027 0.3258323 0.39925262 -0.055701222 -0.72773683 -0.14216924
0.08565993 -0.26986843 -0.44155225 0.7270465 0.07993736 -0.18370406 0.21164447 0.060021028
0.37103823 -0.33431104 0.26530838 -0.112999685 -1.1722277 -1.3906698 0.20457008 0.15490086
-0.10034542 -0.6130674 0.52378315 -0.080821626 0.5523753 -0.36436287 -0.046729356 0.2208073

target_network.h3.transform.bias f4 [20]
00000000: a9c7 47be 7158 473e d10b 8ebe 16ec 28be
00000010: 13dd 393f cfa7 eebe 79c7 25bf ae4d 40bd
00000020: c284 e93d ec4b 89bd b99f 573e b286 0bbd
00000030: 4481 093f bb41 e63e 0258 1d3e 7711 4fbe
00000040: 1aeb 4dbe eb22 313e 19b9 54be 5c0c d7bd
-0.19509758 0.19467331 -0.2774339 -0.1649631 0.7260296 -0.46612403 -0.64757496 -0.04694908
0.11402275 -0.06703934 0.21057023 -0.034064002 0.5371287 0.44972023 0.15365604 -0.20221506
-0.20109215 0.17298476 -0.20773734 -0.10500404

target_network.critic_linear.weight f4 [1, 20]
00000000: 6adb 68bd 2115 ddbe efdb 73bd e367 28bf
00000010: eba7 a0bf 2e97 c13f b395 d43f d3d7 c73e
00000020: 0df2 423f 6966 c53e f670 edbe febf 433d
00000030: 9e2a 07bf 732e 86be d915 36bf 0baa 253d
00000040: e033 65bd bc36 ffbe f90f e93d b811 b63d
-0.056849875 -0.43180183 -0.059535917 -0.6578352 -1.2551244 1.5124261 1.6608185 0.39031848
0.7615059 0.38554695 -0.46375245 0.04779052 -0.52799404 -0.26207313 -0.71127087 0.04044537
-0.055957675 -0.49846447 0.1138 0.08890098
