pz_risk/mini_1/2.pt (torch, 18513 bytes, 26 tensors)

policy_network.emb1.transform.weight f4 [20, 2]
0	0x3da0f9d5	0.07860152
1	0x3ea38dde	0.31944174
2	0x3d8bdde6	0.06829433
3	0xbf185a96	-0.59513223
4	0xbbf13fde	-0.00736235
5	0xbea9be48	-0.33152986
6	0xbe303e94	-0.17211372
7	0xbeaad970	-0.33369017
8	0x3d11091f	0.03540909
9	0x3ec5a76b	0.38604292
10	0xbf018297	-0.5058989
11	0x3f01b5b1	0.50667864
12	0xbe501a9a	-0.20322648
13	0xbd8ecd33	-0.069727324
14	0xbe9340f1	-0.28760484
15	0xbe90d0c1	-0.28284267
16	0x3e03f0a2	0.12884763
17	0x3e236f85	0.1596051
18	0x3c7e63ff	0.015526771
19	0x3e97b196	0.29627675
20	0xbe15ba4d	-0.1462185
21	0x3cceee35	0.02526007
22	0xbe23a302	-0.15980151
23	0x3e8b548d	0.27212945
24	0x3ea8f8f1	0.33002427
25	0xbea19568	-0.315593
26	0xbe911a2f	-0.2834029
27	0x3ea61599	0.32438353
28	0x3e2bb8ec	0.16769761
29	0x3d585cce	0.05282288
30	0xbf3ee9a2	-0.74575245
31	0x3e764696	0.24050364
32	0xbf1b5ac9	-0.606854
33	0xbe6b58c6	-0.22983083
34	0xbeda7f61	-0.42675307
35	0xbec64ecd	-0.38731995
36	0xbd3bea20	-0.045877576
37	0x3dc62758	0.09675473
38	0xbe9e32ad	-0.30898038
39	0xbe9877c6	-0.2977888

policy_network.emb1.transform.bias f4 [20]
0	0xbd32b862	-0.043632872
1	0xbb4a3d5a	-0.0030859322
2	0x00000000	0.0
3	0x00000000	0.0
4	0xbdbc7f4e	-0.09203969
5	0x3c231b32	0.009955214
6	0x00000000	0.0
7	0x00000000	0.0
8	0xb87a6c60	-5.9705577e-05
9	0xbd6e91cc	-0.05824451
10	0x00000000	0.0
11	0x3d18c6d0	0.037298977
12	0xbd7e7e61	-0.062132243
13	0xbcd3681f	-0.025806485
14	0xbc23d421	-0.009999306
15	0x00000000	0.0
16	0x00000000	0.0
17	0x00000000	0.0
18	0xbc4b37fd	-0.012403485
19	0x00000000	0.0

policy_network.emb2.transform.weight f4 [20, 2]
0	0x3e54f280	0.20795631
1	0x3e95e8e8	0.29279256
2	0x3e5aad5e	0.21355197
3	0x3f04308b	0.5163657
4	0xbe928e19	-0.28624037
5	0x3d038d6d	0.032117296
6	0xbd470daa	-0.048597015
7	0xbdd237d0	-0.10264552
8	0x3ec4a573	0.38407478
9	0xbe4373eb	-0.19087188
10	0x3c5ff603	0.013669494
11	0x3ea6cc49	0.32577732
12	0x3da78ee5	0.08181552
13	0x3eb91d75	0.36155286
14	0xbe11b86c	-0.14230508
15	0x3e672ab1	0.22574879
16	0xbe3a9db3	-0.1822422
17	0x3e61718c	0.22015971
18	0x3ed7ae56	0.42125195
19	0xbe0a20d7	-0.1348909
20	0x3de72810	0.11286938
21	0xbf0eb9a9	-0.55752045
22	0xbf5db806	-0.8660892
23	0xbe3cc72c	-0.18435353
24	0xbd508ffe	-0.05091857
25	0x3d8f3772	0.06992997
26	0xbe638e9f	-0.22222374
27	0x3ece9cd8	0.40354037
28	0x3e167ac7	0.14695273
29	0x3f359d70	0.70943356
30	0xbe0ed94d	-0.13950081
31	0x3dcd7a6a	0.10033114
32	0xbf1958ce	-0.5990113
33	0x3dd36727	0.10322409
34	0x3e07d7ff	0.1326599
35	0xbf096032	-0.5366241
36	0xbdba2cc1	-0.090905674
37	0xbdf88c61	-0.1213615
38	0x3d603e0d	0.054746676
39	0x3d9eee15	0.07760254

policy_network.emb2.transform.bias f4 [20]
0	0xbd0b6dc0	-0.034040213
1	0x3d43fa0d	0.04784589
2	0x00000000	0.0
3	0x00000000	0.0
4	0xbe031f14	-0.12804824
5	0xbd676453	-0.05649216
6	0x3d4b6555	0.049657185
7	0xbd17ac38	-0.037029475
8	0xbc6de641	-0.014520229
9	0xbdd84302	-0.10559656
10	0xbd09bc7c	-0.03362702
11	0x00000000	0.0
12	0xbcf86b55	-0.030324617
13	0xbd0352e5	-0.032061476
14	0x3cdad97e	0.026715036
15	0xbcfcb2f2	-0.030847047
16	0x00000000	0.0
17	0xbd23636d	-0.03988974
18	0x00000000	0.0
19	0xbd17bd99	-0.03704605

policy_network.emb3.transform.weight f4 [20, 2]
0	0xbf062367	-0.5239777
1	0xbe5e36bc	-0.21700567
2	0xbe96de02	-0.29466254
3	0xbd5285a7	-0.051396992
4	0xbe81d0de	-0.25354666
5	0xbd6c03a8	-0.057620674
6	0x3e66cb30	0.22538447
7	0x3e4676ab	0.19381206
8	0x3e5720bf	0.21008585
9	0x3efc957f	0.49332806
10	0xbeac745a	-0.3368252
11	0x3ed473df	0.41494653
12	0x3de55643	0.11198094
13	0x3f02f1fa	0.51150477
14	0x3d3742be	0.044741385
15	0xbe4f00d1	-0.20215155
16	0xbe8ed1e9	-0.27894524
17	0x3f01ed1f	0.50752443
18	0x3d883539	0.066507764
19	0xbe8be247	-0.27321073
20	0xbd8a33c3	-0.06748154
21	0xbecda1ac	-0.40162408
22	0xbf09e739	-0.5386844
23	0x3e9be3b1	0.30447152
24	0xbae6b84a	-0.001760253
25	0x3e1c6fa7	0.15276967
26	0x3ea6f414	0.32608092
27	0x3e795aa5	0.24350984
28	0xbe513305	-0.20429619
29	0xbe108e5c	-0.14116806
30	0xbe46a9ab	-0.1940066
31	0x3e03562f	0.12825845
32	0x3f3a886c	0.72864413
33	0xbea44e31	-0.32090905
34	0x3e2146be	0.15749642
35	0xbe50d371	-0.20393158
36	0x3d6551fe	0.055986397
37	0x3dd3ba0a	0.103382185
38	0x3e9337fc	0.2875365
39	0x3e6f31d0	0.23358846

policy_network.emb3.transform.bias f4 [20]
0	0x00000000	0.0
1	0x00000000	0.0
2	0x00000000	0.0
3	0x3807e000	3.2395124e-05
4	0xbd3a2de8	-0.045453936
5	0xbd855d99	-0.06511993
6	0xbd03fc04	-0.032222763
7	0xbcd4ba3e	-0.025967713
8	0xbda503f7	-0.08057397
9	0xbc999578	-0.01874803
10	0x00000000	0.0
11	0xbc988718	-0.018619105
12	0xbcc2dcae	-0.023786869
13	0x3ade3a53	0.0016954638
14	0x00000000	0.0
15	0xbba6e7d8	-0.005093556
16	0xbc3ab03c	-0.011394557
17	0xbd524ad8	-0.051340908
18	0xbd994fe6	-0.074859425
19	0xbd3c7a64	-0.04601516

policy_network.emb4.transform.weight f4 [20, 2]
0	0x3ea7dadc	0.32784164
1	0x3e8c95ba	0.27457982
2	0x3d7fed29	0.062482033
3	0xbe5329a7	-0.20621358
4	0x3eb1b9b1	0.34711984
5	0x3e5bddfa	0.21471396
6	0xbeb0d4ca	-0.34537345
7	0x3ee64c89	0.44980267
8	0x3e692763	0.22768931
9	0xbe533d29	-0.206288
10	0x3e40b80d	0.1882021
11	0x3ef691df	0.48158166
12	0x3e7fc9d4	0.24979335
13	0xbc978a7d	-0.018498654
14	0xbe573284	-0.21015364
15	0xbe834f4b	-0.25646433
16	0xbe9ade3f	-0.30247685
17	0xbeba1a76	-0.36348313
18	0xbe017175	-0.12640937
19	0x3dceac22	0.100914255
20	0xbc8c9b68	-0.017163947
21	0xbeb83797	-0.35979912
22	0x3e6b8462	0.22999719
23	0x3e565120	0.20929384
24	0xbd63c82d	-0.055610824
25	0x3d33846a	0.04382745
26	0x3ce10f5c	0.027473144
27	0x3d617f16	0.05505284
28	0xbdc7998c	-0.097460836
29	0x3eb6b9e5	0.356887
30	0x3ed3abde	0.41342062
31	0xbedca10a	-0.43091613
32	0x3df4c809	0.11952216
33	0x3c54ed24	0.012995992
34	0xbecee716	-0.4041068
35	0x3f0c7e00	0.5487976
36	0xbf4da341	-0.8032723
37	0x3e30d0ce	0.17267153
38	0xbf050323	-0.5195791
39	0xbf02bd98	-0.5107055

policy_network.emb4.transform.bias f4 [20]
0	0xbd3fef1c	-0.04685889
1	0xbcacc93d	-0.021092052
2	0xbc1fa3ba	-0.009743625
3	0xbc920cdb	-0.017828396
4	0xbd6dd51b	-0.05806456
5	0xbd364d88	-0.044507533
6	0x3d44ccae	0.04804676
7	0x00000000	0.0
8	0x00000000	0.0
9	0xbd03b19d	-0.032151807
10	0x00000000	0.0
11	0x3da4a359	0.080389686
12	0xbd6040d5	-0.05474933
13	0xbd2787b8	-0.040900916
14	0xbaf24f2c	-0.001848673
15	0xbd283d37	-0.041074004
16	0xbd8c2cca	-0.0684448
17	0xbd4d9f3c	-0.050200686
18	0x00000000	0.0
19	0x00000000	0.0

policy_network.h2.transform.weight f4 [20, 20]
0	0x3d777949	0.0604184
1	0xbd435136	-0.04768487
2	0xbe9d1b20	-0.30684757
3	0x3e31d86e	0.17367718
4	0xbcba20f3	-0.02272079
5	0x3efc147e	0.49234384
6	0xbf21d571	-0.6321631
7	0xbf389985	-0.7210925
8	0xbe3607b8	-0.17776382
9	0xbe907157	-0.2821147
10	0x3ec60153	0.38672885
11	0x3e73f40b	0.23823564
12	0x3e418851	0.18899657
13	0x3e504fd6	0.20342955
14	0xbe1d4b5b	-0.15360777
15	0xbe699207	-0.22809611
16	0xbe63fc03	-0.22264104
17	0xbd9d47c6	-0.07679705
18	0xbea97876	-0.33099717
19	0xbeb59f4c	-0.35473096
20	0x3de1085b	0.10987922
21	0x3de54b21	0.1119597
22	0xbecb8167	-0.39747164
23	0x3e932475	0.28738752
24	0x3d7ebf7c	0.062194332
25	0xbf2512ec	-0.64482
26	0x3e42772c	0.18990773
27	0xbebbfa72	-0.36714512
28	0xbf2c6387	-0.67339367
29	0x3ecc73b0	0.39932013
30	0x3d9a507d	0.07534883
31	0xbe44132b	-0.19147937
32	0xbe54ea4e	-0.20792505
33	0xbec8436f	-0.39113948
34	0xbecf4011	-0.40478566
35	0xbe6d6149	-0.23181643
36	0xbe3393a6	-0.17536792
37	0xbc465ce1	-0.012107105
38	0xbe76527d	-0.24054904
39	0x3dd223e8	0.10260755
40	0xbee800b8	-0.45313048
41	0x3d929672	0.071576014
42	0xbeaa446c	-0.33255327
43	0xbedce86f	-0.43146083
44	0xbe9b352e	-0.3031401
45	0xbe07c1ef	-0.13257574
46	0xbebef81e	-0.37298673
47	0x3e157f80	0.14599419
48	0x3e01957a	0.12654677
49	0x3e666208	0.22498333
50	0x3ccb66b5	0.024829248
51	0xbd9ad853	-0.07560792
52	0x3e938c30	0.28817892
53	0xbe005a65	-0.12534483
54	0x3e3c0894	0.18362647
55	0xbedc59d6	-0.4303729
56	0x3f006f58	0.501699
57	0xbe3fdadf	-0.18735836
58	0xbf330111	-0.699235
59	0x3ec2e8f9	0.3806837
60	0xbd1df835	-0.038566787
61	0x3cd85b84	0.026410826
62	0x3ec14e60	0.37755108
63	0xbe16921c	-0.14704174
64	0x3e6c8f4e	0.23101541
65	0x3ea3eefd	0.3201827
66	0xbeb173c2	-0.3465863
67	0x3e32f4c0	0.17476177
68	0xbe105321	-0.14094211
69	0x3f54939b	0.8303773
70	0xbe81364a	-0.25236732
71	0x3f0ba1d5	0.5454381
72	0xbd09c7fa	-0.033637978
73	0xbd624b75	-0.055247743
74	0xbf04afbd	-0.51830655
75	0xbe34d43f	-0.1765909
76	0xbdc71b11	-0.097219594
77	0xbea4468a	-0.32085067
78	0x3de7cf49	0.113188334
79	0x3ce52824	0.027973242
80	0xbe0f6f66	-0.14007339
81	0xbef6a641	-0.48173717
82	0xbef7968b	-0.48357043
83	0x3ec796aa	0.38982135
84	0xbef69f69	-0.48168495
85	0xbd88a42f	-0.066719405
86	0xbec023cf	-0.3752732
87	0x3e0f860b	0.14015977
88	0x3e8f6e16	0.28013676
89	0x3ec19741	0.3781071
90	0x3e9e3bc4	0.30904973
91	0xbdda5008	-0.10659796
92	0xbdace5bf	-0.08442258
93	0x3e6f5848	0.2337352
94	0xbec1b213	-0.37831172
95	0x3e9d154e	0.30680317
96	0x3df3f1f3	0.119113825
97	0x3ed57d99	0.41697386
98	0x3ebd10b0	0.36926794
99	0x3e891206	0.26771563
100	0x3da030e8	0.07821828
101	0x3e9eaa7c	0.30989444
102	0x3d90cf3e	0.07070778
103	0x3f39ef5d	0.72630864
104	0x3dd2bf5e	0.10290407
105	0x3f041ad4	0.51603436
106	0xbe3c2cb5	-0.1837643
107	0x3daa76a9	0.08323414
108	0xbe54e5fc	-0.20790857
109	0x3e270340	0.16309834
110	0x3ceb3c67	0.028715326
111	0xbf043e3f	-0.5165748
112	0xbe3497ff	-0.17636107
113	0xbe6e9d30	-0.2330215
114	0x3ee1678f	0.4402432
115	0xbdd6904e	-0.10476743
116	0x3efa3070	0.4886508
117	0xbe4414e4	-0.19148594
118	0x3e0142f5	0.12623198
119	0x3ca9ad26	0.020712446
120	0x3b2c2d9e	0.0026272307
121	0xbe3169c2	-0.173255
122	0xbee16d78	-0.4402883
123	0x3f0c47d3	0.54797095
124	0x3e0eae78	0.13933742
125	0xbd086aaf	-0.033304866
126	0xbe308ee6	-0.17242011
127	0x3ec82428	0.39090085
128	0x3eb205da	0.3477009
129	0xbf115197	-0.5676512
130	0xbf0a91b8	-0.541286
131	0x3e887010	0.26647997
132	0xbdb1cf37	-0.08682101
133	0xbec6c2f1	-0.38820603
134	0xbedf305b	-0.4359158
135	0xbe93a783	-0.2883874
136	0xbe16d920	-0.14731264
137	0xbe4258a7	-0.1897913
138	0xbe57feeb	-0.21093337
139	0x3deae021	0.114685304
140	0xbe8bccf0	-0.27304792
141	0xbd0b8b65	-0.034068484
142	0xbe50723c	-0.20356077
143	0x3d659332	0.05604858
144	0x3d95e849	0.073196955
145	0xbebc5015	-0.36779848
146	0x3e308f86	0.1724225
147	0xbebcf2d8	-0.36904025
148	0x3ee5a42f	0.44851825
149	0x3e3ec4d7	0.18629776
150	0x3d285508	0.041096717
151	0x3e945099	0.2896774
152	0x3c710ff3	0.014713275
153	0xbe81dde5	-0.25364605
154	0x3c0ad659	0.008473956
155	0xbd16fac8	-0.036860257
156	0x3f103067	0.56323856
157	0xbe89237e	-0.2678489
158	0x3e918714	0.2842337
159	0xbf557f2d	-0.8339718
160	0x3f164a9d	0.587076
161	0xbf32a654	-0.69785047
162	0xbdece286	-0.115666434
163	0xbe632e9a	-0.22185746
164	0xbf0405a3	-0.515711
165	0x3d8e2473	0.06940546
166	0x3e057465	0.13032682
167	0xbdb8980b	-0.09013375
168	0xbeb61c88	-0.35568643
169	0xbe42e5b4	-0.19032937
170	0xbdd51d87	-0.104060225
171	0x3dedafbe	0.11605786
172	0x3d208e8c	0.039198443
173	0xbd92b739	-0.07163853
174	0x3d0d4d05	0.03449728
175	0xbeebced8	-0.46056247
176	0x3ea5d832	0.32391506
177	0xbed68f94	-0.41906416
178	0x3ed0f0e0	0.40808773
179	0x3e268191	0.16260363
180	0x3ca8ac3e	0.020589944
181	0xbe996569	-0.29960182
182	0x3eef08af	0.46686313
183	0x3df5cfe9	0.12002546
184	0xbe27c62d	-0.16384192
185	0x3de5023d	0.111820675
186	0x3e1cf8dc	0.15329307
187	0xbe3cd230	-0.18439555
188	0x3b392f05	0.0028256786
189	0xbd1ffdbb	-0.039060336
190	0x3e6debf7	0.23234545
191	0x3e887e23	0.26658735
192	0x3ee3eba3	0.44515714
193	0xbf72e0ba	-0.94874156
194	0x3c279ec5	0.010230725
195	0x3e6b5586	0.22981843
196	0x3c34e850	0.011041716
197	0x3eed179b	0.46307072
198	0xbe8e557d	-0.27799597
199	0x3db4e6b4	0.08833066
200	0xbdb676d0	-0.089093804
201	0xbf01f9d3	-0.50771827
202	0x3ea2709d	0.31726542
203	0x3e455e05	0.19274147
204	0x3f4cc43c	0.7998693
205	0xbed09ae0	-0.4074316
206	0xbd85ca3b	-0.06532713
207	0xbd95803c	-0.072998494
208	0xbc1634db	-0.009167875
209	0xbe3dda82	-0.18540385
210	0x3ef16b19	0.47152022
211	0x3d81bf2f	0.063352935
212	0x3b937673	0.004500204
213	0x3ec19327	0.3780758
214	0x3da64bdc	0.08119938
215	0xbcd0f6ac	-0.025508247
216	0x3e69439e	0.227797
217	0xbe540d7c	-0.20708269
218	0xbd9fd3a1	-0.07804037
219	0x3ee369f8	0.44416785
220	0xbd2d9151	-0.042374913
221	0xbec9ba4a	-0.3939994
222	0xbedc0131	-0.4296966
223	0xbebbbbfb	-0.36666855
224	0x3efd1c19	0.494355
225	0x3f0221ee	0.5083302
226	0x3ea19ba7	0.31564066
227	0xbc85cded	-0.016333545
228	0x3e96a0ac	0.29419458
229	0x3e312bc9	0.17301859
230	0x3e58314a	0.21112552
231	0xbf458c6b	-0.77167386
232	0x3e77d741	0.24203207
233	0xbe6d3437	-0.2316445
234	0xbec42155	-0.3830668
235	0xbe6e2e97	-0.2325996
236	0xbe497299	-0.19672622
237	0xbcc7d85f	-0.024395166
238	0x3e0fd15e	0.14044711
239	0x3cc4cdff	0.024024008
240	0x3ea18f3b	0.3155459
241	0x3e8bbc5d	0.27292147
242	0xbc8a3472	-0.016870711
243	0xbed5b7b6	-0.41741723
244	0x3e3e38ed	0.18576403
245	0xbe39cfee	-0.18145725
246	0xbefc33ce	-0.49258274
247	0x3e374b81	0.17899896
248	0x3e7fc5ad	0.24977751
249	0xbe4a9731	-0.19784237
250	0x3eea75d0	0.4579301
251	0x3d4147bb	0.047187548
252	0xbf0b6160	-0.5444546
253	0xbeef18d8	-0.46698642
254	0xbc46efdb	-0.012142147
255	0xbefa70a3	-0.4891406

policy_network.h2.transform.bias f4 [20]
0	0xbb36fba0	-0.0027920976
1	0xbd2bd64f	-0.041952427
2	0xbd03883e	-0.032112353
3	0xbd17d640	-0.03706956
4	0xbc8a230a	-0.016862411
5	0xbba310ce	-0.0049763685
6	0xbd978b21	-0.073995836
7	0xbd5bce8a	-0.053663768
8	0xbd6c721f	-0.05772602
9	0xbce47c69	-0.027891355
10	0xbc701966	-0.014654493
11	0xbd0bbe4a	-0.03411702
12	0xb98e8bb0	-0.00027188426
13	0xbbd2071e	-0.00640954
14	0xbc0451fd	-0.008076188
15	0x00000000	0.0
16	0xbd016e48	-0.031599313
17	0x3bcfa67c	0.006336985
18	0xbc6d508b	-0.014484535
19	0xbddae1a2	-0.10687567

policy_network.h3.transform.weight f4 [20, 20]
0	0x3c92a7d5	0.017902294
1	0xbdc311bc	-0.09524867
2	0x3f151ef3	0.5825035
3	0xbc78dc36	-0.015189221
4	0x3dcba4b5	0.09943525
5	0xbf18aee8	-0.59641886
6	0xbecccb96	-0.39999074
7	0x3e861dd6	0.26194638
8	0x3e7ec2e6	0.24879035
9	0xbe874a66	-0.2642395
10	0x3dcb705e	0.09933542
11	0x3ec87724	0.39153397
12	0xbeba352c	-0.36368692
13	0xbe92ad7f	-0.28647992
14	0x3cea2bad	0.02858528
15	0xbedfa1f0	-0.43678236
16	0xbd80b89a	-0.0628521
17	0xbe306814	-0.17227203
18	0xbf0fb042	-0.56128323
19	0xbdafc911	-0.08583272
20	0xbe2ea39b	-0.17054598
21	0xbefeed35	-0.4979035
22	0xbe02773c	-0.12740797
23	0xbdc7e71c	-0.097608775
24	0xbe01c00b	-0.12670915
25	0x3d4b48d4	0.04963
26	0x3f581b1c	0.84416366
27	0xbddc0b65	-0.10744361
28	0x3d661825	0.05617537
29	0xbe516e55	-0.20452245
30	0xbe17eada	-0.14835683
31	0x3f1c1528	0.6096978
32	0xbe84fa30	-0.25972128
33	0xbd8df3cb	-0.069312654
34	0xbe2751f9	-0.16339864
35	0xbc97f915	-0.018551389
36	0xbe659fd5	-0.22424252
37	0x3e3a4460	0.18190145
38	0xbe8fd126	-0.28089255
39	0x3ec7517b	0.38929352
40	0x3ed3e76a	0.41387492
41	0x3e245d81	0.16051294
42	0x3cd4ba3a	0.025967706
43	0xbd2daefe	-0.042403214
44	0xbeea7f0b	-0.4580005
45	0xbcea3940	-0.028591752
46	0x3e0fc3a9	0.14039482
47	0x3f2c3489	0.6726766
48	0x3ee53f54	0.44774878
49	0x3ec10f3b	0.37706932
50	0xbd6974dd	-0.056996215
51	0x3c520fd3	0.012821156
52	0x3e376190	0.17908311
53	0x3eb0589c	0.34442604
54	0x3dd5835d	0.10425446
55	0xbef78d12	-0.48349816
56	0x3c85ef80	0.016349554
57	0x3f060d5a	0.5236412
58	0x3d46a358	0.04849562
59	0xbde0d90f	-0.10978901
60	0x3e19818b	0.14990823
61	0x3eef6add	0.46761218
62	0x3ea26c4e	0.31723255
63	0xbec11a49	-0.37715366
64	0x3eab32fc	0.33437335
65	0x3bc688b4	0.0060587768
66	0x3e521c0a	0.20518509
67	0xbd1b72c8	-0.03795126
68	0xbd4ef114	-0.05052288
69	0xbf28be1f	-0.659151
70	0x3e9807e9	0.29693535
71	0x3c280c85	0.010256891
72	0xbe3a377c	-0.18185228
73	0x3f0c9e12	0.54928696
74	0xbe6623eb	-0.22474639
75	0xbd0cef4e	-0.034407906
76	0xbeb033d5	-0.34414545
77	0xbd57708e	-0.052597575
78	0x3eb4f532	0.3534332
79	0xbe671bcb	-0.22569196
80	0x3cc263cf	0.023729233
81	0x3e476b4a	0.19474521
82	0xbe8e849d	-0.2783555
83	0xbdb6d54f	-0.08927404
84	0xbedb76f6	-0.42864197
85	0xbecfcbbb	-0.40585122
86	0x3d611e00	0.05496025
87	0xbf077fee	-0.5292958
88	0x3f3338ab	0.70008343
89	0xbd88cdf4	-0.066799074
90	0x3e729a52	0.23691681
91	0xbed2e7cb	-0.4119247
92	0xbf1b5c3b	-0.6068761
93	0xbe86e77e	-0.2634849
94	0xbe394728	-0.1809355
95	0x3dbb9a1f	0.09160256
96	0x3ed0a424	0.4075023
97	0xbdb8bd1c	-0.09020445
98	0x3e01de02	0.12682346
99	0x3da12fd0	0.07870448
100	0xbc99acf9	-0.018759238
101	0x3f4fbfaa	0.8115183
102	0x3efa6087	0.4890177
103	0x3ea74c67	0.32675478
104	0xbc9427f9	-0.018085467
105	0xbda8bace	-0.08238755
106	0x3f22b428	0.63556147
107	0xbe4cbced	-0.19993944
108	0xbd922bb0	-0.07137239
109	0x3e31a21b	0.17346995
110	0x3e78ea5c	0.24308151
111	0x3d5e974a	0.0543435
112	0x3e98fbf1	0.29879716
113	0xbe908c8f	-0.28232238
114	0x3e1f8217	0.15576969
115	0x3d58d43b	0.052936774
116	0xbd4b9b2e	-0.049708538
117	0x3e0bf619	0.13668098
118	0xbe3d63a8	-0.18495047
119	0x3e5322e5	0.2061878
120	0xbd5fd6d6	-0.054648243
121	0xbe82ff3c	-0.25585353
122	0x3f178e53	0.59201545
123	0xbecbc5ea	-0.39799434
124	0xbe7b8880	-0.2456379
125	0x3e9168ac	0.2840017
126	0xbce204e1	-0.027590217
127	0x3d7bbb6c	0.061458036
128	0xbe5ea7eb	-0.21743743
129	0x3f11ee5b	0.57004327
130	0x3eb88b37	0.36043712
131	0x3d865363	0.065588735
132	0xbf0ed361	-0.5579129
133	0x3e4b2718	0.19839132
134	0x3ea111e4	0.31458962
135	0x3e06d406	0.13166818
136	0xbd47677f	-0.048682686
137	0xbe311196	-0.17291865
138	0x3ec2c5d3	0.38041553
139	0x3e872521	0.26395515
140	0x3e86b773	0.26311836
141	0xbe1ce2c6	-0.15320882
142	0x3e32f664	0.17476803
143	0x3e97d108	0.29651666
144	0xbde64ee1	-0.11245514
145	0xbf3b2eaf	-0.7311811
146	0x3e8c8b54	0.2745005
147	0xbd5afa7e	-0.053461544
148	0xbeea8946	-0.45807856
149	0xbc281d46	-0.010260886
150	0xbecf8aa5	-0.40535465
151	0x3e0db556	0.13838705
152	0x3aaed4b9	0.0013338543
153	0x3eb7da79	0.3590887
154	0xbea56a16	-0.323075
155	0xbdb6ea83	-0.08931448
156	0x3f15cd13	0.58516043
157	0xbe8149ad	-0.25251523
158	0x3ec21f0d	0.37914315
159	0x3d94b06d	0.07260213
160	0x3edbb090	0.42908144
161	0xbe9f115b	-0.3106793
162	0xbe5a82ab	-0.21338908
163	0x3d98097d	0.07423685
164	0x3f1f3879	0.62195545
165	0xbd268a8c	-0.040659472
166	0x3e1d973b	0.15389721
167	0x3ebee5ac	0.372846
168	0x3e2ceff8	0.16888416
169	0xbde66a37	-0.112507276
170	0x3f121338	0.57060575
171	0xbcd19306	-0.025582802
172	0xbd83673a	-0.06416173
173	0x3e72a3a9	0.23695244
174	0xbd95422a	-0.072880104
175	0x3ecc8488	0.39944863
176	0x3ead81f8	0.3388822
177	0x3eb8ae1b	0.36070332
178	0xbe7d353a	-0.24727336
179	0x3e182d91	0.14861132
180	0xbdb20ba5	-0.08693627
181	0x3e103182	0.14081386
182	0xbdd9186e	-0.10600363
183	0xbe8b2b4b	-0.27181467
184	0x3e5f3503	0.21797566
185	0x3ecabca1	0.39597037
186	0xbca1bfe6	-0.019744825
187	0x3e7da556	0.24770102
188	0x3e1819d3	0.14853601
189	0xbec4f58a	-0.3846858
190	0xbe01ea9d	-0.12687154
191	0x3c05661a	0.008142019
192	0x3defc870	0.11708152
193	0xbea175d8	-0.3153522
194	0xbd8046e1	-0.06263519
195	0xbf23b9a7	-0.6395516
196	0x3ef9f976	0.48823136
197	0xbe942842	-0.28936964
198	0x3e9a1da1	0.3010073
199	0x3f215224	0.6301596
200	0x3e5c20b5	0.21496852
201	0xbe908650	-0.28227472
202	0x3cceeeec	0.025260411
203	0xbf4b09bf	-0.79311746
204	0x3ec031fc	0.37538135
205	0xbed8a9a3	-0.42316923
206	0x3e2b9a7a	0.16758147
207	0xbef31c79	-0.4748266
208	0xbd946b43	-0.07247021
209	0x3eb5c836	0.3550431
210	0x3cb9f783	0.02270103
211	0xbeb944a8	-0.36185193
212	0x3ec19c79	0.37814692
213	0xbe57a209	-0.21057905
214	0xbccf26fa	-0.02528714
215	0xbecee3e6	-0.40408248
216	0xbdf8c3a6	-0.12146692
217	0x3e4dabc6	0.20085058
218	0xbd2d62b4	-0.04233046
219	0xbaa039e3	-0.0012224283
220	0x3dfcf7f8	0.12351984
221	0x3dc438ac	0.09581122
222	0x3ebefa54	0.3730036
223	0xbedc4b4e	-0.43026203
224	0x3d4b4d57	0.049634304
225	0xbe15c27b	-0.1462497
226	0x3c236b5b	0.009974326
227	0x3ea6d37e	0.3258323
228	0x3ecc6ad7	0.39925262
229	0xbdabec08	-0.08394629
230	0xbf3a4cf6	-0.72773683
231	0xbde107df	-0.109878294
232	0x3daf6e79	0.08565993
233	0xbe8a2c32	-0.26986843
234	0xbd68c0b5	-0.056824405
235	0x3f535711	0.8255473
236	0xbcc13ab7	-0.023587568
237	0x3c6f2b7e	0.014597772
238	0x3de80370	0.11328781
239	0x3e3e4c5f	0.18583821
240	0x3e8ac91f	0.27106568
241	0xbedab2ac	-0.4271444
242	0x3e61e67e	0.22060582
243	0x3cb1e255	0.021714369
244	0xbee6d1c1	-0.45081905
245	0xbd975575	-0.073893465
246	0x3d0b52c8	0.034014493
247	0x3d7dce77	0.06196448
248	0xbd075719	-0.033042047
249	0xbefe071d	-0.49614802
250	0x3f18e43e	0.5972327
251	0xbcdb5082	-0.026771788
252	0x3f24a0b8	0.6430774
253	0xbeaea486	-0.34109896
254	0x3e67b773	0.22628574
255	0x3e621b4f	0.2208073

policy_network.h3.transform.bias f4 [20]
0	0x00000000	0.0
1	0xbc2acca2	-0.010424765
2	0x3c192715	0.009347697
3	0x3c0759d6	0.008261165
4	0xbd63c859	-0.05561099
5	0xbcfb3412	-0.030664477
6	0xbcde9e3c	-0.027175061
7	0xbd0d5f7c	-0.03451489
8	0xbc46771b	-0.012113358
9	0xbd3c4edf	-0.045973655
10	0x00000000	0.0
11	0x00000000	0.0
12	0xbbfeeed0	-0.0077799335
13	0xbd2d2b64	-0.04227771
14	0x00000000	0.0
15	0x3a879ba4	0.0010346067
16	0xbd6e76af	-0.058218654
17	0xbbb8d40b	-0.005640512
18	0xbd6a6b06	-0.05723097
19	0x00000000	0.0

policy_network.critic_linear.weight f4 [1, 20]
0	0xbe98fad8	-0.2987888
1	0xbeb6c527	-0.3569729
2	0xbe629128	-0.22125685
3	0xbe4af45e	-0.19819781
4	0xbf0d0811	-0.55090433
5	0x3eaca00a	0.3371585
6	0x3e5e76ca	0.21725002
7	0x3ed8c1b6	0.4233529
8	0x3ee07666	0.4384033
9	0x3e8540d4	0.26026022
10	0x3d5b32ae	0.05351513
11	0x3cdc2da0	0.026877224
12	0xbe6aa827	-0.22915708
13	0xbd371f5a	-0.044707634
14	0xbf2c0d57	-0.67207855
15	0xbe054d19	-0.13017692
16	0xbcc0d7e4	-0.023540445
17	0xbe7b1b0b	-0.24522035
18	0x3e78de8a	0.24303642
19	0x3e432111	0.19055583

target_network.emb1.transform.weight f4 [20, 2]
0	0x3da0f9d5	0.07860152
1	0x3ea38dde	0.31944174
2	0x3d8bdde6	0.06829433
3	0xbf185a96	-0.59513223
4	0xbbf13fde	-0.00736235
5	0xbea9be48	-0.33152986
6	0xbe303e94	-0.17211372
7	0xbeaad970	-0.33369017
8	0x3d11091f	0.03540909
9	0x3ec5a76b	0.38604292
10	0xbf018297	-0.5058989
11	0x3f01b5b1	0.50667864
12	0xbe501a9a	-0.20322648
13	0xbd8ecd33	-0.069727324
14	0xbe9340f1	-0.28760484
15	0xbe90d0c1	-0.28284267
16	0x3e03f0a2	0.12884763
17	0x3e236f85	0.1596051
18	0x3c7e63ff	0.015526771
19	0x3e97b196	0.29627675
20	0xbe15ba4d	-0.1462185
21	0x3cceee35	0.02526007
22	0xbe23a302	-0.15980151
23	0x3e8b548d	0.27212945
24	0x3ea8f8f1	0.33002427
25	0xbea19568	-0.315593
26	0xbe911a2f	-0.2834029
27	0x3ea61599	0.32438353
28	0x3e2bb8ec	0.16769761
29	0x3d585cce	0.05282288
30	0xbf3ee9a2	-0.74575245
31	0x3e764696	0.24050364
32	0xbf1b5ac9	-0.606854
33	0xbe6b58c6	-0.22983083
34	0xbeda7f61	-0.42675307
35	0xbec64ecd	-0.38731995
36	0xbd3bea20	-0.045877576
37	0x3dc62758	0.09675473
38	0xbe9e32ad	-0.30898038
39	0xbe9877c6	-0.2977888

target_network.emb1.transform.bias f4 [20]
0	0xbd32b862	-0.043632872
1	0xbb4a3d5a	-0.0030859322
2	0x00000000	0.0
3	0x00000000	0.0
4	0xbdbc7f4e	-0.09203969
5	0x3c231b32	0.009955214
6	0x00000000	0.0
7	0x00000000	0.0
8	0xb87a6c60	-5.9705577e-05
9	0xbd6e91cc	-0.05824451
10	0x00000000	0.0
11	0x3d18c6d0	0.037298977
12	0xbd7e7e61	-0.062132243
13	0xbcd3681f	-0.025806485
14	0xbc23d421	-0.009999306
15	0x00000000	0.0
16	0x00000000	0.0
17	0x00000000	0.0
18	0xbc4b37fd	-0.012403485
19	0x00000000	0.0

target_network.emb2.transform.weight f4 [20, 2]
0	0x3e54f280	0.20795631
1	0x3e95e8e8	0.29279256
2	0x3e5aad5e	0.21355197
3	0x3f04308b	0.5163657
4	0xbe928e19	-0.28624037
5	0x3d038d6d	0.032117296
6	0xbd470daa	-0.048597015
7	0xbdd237d0	-0.10264552
8	0x3ec4a573	0.38407478
9	0xbe4373eb	-0.19087188
10	0x3c5ff603	0.013669494
11	0x3ea6cc49	0.32577732
12	0x3da78ee5	0.08181552
13	0x3eb91d75	0.36155286
14	0xbe11b86c	-0.14230508
15	0x3e672ab1	0.22574879
16	0xbe3a9db3	-0.1822422
17	0x3e61718c	0.22015971
18	0x3ed7ae56	0.42125195
19	0xbe0a20d7	-0.1348909
20	0x3de72810	0.11286938
21	0xbf0eb9a9	-0.55752045
22	0xbf5db806	-0.8660892
23	0xbe3cc72c	-0.18435353
24	0xbd508ffe	-0.05091857
25	0x3d8f3772	0.06992997
26	0xbe638e9f	-0.22222374
27	0x3ece9cd8	0.40354037
28	0x3e167ac7	0.14695273
29	0x3f359d70	0.70943356
30	0xbe0ed94d	-0.13950081
31	0x3dcd7a6a	0.10033114
32	0xbf1958ce	-0.5990113
33	0x3dd36727	0.10322409
34	0x3e07d7ff	0.1326599
35	0xbf096032	-0.5366241
36	0xbdba2cc1	-0.090905674
37	0xbdf88c61	-0.1213615
38	0x3d603e0d	0.054746676
39	0x3d9eee15	0.07760254

target_network.emb2.transform.bias f4 [20]
0	0xbd0b6dc0	-0.034040213
1	0x3d43fa0d	0.04784589
2	0x00000000	0.0
3	0x00000000	0.0
4	0xbe031f14	-0.12804824
5	0xbd676453	-0.05649216
6	0x3d4b6555	0.049657185
7	0xbd17ac38	-0.037029475
8	0xbc6de641	-0.014520229
9	0xbdd84302	-0.10559656
10	0xbd09bc7c	-0.03362702
11	0x00000000	0.0
12	0xbcf86b55	-0.030324617
13	0xbd0352e5	-0.032061476
14	0x3cdad97e	0.026715036
15	0xbcfcb2f2	-0.030847047
16	0x00000000	0.0
17	0xbd23636d	-0.03988974
18	0x00000000	0.0
19	0xbd17bd99	-0.03704605

target_network.emb3.transform.weight f4 [20, 2]
0	0xbf062367	-0.5239777
1	0xbe5e36bc	-0.21700567
2	0xbe96de02	-0.29466254
3	0xbd5285a7	-0.051396992
4	0xbe81d0de	-0.25354666
5	0xbd6c03a8	-0.057620674
6	0x3e66cb30	0.22538447
7	0x3e4676ab	0.19381206
8	0x3e5720bf	0.21008585
9	0x3efc957f	0.49332806
10	0xbeac745a	-0.3368252
11	0x3ed473df	0.41494653
12	0x3de55643	0.11198094
13	0x3f02f1fa	0.51150477
14	0x3d3742be	0.044741385
15	0xbe4f00d1	-0.20215155
16	0xbe8ed1e9	-0.27894524
17	0x3f01ed1f	0.50752443
18	0x3d883539	0.066507764
19	0xbe8be247	-0.27321073
20	0xbd8a33c3	-0.06748154
21	0xbecda1ac	-0.40162408
22	0xbf09e739	-0.5386844
23	0x3e9be3b1	0.30447152
24	0xbae6b84a	-0.001760253
25	0x3e1c6fa7	0.15276967
26	0x3ea6f414	0.32608092
27	0x3e795aa5	0.24350984
28	0xbe513305	-0.20429619
29	0xbe108e5c	-0.14116806
30	0xbe46a9ab	-0.1940066
31	0x3e03562f	0.12825845
32	0x3f3a886c	0.72864413
33	0xbea44e31	-0.32090905
34	0x3e2146be	0.15749642
35	0xbe50d371	-0.20393158
36	0x3d6551fe	0.055986397
37	0x3dd3ba0a	0.103382185
38	0x3e9337fc	0.2875365
39	0x3e6f31d0	0.23358846

target_network.emb3.transform.bias f4 [20]
0	0x00000000	0.0
1	0x00000000	0.0
2	0x00000000	0.0
3	0x3807e000	3.2395124e-05
4	0xbd3a2de8	-0.045453936
5	0xbd855d99	-0.06511993
6	0xbd03fc04	-0.032222763
7	0xbcd4ba3e	-0.025967713
8	0xbda503f7	-0.08057397
9	0xbc999578	-0.01874803
10	0x00000000	0.0
11	0xbc988718	-0.018619105
12	0xbcc2dcae	-0.023786869
13	0x3ade3a53	0.0016954638
14	0x00000000	0.0
15	0xbba6e7d8	-0.005093556
16	0xbc3ab03c	-0.011394557
17	0xbd524ad8	-0.051340908
18	0xbd994fe6	-0.074859425
19	0xbd3c7a64	-0.04601516

target_network.emb4.transform.weight f4 [20, 2]
0	0x3ea7dadc	0.32784164
1	0x3e8c95ba	0.27457982
2	0x3d7fed29	0.062482033
3	0xbe5329a7	-0.20621358
4	0x3eb1b9b1	0.34711984
5	0x3e5bddfa	0.21471396
6	0xbeb0d4ca	-0.34537345
7	0x3ee64c89	0.44980267
8	0x3e692763	0.22768931
9	0xbe533d29	-0.206288
10	0x3e40b80d	0.1882021
11	0x3ef691df	0.48158166
12	0x3e7fc9d4	0.24979335
13	0xbc978a7d	-0.018498654
14	0xbe573284	-0.21015364
15	0xbe834f4b	-0.25646433
16	0xbe9ade3f	-0.30247685
17	0xbeba1a76	-0.36348313
18	0xbe017175	-0.12640937
19	0x3dceac22	0.100914255
20	0xbc8c9b68	-0.017163947
21	0xbeb83797	-0.35979912
22	0x3e6b8462	0.22999719
23	0x3e565120	0.20929384
24	0xbd63c82d	-0.055610824
25	0x3d33846a	0.04382745
26	0x3ce10f5c	0.027473144
27	0x3d617f16	0.05505284
28	0xbdc7998c	-0.097460836
29	0x3eb6b9e5	0.356887
30	0x3ed3abde	0.41342062
31	0xbedca10a	-0.43091613
32	0x3df4c809	0.11952216
33	0x3c54ed24	0.012995992
34	0xbecee716	-0.4041068
35	0x3f0c7e00	0.5487976
36	0xbf4da341	-0.8032723
37	0x3e30d0ce	0.17267153
38	0xbf050323	-0.5195791
39	0xbf02bd98	-0.5107055

target_network.emb4.transform.bias f4 [20]
0	0xbd3fef1c	-0.04685889
1	0xbcacc93d	-0.021092052
2	0xbc1fa3ba	-0.009743625
3	0xbc920cdb	-0.017828396
4	0xbd6dd51b	-0.05806456
5	0xbd364d88	-0.044507533
6	0x3d44ccae	0.04804676
7	0x00000000	0.0
8	0x00000000	0.0
9	0xbd03b19d	-0.032151807
10	0x00000000	0.0
11	0x3da4a359	0.080389686
12	0xbd6040d5	-0.05474933
13	0xbd2787b8	-0.040900916
14	0xbaf24f2c	-0.001848673
15	0xbd283d37	-0.041074004
16	0xbd8c2cca	-0.0684448
17	0xbd4d9f3c	-0.050200686
18	0x00000000	0.0
19	0x00000000	0.0

target_network.h2.transform.weight f4 [20, 20]
0	0x3d777949	0.0604184
1	0xbd435136	-0.04768487
2	0xbe9d1b20	-0.30684757
3	0x3e31d86e	0.17367718
4	0xbcba20f3	-0.02272079
5	0x3efc147e	0.49234384
6	0xbf21d571	-0.6321631
7	0xbf389985	-0.7210925
8	0xbe3607b8	-0.17776382
9	0xbe907157	-0.2821147
10	0x3ec60153	0.38672885
11	0x3e73f40b	0.23823564
12	0x3e418851	0.18899657
13	0x3e504fd6	0.20342955
14	0xbe1d4b5b	-0.15360777
15	0xbe699207	-0.22809611
16	0xbe63fc03	-0.22264104
17	0xbd9d47c6	-0.07679705
18	0xbea97876	-0.33099717
19	0xbeb59f4c	-0.35473096
20	0x3de1085b	0.10987922
21	0x3de54b21	0.1119597
22	0xbecb8167	-0.39747164
23	0x3e932475	0.28738752
24	0x3d7ebf7c	0.062194332
25	0xbf2512ec	-0.64482
26	0x3e42772c	0.18990773
27	0xbebbfa72	-0.36714512
28	0xbf2c6387	-0.67339367
29	0x3ecc73b0	0.39932013
30	0x3d9a507d	0.07534883
31	0xbe44132b	-0.19147937
32	0xbe54ea4e	-0.20792505
33	0xbec8436f	-0.39113948
34	0xbecf4011	-0.40478566
35	0xbe6d6149	-0.23181643
36	0xbe3393a6	-0.17536792
37	0xbc465ce1	-0.012107105
38	0xbe76527d	-0.24054904
39	0x3dd223e8	0.10260755
40	0xbee800b8	-0.45313048
41	0x3d929672	0.071576014
42	0xbeaa446c	-0.33255327
43	0xbedce86f	-0.43146083
44	0xbe9b352e	-0.3031401
45	0xbe07c1ef	-0.13257574
46	0xbebef81e	-0.37298673
47	0x3e157f80	0.14599419
48	0x3e01957a	0.12654677
49	0x3e666208	0.22498333
50	0x3ccb66b5	0.024829248
51	0xbd9ad853	-0.07560792
52	0x3e938c30	0.28817892
53	0xbe005a65	-0.12534483
54	0x3e3c0894	0.18362647
55	0xbedc59d6	-0.4303729
56	0x3f006f58	0.501699
57	0xbe3fdadf	-0.18735836
58	0xbf330111	-0.699235
59	0x3ec2e8f9	0.3806837
60	0xbd1df835	-0.038566787
61	0x3cd85b84	0.026410826
62	0x3ec14e60	0.37755108
63	0xbe16921c	-0.14704174
64	0x3e6c8f4e	0.23101541
65	0x3ea3eefd	0.3201827
66	0xbeb173c2	-0.3465863
67	0x3e32f4c0	0.17476177
68	0xbe105321	-0.14094211
69	0x3f54939b	0.8303773
70	0xbe81364a	-0.25236732
71	0x3f0ba1d5	0.5454381
72	0xbd09c7fa	-0.033637978
73	0xbd624b75	-0.055247743
74	0xbf04afbd	-0.51830655
75	0xbe34d43f	-0.1765909
76	0xbdc71b11	-0.097219594
77	0xbea4468a	-0.32085067
78	0x3de7cf49	0.113188334
79	0x3ce52824	0.027973242
80	0xbe0f6f66	-0.14007339
81	0xbef6a641	-0.48173717
82	0xbef7968b	-0.48357043
83	0x3ec796aa	0.38982135
84	0xbef69f69	-0.48168495
85	0xbd88a42f	-0.066719405
86	0xbec023cf	-0.3752732
87	0x3e0f860b	0.14015977
88	0x3e8f6e16	0.28013676
89	0x3ec19741	0.3781071
90	0x3e9e3bc4	0.30904973
91	0xbdda5008	-0.10659796
92	0xbdace5bf	-0.08442258
93	0x3e6f5848	0.2337352
94	0xbec1b213	-0.37831172
95	0x3e9d154e	0.30680317
96	0x3df3f1f3	0.119113825
97	0x3ed57d99	0.41697386
98	0x3ebd10b0	0.36926794
99	0x3e891206	0.26771563
100	0x3da030e8	0.07821828
101	0x3e9eaa7c	0.30989444
102	0x3d90cf3e	0.07070778
103	0x3f39ef5d	0.72630864
104	0x3dd2bf5e	0.10290407
105	0x3f041ad4	0.51603436
106	0xbe3c2cb5	-0.1837643
107	0x3daa76a9	0.08323414
108	0xbe54e5fc	-0.20790857
109	0x3e270340	0.16309834
110	0x3ceb3c67	0.028715326
111	0xbf043e3f	-0.5165748
112	0xbe3497ff	-0.17636107
113	0xbe6e9d30	-0.2330215
114	0x3ee1678f	0.4402432
115	0xbdd6904e	-0.10476743
116	0x3efa3070	0.4886508
117	0xbe4414e4	-0.19148594
118	0x3e0142f5	0.12623198
119	0x3ca9ad26	0.020712446
120	0x3b2c2d9e	0.0026272307
121	0xbe3169c2	-0.173255
122	0xbee16d78	-0.4402883
123	0x3f0c47d3	0.54797095
124	0x3e0eae78	0.13933742
125	0xbd086aaf	-0.033304866
126	0xbe308ee6	-0.17242011
127	0x3ec82428	0.39090085
128	0x3eb205da	0.3477009
129	0xbf115197	-0.5676512
130	0xbf0a91b8	-0.541286
131	0x3e887010	0.26647997
132	0xbdb1cf37	-0.08682101
133	0xbec6c2f1	-0.38820603
134	0xbedf305b	-0.4359158
135	0xbe93a783	-0.2883874
136	0xbe16d920	-0.14731264
137	0xbe4258a7	-0.1897913
138	0xbe57feeb	-0.21093337
139	0x3deae021	0.114685304
140	0xbe8bccf0	-0.27304792
141	0xbd0b8b65	-0.034068484
142	0xbe50723c	-0.20356077
143	0x3d659332	0.05604858
144	0x3d95e849	0.073196955
145	0xbebc5015	-0.36779848
146	0x3e308f86	0.1724225
147	0xbebcf2d8	-0.36904025
148	0x3ee5a42f	0.44851825
149	0x3e3ec4d7	0.18629776
150	0x3d285508	0.041096717
151	0x3e945099	0.2896774
152	0x3c710ff3	0.014713275
153	0xbe81dde5	-0.25364605
154	0x3c0ad659	0.008473956
155	0xbd16fac8	-0.036860257
156	0x3f103067	0.56323856
157	0xbe89237e	-0.2678489
158	0x3e918714	0.2842337
159	0xbf557f2d	-0.8339718
160	0x3f164a9d	0.587076
161	0xbf32a654	-0.69785047
162	0xbdece286	-0.115666434
163	0xbe632e9a	-0.22185746
164	0xbf0405a3	-0.515711
165	0x3d8e2473	0.06940546
166	0x3e057465	0.13032682
167	0xbdb8980b	-0.09013375
168	0xbeb61c88	-0.35568643
169	0xbe42e5b4	-0.19032937
170	0xbdd51d87	-0.104060225
171	0x3dedafbe	0.11605786
172	0x3d208e8c	0.039198443
173	0xbd92b739	-0.07163853
174	0x3d0d4d05	0.03449728
175	0xbeebced8	-0.46056247
176	0x3ea5d832	0.32391506
177	0xbed68f94	-0.41906416
178	0x3ed0f0e0	0.40808773
179	0x3e268191	0.16260363
180	0x3ca8ac3e	0.020589944
181	0xbe996569	-0.29960182
182	0x3eef08af	0.46686313
183	0x3df5cfe9	0.12002546
184	0xbe27c62d	-0.16384192
185	0x3de5023d	0.111820675
186	0x3e1cf8dc	0.15329307
187	0xbe3cd230	-0.18439555
188	0x3b392f05	0.0028256786
189	0xbd1ffdbb	-0.039060336
190	0x3e6debf7	0.23234545
191	0x3e887e23	0.26658735
192	0x3ee3eba3	0.44515714
193	0xbf72e0ba	-0.94874156
194	0x3c279ec5	0.010230725
195	0x3e6b5586	0.22981843
196	0x3c34e850	0.011041716
197	0x3eed179b	0.46307072
198	0xbe8e557d	-0.27799597
199	0x3db4e6b4	0.08833066
200	0xbdb676d0	-0.089093804
201	0xbf01f9d3	-0.50771827
202	0x3ea2709d	0.31726542
203	0x3e455e05	0.19274147
204	0x3f4cc43c	0.7998693
205	0xbed09ae0	-0.4074316
206	0xbd85ca3b	-0.06532713
207	0xbd95803c	-0.072998494
208	0xbc1634db	-0.009167875
209	0xbe3dda82	-0.18540385
210	0x3ef16b19	0.47152022
211	0x3d81bf2f	0.063352935
212	0x3b937673	0.004500204
213	0x3ec19327	0.3780758
214	0x3da64bdc	0.08119938
215	0xbcd0f6ac	-0.025508247
216	0x3e69439e	0.227797
217	0xbe540d7c	-0.20708269
218	0xbd9fd3a1	-0.07804037
219	0x3ee369f8	0.44416785
220	0xbd2d9151	-0.042374913
221	0xbec9ba4a	-0.3939994
222	0xbedc0131	-0.4296966
223	0xbebbbbfb	-0.36666855
224	0x3efd1c19	0.494355
225	0x3f0221ee	0.5083302
226	0x3ea19ba7	0.31564066
227	0xbc85cded	-0.016333545
228	0x3e96a0ac	0.29419458
229	0x3e312bc9	0.17301859
230	0x3e58314a	0.21112552
231	0xbf458c6b	-0.77167386
232	0x3e77d741	0.24203207
233	0xbe6d3437	-0.2316445
234	0xbec42155	-0.3830668
235	0xbe6e2e97	-0.2325996
236	0xbe497299	-0.19672622
237	0xbcc7d85f	-0.024395166
238	0x3e0fd15e	0.14044711
239	0x3cc4cdff	0.024024008
240	0x3ea18f3b	0.3155459
241	0x3e8bbc5d	0.27292147
242	0xbc8a3472	-0.016870711
243	0xbed5b7b6	-0.41741723
244	0x3e3e38ed	0.18576403
245	0xbe39cfee	-0.18145725
246	0xbefc33ce	-0.49258274
247	0x3e374b81	0.17899896
248	0x3e7fc5ad	0.24977751
249	0xbe4a9731	-0.19784237
250	0x3eea75d0	0.4579301
251	0x3d4147bb	0.047187548
252	0xbf0b6160	-0.5444546
253	0xbeef18d8	-0.46698642
254	0xbc46efdb	-0.012142147
255	0xbefa70a3	-0.4891406

target_network.h2.transform.bias f4 [20]
0	0xbb36fba0	-0.0027920976
1	0xbd2bd64f	-0.041952427
2	0xbd03883e	-0.032112353
3	0xbd17d640	-0.03706956
4	0xbc8a230a	-0.016862411
5	0xbba310ce	-0.0049763685
6	0xbd978b21	-0.073995836
7	0xbd5bce8a	-0.053663768
8	0xbd6c721f	-0.05772602
9	0xbce47c69	-0.027891355
10	0xbc701966	-0.014654493
11	0xbd0bbe4a	-0.03411702
12	0xb98e8bb0	-0.00027188426
13	0xbbd2071e	-0.00640954
14	0xbc0451fd	-0.008076188
15	0x00000000	0.0
16	0xbd016e48	-0.031599313
17	0x3bcfa67c	0.006336985
18	0xbc6d508b	-0.014484535
19	0xbddae1a2	-0.10687567

target_network.h3.transform.weight f4 [20, 20]
0	0x3c92a7d5	0.017902294
1	0xbdc311bc	-0.09524867
2	0x3f151ef3	0.5825035
3	0xbc78dc36	-0.015189221
4	0x3dcba4b5	0.09943525
5	0xbf18aee8	-0.59641886
6	0xbecccb96	-0.39999074
7	0x3e861dd6	0.26194638
8	0x3e7ec2e6	0.24879035
9	0xbe874a66	-0.2642395
10	0x3dcb705e	0.09933542
11	0x3ec87724	0.39153397
12	0xbeba352c	-0.36368692
13	0xbe92ad7f	-0.28647992
14	0x3cea2bad	0.02858528
15	0xbedfa1f0	-0.43678236
16	0xbd80b89a	-0.0628521
17	0xbe306814	-0.17227203
18	0xbf0fb042	-0.56128323
19	0xbdafc911	-0.08583272
20	0xbe2ea39b	-0.17054598
21	0xbefeed35	-0.4979035
22	0xbe02773c	-0.12740797
23	0xbdc7e71c	-0.097608775
24	0xbe01c00b	-0.12670915
25	0x3d4b48d4	0.04963
26	0x3f581b1c	0.84416366
27	0xbddc0b65	-0.10744361
28	0x3d661825	0.05617537
29	0xbe516e55	-0.20452245
30	0xbe17eada	-0.14835683
31	0x3f1c1528	0.6096978
32	0xbe84fa30	-0.25972128
33	0xbd8df3cb	-0.069312654
34	0xbe2751f9	-0.16339864
35	0xbc97f915	-0.018551389
36	0xbe659fd5	-0.22424252
37	0x3e3a4460	0.18190145
38	0xbe8fd126	-0.28089255
39	0x3ec7517b	0.38929352
40	0x3ed3e76a	0.41387492
41	0x3e245d81	0.16051294
42	0x3cd4ba3a	0.025967706
43	0xbd2daefe	-0.042403214
44	0xbeea7f0b	-0.4580005
45	0xbcea3940	-0.028591752
46	0x3e0fc3a9	0.14039482
47	0x3f2c3489	0.6726766
48	0x3ee53f54	0.44774878
49	0x3ec10f3b	0.37706932
50	0xbd6974dd	-0.056996215
51	0x3c520fd3	0.012821156
52	0x3e376190	0.17908311
53	0x3eb0589c	0.34442604
54	0x3dd5835d	0.10425446
55	0xbef78d12	-0.48349816
56	0x3c85ef80	0.016349554
57	0x3f060d5a	0.5236412
58	0x3d46a358	0.04849562
59	0xbde0d90f	-0.10978901
60	0x3e19818b	0.14990823
61	0x3eef6add	0.46761218
62	0x3ea26c4e	0.31723255
63	0xbec11a49	-0.37715366
64	0x3eab32fc	0.33437335
65	0x3bc688b4	0.0060587768
66	0x3e521c0a	0.20518509
67	0xbd1b72c8	-0.03795126
68	0xbd4ef114	-0.05052288
69	0xbf28be1f	-0.659151
70	0x3e9807e9	0.29693535
71	0x3c280c85	0.010256891
72	0xbe3a377c	-0.18185228
73	0x3f0c9e12	0.54928696
74	0xbe6623eb	-0.22474639
75	0xbd0cef4e	-0.034407906
76	0xbeb033d5	-0.34414545
77	0xbd57708e	-0.052597575
78	0x3eb4f532	0.3534332
79	0xbe671bcb	-0.22569196
80	0x3cc263cf	0.023729233
81	0x3e476b4a	0.19474521
82	0xbe8e849d	-0.2783555
83	0xbdb6d54f	-0.08927404
84	0xbedb76f6	-0.42864197
85	0xbecfcbbb	-0.40585122
86	0x3d611e00	0.05496025
87	0xbf077fee	-0.5292958
88	0x3f3338ab	0.70008343
89	0xbd88cdf4	-0.066799074
90	0x3e729a52	0.23691681
91	0xbed2e7cb	-0.4119247
92	0xbf1b5c3b	-0.6068761
93	0xbe86e77e	-0.2634849
94	0xbe394728	-0.1809355
95	0x3dbb9a1f	0.09160256
96	0x3ed0a424	0.4075023
97	0xbdb8bd1c	-0.09020445
98	0x3e01de02	0.12682346
99	0x3da12fd0	0.07870448
100	0xbc99acf9	-0.018759238
101	0x3f4fbfaa	0.8115183
102	0x3efa6087	0.4890177
103	0x3ea74c67	0.32675478
104	0xbc9427f9	-0.018085467
105	0xbda8bace	-0.08238755
106	0x3f22b428	0.63556147
107	0xbe4cbced	-0.19993944
108	0xbd922bb0	-0.07137239
109	0x3e31a21b	0.17346995
110	0x3e78ea5c	0.24308151
111	0x3d5e974a	0.0543435
112	0x3e98fbf1	0.29879716
113	0xbe908c8f	-0.28232238
114	0x3e1f8217	0.15576969
115	0x3d58d43b	0.052936774
116	0xbd4b9b2e	-0.049708538
117	0x3e0bf619	0.13668098
118	0xbe3d63a8	-0.18495047
119	0x3e5322e5	0.2061878
120	0xbd5fd6d6	-0.054648243
121	0xbe82ff3c	-0.25585353
122	0x3f178e53	0.59201545
123	0xbecbc5ea	-0.39799434
124	0xbe7b8880	-0.2456379
125	0x3e9168ac	0.2840017
126	0xbce204e1	-0.027590217
127	0x3d7bbb6c	0.061458036
128	0xbe5ea7eb	-0.21743743
129	0x3f11ee5b	0.57004327
130	0x3eb88b37	0.36043712
131	0x3d865363	0.065588735
132	0xbf0ed361	-0.5579129
133	0x3e4b2718	0.19839132
134	0x3ea111e4	0.31458962
135	0x3e06d406	0.13166818
136	0xbd47677f	-0.048682686
137	0xbe311196	-0.17291865
138	0x3ec2c5d3	0.38041553
139	0x3e872521	0.26395515
140	0x3e86b773	0.26311836
141	0xbe1ce2c6	-0.15320882
142	0x3e32f664	0.17476803
143	0x3e97d108	0.29651666
144	0xbde64ee1	-0.11245514
145	0xbf3b2eaf	-0.7311811
146	0x3e8c8b54	0.2745005
147	0xbd5afa7e	-0.053461544
148	0xbeea8946	-0.45807856
149	0xbc281d46	-0.010260886
150	0xbecf8aa5	-0.40535465
151	0x3e0db556	0.13838705
152	0x3aaed4b9	0.0013338543
153	0x3eb7da79	0.3590887
154	0xbea56a16	-0.323075
155	0xbdb6ea83	-0.08931448
156	0x3f15cd13	0.58516043
157	0xbe8149ad	-0.25251523
158	0x3ec21f0d	0.37914315
159	0x3d94b06d	0.07260213
160	0x3edbb090	0.42908144
161	0xbe9f115b	-0.3106793
162	0xbe5a82ab	-0.21338908
163	0x3d98097d	0.07423685
164	0x3f1f3879	0.62195545
165	0xbd268a8c	-0.040659472
166	0x3e1d973b	0.15389721
167	0x3ebee5ac	0.372846
168	0x3e2ceff8	0.16888416
169	0xbde66a37	-0.112507276
170	0x3f121338	0.57060575
171	0xbcd19306	-0.025582802
172	0xbd83673a	-0.06416173
173	0x3e72a3a9	0.23695244
174	0xbd95422a	-0.072880104
175	0x3ecc8488	0.39944863
176	0x3ead81f8	0.3388822
177	0x3eb8ae1b	0.36070332
178	0xbe7d353a	-0.24727336
179	0x3e182d91	0.14861132
180	0xbdb20ba5	-0.08693627
181	0x3e103182	0.14081386
182	0xbdd9186e	-0.10600363
183	0xbe8b2b4b	-0.27181467
184	0x3e5f3503	0.21797566
185	0x3ecabca1	0.39597037
186	0xbca1bfe6	-0.019744825
187	0x3e7da556	0.24770102
188	0x3e1819d3	0.14853601
189	0xbec4f58a	-0.3846858
190	0xbe01ea9d	-0.12687154
191	0x3c05661a	0.008142019
192	0x3defc870	0.11708152
193	0xbea175d8	-0.3153522
194	0xbd8046e1	-0.06263519
195	0xbf23b9a7	-0.6395516
196	0x3ef9f976	0.48823136
197	0xbe942842	-0.28936964
198	0x3e9a1da1	0.3010073
199	0x3f215224	0.6301596
200	0x3e5c20b5	0.21496852
201	0xbe908650	-0.28227472
202	0x3cceeeec	0.025260411
203	0xbf4b09bf	-0.79311746
204	0x3ec031fc	0.37538135
205	0xbed8a9a3	-0.42316923
206	0x3e2b9a7a	0.16758147
207	0xbef31c79	-0.4748266
208	0xbd946b43	-0.07247021
209	0x3eb5c836	0.3550431
210	0x3cb9f783	0.02270103
211	0xbeb944a8	-0.36185193
212	0x3ec19c79	0.37814692
213	0xbe57a209	-0.21057905
214	0xbccf26fa	-0.02528714
215	0xbecee3e6	-0.40408248
216	0xbdf8c3a6	-0.12146692
217	0x3e4dabc6	0.20085058
218	0xbd2d62b4	-0.04233046
219	0xbaa039e3	-0.0012224283
220	0x3dfcf7f8	0.12351984
221	0x3dc438ac	0.09581122
222	0x3ebefa54	0.3730036
223	0xbedc4b4e	-0.43026203
224	0x3d4b4d57	0.049634304
225	0xbe15c27b	-0.1462497
226	0x3c236b5b	0.009974326
227	0x3ea6d37e	0.3258323
228	0x3ecc6ad7	0.39925262
229	0xbdabec08	-0.08394629
230	0xbf3a4cf6	-0.72773683
231	0xbde107df	-0.109878294
232	0x3daf6e79	0.08565993
233	0xbe8a2c32	-0.26986843
234	0xbd68c0b5	-0.056824405
235	0x3f535711	0.8255473
236	0xbcc13ab7	-0.023587568
237	0x3c6f2b7e	0.014597772
238	0x3de80370	0.11328781
239	0x3e3e4c5f	0.18583821
240	0x3e8ac91f	0.27106568
241	0xbedab2ac	-0.4271444
242	0x3e61e67e	0.22060582
243	0x3cb1e255	0.021714369
244	0xbee6d1c1	-0.45081905
245	0xbd975575	-0.073893465
246	0x3d0b52c8	0.034014493
247	0x3d7dce77	0.06196448
248	0xbd075719	-0.033042047
249	0xbefe071d	-0.49614802
250	0x3f18e43e	0.5972327
251	0xbcdb5082	-0.026771788
252	0x3f24a0b8	0.6430774
253	0xbeaea486	-0.34109896
254	0x3e67b773	0.22628574
255	0x3e621b4f	0.2208073

target_network.h3.transform.bias f4 [20]
0	0x00000000	0.0
1	0xbc2acca2	-0.010424765
2	0x3c192715	0.009347697
3	0x3c0759d6	0.008261165
4	0xbd63c859	-0.05561099
5	0xbcfb3412	-0.030664477
6	0xbcde9e3c	-0.027175061
7	0xbd0d5f7c	-0.03451489
8	0xbc46771b	-0.012113358
9	0xbd3c4edf	-0.045973655
10	0x00000000	0.0
11	0x00000000	0.0
12	0xbbfeeed0	-0.0077799335
13	0xbd2d2b64	-0.04227771
14	0x00000000	0.0
15	0x3a879ba4	0.0010346067
16	0xbd6e76af	-0.058218654
17	0xbbb8d40b	-0.005640512
18	0xbd6a6b06	-0.05723097
19	0x00000000	0.0

target_network.critic_linear.weight f4 [1, 20]
0	0xbe98fad8	-0.2987888
1	0xbeb6c527	-0.3569729
2	0xbe629128	-0.22125685
3	0xbe4af45e	-0.19819781
4	0xbf0d0811	-0.55090433
5	0x3eaca00a	0.3371585
6	0x3e5e76ca	0.21725002
7	0x3ed8c1b6	0.4233529
8	0x3ee07666	0.4384033
9	0x3e8540d4	0.26026022
10	0x3d5b32ae	0.05351513
11	0x3cdc2da0	0.026877224
12	0xbe6aa827	-0.22915708
13	0xbd371f5a	-0.044707634
14	0xbf2c0d57	-0.67207855
15	0xbe054d19	-0.13017692
16	0xbcc0d7e4	-0.023540445
17	0xbe7b1b0b	-0.24522035
18	0x3e78de8a	0.24303642
19	0x3e432111	0.19055583
