pz_risk/mini_1/20.pt (torch, 18513 bytes, 26 tensors)

policy_network.emb1.transform.weight f4 [20, 2]
0	0x3cfcbb80	0.030851126
1	0x3e8d45e7	0.27592394
2	0xbce73b3c	-0.028226487
3	0xbf2bcd47	-0.67110103
4	0xbbf13fde	-0.00736235
5	0xbea9be48	-0.33152986
6	0xbe303e94	-0.17211372
7	0xbeaad970	-0.33369017
8	0x3bf3af5c	0.007436676
9	0x3eb08042	0.34472853
10	0xbf040f02	-0.515854
11	0x3efe2025	0.496339
12	0xbe501a9a	-0.20322648
13	0xbd8ecd33	-0.069727324
14	0xbe9340f1	-0.28760484
15	0xbe90d0c1	-0.28284267
16	0x3c965ea0	0.018355668
17	0x3d1b2322	0.037875302
18	0xbd4133f9	-0.047168706
19	0x3e7ebd13	0.24876814
20	0xbe15ba4d	-0.1462185
21	0x3cceee35	0.02526007
22	0xbe463c5b	-0.19358961
23	0x3e6381cd	0.22217484
24	0x3e8d33f0	0.27578688
25	0xbebd1ea7	-0.36937448
26	0xbe9955f0	-0.29948378
27	0x3ea1417c	0.31495273
28	0x3d9f22a1	0.07770277
29	0xbceb5c9c	-0.028730683
30	0xbf3ee9a2	-0.74575245
31	0x3e764696	0.24050364
32	0xbf1b5ac9	-0.606854
33	0xbe6b58c6	-0.22983083
34	0xbeda7f61	-0.42675307
35	0xbec64ecd	-0.38731995
36	0xbe044496	-0.12916788
37	0x3c1f2ed0	0.009715751
38	0xbe9e32ad	-0.30898038
39	0xbe9877c6	-0.2977888

policy_network.emb1.transform.bias f4 [20]
0	0xbdccccc3	-0.09999993
1	0xbdcccc71	-0.099999316
2	0x00000000	0.0
3	0x00000000	0.0
4	0xbde38aa7	-0.1111043
5	0x00000000	0.0
6	0x00000000	0.0
7	0x00000000	0.0
8	0xbdcccccb	-0.09999999
9	0xbe08d2de	-0.1336169
10	0x00000000	0.0
11	0xbc09bc04	-0.008406643
12	0xbdfe2498	-0.124093235
13	0xb9ad1c80	-0.00033018366
14	0xbdcccccb	-0.09999999
15	0x00000000	0.0
16	0x00000000	0.0
17	0x00000000	0.0
18	0xbdcccccb	-0.09999999
19	0x00000000	0.0

policy_network.emb2.transform.weight f4 [20, 2]
0	0x3d4ee9c8	0.05051592
1	0x3e0bde71	0.13659073
2	0xbdd04a98	-0.10170478
3	0x3ef53274	0.47890055
4	0xbe928e19	-0.28624037
5	0x3d038d6d	0.032117296
6	0xbd470daa	-0.048597015
7	0xbdd237d0	-0.10264552
8	0x3ea68e2d	0.32530347
9	0xbe5e4a29	-0.21707977
10	0xbd87868d	-0.066174604
11	0x3e2ff3ae	0.171828
12	0x3c977c23	0.01849181
13	0x3f5bd001	0.85864264
14	0xbe7f4d6b	-0.24931876
15	0x3ef2466a	0.47319347
16	0xbe89a0a6	-0.26880378
17	0x3e076488	0.13221943
18	0x3f04f9b7	0.51943535
19	0x3f689ae3	0.9086134
20	0x3dac3754	0.084089905
21	0xbf0dc4b2	-0.5537826
22	0xbf5db806	-0.8660892
23	0xbe3cc72c	-0.18435353
24	0xbd644565	-0.055730242
25	0x3d6d4883	0.05793048
26	0xbe92d86a	-0.28680736
27	0x3e826376	0.25466508
28	0x3d47752d	0.048695732
29	0x3f6dabdf	0.9284038
30	0xbe28b416	-0.16474947
31	0x3d62c5ec	0.055364534
32	0xbf1958ce	-0.5990113
33	0x3dd36727	0.10322409
34	0x3f376bda	0.71648943
35	0x3f3223e0	0.6958599
36	0xbdba2cc1	-0.090905674
37	0xbdf88c61	-0.1213615
38	0xbc834524	-0.01602418
39	0x3bae7200	0.0053236485

policy_network.emb2.transform.bias f4 [20]
0	0xbe4cb04c	-0.19989127
1	0xbe84fc53	-0.25973758
2	0x00000000	0.0
3	0x00000000	0.0
4	0xbe364ce1	-0.17802764
5	0xbdf9fc82	-0.12206365
6	0xbe82cf20	-0.2554865
7	0xbe341d60	-0.1758933
8	0xbdccc62b	-0.09998735
9	0xbe8aac78	-0.27084708
10	0xbd6bb520	-0.05754578
11	0x00000000	0.0
12	0xbcdc0764	-0.026858993
13	0xbda94258	-0.08264607
14	0xbe626048	-0.22107041
15	0xbd4203c4	-0.047366872
16	0x00000000	0.0
17	0xbc854ca0	-0.01627189
18	0x00000000	0.0
19	0xbdcccccb	-0.09999999

policy_network.emb3.transform.weight f4 [20, 2]
0	0xbf062367	-0.5239777
1	0xbe5e36bc	-0.21700567
2	0xbe96de02	-0.29466254
3	0xbd5285a7	-0.051396992
4	0xbe81d0de	-0.25354666
5	0xbd6c03a8	-0.057620674
6	0x3e3054e0	0.17219877
7	0x3e1198ac	0.14218396
8	0x3bf92d90	0.0076043084
9	0x3e92970f	0.28630874
10	0xbec33159	-0.38123587
11	0x3ea01712	0.312676
12	0xbe0eba4b	-0.13938253
13	0x3e779490	0.24177766
14	0xbd198a08	-0.037485152
15	0xbe94b727	-0.29045984
16	0xbf9e350d	-1.235994
17	0xbbf77ef2	-0.007552975
18	0xbc87f36c	-0.016595565
19	0xbeba3bf3	-0.36373863
20	0xbd8a33c3	-0.06748154
21	0xbecda1ac	-0.40162408
22	0xbf2012fd	-0.62528974
23	0x3e5f42b0	0.21802783
24	0xbd65a57d	-0.056066025
25	0x3dbf0ba9	0.09328396
26	0x3e2593ac	0.16169614
27	0x3d1b21c5	0.037874002
28	0xbe513305	-0.20429619
29	0xbe108e5c	-0.14116806
30	0xbf3b0fb4	-0.73070836
31	0xbf0c09d8	-0.5470252
32	0x3f15fc3b	0.58588
33	0xbf17efd5	-0.5935033
34	0x3e51c27e	0.20484349
35	0xbe2ea7cb	-0.17056195
36	0x3cadb9a0	0.021206677
37	0x3d888245	0.06665472
38	0x3e1ab749	0.1510898
39	0x3e055fcc	0.13024825

policy_network.emb3.transform.bias f4 [20]
0	0x00000000	0.0
1	0x00000000	0.0
2	0x00000000	0.0
3	0xbe88f55c	-0.26749694
4	0xbe905510	-0.28189898
5	0xbe560b4b	-0.20902745
6	0xbe9c3069	-0.30505684
7	0xbdccccbe	-0.09999989
8	0x3e9526d4	0.29131186
9	0xbdccccbb	-0.09999987
10	0x00000000	0.0
11	0xbdd817cb	-0.10551413
12	0xbdaaf9d6	-0.08348434
13	0xbe218e54	-0.1577695
14	0x00000000	0.0
15	0x3eca4265	0.3950378
16	0xbec9cf38	-0.39415908
17	0xbe4c108c	-0.19928187
18	0xbdccccca	-0.09999998
19	0xbe9b0442	-0.30276686

policy_network.emb4.transform.weight f4 [20, 2]
0	0x3e1938c5	0.14963062
1	0x3dadcc33	0.084862135
2	0xbc77b4c8	-0.015118785
3	0xbe94c128	-0.29053617
4	0x3e18d0ef	0.14923452
5	0x3ca881f0	0.020569772
6	0xbe262d26	-0.1622816
7	0x3f2e42bc	0.6807058
8	0x3e2d814e	0.16943857
9	0xbe6d7816	-0.2319034
10	0x3f1bf689	0.6092306
11	0x3f5fadc5	0.87374526
12	0x3dea021e	0.11426185
13	0xbe0f3df4	-0.13988477
14	0xbe573284	-0.21015364
15	0xbe834f4b	-0.25646433
16	0xbe9ade3f	-0.30247685
17	0xbeba1a76	-0.36348313
18	0xbe035369	-0.12824787
19	0x3dc1349b	0.09433862
20	0xbc8c9b68	-0.017163947
21	0xbeb83797	-0.35979912
22	0x3d4773f1	0.048694555
23	0x3d6312cc	0.055437848
24	0xbd83a4ba	-0.064279035
25	0x3cee769e	0.029109295
26	0x3f155eb0	0.58347607
27	0x3f187feb	0.5957019
28	0xbe893c83	-0.2680398
29	0x3e4722b2	0.19446829
30	0x3e8f1589	0.27946118
31	0xbf036728	-0.5132928
32	0x3db38f7f	0.08767604
33	0xbcbd6532	-0.023119543
34	0xbf0f7ce2	-0.5604993
35	0x3f071937	0.5277285
36	0xbf67102c	-0.9025905
37	0x3d952016	0.072815105
38	0xbf050323	-0.5195791
39	0xbf02bd98	-0.5107055

policy_network.emb4.transform.bias f4 [20]
0	0xbe5d6c60	-0.21623373
1	0xbdcccbdb	-0.0999982
2	0xbe1b35f9	-0.15157308
3	0x3e0489ab	0.12943141
4	0xbde5026a	-0.11182101
5	0xbe8e6a00	-0.27815247
6	0xbda00689	-0.078137465
7	0x00000000	0.0
8	0x00000000	0.0
9	0xbd5721c7	-0.052522447
10	0x00000000	0.0
11	0xbdd12cec	-0.10213646
12	0xbd4bc53c	-0.049748644
13	0xbee4a198	-0.44654536
14	0xbe005f4a	-0.1253635
15	0xbe244b11	-0.1604426
16	0xbde1f3ae	-0.11032806
17	0xbe7cf89b	-0.2470421
18	0xbdcc9fda	-0.09991427
19	0x00000000	0.0

policy_network.h2.transform.weight f4 [20, 20]
0	0xbcb80930	-0.022465318
1	0x3d5a3bbc	0.053279623
2	0xbec7a7bf	-0.38995168
3	0xbd8f45d6	-0.06995742
4	0xbdd3695f	-0.10322832
5	0x3e8bff03	0.27342996
6	0xbf01105e	-0.504156
7	0xbf4f3492	-0.8093959
8	0xbd4bc1b1	-0.049745265
9	0xbef38d65	-0.47568813
10	0x3e9b8ee1	0.30382445
11	0x3e219a8c	0.15781611
12	0x3de30e99	0.11086769
13	0x3c8ea9e0	0.017414987
14	0xbe6e9f99	-0.23303069
15	0xbe8ecedc	-0.27892196
16	0xbea569a4	-0.3230716
17	0xbe9eaaf3	-0.309898
18	0xbed4e2a4	-0.41579163
19	0xbee82469	-0.4534028
20	0x3ce2bd5c	0.027678184
21	0x3c0ea8e6	0.008707261
22	0xbecb8167	-0.39747164
23	0x3e18421a	0.14868966
24	0xbacfa840	-0.0015842989
25	0xbf56b4e4	-0.8386977
26	0x3ccac720	0.024753153
27	0xbf10a4e3	-0.565016
28	0xbf4161f6	-0.755401
29	0x3e9a7736	0.30169076
30	0xbc0abfb8	-0.008468561
31	0xbe44132b	-0.19147937
32	0xbe926217	-0.28590462
33	0xbef90186	-0.48633975
34	0xbf0e9f5a	-0.557119
35	0xbea9e233	-0.3318039
36	0xbe73cf0c	-0.23809451
37	0xbe1077f3	-0.14108257
38	0xbea2302d	-0.3167738
39	0x3d31e352	0.04342968
40	0xbf024040	-0.5087929
41	0xbc341630	-0.010991618
42	0xbeccd655	-0.40007272
43	0xbefa4774	-0.4888264
44	0xbebd06bf	-0.3691921
45	0xbe5ae2cc	-0.21375579
46	0xbede7538	-0.43448806
47	0x3d3d445a	0.046207763
48	0x3d80fb12	0.06297888
49	0x3e107851	0.14108397
50	0xbd74eb66	-0.059794806
51	0xbe1df3a2	-0.1542497
52	0x3e66360c	0.22481555
53	0xbe40f1e8	-0.1884228
54	0x3dfae486	0.12250619
55	0xbf061104	-0.52369714
56	0x3edf925a	0.43666345
57	0xbe864e88	-0.2623179
58	0xbf44d2c6	-0.76884115
59	0x3ea0ebf4	0.31430018
60	0xbcabec5e	-0.020986732
61	0xbd69ab39	-0.057048056
62	0x3ea79031	0.32727197
63	0xbef5778a	-0.47942764
64	0x3e61837c	0.22022814
65	0x3d9be9b2	0.07612933
66	0xbf77b9a8	-0.96767664
67	0xbdb6976a	-0.08915599
68	0xbfd010da	-1.6255143
69	0x3f8add71	1.0848829
70	0xbedb4c1b	-0.428315
71	0x3f2d60fd	0.6772612
72	0xbe054a34	-0.13016587
73	0xbeeec5aa	-0.4663518
74	0xbf1aece2	-0.60517704
75	0xbec8a47e	-0.39187998
76	0xbd4687c5	-0.048469324
77	0xbef45ad1	-0.47725537
78	0x3e731dc6	0.23741826
79	0x3dcbc52e	0.099497184
80	0xbe3f702d	-0.18695135
81	0xbebea9b2	-0.37238842
82	0xbe9c364e	-0.3051018
83	0x3d847fdc	0.064697
84	0xbee9a755	-0.45635477
85	0xbdc9cf98	-0.098540485
86	0xbebd3e0b	-0.36961398
87	0xbeab9747	-0.33513853
88	0xbe88f013	-0.26745662
89	0x3ece1ffd	0.4025878
90	0x3e774876	0.24148735
91	0xbe0b7f73	-0.13622837
92	0xbd9d8c1b	-0.076927386
93	0x3f0e5253	0.55594367
94	0xbf077749	-0.5291639
95	0xbea3f5bd	-0.3202342
96	0xbc576318	-0.013146184
97	0x3ec8193c	0.39081752
98	0x3e8c0447	0.27347013
99	0xbc82d568	-0.0159709
100	0x3dbf8eb1	0.09353388
101	0x3e3ba204	0.18323523
102	0x3df93138	0.12167591
103	0x3edb8aaa	0.4287923
104	0x3e004c91	0.12529208
105	0x3f656452	0.896062
106	0x3ef742bf	0.4829311
107	0xbe1e2a1e	-0.15445754
108	0xc017cff2	-2.372067
109	0xbeb70c4c	-0.3575157
110	0xbe0a98b3	-0.13534813
111	0xbeb6d35c	-0.3570813
112	0xbe4cfbe4	-0.20017964
113	0xbe1d24d9	-0.15346088
114	0x3f0e6725	0.55626136
115	0xbf697b1e	-0.91203487
116	0x3d886966	0.06660728
117	0xbf38040c	-0.71881175
118	0x3e769a00	0.24082184
119	0xbdaf8cce	-0.08571778
120	0x3d5cdc36	0.053920947
121	0xbd55ce2f	-0.052198585
122	0xbec83a15	-0.39106813
123	0x3ecb0402	0.39651495
124	0x3e641ccb	0.22276609
125	0xbe58830c	-0.2114374
126	0xbdb878f4	-0.09007445
127	0x3ec53c31	0.38522485
128	0x3eafe63b	0.3435534
129	0xbf41673b	-0.7554814
130	0xbf0f0d9e	-0.55880153
131	0x3ecbc1bf	0.39796254
132	0x3aeaa5c2	0.0017902183
133	0xbf0e4a33	-0.5558197
134	0xbedafe58	-0.42772174
135	0xbf01a4c9	-0.5064207
136	0xbda363f9	-0.07978053
137	0xbede2164	-0.4338485
138	0xbd928f29	-0.07156212
139	0x3e4000e6	0.18750343
140	0xbeb4b324	-0.35292923
141	0xbf4f158d	-0.8089226
142	0xbe92ca4a	-0.2866996
143	0x3e97a3e0	0.29617214
144	0x3cf2014c	0.029541634
145	0xc016f383	-2.3586128
146	0xbf02999a	-0.5101563
147	0xbf9eac6a	-1.2396367
148	0x3f41cb00	0.7570038
149	0xbf6aecd3	-0.91767615
150	0xbd555b32	-0.052088924
151	0x3e4952de	0.19660518
152	0xbca82f18	-0.020530269
153	0xc035247b	-2.8303516
154	0xbf6ad1c9	-0.91726357
155	0xbcfb9d5b	-0.030714681
156	0x3e8f9f88	0.280514
157	0xbf6b50d6	-0.9192022
158	0x3e5f1f38	0.21789253
159	0xbf621b72	-0.8832313
160	0x3f08b0d8	0.5339484
161	0xbf3df082	-0.7419511
162	0xbe32fbde	-0.17478892
163	0xbe9886c2	-0.29790312
164	0xbf123acc	-0.57120967
165	0xbbea6b40	-0.0071538985
166	0x3d8a26d5	0.06745688
167	0xbe5831c2	-0.21112731
168	0xbeded262	-0.43519884
169	0xbe8665de	-0.26249593
170	0xbc6398f8	-0.013891451
171	0x3d64abfa	0.055828072
172	0xbd14b412	-0.03630454
173	0xbe11eb69	-0.14249958
174	0xbc1342b0	-0.0089880675
175	0xbf02fea4	-0.511698
176	0x3e854656	0.26030225
177	0xbf0170a9	-0.5056253
178	0x3ea3f46b	0.32022414
179	0x3dca9c84	0.09893134
180	0x3d21ce17	0.039503183
181	0xbdde952b	-0.10868295
182	0x3ef9b1b9	0.48768404
183	0xbd400354	-0.046878174
184	0xbe1f8b42	-0.15580466
185	0xbcb44530	-0.022005647
186	0x3e9bbac1	0.3041592
187	0xbe0a7598	-0.13521421
188	0x3dc451f9	0.095859475
189	0xbe643976	-0.22287545
190	0x3e8fa460	0.28055096
191	0x3ecdcbcb	0.40194544
192	0x3ec0f098	0.37683558
193	0xbf88c215	-1.0684229
194	0x3e3d2e94	0.184748
195	0x3dd85ee2	0.105649725
196	0x3d3d495e	0.046212547
197	0x3e92b3d6	0.2865283
198	0xbe1e676f	-0.15469144
199	0x3dfe56ba	0.124188855
200	0xbd3b4974	-0.045724347
201	0xbec4bdd2	-0.3842607
202	0x3e95274b	0.2913154
203	0x3e068139	0.13135232
204	0x3f3921bf	0.7231712
205	0xbef5e921	-0.48029426
206	0xbe0b03e6	-0.13575706
207	0xbdeb193c	-0.114794225
208	0x3dd46d07	0.10372358
209	0xbe9174bb	-0.2840937
210	0x3ef068c9	0.46954945
211	0x3e61fd54	0.22069293
212	0xbdfaaec9	-0.12240369
213	0x3e88e6f3	0.267387
214	0x3e57c962	0.21072915
215	0xbe07b214	-0.13251525
216	0x3e33f83c	0.17575163
217	0xbe909516	-0.28238744
218	0x3d14f9de	0.036371104
219	0x3eda57b9	0.42645052
220	0xbcd13b4b	-0.025540968
221	0xbe736417	-0.2376865
222	0xbed64418	-0.41848826
223	0xbee10070	-0.43945646
224	0x3f031c2e	0.51214874
225	0x3eb7f888	0.35931802
226	0x3e9e0c2d	0.30868664
227	0xbdecb2d0	-0.11557543
228	0x3e8637a7	0.26214334
229	0x3dd23877	0.10264676
230	0x3e312929	0.17300858
231	0xbf169a1f	-0.5882892
232	0x3e989ae7	0.2980568
233	0xbe96eb33	-0.29476318
234	0xbe7c0ece	-0.24615023
235	0xbe89549a	-0.26822358
236	0xbe1037c4	-0.14083773
237	0xbe6ec649	-0.23317827
238	0x3e7e485a	0.24832287
239	0x3d6a32e0	0.057177424
240	0x3ea1cee1	0.3160315
241	0x3e8bca69	0.27302864
242	0xbc87e39b	-0.016588023
243	0xbea23fc5	-0.31689277
244	0x3e401478	0.18757808
245	0xbe386652	-0.18007782
246	0xbecdb342	-0.40175825
247	0x3e37b35a	0.17939511
248	0x3e692e54	0.22771579
249	0xbeb346f1	-0.35015061
250	0x3eea75d0	0.4579301
251	0x3d41f9e2	0.047357447
252	0xbf0b46bb	-0.544048
253	0xbef3000f	-0.47460982
254	0x3db54fea	0.08853133
255	0xbefa1c0c	-0.48849523

policy_network.h2.transform.bias f4 [20]
0	0xbe3a2e66	-0.18181762
1	0xbe1e861a	-0.15480843
2	0xbdcccc7d	-0.099999405
3	0xbdb7156e	-0.08939634
4	0xbe057780	-0.13033867
5	0x3e221e7b	0.1583194
6	0xbd7aebc6	-0.061260007
7	0x3f290632	0.6602508
8	0xbdccccc8	-0.099999964
9	0xbe911394	-0.2833525
10	0xbddb6d32	-0.10714187
11	0xbe3ed58c	-0.18636149
12	0xbe38af22	-0.18035558
13	0xbe73dca4	-0.23814636
14	0x3f009472	0.5022651
15	0xbdcccb28	-0.099996865
16	0xbe69d57b	-0.22835343
17	0xbe76ad3b	-0.2408952
18	0x3eb4f607	0.35343954
19	0xbe1d043f	-0.15333651

policy_network.h3.transform.weight f4 [20, 20]
0	0x3c92a7d5	0.017902294
1	0xbdc311bc	-0.09524867
2	0x3f151ef3	0.5825035
3	0xbdebe852	-0.11518921
4	0x3e02ce48	0.12774003
5	0xbf6adcc3	-0.91743106
6	0xbf032f58	-0.51244116
7	0x3e861dd6	0.26194638
8	0x3e7ec2e6	0.24879035
9	0xbeba76c7	-0.36418745
10	0xba2e3680	-0.00066456944
11	0x3ea6aeda	0.32555276
12	0xbeba352c	-0.36368692
13	0xbe92ad7f	-0.28647992
14	0xbef7a820	-0.48370457
15	0xbead4e7c	-0.3384894
16	0xbe0e974c	-0.13924903
17	0xbe8957f2	-0.2682491
18	0xbf294961	-0.6612759
19	0xbe3df661	-0.18551017
20	0xbc8733ec	-0.01650425
21	0xbf00d325	-0.5032218
22	0xbda9ec04	-0.082969695
23	0xbee1e716	-0.44121617
24	0x3e3f9f33	0.18713073
25	0xbe94abb5	-0.29037252
26	0x3f5a8357	0.8535666
27	0x3fb45ec4	1.409142
28	0xbca703a0	-0.02038747
29	0xbe948180	-0.2900505
30	0xbe5e4693	-0.2170661
31	0x3f0c2a17	0.54751724
32	0xbe999176	-0.2999379
33	0xbd2f1862	-0.042747863
34	0x3b340a64	0.0027472014
35	0x3da586f9	0.080823846
36	0xbeea5b73	-0.45772895
37	0x3c5b05dc	0.013368096
38	0x3eb3c27c	0.35109317
39	0x3f0c4407	0.547913
40	0x3f0386cf	0.51377577
41	0x3e82cdf6	0.2554776
42	0x3d99f0ac	0.07516608
43	0xbe2f5feb	-0.17126434
44	0xbf087ac3	-0.5331232
45	0xbe15eee3	-0.1464191
46	0x3e7260d4	0.2366975
47	0x3f06c42e	0.52643096
48	0x3ebbed85	0.3670465
49	0x3e71a378	0.23597515
50	0xbe23a0c2	-0.15979293
51	0xbd903334	-0.07041016
52	0x3e376b2c	0.17911977
53	0x3e722cd0	0.23649907
54	0xbe455e6d	-0.19274302
55	0xbef78d12	-0.48349816
56	0xbe3c817d	-0.18408771
57	0x3ed629f4	0.41828883
58	0x3c01cc6e	0.007922275
59	0xbe796791	-0.24355914
60	0x3e464252	0.19361237
61	0x3eed50a8	0.46350598
62	0x3eba66ed	0.3640665
63	0xbd802a6d	-0.06258092
64	0x3f75e15d	0.96047
65	0xbe790ac4	-0.24320513
66	0x3e9d0fdc	0.30676162
67	0xbfc8766c	-1.566114
68	0xbe062d77	-0.13103281
69	0xbf01f48f	-0.5076379
70	0x3e45f60e	0.19332144
71	0xbd8948ea	-0.067033604
72	0xbd6732b0	-0.056444824
73	0x3eb02e74	0.3441044
74	0xbe31ac4a	-0.1735088
75	0x3d7f674a	0.062354364
76	0xbeb21ba9	-0.34786728
77	0xbde0ccb3	-0.10976543
78	0xbeca18e0	-0.39472103
79	0xbe401d29	-0.18761124
80	0x3dd5f087	0.104462676
81	0x3ea7b1de	0.3275289
82	0xbe32ff3c	-0.17480177
83	0x3c509d05	0.012732749
84	0xbf36908c	-0.7131431
85	0xbfa41546	-1.2818992
86	0x3e620376	0.22071633
87	0x3e57da71	0.21079423
88	0x3f4e5c0e	0.80609214
89	0x3da81b1b	0.08208295
90	0x3f0281f2	0.5097953
91	0xbdf3ad78	-0.11898321
92	0xbf2a13a4	-0.6643622
93	0x3d388970	0.045052946
94	0xbe0a5b2c	-0.13511342
95	0x3dbb9a1f	0.09160256
96	0x3f092ddb	0.53585595
97	0x3e0d75e4	0.13814503
98	0x3f811512	1.0084555
99	0x3e5024f0	0.2032659
100	0xbdf3e866	-0.11909561
101	0x3f376f24	0.7165396
102	0x3edde226	0.433366
103	0x3e99dc76	0.3005101
104	0xbf0d9627	-0.5530724
105	0xbf8b9d9a	-1.0907471
106	0x3f01169a	0.5042511
107	0x3eabf76c	0.33587205
108	0x3ce1ae94	0.027549066
109	0x3e3ed888	0.18637288
110	0x3e9793cd	0.2960495
111	0x3d18045e	0.03711354
112	0x3ec74fa1	0.3892794
113	0xbe4f7f72	-0.2026346
114	0x3f0e22fe	0.55522144
115	0xbd3c788f	-0.04601341
116	0x3d85c355	0.06531397
117	0x3e712bbe	0.23551843
118	0xbdb3e94c	-0.08784732
119	0x3e9148bc	0.28375804
120	0xbea17051	-0.31531003
121	0xbeb39d55	-0.35080972
122	0x3f09d507	0.5384068
123	0xbf2ef390	-0.68340397
124	0xbfed0482	-1.8517001
125	0xbe223433	-0.15840225
126	0xbe4b0896	-0.19827494
127	0x3eb06c2d	0.34457532
128	0xbe054892	-0.13015965
129	0x3f13e046	0.5776409
130	0x3ed5885e	0.41705602
131	0x3d52f282	0.051500805
132	0xbf2ee3e9	-0.68316513
133	0x3e6a47d6	0.22878966
134	0x3f30ec35	0.69110423
135	0x3d067786	0.03282883
136	0x3d6df994	0.058099344
137	0xbd8968c7	-0.06709438
138	0x3ec42a7a	0.38313657
139	0x3eb38d35	0.3506867
140	0x3e2721c0	0.16321468
141	0xbe1ce2c6	-0.15320882
142	0x3e32f664	0.17476803
143	0x3e92f694	0.2870375
144	0x3d8af174	0.06784335
145	0xbf3aa182	-0.7290269
146	0x3e8d15a5	0.27555576
147	0xbe811bff	-0.25216672
148	0xbeab4149	-0.33448246
149	0xbb50f963	-0.0031886927
150	0xbeadbdb6	-0.339338
151	0x3de30155	0.110842384
152	0x3aaed4b9	0.0013338543
153	0x3ee94976	0.4556386
154	0xbeb06bef	-0.34457347
155	0xbe411f1c	-0.18859524
156	0x3f171b8f	0.59026426
157	0xbe2956fc	-0.16537088
158	0x3f120111	0.5703288
159	0x3e0ad753	0.13558702
160	0x3e974c7d	0.29550543
161	0xbe9d42fd	-0.3071517
162	0xbe86e24a	-0.2634452
163	0x3cd2763c	0.025691144
164	0x3f49d65d	0.7884272
165	0x3e87fda5	0.26560703
166	0x3db0bffc	0.08630368
167	0xbfabd5c3	-1.342461
168	0x3e822d98	0.2542541
169	0xbd2f449e	-0.042790048
170	0x3f1f7610	0.62289524
171	0xbd0817c6	-0.033225797
172	0xbe5f12c6	-0.21784505
173	0x3ed1740d	0.40908852
174	0xbfd10468	-1.632947
175	0x3e99abb8	0.30013824
176	0x3eb4c1b2	0.35304028
177	0x3ed490c0	0.41516685
178	0x3fe234ff	1.7672423
179	0x3e3c69aa	0.18399683
180	0xbe6919bc	-0.22763723
181	0x3e286850	0.16446042
182	0xbe26c79c	-0.16287082
183	0xbea01496	-0.31265706
184	0xbecc0ef7	-0.39855167
185	0x3f1ee444	0.62067056
186	0xbd6fa6fb	-0.058508854
187	0xc00b32b2	-2.1749692
188	0x3e8520be	0.26001543
189	0xbe99aefd	-0.30016318
190	0xbd647dde	-0.0557841
191	0x3ba46149	0.00501648
192	0xbc852c60	-0.016256511
193	0xbde869c0	-0.11348295
194	0xbf72ebae	-0.9489087
195	0xbf3d122a	-0.7385584
196	0x3edd8bf2	0.43270832
197	0xbe4be39c	-0.19911045
198	0x3ff318a1	1.8991891
199	0x3f31ce55	0.6945546
200	0x3eb706b4	0.35747302
201	0xbec3b629	-0.38224915
202	0x3cceeeec	0.025260411
203	0xbefe969a	-0.49724275
204	0x3f1c8048	0.6113324
205	0xbef36f1f	-0.47545716
206	0x3eee5fa8	0.46557355
207	0x3fec8ad5	1.8479868
208	0xbd946b43	-0.07247021
209	0x3ec1e6e1	0.3787146
210	0x3cb9f783	0.02270103
211	0xbef45677	-0.47722217
212	0x3f0bfdc5	0.54684097
213	0xbd5dc3ae	-0.054141693
214	0x3ea3c376	0.31985062
215	0xbe9f3ada	-0.31099588
216	0x3d96f8c2	0.073716655
217	0x3dee69c1	0.11641265
218	0x3f273640	0.65317154
219	0x3ed11c8f	0.408421
220	0x3cf491b4	0.029854633
221	0x3dc438ac	0.09581122
222	0x3ebefa54	0.3730036
223	0xbedc4b4e	-0.43026203
224	0x3ccf9742	0.02534068
225	0xbe2f6452	-0.17128113
226	0xbee26d51	-0.44224027
227	0x3ea6d37e	0.3258323
228	0x3ecc6ad7	0.39925262
229	0xbd6426f7	-0.055701222
230	0xbf3a4cf6	-0.72773683
231	0xbe1194d0	-0.14216924
232	0x3daf6e79	0.08565993
233	0xbe8a2c32	-0.26986843
234	0xbee21323	-0.44155225
235	0x3f3a1fb8	0.7270465
236	0x3da3b633	0.07993736
237	0xbe3c1ceb	-0.18370406
238	0x3e58b954	0.21164447
239	0x3d75d89c	0.060021028
240	0x3ebdf8b9	0.37103823
241	0xbeab2ad1	-0.33431104
242	0x3e87d680	0.26530838
243	0xbde76c61	-0.112999685
244	0xbf2ea64d	-0.68222505
245	0xbf80c5f8	-1.0060415
246	0x3e517ad2	0.20457008
247	0x3e02699a	0.12735596
248	0xbdcd81e6	-0.10034542
249	0xbf21290c	-0.6295326
250	0x3f0616a7	0.52378315
251	0xbda585cf	-0.080821626
252	0x3f0d6878	0.5523753
253	0xbeba8dc5	-0.36436287
254	0xbd1bf462	-0.03807486
255	0x3e621b4f	0.2208073

policy_network.h3.transform.bias f4 [20]
0	0xbe47c7a9	-0.19509758
1	0x3e43bdea	0.19115415
2	0xbe8e0bd1	-0.2774339
3	0xbe41619e	-0.18884894
4	0x3f549f28	0.83055353
5	0xbef3e765	-0.47637478
6	0xbf2ff37c	-0.687309
7	0x3d1186eb	0.03552906
8	0x3dd29a5b	0.10283347
9	0xbdc9b221	-0.098484285
10	0x3e610b3b	0.2197694
11	0xbd0b86b2	-0.034064002
12	0x3f1cf5f1	0.61312777
13	0x3f00cdea	0.503142
14	0x3e405c21	0.18785144
15	0xbe4f1177	-0.20221506
16	0xbe4deb1a	-0.20109215
17	0x3e287762	0.16451791
18	0xbde3f545	-0.11130766
19	0xbdd70c5c	-0.10500404

policy_network.critic_linear.weight f4 [1, 20]
0	0xbd68db6a	-0.056849875
1	0xbed78252	-0.42091614
2	0xbd73dbef	-0.059535917
3	0xbf2ada9c	-0.6673982
4	0xbf9dc990	-1.2327137
5	0x3fcdb56a	1.6070988
6	0x3fdbabf2	1.7161849
7	0x3f24abb5	0.64324504
8	0x3f43a951	0.7643023
9	0x3ec7a01c	0.3898934
10	0xbf055af7	-0.52091926
11	0x3d43bffe	0.04779052
12	0xbf00f383	-0.5037157
13	0xbe400166	-0.18750533
14	0xbf3af85f	-0.73035234
15	0x3d25aa0b	0.04044537
16	0xbd6533e0	-0.055957675
17	0xbf0eb3ea	-0.5574328
18	0x3e6fbb36	0.23411259
19	0x3db611b8	0.08890098

target_network.emb1.transform.weight f4 [20, 2]
0	0x3cfcbb80	0.030851126
1	0x3e8d45e7	0.27592394
2	0xbce73b3c	-0.028226487
3	0xbf2bcd47	-0.67110103
4	0xbbf13fde	-0.00736235
5	0xbea9be48	-0.33152986
6	0xbe303e94	-0.17211372
7	0xbeaad970	-0.33369017
8	0x3bf3af5c	0.007436676
9	0x3eb08042	0.34472853
10	0xbf040f02	-0.515854
11	0x3efe2025	0.496339
12	0xbe501a9a	-0.20322648
13	0xbd8ecd33	-0.069727324
14	0xbe9340f1	-0.28760484
15	0xbe90d0c1	-0.28284267
16	0x3c965ea0	0.018355668
17	0x3d1b2322	0.037875302
18	0xbd4133f9	-0.047168706
19	0x3e7ebd13	0.24876814
20	0xbe15ba4d	-0.1462185
21	0x3cceee35	0.02526007
22	0xbe463c5b	-0.19358961
23	0x3e6381cd	0.22217484
24	0x3e8d33f0	0.27578688
25	0xbebd1ea7	-0.36937448
26	0xbe9955f0	-0.29948378
27	0x3ea1417c	0.31495273
28	0x3d9f22a1	0.07770277
29	0xbceb5c9c	-0.028730683
30	0xbf3ee9a2	-0.74575245
31	0x3e764696	0.24050364
32	0xbf1b5ac9	-0.606854
33	0xbe6b58c6	-0.22983083
34	0xbeda7f61	-0.42675307
35	0xbec64ecd	-0.38731995
36	0xbe044496	-0.12916788
37	0x3c1f2ed0	0.009715751
38	0xbe9e32ad	-0.30898038
39	0xbe9877c6	-0.2977888

target_network.emb1.transform.bias f4 [20]
0	0xbdccccc3	-0.09999993
1	0xbdcccc71	-0.099999316
2	0x00000000	0.0
3	0x00000000	0.0
4	0xbde38aa7	-0.1111043
5	0x00000000	0.0
6	0x00000000	0.0
7	0x00000000	0.0
8	0xbdcccccb	-0.09999999
9	0xbe08d2de	-0.1336169
10	0x00000000	0.0
11	0xbc09bc04	-0.008406643
12	0xbdfe2498	-0.124093235
13	0xb9ad1c80	-0.00033018366
14	0xbdcccccb	-0.09999999
15	0x00000000	0.0
16	0x00000000	0.0
17	0x00000000	0.0
18	0xbdcccccb	-0.09999999
19	0x00000000	0.0

target_network.emb2.transform.weight f4 [20, 2]
0	0x3d4ee9c8	0.05051592
1	0x3e0bde71	0.13659073
2	0xbdd04a98	-0.10170478
3	0x3ef53274	0.47890055
4	0xbe928e19	-0.28624037
5	0x3d038d6d	0.032117296
6	0xbd470daa	-0.048597015
7	0xbdd237d0	-0.10264552
8	0x3ea68e2d	0.32530347
9	0xbe5e4a29	-0.21707977
10	0xbd87868d	-0.066174604
11	0x3e2ff3ae	0.171828
12	0x3c977c23	0.01849181
13	0x3f5bd001	0.85864264
14	0xbe7f4d6b	-0.24931876
15	0x3ef2466a	0.47319347
16	0xbe89a0a6	-0.26880378
17	0x3e076488	0.13221943
18	0x3f04f9b7	0.51943535
19	0x3f689ae3	0.9086134
20	0x3dac3754	0.084089905
21	0xbf0dc4b2	-0.5537826
22	0xbf5db806	-0.8660892
23	0xbe3cc72c	-0.18435353
24	0xbd644565	-0.055730242
25	0x3d6d4883	0.05793048
26	0xbe92d86a	-0.28680736
27	0x3e826376	0.25466508
28	0x3d47752d	0.048695732
29	0x3f6dabdf	0.9284038
30	0xbe28b416	-0.16474947
31	0x3d62c5ec	0.055364534
32	0xbf1958ce	-0.5990113
33	0x3dd36727	0.10322409
34	0x3f376bda	0.71648943
35	0x3f3223e0	0.6958599
36	0xbdba2cc1	-0.090905674
37	0xbdf88c61	-0.1213615
38	0xbc834524	-0.01602418
39	0x3bae7200	0.0053236485

target_network.emb2.transform.bias f4 [20]
0	0xbe4cb04c	-0.19989127
1	0xbe84fc53	-0.25973758
2	0x00000000	0.0
3	0x00000000	0.0
4	0xbe364ce1	-0.17802764
5	0xbdf9fc82	-0.12206365
6	0xbe82cf20	-0.2554865
7	0xbe341d60	-0.1758933
8	0xbdccc62b	-0.09998735
9	0xbe8aac78	-0.27084708
10	0xbd6bb520	-0.05754578
11	0x00000000	0.0
12	0xbcdc0764	-0.026858993
13	0xbda94258	-0.08264607
14	0xbe626048	-0.22107041
15	0xbd4203c4	-0.047366872
16	0x00000000	0.0
17	0xbc854ca0	-0.01627189
18	0x00000000	0.0
19	0xbdcccccb	-0.09999999

target_network.emb3.transform.weight f4 [20, 2]
0	0xbf062367	-0.5239777
1	0xbe5e36bc	-0.21700567
2	0xbe96de02	-0.29466254
3	0xbd5285a7	-0.051396992
4	0xbe81d0de	-0.25354666
5	0xbd6c03a8	-0.057620674
6	0x3e3054e0	0.17219877
7	0x3e1198ac	0.14218396
8	0x3bf92d90	0.0076043084
9	0x3e92970f	0.28630874
10	0xbec33159	-0.38123587
11	0x3ea01712	0.312676
12	0xbe0eba4b	-0.13938253
13	0x3e779490	0.24177766
14	0xbd198a08	-0.037485152
15	0xbe94b727	-0.29045984
16	0xbf9e350d	-1.235994
17	0xbbf77ef2	-0.007552975
18	0xbc87f36c	-0.016595565
19	0xbeba3bf3	-0.36373863
20	0xbd8a33c3	-0.06748154
21	0xbecda1ac	-0.40162408
22	0xbf2012fd	-0.62528974
23	0x3e5f42b0	0.21802783
24	0xbd65a57d	-0.056066025
25	0x3dbf0ba9	0.09328396
26	0x3e2593ac	0.16169614
27	0x3d1b21c5	0.037874002
28	0xbe513305	-0.20429619
29	0xbe108e5c	-0.14116806
30	0xbf3b0fb4	-0.73070836
31	0xbf0c09d8	-0.5470252
32	0x3f15fc3b	0.58588
33	0xbf17efd5	-0.5935033
34	0x3e51c27e	0.20484349
35	0xbe2ea7cb	-0.17056195
36	0x3cadb9a0	0.021206677
37	0x3d888245	0.06665472
38	0x3e1ab749	0.1510898
39	0x3e055fcc	0.13024825

target_network.emb3.transform.bias f4 [20]
0	0x00000000	0.0
1	0x00000000	0.0
2	0x00000000	0.0
3	0xbe88f55c	-0.26749694
4	0xbe905510	-0.28189898
5	0xbe560b4b	-0.20902745
6	0xbe9c3069	-0.30505684
7	0xbdccccbe	-0.09999989
8	0x3e9526d4	0.29131186
9	0xbdccccbb	-0.09999987
10	0x00000000	0.0
11	0xbdd817cb	-0.10551413
12	0xbdaaf9d6	-0.08348434
13	0xbe218e54	-0.1577695
14	0x00000000	0.0
15	0x3eca4265	0.3950378
16	0xbec9cf38	-0.39415908
17	0xbe4c108c	-0.19928187
18	0xbdccccca	-0.09999998
19	0xbe9b0442	-0.30276686

target_network.emb4.transform.weight f4 [20, 2]
0	0x3e1938c5	0.14963062
1	0x3dadcc33	0.084862135
2	0xbc77b4c8	-0.015118785
3	0xbe94c128	-0.29053617
4	0x3e18d0ef	0.14923452
5	0x3ca881f0	0.020569772
6	0xbe262d26	-0.1622816
7	0x3f2e42bc	0.6807058
8	0x3e2d814e	0.16943857
9	0xbe6d7816	-0.2319034
10	0x3f1bf689	0.6092306
11	0x3f5fadc5	0.87374526
12	0x3dea021e	0.11426185
13	0xbe0f3df4	-0.13988477
14	0xbe573284	-0.21015364
15	0xbe834f4b	-0.25646433
16	0xbe9ade3f	-0.30247685
17	0xbeba1a76	-0.36348313
18	0xbe035369	-0.12824787
19	0x3dc1349b	0.09433862
20	0xbc8c9b68	-0.017163947
21	0xbeb83797	-0.35979912
22	0x3d4773f1	0.048694555
23	0x3d6312cc	0.055437848
24	0xbd83a4ba	-0.064279035
25	0x3cee769e	0.029109295
26	0x3f155eb0	0.58347607
27	0x3f187feb	0.5957019
28	0xbe893c83	-0.2680398
29	0x3e4722b2	0.19446829
30	0x3e8f1589	0.27946118
31	0xbf036728	-0.5132928
32	0x3db38f7f	0.08767604
33	0xbcbd6532	-0.023119543
34	0xbf0f7ce2	-0.5604993
35	0x3f071937	0.5277285
36	0xbf67102c	-0.9025905
37	0x3d952016	0.072815105
38	0xbf050323	-0.5195791
39	0xbf02bd98	-0.5107055

target_network.emb4.transform.bias f4 [20]
0	0xbe5d6c60	-0.21623373
1	0xbdcccbdb	-0.0999982
2	0xbe1b35f9	-0.15157308
3	0x3e0489ab	0.12943141
4	0xbde5026a	-0.11182101
5	0xbe8e6a00	-0.27815247
6	0xbda00689	-0.078137465
7	0x00000000	0.0
8	0x00000000	0.0
9	0xbd5721c7	-0.052522447
10	0x00000000	0.0
11	0xbdd12cec	-0.10213646
12	0xbd4bc53c	-0.049748644
13	0xbee4a198	-0.44654536
14	0xbe005f4a	-0.1253635
15	0xbe244b11	-0.1604426
16	0xbde1f3ae	-0.11032806
17	0xbe7cf89b	-0.2470421
18	0xbdcc9fda	-0.09991427
19	0x00000000	0.0

target_network.h2.transform.weight f4 [20, 20]
0	0xbcb80930	-0.022465318
1	0x3d5a3bbc	0.053279623
2	0xbec7a7bf	-0.38995168
3	0xbd8f45d6	-0.06995742
4	0xbdd3695f	-0.10322832
5	0x3e8bff03	0.27342996
6	0xbf01105e	-0.504156
7	0xbf4f3492	-0.8093959
8	0xbd4bc1b1	-0.049745265
9	0xbef38d65	-0.47568813
10	0x3e9b8ee1	0.30382445
11	0x3e219a8c	0.15781611
12	0x3de30e99	0.11086769
13	0x3c8ea9e0	0.017414987
14	0xbe6e9f99	-0.23303069
15	0xbe8ecedc	-0.27892196
16	0xbea569a4	-0.3230716
17	0xbe9eaaf3	-0.309898
18	0xbed4e2a4	-0.41579163
19	0xbee82469	-0.4534028
20	0x3ce2bd5c	0.027678184
21	0x3c0ea8e6	0.008707261
22	0xbecb8167	-0.39747164
23	0x3e18421a	0.14868966
24	0xbacfa840	-0.0015842989
25	0xbf56b4e4	-0.8386977
26	0x3ccac720	0.024753153
27	0xbf10a4e3	-0.565016
28	0xbf4161f6	-0.755401
29	0x3e9a7736	0.30169076
30	0xbc0abfb8	-0.008468561
31	0xbe44132b	-0.19147937
32	0xbe926217	-0.28590462
33	0xbef90186	-0.48633975
34	0xbf0e9f5a	-0.557119
35	0xbea9e233	-0.3318039
36	0xbe73cf0c	-0.23809451
37	0xbe1077f3	-0.14108257
38	0xbea2302d	-0.3167738
39	0x3d31e352	0.04342968
40	0xbf024040	-0.5087929
41	0xbc341630	-0.010991618
42	0xbeccd655	-0.40007272
43	0xbefa4774	-0.4888264
44	0xbebd06bf	-0.3691921
45	0xbe5ae2cc	-0.21375579
46	0xbede7538	-0.43448806
47	0x3d3d445a	0.046207763
48	0x3d80fb12	0.06297888
49	0x3e107851	0.14108397
50	0xbd74eb66	-0.059794806
51	0xbe1df3a2	-0.1542497
52	0x3e66360c	0.22481555
53	0xbe40f1e8	-0.1884228
54	0x3dfae486	0.12250619
55	0xbf061104	-0.52369714
56	0x3edf925a	0.43666345
57	0xbe864e88	-0.2623179
58	0xbf44d2c6	-0.76884115
59	0x3ea0ebf4	0.31430018
60	0xbcabec5e	-0.020986732
61	0xbd69ab39	-0.057048056
62	0x3ea79031	0.32727197
63	0xbef5778a	-0.47942764
64	0x3e61837c	0.22022814
65	0x3d9be9b2	0.07612933
66	0xbf77b9a8	-0.96767664
67	0xbdb6976a	-0.08915599
68	0xbfd010da	-1.6255143
69	0x3f8add71	1.0848829
70	0xbedb4c1b	-0.428315
71	0x3f2d60fd	0.6772612
72	0xbe054a34	-0.13016587
73	0xbeeec5aa	-0.4663518
74	0xbf1aece2	-0.60517704
75	0xbec8a47e	-0.39187998
76	0xbd4687c5	-0.048469324
77	0xbef45ad1	-0.47725537
78	0x3e731dc6	0.23741826
79	0x3dcbc52e	0.099497184
80	0xbe3f702d	-0.18695135
81	0xbebea9b2	-0.37238842
82	0xbe9c364e	-0.3051018
83	0x3d847fdc	0.064697
84	0xbee9a755	-0.45635477
85	0xbdc9cf98	-0.098540485
86	0xbebd3e0b	-0.36961398
87	0xbeab9747	-0.33513853
88	0xbe88f013	-0.26745662
89	0x3ece1ffd	0.4025878
90	0x3e774876	0.24148735
91	0xbe0b7f73	-0.13622837
92	0xbd9d8c1b	-0.076927386
93	0x3f0e5253	0.55594367
94	0xbf077749	-0.5291639
95	0xbea3f5bd	-0.3202342
96	0xbc576318	-0.013146184
97	0x3ec8193c	0.39081752
98	0x3e8c0447	0.27347013
99	0xbc82d568	-0.0159709
100	0x3dbf8eb1	0.09353388
101	0x3e3ba204	0.18323523
102	0x3df93138	0.12167591
103	0x3edb8aaa	0.4287923
104	0x3e004c91	0.12529208
105	0x3f656452	0.896062
106	0x3ef742bf	0.4829311
107	0xbe1e2a1e	-0.15445754
108	0xc017cff2	-2.372067
109	0xbeb70c4c	-0.3575157
110	0xbe0a98b3	-0.13534813
111	0xbeb6d35c	-0.3570813
112	0xbe4cfbe4	-0.20017964
113	0xbe1d24d9	-0.15346088
114	0x3f0e6725	0.55626136
115	0xbf697b1e	-0.91203487
116	0x3d886966	0.06660728
117	0xbf38040c	-0.71881175
118	0x3e769a00	0.24082184
119	0xbdaf8cce	-0.08571778
120	0x3d5cdc36	0.053920947
121	0xbd55ce2f	-0.052198585
122	0xbec83a15	-0.39106813
123	0x3ecb0402	0.39651495
124	0x3e641ccb	0.22276609
125	0xbe58830c	-0.2114374
126	0xbdb878f4	-0.09007445
127	0x3ec53c31	0.38522485
128	0x3eafe63b	0.3435534
129	0xbf41673b	-0.7554814
130	0xbf0f0d9e	-0.55880153
131	0x3ecbc1bf	0.39796254
132	0x3aeaa5c2	0.0017902183
133	0xbf0e4a33	-0.5558197
134	0xbedafe58	-0.42772174
135	0xbf01a4c9	-0.5064207
136	0xbda363f9	-0.07978053
137	0xbede2164	-0.4338485
138	0xbd928f29	-0.07156212
139	0x3e4000e6	0.18750343
140	0xbeb4b324	-0.35292923
141	0xbf4f158d	-0.8089226
142	0xbe92ca4a	-0.2866996
143	0x3e97a3e0	0.29617214
144	0x3cf2014c	0.029541634
145	0xc016f383	-2.3586128
146	0xbf02999a	-0.5101563
147	0xbf9eac6a	-1.2396367
148	0x3f41cb00	0.7570038
149	0xbf6aecd3	-0.91767615
150	0xbd555b32	-0.052088924
151	0x3e4952de	0.19660518
152	0xbca82f18	-0.020530269
153	0xc035247b	-2.8303516
154	0xbf6ad1c9	-0.91726357
155	0xbcfb9d5b	-0.030714681
156	0x3e8f9f88	0.280514
157	0xbf6b50d6	-0.9192022
158	0x3e5f1f38	0.21789253
159	0xbf621b72	-0.8832313
160	0x3f08b0d8	0.5339484
161	0xbf3df082	-0.7419511
162	0xbe32fbde	-0.17478892
163	0xbe9886c2	-0.29790312
164	0xbf123acc	-0.57120967
165	0xbbea6b40	-0.0071538985
166	0x3d8a26d5	0.06745688
167	0xbe5831c2	-0.21112731
168	0xbeded262	-0.43519884
169	0xbe8665de	-0.26249593
170	0xbc6398f8	-0.013891451
171	0x3d64abfa	0.055828072
172	0xbd14b412	-0.03630454
173	0xbe11eb69	-0.14249958
174	0xbc1342b0	-0.0089880675
175	0xbf02fea4	-0.511698
176	0x3e854656	0.26030225
177	0xbf0170a9	-0.5056253
178	0x3ea3f46b	0.32022414
179	0x3dca9c84	0.09893134
180	0x3d21ce17	0.039503183
181	0xbdde952b	-0.10868295
182	0x3ef9b1b9	0.48768404
183	0xbd400354	-0.046878174
184	0xbe1f8b42	-0.15580466
185	0xbcb44530	-0.022005647
186	0x3e9bbac1	0.3041592
187	0xbe0a7598	-0.13521421
188	0x3dc451f9	0.095859475
189	0xbe643976	-0.22287545
190	0x3e8fa460	0.28055096
191	0x3ecdcbcb	0.40194544
192	0x3ec0f098	0.37683558
193	0xbf88c215	-1.0684229
194	0x3e3d2e94	0.184748
195	0x3dd85ee2	0.105649725
196	0x3d3d495e	0.046212547
197	0x3e92b3d6	0.2865283
198	0xbe1e676f	-0.15469144
199	0x3dfe56ba	0.124188855
200	0xbd3b4974	-0.045724347
201	0xbec4bdd2	-0.3842607
202	0x3e95274b	0.2913154
203	0x3e068139	0.13135232
204	0x3f3921bf	0.7231712
205	0xbef5e921	-0.48029426
206	0xbe0b03e6	-0.13575706
207	0xbdeb193c	-0.114794225
208	0x3dd46d07	0.10372358
209	0xbe9174bb	-0.2840937
210	0x3ef068c9	0.46954945
211	0x3e61fd54	0.22069293
212	0xbdfaaec9	-0.12240369
213	0x3e88e6f3	0.267387
214	0x3e57c962	0.21072915
215	0xbe07b214	-0.13251525
216	0x3e33f83c	0.17575163
217	0xbe909516	-0.28238744
218	0x3d14f9de	0.036371104
219	0x3eda57b9	0.42645052
220	0xbcd13b4b	-0.025540968
221	0xbe736417	-0.2376865
222	0xbed64418	-0.41848826
223	0xbee10070	-0.43945646
224	0x3f031c2e	0.51214874
225	0x3eb7f888	0.35931802
226	0x3e9e0c2d	0.30868664
227	0xbdecb2d0	-0.11557543
228	0x3e8637a7	0.26214334
229	0x3dd23877	0.10264676
230	0x3e312929	0.17300858
231	0xbf169a1f	-0.5882892
232	0x3e989ae7	0.2980568
233	0xbe96eb33	-0.29476318
234	0xbe7c0ece	-0.24615023
235	0xbe89549a	-0.26822358
236	0xbe1037c4	-0.14083773
237	0xbe6ec649	-0.23317827
238	0x3e7e485a	0.24832287
239	0x3d6a32e0	0.057177424
240	0x3ea1cee1	0.3160315
241	0x3e8bca69	0.27302864
242	0xbc87e39b	-0.016588023
243	0xbea23fc5	-0.31689277
244	0x3e401478	0.18757808
245	0xbe386652	-0.18007782
246	0xbecdb342	-0.40175825
247	0x3e37b35a	0.17939511
248	0x3e692e54	0.22771579
249	0xbeb346f1	-0.35015061
250	0x3eea75d0	0.4579301
251	0x3d41f9e2	0.047357447
252	0xbf0b46bb	-0.544048
253	0xbef3000f	-0.47460982
254	0x3db54fea	0.08853133
255	0xbefa1c0c	-0.48849523

target_network.h2.transform.bias f4 [20]
0	0xbe3a2e66	-0.18181762
1	0xbe1e861a	-0.15480843
2	0xbdcccc7d	-0.099999405
3	0xbdb7156e	-0.08939634
4	0xbe057780	-0.13033867
5	0x3e221e7b	0.1583194
6	0xbd7aebc6	-0.061260007
7	0x3f290632	0.6602508
8	0xbdccccc8	-0.099999964
9	0xbe911394	-0.2833525
10	0xbddb6d32	-0.10714187
11	0xbe3ed58c	-0.18636149
12	0xbe38af22	-0.18035558
13	0xbe73dca4	-0.23814636
14	0x3f009472	0.5022651
15	0xbdcccb28	-0.099996865
16	0xbe69d57b	-0.22835343
17	0xbe76ad3b	-0.2408952
18	0x3eb4f607	0.35343954
19	0xbe1d043f	-0.15333651

target_network.h3.transform.weight f4 [20, 20]
0	0x3c92a7d5	0.017902294
1	0xbdc311bc	-0.09524867
2	0x3f151ef3	0.5825035
3	0xbdebe852	-0.11518921
4	0x3e02ce48	0.12774003
5	0xbf6adcc3	-0.91743106
6	0xbf032f58	-0.51244116
7	0x3e861dd6	0.26194638
8	0x3e7ec2e6	0.24879035
9	0xbeba76c7	-0.36418745
10	0xba2e3680	-0.00066456944
11	0x3ea6aeda	0.32555276
12	0xbeba352c	-0.36368692
13	0xbe92ad7f	-0.28647992
14	0xbef7a820	-0.48370457
15	0xbead4e7c	-0.3384894
16	0xbe0e974c	-0.13924903
17	0xbe8957f2	-0.2682491
18	0xbf294961	-0.6612759
19	0xbe3df661	-0.18551017
20	0xbc8733ec	-0.01650425
21	0xbf00d325	-0.5032218
22	0xbda9ec04	-0.082969695
23	0xbee1e716	-0.44121617
24	0x3e3f9f33	0.18713073
25	0xbe94abb5	-0.29037252
26	0x3f5a8357	0.8535666
27	0x3fb45ec4	1.409142
28	0xbca703a0	-0.02038747
29	0xbe948180	-0.2900505
30	0xbe5e4693	-0.2170661
31	0x3f0c2a17	0.54751724
32	0xbe999176	-0.2999379
33	0xbd2f1862	-0.042747863
34	0x3b340a64	0.0027472014
35	0x3da586f9	0.080823846
36	0xbeea5b73	-0.45772895
37	0x3c5b05dc	0.013368096
38	0x3eb3c27c	0.35109317
39	0x3f0c4407	0.547913
40	0x3f0386cf	0.51377577
41	0x3e82cdf6	0.2554776
42	0x3d99f0ac	0.07516608
43	0xbe2f5feb	-0.17126434
44	0xbf087ac3	-0.5331232
45	0xbe15eee3	-0.1464191
46	0x3e7260d4	0.2366975
47	0x3f06c42e	0.52643096
48	0x3ebbed85	0.3670465
49	0x3e71a378	0.23597515
50	0xbe23a0c2	-0.15979293
51	0xbd903334	-0.07041016
52	0x3e376b2c	0.17911977
53	0x3e722cd0	0.23649907
54	0xbe455e6d	-0.19274302
55	0xbef78d12	-0.48349816
56	0xbe3c817d	-0.18408771
57	0x3ed629f4	0.41828883
58	0x3c01cc6e	0.007922275
59	0xbe796791	-0.24355914
60	0x3e464252	0.19361237
61	0x3eed50a8	0.46350598
62	0x3eba66ed	0.3640665
63	0xbd802a6d	-0.06258092
64	0x3f75e15d	0.96047
65	0xbe790ac4	-0.24320513
66	0x3e9d0fdc	0.30676162
67	0xbfc8766c	-1.566114
68	0xbe062d77	-0.13103281
69	0xbf01f48f	-0.5076379
70	0x3e45f60e	0.19332144
71	0xbd8948ea	-0.067033604
72	0xbd6732b0	-0.056444824
73	0x3eb02e74	0.3441044
74	0xbe31ac4a	-0.1735088
75	0x3d7f674a	0.062354364
76	0xbeb21ba9	-0.34786728
77	0xbde0ccb3	-0.10976543
78	0xbeca18e0	-0.39472103
79	0xbe401d29	-0.18761124
80	0x3dd5f087	0.104462676
81	0x3ea7b1de	0.3275289
82	0xbe32ff3c	-0.17480177
83	0x3c509d05	0.012732749
84	0xbf36908c	-0.7131431
85	0xbfa41546	-1.2818992
86	0x3e620376	0.22071633
87	0x3e57da71	0.21079423
88	0x3f4e5c0e	0.80609214
89	0x3da81b1b	0.08208295
90	0x3f0281f2	0.5097953
91	0xbdf3ad78	-0.11898321
92	0xbf2a13a4	-0.6643622
93	0x3d388970	0.045052946
94	0xbe0a5b2c	-0.13511342
95	0x3dbb9a1f	0.09160256
96	0x3f092ddb	0.53585595
97	0x3e0d75e4	0.13814503
98	0x3f811512	1.0084555
99	0x3e5024f0	0.2032659
100	0xbdf3e866	-0.11909561
101	0x3f376f24	0.7165396
102	0x3edde226	0.433366
103	0x3e99dc76	0.3005101
104	0xbf0d9627	-0.5530724
105	0xbf8b9d9a	-1.0907471
106	0x3f01169a	0.5042511
107	0x3eabf76c	0.33587205
108	0x3ce1ae94	0.027549066
109	0x3e3ed888	0.18637288
110	0x3e9793cd	0.2960495
111	0x3d18045e	0.03711354
112	0x3ec74fa1	0.3892794
113	0xbe4f7f72	-0.2026346
114	0x3f0e22fe	0.55522144
115	0xbd3c788f	-0.04601341
116	0x3d85c355	0.06531397
117	0x3e712bbe	0.23551843
118	0xbdb3e94c	-0.08784732
119	0x3e9148bc	0.28375804
120	0xbea17051	-0.31531003
121	0xbeb39d55	-0.35080972
122	0x3f09d507	0.5384068
123	0xbf2ef390	-0.68340397
124	0xbfed0482	-1.8517001
125	0xbe223433	-0.15840225
126	0xbe4b0896	-0.19827494
127	0x3eb06c2d	0.34457532
128	0xbe054892	-0.13015965
129	0x3f13e046	0.5776409
130	0x3ed5885e	0.41705602
131	0x3d52f282	0.051500805
132	0xbf2ee3e9	-0.68316513
133	0x3e6a47d6	0.22878966
134	0x3f30ec35	0.69110423
135	0x3d067786	0.03282883
136	0x3d6df994	0.058099344
137	0xbd8968c7	-0.06709438
138	0x3ec42a7a	0.38313657
139	0x3eb38d35	0.3506867
140	0x3e2721c0	0.16321468
141	0xbe1ce2c6	-0.15320882
142	0x3e32f664	0.17476803
143	0x3e92f694	0.2870375
144	0x3d8af174	0.06784335
145	0xbf3aa182	-0.7290269
146	0x3e8d15a5	0.27555576
147	0xbe811bff	-0.25216672
148	0xbeab4149	-0.33448246
149	0xbb50f963	-0.0031886927
150	0xbeadbdb6	-0.339338
151	0x3de30155	0.110842384
152	0x3aaed4b9	0.0013338543
153	0x3ee94976	0.4556386
154	0xbeb06bef	-0.34457347
155	0xbe411f1c	-0.18859524
156	0x3f171b8f	0.59026426
157	0xbe2956fc	-0.16537088
158	0x3f120111	0.5703288
159	0x3e0ad753	0.13558702
160	0x3e974c7d	0.29550543
161	0xbe9d42fd	-0.3071517
162	0xbe86e24a	-0.2634452
163	0x3cd2763c	0.025691144
164	0x3f49d65d	0.7884272
165	0x3e87fda5	0.26560703
166	0x3db0bffc	0.08630368
167	0xbfabd5c3	-1.342461
168	0x3e822d98	0.2542541
169	0xbd2f449e	-0.042790048
170	0x3f1f7610	0.62289524
171	0xbd0817c6	-0.033225797
172	0xbe5f12c6	-0.21784505
173	0x3ed1740d	0.40908852
174	0xbfd10468	-1.632947
175	0x3e99abb8	0.30013824
176	0x3eb4c1b2	0.35304028
177	0x3ed490c0	0.41516685
178	0x3fe234ff	1.7672423
179	0x3e3c69aa	0.18399683
180	0xbe6919bc	-0.22763723
181	0x3e286850	0.16446042
182	0xbe26c79c	-0.16287082
183	0xbea01496	-0.31265706
184	0xbecc0ef7	-0.39855167
185	0x3f1ee444	0.62067056
186	0xbd6fa6fb	-0.058508854
187	0xc00b32b2	-2.1749692
188	0x3e8520be	0.26001543
189	0xbe99aefd	-0.30016318
190	0xbd647dde	-0.0557841
191	0x3ba46149	0.00501648
192	0xbc852c60	-0.016256511
193	0xbde869c0	-0.11348295
194	0xbf72ebae	-0.9489087
195	0xbf3d122a	-0.7385584
196	0x3edd8bf2	0.43270832
197	0xbe4be39c	-0.19911045
198	0x3ff318a1	1.8991891
199	0x3f31ce55	0.6945546
200	0x3eb706b4	0.35747302
201	0xbec3b629	-0.38224915
202	0x3cceeeec	0.025260411
203	0xbefe969a	-0.49724275
204	0x3f1c8048	0.6113324
205	0xbef36f1f	-0.47545716
206	0x3eee5fa8	0.46557355
207	0x3fec8ad5	1.8479868
208	0xbd946b43	-0.07247021
209	0x3ec1e6e1	0.3787146
210	0x3cb9f783	0.02270103
211	0xbef45677	-0.47722217
212	0x3f0bfdc5	0.54684097
213	0xbd5dc3ae	-0.054141693
214	0x3ea3c376	0.31985062
215	0xbe9f3ada	-0.31099588
216	0x3d96f8c2	0.073716655
217	0x3dee69c1	0.11641265
218	0x3f273640	0.65317154
219	0x3ed11c8f	0.408421
220	0x3cf491b4	0.029854633
221	0x3dc438ac	0.09581122
222	0x3ebefa54	0.3730036
223	0xbedc4b4e	-0.43026203
224	0x3ccf9742	0.02534068
225	0xbe2f6452	-0.17128113
226	0xbee26d51	-0.44224027
227	0x3ea6d37e	0.3258323
228	0x3ecc6ad7	0.39925262
229	0xbd6426f7	-0.055701222
230	0xbf3a4cf6	-0.72773683
231	0xbe1194d0	-0.14216924
232	0x3daf6e79	0.08565993
233	0xbe8a2c32	-0.26986843
234	0xbee21323	-0.44155225
235	0x3f3a1fb8	0.7270465
236	0x3da3b633	0.07993736
237	0xbe3c1ceb	-0.18370406
238	0x3e58b954	0.21164447
239	0x3d75d89c	0.060021028
240	0x3ebdf8b9	0.37103823
241	0xbeab2ad1	-0.33431104
242	0x3e87d680	0.26530838
243	0xbde76c61	-0.112999685
244	0xbf2ea64d	-0.68222505
245	0xbf80c5f8	-1.0060415
246	0x3e517ad2	0.20457008
247	0x3e02699a	0.12735596
248	0xbdcd81e6	-0.10034542
249	0xbf21290c	-0.6295326
250	0x3f0616a7	0.52378315
251	0xbda585cf	-0.080821626
252	0x3f0d6878	0.5523753
253	0xbeba8dc5	-0.36436287
254	0xbd1bf462	-0.03807486
255	0x3e621b4f	0.2208073

target_network.h3.transform.bias f4 [20]
0	0xbe47c7a9	-0.19509758
1	0x3e43bdea	0.19115415
2	0xbe8e0bd1	-0.2774339
3	0xbe41619e	-0.18884894
4	0x3f549f28	0.83055353
5	0xbef3e765	-0.47637478
6	0xbf2ff37c	-0.687309
7	0x3d1186eb	0.03552906
8	0x3dd29a5b	0.10283347
9	0xbdc9b221	-0.098484285
10	0x3e610b3b	0.2197694
11	0xbd0b86b2	-0.034064002
12	0x3f1cf5f1	0.61312777
13	0x3f00cdea	0.503142
14	0x3e405c21	0.18785144
15	0xbe4f1177	-0.20221506
16	0xbe4deb1a	-0.20109215
17	0x3e287762	0.16451791
18	0xbde3f545	-0.11130766
19	0xbdd70c5c	-0.10500404

target_network.critic_linear.weight f4 [1, 20]
0	0xbd68db6a	-0.056849875
1	0xbed78252	-0.42091614
2	0xbd73dbef	-0.059535917
3	0xbf2ada9c	-0.6673982
4	0xbf9dc990	-1.2327137
5	0x3fcdb56a	1.6070988
6	0x3fdbabf2	1.7161849
7	0x3f24abb5	0.64324504
8	0x3f43a951	0.7643023
9	0x3ec7a01c	0.3898934
10	0xbf055af7	-0.52091926
11	0x3d43bffe	0.04779052
12	0xbf00f383	-0.5037157
13	0xbe400166	-0.18750533
14	0xbf3af85f	-0.73035234
15	0x3d25aa0b	0.04044537
16	0xbd6533e0	-0.055957675
17	0xbf0eb3ea	-0.5574328
18	0x3e6fbb36	0.23411259
19	0x3db611b8	0.08890098
