pz_risk/mini_1/27.pt (torch, 18513 bytes, 26 tensors)

policy_network.emb1.transform.weight f4 [20, 2]
0.030851126 0.27592394 -0.028226487 -0.67110103 -0.00736235 -0.33152986 -0.17211372 -0.33369017
0.007436676 0.34472853 -0.515854 0.496339 -0.20322648 -0.069727324 -0.28760484 -0.28284267
0.018355668 0.037875302 -0.047168706 0.24876814 -0.1462185 0.02526007 -0.19358961 0.22217484
0.27578688 -0.36937448 -0.29948378 0.31495273 0.07770277 -0.028730683 -0.74575245 0.24050364
-0.606854 -0.22983083 -0.42675307 -0.38731995 -0.12916788 0.009715751 -0.30898038 -0.2977888
00000000: 80bb fc3c e745 8d3e 3c3b e7bc 47cd 2bbf
00000010: de3f f1bb 48be a9be 943e 30be 70d9 aabe
00000020: 5caf f33b 4280 b03e 020f 04bf 2520 fe3e
00000030: 9a1a 50be 33cd 8ebd f140 93be c1d0 90be
00000040: a05e 963c 2223 1b3d f933 41bd 13bd 7e3e
00000050: 4dba 15be 35ee ce3c 5b3c 46be cd81 633e
00000060: f033 8d3e a71e bdbe f055 99be 7c41 a13e
00000070: a122 9f3d 9c5c ebbc a2e9 3ebf 9646 763e
00000080: c95a 1bbf c658 6bbe 617f dabe cd4e c6be
00000090: 9644 04be d02e 1f3c ad32 9ebe c677 98be

policy_network.emb1.transform.bias f4 [20]
-0.09999993 -0.099999316 0.0 0.0 -0.1111043 0.0 0.0 0.0
-0.09999999 -0.1336169 0.0 -0.008406643 -0.124093235 -0.00033018366 -0.09999999 0.0
0.0 0.0 -0.09999999 0.0
00000000: c3cc ccbd 71cc ccbd 0000 0000 0000 0000
00000010: a78a e3bd 0000 0000 0000 0000 0000 0000
00000020: cbcc ccbd ded2 08be 0000 0000 04bc 09bc
00000030: 9824 febd 801c adb9 cbcc ccbd 0000 0000
00000040: 0000 0000 0000 0000 cbcc ccbd 0000 0000

policy_network.emb2.transform.weight f4 [20, 2]
0.05051592 0.13659073 -0.1296773 0.45660886 -0.28624037 0.032117296 -0.048597015 -0.10264552
0.32530347 -0.21707977 -0.066174604 0.171828 0.027512202 0.78891623 -0.28688562 0.45524055
-0.26880378 0.13221943 0.5997655 1.0940509 0.084089905 -0.5537826 -0.8660892 -0.18435353
-0.055730242 0.05793048 -0.28680736 0.25466508 0.06614138 0.7508805 -0.16474947 0.055364534
-0.5990113 0.10322409 0.7763762 1.0982882 -0.090905674 -0.1213615 -0.01602418 0.0053236485
00000000: c8e9 4e3d 71de 0b3e 20ca 04be a3c8 e93e
00000010: 198e 92be 6d8d 033d aa0d 47bd d037 d2bd
00000020: 2d8e a63e 294a 5ebe 8d86 87bd aef3 2f3e
00000030: 4561 e13c 6af6 493f ace2 92be 4a15 e93e
00000040: a6a0 89be 8864 073e 3b8a 193f dc09 8c3f
00000050: 5437 ac3d b2c4 0dbf 06b8 5dbf 2cc7 3cbe
00000060: 6545 64bd 8348 6d3d 6ad8 92be 7663 823e
00000070: 2275 873d b439 403f 16b4 28be ecc5 623d
00000080: ce58 19bf 2767 d33d 97c0 463f b594 8c3f
00000090: c12c babd 618c f8bd 2445 83bc 0072 ae3b

policy_network.emb2.transform.bias f4 [20]
-0.19989127 -0.28758928 0.0 0.0 -0.17802764 -0.12206365 -0.30714983 -0.2145254
-0.09998735 -0.3002604 -0.05754578 0.0 -0.026858993 -0.08264607 -0.13344996 -0.047366872
0.0 -0.06397866 0.0 -0.09999999
00000000: 4cb0 4cbe e73e 93be 0000 0000 0000 0000
00000010: e14c 36be 82fc f9bd be42 9dbe 8cac 5bbe
00000020: 2bc6 ccbd bbbb 99be 20b5 6bbd 0000 0000
00000030: 6407 dcbc 5842 a9bd 1ba7 08be c403 42bd
00000040: 0000 0000 3e07 83bd 0000 0000 cbcc ccbd

policy_network.emb3.transform.weight f4 [20, 2]
-0.5239777 -0.21700567 -0.29466254 -0.051396992 -0.25354666 -0.057620674 0.17219877 0.14218396
0.0076043084 0.28630874 -0.38123587 0.312676 -0.13938253 0.24177766 -0.037485152 -0.29045984
-1.8514365 -0.21930125 -0.016595565 -0.36373863 -0.06748154 -0.40162408 -0.62528974 0.21802783
-0.056066025 0.09328396 0.16169614 0.037874002 -0.20429619 -0.14116806 -0.6603736 -0.53978
0.58588 -0.5935033 0.20484349 -0.17056195 0.021206677 0.06665472 0.1510898 0.13024825
00000000: 6723 06bf bc36 5ebe 02de 96be a785 52bd
00000010: ded0 81be a803 6cbd e054 303e ac98 113e
00000020: 902d f93b 0f97 923e 5931 c3be 1217 a03e
00000030: 4bba 0ebe 9094 773e 088a 19bd 27b7 94be
00000040: dffb ecbf 8290 60be 6cf3 87bc f33b babe
00000050: c333 8abd aca1 cdbe fd12 20bf b042 5f3e
00000060: 7da5 65bd a90b bf3d ac93 253e c521 1b3d
00000070: 0533 51be 5c8e 10be 3f0e 29bf 062f 0abf
00000080: 3bfc 153f d5ef 17bf 7ec2 513e cba7 2ebe
00000090: a0b9 ad3c 4582 883d 49b7 1a3e cc5f 053e

policy_network.emb3.transform.bias f4 [20]
0.0 0.0 0.0 -0.26749694 -0.28189898 -0.20902745 -0.30505684 -0.09999989
0.5413791 -0.09999987 0.0 -0.10551413 -0.08348434 -0.1577695 0.0 0.34043616
-0.39415908 -0.19928187 -0.09999998 -0.30276686
00000000: 0000 0000 0000 0000 0000 0000 5cf5 88be
00000010: 1055 90be 4b0b 56be 6930 9cbe becc ccbd
00000020: d297 0a3f bbcc ccbd 0000 0000 cb17 d8bd
00000030: d6f9 aabd 548e 21be 0000 0000 a64d ae3e
00000040: 38cf c9be 8c10 4cbe cacc ccbd 4204 9bbe

policy_network.emb4.transform.weight f4 [20, 2]
0.14963062 0.084862135 -0.015118785 -0.29053617 0.14923452 0.020569772 -0.23346649 0.57792044
0.16943857 -0.2319034 0.63061947 0.8982862 0.11426185 -0.13988477 -0.21015364 -0.25646433
-0.30247685 -0.36348313 -0.12824787 0.09433862 -0.017163947 -0.35979912 0.048694555 0.055437848
-0.064279035 0.029109295 0.54259825 0.5787377 -0.2680398 0.19446829 0.27946118 -0.5132928
0.08767604 -0.023119543 -0.56158835 0.5244407 -0.9025905 0.072815105 -0.5195791 -0.5107055
00000000: c538 193e 33cc ad3d c8b4 77bc 28c1 94be
00000010: efd0 183e f081 a83c d711 6fbe 98f2 133f
00000020: 4e81 2d3e 1678 6dbe 4770 213f 16f6 653f
00000030: 1e02 ea3d f43d 0fbe 8432 57be 4b4f 83be
00000040: 3fde 9abe 761a babe 6953 03be 9b34 c13d
00000050: 689b 8cbc 9737 b8be f173 473d cc12 633d
00000060: baa4 83bd 9e76 ee3c b8e7 0a3f 2728 143f
00000070: 833c 89be b222 473e 8915 8f3e 2867 03bf
00000080: 7f8f b33d 3265 bdbc 41c4 0fbf bf41 063f
00000090: 2c10 67bf 1620 953d 2303 05bf 98bd 02bf

policy_network.emb4.transform.bias f4 [20]
-0.21623373 -0.0999982 -0.15157308 0.06923588 -0.11182101 -0.38209978 -0.078137465 0.0
0.0 -0.052522447 0.0 -0.10213646 -0.049748644 -0.4263147 -0.1253635 -0.1604426
-0.11032806 -0.251808 -0.09991427 0.0
00000000: 606c 5dbe dbcb ccbd f935 1bbe 8bcb 8d3d
00000010: 6a02 e5bd 95a2 c3be 8906 a0bd 0000 0000
00000020: 0000 0000 c721 57bd 0000 0000 ec2c d1bd
00000030: 3cc5 4bbd ec45 dabe 4a5f 00be 114b 24be
00000040: aef3 e1bd faec 80be da9f ccbd 0000 0000

policy_network.h2.transform.weight f4 [20, 20]
-0.022465318 0.053279623 -0.38995168 -0.06995742 -0.10322832 0.27342996 -0.504156 -0.8093959
-0.049745265 -0.47568813 0.30382445 0.15781611 0.11086769 0.017414987 -0.23303069 -0.27892196
-0.3230716 -0.309898 -0.41579163 -0.4534028 0.027678184 0.008707261 -0.39747164 0.14868966
-0.0015842989 -0.8386977 0.024753153 -0.565016 -0.755401 0.30169076 -0.008468561 -0.19147937
-0.28590462 -0.48633975 -0.557119 -0.3318039 -0.23809451 -0.14108257 -0.3167738 0.04342968
-0.5087929 -0.010991618 -0.40007272 -0.4888264 -0.3691921 -0.21375579 -0.43448806 0.046207763
0.06297888 0.14108397 -0.059794806 -0.1542497 0.22481555 -0.1884228 0.12250619 -0.52369714
0.43666345 -0.2623179 -0.76884115 0.31430018 -0.020986732 -0.057048056 0.32727197 -0.47942764
0.22022814 0.07612933 -0.96767664 -0.08915599 -1.6255143 1.0848829 -0.428315 0.6772612
-0.13016587 -0.4663518 -0.60517704 -0.39187998 -0.048469324 -0.47725537 0.23741826 0.099497184
-0.18695135 -0.36882937 -0.3051018 0.08323535 -0.45635477 -0.084755644 -0.32288295 -0.3188613
0.11871166 0.27341938 0.24148735 -0.13622837 -0.076927386 0.7063049 -0.6780426 -0.20242529
-0.013146184 0.43200222 0.27347013 -0.0159709 0.09353388 -0.017832838 0.12167591 0.41331428
0.12529208 0.92267096 0.61862725 -0.31650412 -2.4585402 -0.3738191 -0.13534813 -0.3570813
-0.20017964 -0.07534064 0.55614024 -0.9876839 0.06660728 -0.7176899 0.24082184 -0.08571778
0.053920947 -0.052198585 -0.39106813 0.39651495 0.22276609 -0.2114374 -0.09007445 0.38522485
0.3435534 -0.7554814 -0.55880153 0.39796254 0.0017902183 -0.5558197 -0.42772174 -0.5064207
-0.07978053 -0.4338485 -0.07156212 0.18750343 -0.35292923 -0.8117497 -0.2866996 0.14114633
0.029541634 -2.941253 -0.09526776 -1.2417487 1.2702048 -0.9962523 -0.052088924 0.19660518
-0.020530269 -3.7575216 -0.42128038 -0.06446106 0.280514 -1.0185986 0.21789253 -0.8832313
0.5339484 -0.7419511 -0.17478892 -0.29790312 -0.57120967 -0.0071538985 0.06745688 -0.21112731
-0.43519884 -0.26249593 -0.013891451 0.055828072 -0.03630454 -0.14249958 -0.0089880675 -0.511698
0.26030225 -0.5056253 0.32022414 0.09893134 0.039503183 -0.10868295 0.48768404 -0.046878174
-0.15580466 -0.022005647 0.3041592 -0.13521421 0.095859475 -0.22287545 0.28055096 0.40194544
0.37683558 -1.0684229 0.184748 0.105649725 0.046212547 0.2865283 -0.15469144 0.124188855
-0.045724347 -0.3842607 0.2913154 0.13135232 0.7231712 -0.48029426 -0.13575706 -0.114794225
0.10372358 -0.2840937 0.46954945 0.22069293 -0.12240369 0.267387 0.21072915 -0.13251525
0.17575163 -0.28238744 0.036371104 0.42645052 -0.025540968 -0.2376865 -0.41848826 -0.43945646
0.51214874 0.35931802 0.30868664 -0.11557543 0.26214334 0.10264676 0.17300858 -0.5882892
0.2980568 -0.29476318 -0.24615023 -0.26822358 -0.14083773 -0.23317827 0.24832287 0.057177424
0.3160315 0.27302864 -0.016588023 -0.31689277 0.18757808 -0.18007782 -0.40175825 0.17939511
0.22771579 -0.35015061 0.4579301 0.047357447 -0.544048 -0.47460982 0.08853133 -0.48849523
00000000: 3009 b8bc bc3b 5a3d bfa7 c7be d645 8fbd
00000010: 5f69 d3bd 03ff 8b3e 5e10 01bf 9234 4fbf
00000020: b1c1 4bbd 658d f3be e18e 9b3e 8c9a 213e
00000030: 990e e33d e0a9 8e3c 999f 6ebe dcce 8ebe
00000040: a469 a5be f3aa 9ebe a4e2 d4be 6924 e8be
00000050: 5cbd e23c e6a8 0e3c 6781 cbbe 1a42 183e
00000060: 40a8 cfba e4b4 56bf 20c7 ca3c e3a4 10bf
00000070: f661 41bf 3677 9a3e b8bf 0abc 2b13 44be
00000080: 1762 92be 8601 f9be 5a9f 0ebf 33e2 a9be
00000090: 0ccf 73be f377 10be 2d30 a2be 52e3 313d
000000a0: 4040 02bf 3016 34bc 55d6 ccbe 7447 fabe
000000b0: bf06 bdbe cce2 5abe 3875 debe 5a44 3d3d
000000c0: 12fb 803d 5178 103e 66eb 74bd a2f3 1dbe
000000d0: 0c36 663e e8f1 40be 86e4 fa3d 0411 06bf
000000e0: 5a92 df3e 884e 86be c6d2 44bf f4eb a03e
000000f0: 5eec abbc 39ab 69bd 3190 a73e 8a77 f5be
00000100: 7c83 613e b2e9 9b3d a8b9 77bf 6a97 b6bd
00000110: da10 d0bf 71dd 8a3f 1b4c dbbe fd60 2d3f
00000120: 344a 05be aac5 eebe e2ec 1abf 7ea4 c8be
00000130: c587 46bd d15a f4be c61d 733e 2ec5 cb3d
00000140: 2d70 3fbe 34d7 bcbe 4e36 9cbe 4c77 aa3d
00000150: 55a7 e9be 5e94 adbd ea50 a5be ca41 a3be
00000160: 191f f33d a0fd 8b3e 7648 773e 737f 0bbe
00000170: 1b8c 9dbd 66d0 343f 3394 2dbf 9348 4fbe
00000180: 1863 57bc 652f dd3e 4704 8c3e 68d5 82bc
00000190: b18e bf3d 2c16 92bc 3831 f93d ee9d d33e
000001a0: 914c 003e 2a34 6c3f 5b5e 1e3f d40c a2be
000001b0: b958 1dc0 3865 bfbe b398 0abe 5cd3 b6be
000001c0: e4fb 4cbe 324c 9abd 355f 0e3f dad8 7cbf
000001d0: 6669 883d 86ba 37bf 009a 763e ce8c afbd
000001e0: 36dc 5c3d 2fce 55bd 153a c8be 0204 cb3e
000001f0: cb1c 643e 0c83 58be f478 b8bd 313c c53e
00000200: 3be6 af3e 3b67 41bf 9e0d 0fbf bfc1 cb3e
00000210: c2a5 ea3a 334a 0ebf 58fe dabe c9a4 01bf
00000220: f963 a3bd 6421 debe 298f 92bd e600 403e
00000230: 24b3 b4be d4ce 4fbf 4aca 92be aa88 103e
00000240: 4c01 f23c 7d3d 3cc0 be1b c3bd 9ff1 9ebf
00000250: 1296 a23f 640a 7fbf 325b 55bd de52 493e
00000260: 182f a8bc 3c7b 70c0 10b2 d7be 2904 84bd
00000270: 889f 8f3e 7061 82bf 381f 5f3e 721b 62bf
00000280: d8b0 083f 82f0 3dbf defb 32be c286 98be
00000290: cc3a 12bf 406b eabb d526 8a3d c231 58be
000002a0: 62d2 debe de65 86be f898 63bc faab 643d
000002b0: 12b4 14bd 69eb 11be b042 13bc a4fe 02bf
000002c0: 5646 853e a970 01bf 6bf4 a33e 849c ca3d
000002d0: 17ce 213d 2b95 debd b9b1 f93e 5403 40bd
000002e0: 428b 1fbe 3045 b4bc c1ba 9b3e 9875 0abe
000002f0: f951 c43d 7639 64be 60a4 8f3e cbcb cd3e
00000300: 98f0 c03e 15c2 88bf 942e 3d3e e25e d83d
00000310: 5e49 3d3d d6b3 923e 6f67 1ebe ba56 fe3d
00000320: 7449 3bbd d2bd c4be 4b27 953e 3981 063e
00000330: bf21 393f 21e9 f5be e603 0bbe 3c19 ebbd
00000340: 076d d43d bb74 91be c968 f03e 54fd 613e
00000350: c9ae fabd f3e6 883e 62c9 573e 14b2 07be
00000360: 3cf8 333e 1695 90be def9 143d b957 da3e
00000370: 4b3b d1bc 1764 73be 1844 d6be 7000 e1be
00000380: 2e1c 033f 88f8 b73e 2d0c 9e3e d0b2 ecbd
00000390: a737 863e 7738 d23d 2929 313e 1f9a 16bf
000003a0: e79a 983e 33eb 96be ce0e 7cbe 9a54 89be
000003b0: c437 10be 49c6 6ebe 5a48 7e3e e032 6a3d
000003c0: e1ce a13e 69ca 8b3e 9be3 87bc c53f a2be
000003d0: 7814 403e 5266 38be 42b3 cdbe 5ab3 373e
000003e0: 542e 693e f146 b3be d075 ea3e e2f9 413d
000003f0: bb46 0bbf 0f00 f3be ea4f b53d 0c1c fabe

policy_network.h2.transform.bias f4 [20]
-0.18181762 -0.15480843 -0.099999405 -0.08939634 -0.08726989 0.25334772 -0.061260007 0.7131145
-0.099999964 -0.2833525 -0.10714187 -0.18636149 -0.18035558 -0.23600145 0.43294498 -0.19997638
-0.2369678 -0.2408952 0.44754335 -0.15333651
00000000: 662e 3abe 1a86 1ebe 7dcc ccbd 6e15 b7bd
00000010: 8eba b2bd cbb6 813e c6eb 7abd ac8e 363f
00000020: c8cc ccbd 9413 91be 326d dbbd 8cd5 3ebe
00000030: 22af 38be 5daa 71be f7aa dd3e 9cc6 4cbe
00000040: b0a7 72be 3bad 76be 6724 e53e 3f04 1dbe

policy_network.h3.transform.weight f4 [20, 20]
0.017902294 -0.09524867 0.5825035 -0.11518921 0.12774003 -0.91743106 -0.51244116 0.26194638
0.24879035 -0.36418745 -0.00066456944 0.32555276 -0.36368692 -0.28647992 -0.48370457 -0.3384894
-0.13924903 -0.2682491 -0.6612759 -0.18551017 -0.01650425 -0.5032218 -0.082969695 -0.44121617
0.24384992 -0.30956626 0.8535666 1.36414 -0.02038747 -0.2900505 -0.2170661 0.54751724
-0.2999379 -0.042747863 -0.20187087 0.080823846 -0.45118496 0.013368096 0.5725334 0.547913
0.51377577 0.2554776 0.07516608 -0.17126434 -0.5331232 -0.18433858 0.2366975 0.43088612
0.3670465 0.23597515 -0.15979293 -0.07041016 0.17911977 0.23649907 -0.26982892 -0.48349816
-0.18408771 0.41828883 -0.06020529 -0.24355914 0.19361237 0.46350598 0.3640665 -0.06258092
0.924593 -0.3194886 0.30676162 -1.0644943 -0.13103281 -0.5076379 0.19332144 -0.067033604
-0.056444824 0.3441044 -0.06439868 0.062354364 -0.34786728 -0.10976543 -0.26796964 -0.18761124
0.104462676 0.3275289 -0.17480177 0.012732749 -0.7106009 -1.5966043 0.22071633 -0.18060616
0.80609214 0.08208295 0.5097953 -0.11898321 -0.6643622 0.045052946 -0.37374416 -0.007518269
0.55803144 0.13814503 0.9496573 0.2032659 -0.11909561 0.7165396 0.433366 0.3005101
-1.9000977 -0.41776356 0.5042511 0.41448066 0.027549066 0.18637288 0.2960495 0.03711354
0.3892794 -0.2026346 0.40393874 -0.04601341 0.06531397 0.23551843 -0.35912082 0.28375804
-0.31531003 -0.35080972 0.5384068 -0.68340397 -1.8966217 -0.08409941 -0.19827494 0.607065
-0.13015965 0.5776409 0.41705602 0.051500805 -0.68316513 0.22878966 0.84581906 0.03282883
0.058099344 -0.06709438 0.36124575 0.3506867 0.16321468 -0.15320882 0.17476803 0.2870375
-0.078389525 -0.7518082 0.27555576 -0.31536222 -0.33448246 -0.0031886927 -0.339338 0.110842384
0.0013338543 0.4556386 -0.43786722 -0.18859524 0.59026426 -0.16537088 0.44256774 0.13558702
0.29550543 -0.3071517 -0.2634452 0.025691144 0.719706 0.3424474 0.08630368 -1.3949761
0.2542541 -0.042790048 0.62289524 -0.033225797 -0.21784505 0.40895405 -1.9765208 0.30013824
0.35221735 0.41516685 2.284067 0.18399683 -0.22763723 0.16446042 -0.16287082 -0.31265706
-0.5822697 0.618093 -0.058508854 -2.1627202 0.26001543 -0.30016318 -0.0557841 0.00501648
-0.016256511 -0.114049904 -1.1447253 -0.7385584 0.43192068 -0.19911045 2.332751 0.6945546
0.35747302 -0.38224915 0.025260411 -0.49724275 0.53293985 -0.49712858 0.46557355 1.832447
-0.07247021 0.3787146 0.02270103 -0.47722217 0.54684097 -0.054141693 0.14719996 -0.4089914
0.07832313 0.11641265 0.8859394 0.408421 0.029854633 0.09581122 0.3730036 -0.43026203
0.2579351 -0.22048517 -0.44224027 0.3955194 0.39925262 -0.055701222 -0.72773683 -0.14216924
0.08565993 -0.26986843 -0.38722867 0.7270465 0.07993736 -0.18370406 0.24152401 0.060021028
0.37103823 -0.33431104 0.26530838 -0.112999685 -0.6842948 -1.3829668 0.20457008 -0.25351238
-0.10034542 -0.6295326 0.52378315 -0.080821626 0.5523753 -0.36436287 -0.23908307 0.122958094
00000000: d5a7 923c bc11 c3bd f31e 153f 52e8 ebbd
00000010: 48ce 023e c3dc 6abf 582f 03bf d61d 863e
00000020: e6c2 7e3e c776 babe 8036 2eba daae a63e
00000030: 2c35 babe 7fad 92be 20a8 f7be 7c4e adbe
00000040: 4c97 0ebe f257 89be 6149 29bf 61f6 3dbe
00000050: ec33 87bc 25d3 00bf 04ec a9bd 16e7 e1be
00000060: cbb3 793e 787f 9ebe 5783 5a3f 249c ae3f
00000070: a003 a7bc 8081 94be 9346 5ebe 172a 0c3f
00000080: 7691 99be 6218 2fbd 3db7 4ebe f986 a53d
00000090: b701 e7be dc05 5b3c 8d91 123f 0744 0c3f
000000a0: cf86 033f f6cd 823e acf0 993d eb5f 2fbe
000000b0: c37a 08bf 41c3 3cbe d460 723e 1b9d dc3e
000000c0: 85ed bb3e 78a3 713e c2a0 23be 3433 90bd
000000d0: 2c6b 373e d02c 723e 0427 8abe 128d f7be
000000e0: 7d81 3cbe f429 d63e d299 76bd 9167 79be
000000f0: 5242 463e a850 ed3e ed66 ba3e 6d2a 80bd
00000100: 20b2 6c3f 0394 a3be dc0f 9d3e 5941 88bf
00000110: 772d 06be 8ff4 01bf 0ef6 453e ea48 89bd
00000120: b032 67bd 742e b03e 75e3 83bd 4a67 7f3d
00000130: a91b b2be b3cc e0bd 5133 89be 291d 40be
00000140: 87f0 d53d deb1 a73e 3cff 32be 059d 503c
00000150: f1e9 35bf 885d ccbf 7603 623e d2f0 38be
00000160: 0e5c 4e3f 1b1b a83d f281 023f 78ad f3bd
00000170: a413 2abf 7089 383d 655b bfbe d05b f6bb
00000180: 26db 0e3f e475 0d3e be1c 733f f024 503e
00000190: 66e8 f3bd 246f 373f 26e2 dd3e 76dc 993e
000001a0: 6736 f3bf 1be5 d5be 9a16 013f cf36 d43e
000001b0: 94ae e13c 88d8 3e3e cd93 973e 5e04 183d
000001c0: a14f c73e 727f 4fbe 0fd1 ce3e 8f78 3cbd
000001d0: 55c3 853d be2b 713e afde b7be bc48 913e
000001e0: 5170 a1be 559d b3be 07d5 093f 90f3 2ebf
000001f0: 80c4 f2bf 503c acbd 9608 4bbe 9d68 1b3f
00000200: 9248 05be 46e0 133f 5e88 d53e 82f2 523d
00000210: e9e3 2ebf d647 6a3e 9987 583f 8677 063d
00000220: 94f9 6d3d c768 89bd 34f5 b83e 358d b33e
00000230: c021 273e c6e2 1cbe 64f6 323e 94f6 923e
00000240: b08a a0bd 8176 40bf a515 8d3e 2877 a1be
00000250: 4941 abbe 63f9 50bb b6bd adbe 5501 e33d
00000260: b9d4 ae3a 7649 e93e 2230 e0be 1c1f 41be
00000270: 8f1b 173f fc56 29be 3d98 e23e 53d7 0a3e
00000280: 7d4c 973e fd42 9dbe 4ae2 86be 3c76 d23c
00000290: a73e 383f 4455 af3e fcbf b03d 948e b2bf
000002a0: 982d 823e 9e44 2fbd 1076 1f3f c617 08bd
000002b0: c612 5fbe 6d62 d13e a2fe fcbf b8ab 993e
000002c0: d555 b43e c090 d43e 272e 1240 aa69 3c3e
000002d0: bc19 69be 5068 283e 9cc7 26be 9614 a0be
000002e0: a10f 15bf 583b 1e3f fba6 6fbd 026a 0ac0
000002f0: be20 853e fdae 99be de7d 64bd 4961 a43b
00000300: 602c 85bc ff92 e9bd 5c86 92bf 2a12 3dbf
00000310: b524 dd3e 9ce3 4bbe cb4b 1540 55ce 313f
00000320: b406 b73e 29b6 c3be ecee ce3c 9a96 febe
00000330: bf6e 083f a387 febe a85f ee3e a08d ea3f
00000340: 436b 94bd e1e6 c13e 83f7 b93c 7756 f4be
00000350: c5fd 0b3f aec3 5dbd 96bb 163e 5267 d1be
00000360: e167 a03d c169 ee3d edcc 623f 8f1c d13e
00000370: b491 f43c ac38 c43d 54fa be3e 4e4b dcbe
00000380: 1210 843e ddc6 61be 516d e2be 8581 ca3e
00000390: d76a cc3e f726 64bd f64c 3abf d094 11be
000003a0: 796e af3d 322c 8abe d642 c6be b81f 3a3f
000003b0: 33b6 a33d eb1c 3cbe 1252 773e 9cd8 753d
000003c0: b9f8 bd3e d12a abbe 80d6 873e 616c e7bd
000003d0: f22d 2fbf 0e05 b1bf d27a 513e 60cc 81be
000003e0: e681 cdbd 0c29 21bf a716 063f cf85 a5bd
000003f0: 7868 0d3f c58d babe 31d2 74be 74d1 fb3d

policy_network.h3.transform.bias f4 [20]
-0.19509758 0.112121604 -0.338481 -0.3965094 0.7236801 -0.60082716 -0.6967339 -0.08528535
0.100709364 -0.10083909 0.14987637 -0.02420508 0.55137503 0.4142932 0.019279828 -0.20221506
-0.20109215 0.08460488 -0.010274025 -0.10500404
00000000: a9c7 47be 03a0 e53d 624d adbe 4803 cbbe
00000010: 1943 393f cfcf 19bf 275d 32bf 16aa aebd
00000020: b640 ce3d ba84 cebd 3179 193e bb49 c6bc
00000030: ea26 0d3f 3d1e d43e bbf0 9d3c 7711 4fbe
00000040: 1aeb 4dbe 5345 ad3d 6254 28bc 5c0c d7bd

policy_network.critic_linear.weight f4 [1, 20]
-0.056849875 -0.36598188 -0.056757532 -0.5078685 -1.4294312 1.407526 1.7992148 0.57643193
0.8119199 0.37188977 -0.57380116 0.06355552 -0.71420866 -0.2796121 -0.6929591 0.04044537
-0.055957675 -0.63757753 0.40778393 0.08890098
00000000: 6adb 68bd fa61 bbbe 967a 68bd ac03 02bf
00000010: 9af7 b6bf d029 b43f ac4c e63f 0b91 133f
00000020: fcd9 4f3f 5668 be3e a2e4 12bf 6529 823d
00000030: 61d6 36bf 5129 8fbe c465 31bf 0baa 253d
00000040: e033 65bd 4838 23bf 0ec9 d03e b811 b63d

target_network.emb1.transform.weight f4 [20, 2]
0.030851126 0.27592394 -0.028226487 -0.67110103 -0.00736235 -0.33152986 -0.17211372 -0.33369017
0.007436676 0.34472853 -0.515854 0.496339 -0.20322648 -0.069727324 -0.28760484 -0.28284267
0.018355668 0.037875302 -0.047168706 0.24876814 -0.1462185 0.02526007 -0.19358961 0.22217484
0.27578688 -0.36937448 -0.29948378 0.31495273 0.07770277 -0.028730683 -0.74575245 0.24050364
-0.606854 -0.22983083 -0.42675307 -0.38731995 -0.12916788 0.009715751 -0.30898038 -0.2977888
00000000: 80bb fc3c e745 8d3e 3c3b e7bc 47cd 2bbf
00000010: de3f f1bb 48be a9be 943e 30be 70d9 aabe
00000020: 5caf f33b 4280 b03e 020f 04bf 2520 fe3e
00000030: 9a1a 50be 33cd 8ebd f140 93be c1d0 90be
00000040: a05e 963c 2223 1b3d f933 41bd 13bd 7e3e
00000050: 4dba 15be 35ee ce3c 5b3c 46be cd81 633e
00000060: f033 8d3e a71e bdbe f055 99be 7c41 a13e
00000070: a122 9f3d 9c5c ebbc a2e9 3ebf 9646 763e
00000080: c95a 1bbf c658 6bbe 617f dabe cd4e c6be
00000090: 9644 04be d02e 1f3c ad32 9ebe c677 98be

target_network.emb1.transform.bias f4 [20]
-0.09999993 -0.099999316 0.0 0.0 -0.1111043 0.0 0.0 0.0
-0.09999999 -0.1336169 0.0 -0.008406643 -0.124093235 -0.00033018366 -0.09999999 0.0
0.0 0.0 -0.09999999 0.0
00000000: c3cc ccbd 71cc ccbd 0000 0000 0000 0000
00000010: a78a e3bd 0000 0000 0000 0000 0000 0000
00000020: cbcc ccbd ded2 08be 0000 0000 04bc 09bc
00000030: 9824 febd 801c adb9 cbcc ccbd 0000 0000
00000040: 0000 0000 0000 0000 cbcc ccbd 0000 0000

target_network.emb2.transform.weight f4 [20, 2]
0.05051592 0.13659073 -0.1296773 0.45660886 -0.28624037 0.032117296 -0.048597015 -0.10264552
0.32530347 -0.21707977 -0.066174604 0.171828 0.038976006 0.8068164 -0.28688562 0.45524055
-0.26880378 0.13221943 0.59228134 1.0710889 0.084089905 -0.5537826 -0.8660892 -0.18435353
-0.055730242 0.05793048 -0.28680736 0.25466508 0.06659002 0.75231194 -0.16474947 0.055364534
-0.5990113 0.10322409 0.76953685 1.075007 -0.090905674 -0.1213615 -0.01602418 0.0053236485
00000000: c8e9 4e3d 71de 0b3e 20ca 04be a3c8 e93e
00000010: 198e 92be 6d8d 033d aa0d 47bd d037 d2bd
00000020: 2d8e a63e 294a 5ebe 8d86 87bd aef3 2f3e
00000030: 4ea5 1f3d 858b 4e3f ace2 92be 4a15 e93e
00000040: a6a0 89be 8864 073e c09f 173f 7119 893f
00000050: 5437 ac3d b2c4 0dbf 06b8 5dbf 2cc7 3cbe
00000060: 6545 64bd 8348 6d3d 6ad8 92be 7663 823e
00000070: 5960 883d 8497 403f 16b4 28be ecc5 623d
00000080: ce58 19bf 2767 d33d 5e00 453f d499 893f
00000090: c12c babd 618c f8bd 2445 83bc 0072 ae3b

target_network.emb2.transform.bias f4 [20]
-0.19989127 -0.28758928 0.0 0.0 -0.17802764 -0.12206365 -0.29444087 -0.2145254
-0.09998735 -0.30162093 -0.05754578 0.0 -0.026858993 -0.08264607 -0.13380903 -0.047366872
0.0 -0.063974425 0.0 -0.09999999
00000000: 4cb0 4cbe e73e 93be 0000 0000 0000 0000
00000010: e14c 36be 82fc f9bd f4c0 96be 8cac 5bbe
00000020: 2bc6 ccbd 0f6e 9abe 20b5 6bbd 0000 0000
00000030: 6407 dcbc 5842 a9bd 3c05 09be c403 42bd
00000040: 0000 0000 0605 83bd 0000 0000 cbcc ccbd

target_network.emb3.transform.weight f4 [20, 2]
-0.5239777 -0.21700567 -0.29466254 -0.051396992 -0.25354666 -0.057620674 0.17219877 0.14218396
0.0076043084 0.28630874 -0.38123587 0.312676 -0.13938253 0.24177766 -0.037485152 -0.29045984
-1.8259561 -0.19724053 -0.016595565 -0.36373863 -0.06748154 -0.40162408 -0.62528974 0.21802783
-0.056066025 0.09328396 0.16169614 0.037874002 -0.20429619 -0.14116806 -0.6599668 -0.5378843
0.58588 -0.5935033 0.20484349 -0.17056195 0.021206677 0.06665472 0.1510898 0.13024825
00000000: 6723 06bf bc36 5ebe 02de 96be a785 52bd
00000010: ded0 81be a803 6cbd e054 303e ac98 113e
00000020: 902d f93b 0f97 923e 5931 c3be 1217 a03e
00000030: 4bba 0ebe 9094 773e 088a 19bd 27b7 94be
00000040: eeb8 e9bf 6cf9 49be 6cf3 87bc f33b babe
00000050: c333 8abd aca1 cdbe fd12 20bf b042 5f3e
00000060: 7da5 65bd a90b bf3d ac93 253e c521 1b3d
00000070: 0533 51be 5c8e 10be 96f3 28bf c9b2 09bf
00000080: 3bfc 153f d5ef 17bf 7ec2 513e cba7 2ebe
00000090: a0b9 ad3c 4582 883d 49b7 1a3e cc5f 053e

target_network.emb3.transform.bias f4 [20]
0.0 0.0 0.0 -0.26749694 -0.28189898 -0.20902745 -0.30505684 -0.09999989
0.5443072 -0.09999987 0.0 -0.10551413 -0.08348434 -0.1577695 0.0 0.3554678
-0.39415908 -0.19928187 -0.09999998 -0.30276686
00000000: 0000 0000 0000 0000 0000 0000 5cf5 88be
00000010: 1055 90be 4b0b 56be 6930 9cbe becc ccbd
00000020: b757 0b3f bbcc ccbd 0000 0000 cb17 d8bd
00000030: d6f9 aabd 548e 21be 0000 0000 e0ff b53e
00000040: 38cf c9be 8c10 4cbe cacc ccbd 4204 9bbe

target_network.emb4.transform.weight f4 [20, 2]
0.14963062 0.084862135 -0.015118785 -0.29053617 0.14923452 0.020569772 -0.24068812 0.571871
0.16943857 -0.2319034 0.6214195 0.8922061 0.11426185 -0.13988477 -0.21015364 -0.25646433
-0.30247685 -0.36348313 -0.12824787 0.09433862 -0.017163947 -0.35979912 0.048694555 0.055437848
-0.064279035 0.029109295 0.53701955 0.5748494 -0.2680398 0.19446829 0.27946118 -0.5132928
0.08767604 -0.023119543 -0.56158835 0.5244407 -0.9025905 0.072815105 -0.5195791 -0.5107055
00000000: c538 193e 33cc ad3d c8b4 77bc 28c1 94be
00000010: efd0 183e f081 a83c f276 76be 2366 123f
00000020: 4e81 2d3e 1678 6dbe 5915 1f3f 9e67 643f
00000030: 1e02 ea3d f43d 0fbe 8432 57be 4b4f 83be
00000040: 3fde 9abe 761a babe 6953 03be 9b34 c13d
00000050: 689b 8cbc 9737 b8be f173 473d cc12 633d
00000060: baa4 83bd 9e76 ee3c 1d7a 093f 5529 133f
00000070: 833c 89be b222 473e 8915 8f3e 2867 03bf
00000080: 7f8f b33d 3265 bdbc 41c4 0fbf bf41 063f
00000090: 2c10 67bf 1620 953d 2303 05bf 98bd 02bf

target_network.emb4.transform.bias f4 [20]
-0.21623373 -0.0999982 -0.15157308 0.06002626 -0.11182101 -0.38721022 -0.078137465 0.0
0.0 -0.052522447 0.0 -0.10213646 -0.049748644 -0.44254276 -0.1253635 -0.1604426
-0.11032806 -0.251808 -0.09991427 0.0
00000000: 606c 5dbe dbcb ccbd f935 1bbe 18de 753d
00000010: 6a02 e5bd 6b40 c6be 8906 a0bd 0000 0000
00000020: 0000 0000 c721 57bd 0000 0000 ec2c d1bd
00000030: 3cc5 4bbd f794 e2be 4a5f 00be 114b 24be
00000040: aef3 e1bd faec 80be da9f ccbd 0000 0000

target_network.h2.transform.weight f4 [20, 20]
-0.022465318 0.053279623 -0.38995168 -0.06995742 -0.10322832 0.27342996 -0.504156 -0.8093959
-0.049745265 -0.47568813 0.30382445 0.15781611 0.11086769 0.017414987 -0.23303069 -0.27892196
-0.3230716 -0.309898 -0.41579163 -0.4534028 0.027678184 0.008707261 -0.39747164 0.14868966
-0.0015842989 -0.8386977 0.024753153 -0.565016 -0.755401 0.30169076 -0.008468561 -0.19147937
-0.28590462 -0.48633975 -0.557119 -0.3318039 -0.23809451 -0.14108257 -0.3167738 0.04342968
-0.5087929 -0.010991618 -0.40007272 -0.4888264 -0.3691921 -0.21375579 -0.43448806 0.046207763
0.06297888 0.14108397 -0.059794806 -0.1542497 0.22481555 -0.1884228 0.12250619 -0.52369714
0.43666345 -0.2623179 -0.76884115 0.31430018 -0.020986732 -0.057048056 0.32727197 -0.47942764
0.22022814 0.07612933 -0.96767664 -0.08915599 -1.6255143 1.0848829 -0.428315 0.6772612
-0.13016587 -0.4663518 -0.60517704 -0.39187998 -0.048469324 -0.47725537 0.23741826 0.099497184
-0.18695135 -0.36882937 -0.3051018 0.07430345 -0.45635477 -0.09112063 -0.3404303 -0.3188613
0.11007613 0.26863474 0.24148735 -0.13622837 -0.076927386 0.68741685 -0.68786806 -0.19449924
-0.013146184 0.4310615 0.27347013 -0.0159709 0.09353388 -0.017832838 0.12167591 0.4121303
0.12529208 0.919229 0.62389296 -0.31650412 -2.4778013 -0.37809378 -0.13534813 -0.3570813
-0.20017964 -0.08219953 0.55951375 -0.98695487 0.06660728 -0.7190589 0.24082184 -0.08571778
0.053920947 -0.052198585 -0.39106813 0.39651495 0.22276609 -0.2114374 -0.09007445 0.38522485
0.3435534 -0.7554814 -0.55880153 0.39796254 0.0017902183 -0.5558197 -0.42772174 -0.5064207
-0.07978053 -0.4338485 -0.07156212 0.18750343 -0.35292923 -0.8117497 -0.2866996 0.16061223
0.029541634 -2.9117208 -0.09815126 -1.2417487 1.2708157 -0.98183227 -0.052088924 0.19660518
-0.020530269 -3.706995 -0.44378662 -0.05153241 0.280514 -1.0105118 0.21789253 -0.8832313
0.5339484 -0.7419511 -0.17478892 -0.29790312 -0.57120967 -0.0071538985 0.06745688 -0.21112731
-0.43519884 -0.26249593 -0.013891451 0.055828072 -0.03630454 -0.14249958 -0.0089880675 -0.511698
0.26030225 -0.5056253 0.32022414 0.09893134 0.039503183 -0.10868295 0.48768404 -0.046878174
-0.15580466 -0.022005647 0.3041592 -0.13521421 0.095859475 -0.22287545 0.28055096 0.40194544
0.37683558 -1.0684229 0.184748 0.105649725 0.046212547 0.2865283 -0.15469144 0.124188855
-0.045724347 -0.3842607 0.2913154 0.13135232 0.7231712 -0.48029426 -0.13575706 -0.114794225
0.10372358 -0.2840937 0.46954945 0.22069293 -0.12240369 0.267387 0.21072915 -0.13251525
0.17575163 -0.28238744 0.036371104 0.42645052 -0.025540968 -0.2376865 -0.41848826 -0.43945646
0.51214874 0.35931802 0.30868664 -0.11557543 0.26214334 0.10264676 0.17300858 -0.5882892
0.2980568 -0.29476318 -0.24615023 -0.26822358 -0.14083773 -0.23317827 0.24832287 0.057177424
0.3160315 0.27302864 -0.016588023 -0.31689277 0.18757808 -0.18007782 -0.40175825 0.17939511
0.22771579 -0.35015061 0.4579301 0.047357447 -0.544048 -0.47460982 0.08853133 -0.48849523
00000000: 3009 b8bc bc3b 5a3d bfa7 c7be d645 8fbd
00000010: 5f69 d3bd 03ff 8b3e 5e10 01bf 9234 4fbf
00000020: b1c1 4bbd 658d f3be e18e 9b3e 8c9a 213e
00000030: 990e e33d e0a9 8e3c 999f 6ebe dcce 8ebe
00000040: a469 a5be f3aa 9ebe a4e2 d4be 6924 e8be
00000050: 5cbd e23c e6a8 0e3c 6781 cbbe 1a42 183e
00000060: 40a8 cfba e4b4 56bf 20c7 ca3c e3a4 10bf
00000070: f661 41bf 3677 9a3e b8bf 0abc 2b13 44be
00000080: 1762 92be 8601 f9be 5a9f 0ebf 33e2 a9be
00000090: 0ccf 73be f377 10be 2d30 a2be 52e3 313d
000000a0: 4040 02bf 3016 34bc 55d6 ccbe 7447 fabe
000000b0: bf06 bdbe cce2 5abe 3875 debe 5a44 3d3d
000000c0: 12fb 803d 5178 103e 66eb 74bd a2f3 1dbe
000000d0: 0c36 663e e8f1 40be 86e4 fa3d 0411 06bf
000000e0: 5a92 df3e 884e 86be c6d2 44bf f4eb a03e
000000f0: 5eec abbc 39ab 69bd 3190 a73e 8a77 f5be
00000100: 7c83 613e b2e9 9b3d a8b9 77bf 6a97 b6bd
00000110: da10 d0bf 71dd 8a3f 1b4c dbbe fd60 2d3f
00000120: 344a 05be aac5 eebe e2ec 1abf 7ea4 c8be
00000130: c587 46bd d15a f4be c61d 733e 2ec5 cb3d
00000140: 2d70 3fbe 34d7 bcbe 4e36 9cbe 682c 983d
00000150: 55a7 e9be 749d babd e14c aebe ca41 a3be
00000160: 986f e13d 7e8a 893e 7648 773e 737f 0bbe
00000170: 1b8c 9dbd 8dfa 2f3f 1f18 30bf cf2a 47be
00000180: 1863 57bc 18b4 dc3e 4704 8c3e 68d5 82bc
00000190: b18e bf3d 2c16 92bc 3831 f93d be02 d33e
000001a0: 914c 003e 9752 6b3f 73b7 1f3f d40c a2be
000001b0: 4c94 1ec0 8295 c1be b398 0abe 5cd3 b6be
000001c0: e4fb 4cbe 3a58 a8bd 4b3c 0f3f 13a9 7cbf
000001d0: 6669 883d 3e14 38bf 009a 763e ce8c afbd
000001e0: 36dc 5c3d 2fce 55bd 153a c8be 0204 cb3e
000001f0: cb1c 643e 0c83 58be f478 b8bd 313c c53e
00000200: 3be6 af3e 3b67 41bf 9e0d 0fbf bfc1 cb3e
00000210: c2a5 ea3a 334a 0ebf 58fe dabe c9a4 01bf
00000220: f963 a3bd 6421 debe 298f 92bd e600 403e
00000230: 24b3 b4be d4ce 4fbf 4aca 92be 8877 243e
00000240: 4c01 f23c a259 3ac0 8703 c9bd 9ff1 9ebf
00000250: 17aa a23f 5c59 7bbf 325b 55bd de52 493e
00000260: 182f a8bc 683f 6dc0 0038 e3be a613 53bd
00000270: 889f 8f3e 7358 81bf 381f 5f3e 721b 62bf
00000280: d8b0 083f 82f0 3dbf defb 32be c286 98be
00000290: cc3a 12bf 406b eabb d526 8a3d c231 58be
000002a0: 62d2 debe de65 86be f898 63bc faab 643d
000002b0: 12b4 14bd 69eb 11be b042 13bc a4fe 02bf
000002c0: 5646 853e a970 01bf 6bf4 a33e 849c ca3d
000002d0: 17ce 213d 2b95 debd b9b1 f93e 5403 40bd
000002e0: 428b 1fbe 3045 b4bc c1ba 9b3e 9875 0abe
000002f0: f951 c43d 7639 64be 60a4 8f3e cbcb cd3e
00000300: 98f0 c03e 15c2 88bf 942e 3d3e e25e d83d
00000310: 5e49 3d3d d6b3 923e 6f67 1ebe ba56 fe3d
00000320: 7449 3bbd d2bd c4be 4b27 953e 3981 063e
00000330: bf21 393f 21e9 f5be e603 0bbe 3c19 ebbd
00000340: 076d d43d bb74 91be c968 f03e 54fd 613e
00000350: c9ae fabd f3e6 883e 62c9 573e 14b2 07be
00000360: 3cf8 333e 1695 90be def9 143d b957 da3e
00000370: 4b3b d1bc 1764 73be 1844 d6be 7000 e1be
00000380: 2e1c 033f 88f8 b73e 2d0c 9e3e d0b2 ecbd
00000390: a737 863e 7738 d23d 2929 313e 1f9a 16bf
000003a0: e79a 983e 33eb 96be ce0e 7cbe 9a54 89be
000003b0: c437 10be 49c6 6ebe 5a48 7e3e e032 6a3d
000003c0: e1ce a13e 69ca 8b3e 9be3 87bc c53f a2be
000003d0: 7814 403e 5266 38be 42b3 cdbe 5ab3 373e
000003e0: 542e 693e f146 b3be d075 ea3e e2f9 413d
000003f0: bb46 0bbf 0f00 f3be ea4f b53d 0c1c fabe

target_network.h2.transform.bias f4 [20]
-0.18181762 -0.15480843 -0.099999405 -0.08939634 -0.08726887 0.23973088 -0.061260007 0.7131071
-0.099999964 -0.2833525 -0.10714187 -0.18636149 -0.18035558 -0.23600145 0.43254647 -0.19997638
-0.2369678 -0.2408952 0.44030306 -0.15333651
00000000: 662e 3abe 1a86 1ebe 7dcc ccbd 6e15 b7bd
00000010: 05ba b2bd 037c 753e c6eb 7abd 308e 363f
00000020: c8cc ccbd 9413 91be 326d dbbd 8cd5 3ebe
00000030: 22af 38be 5daa 71be bb76 dd3e 9cc6 4cbe
00000040: b0a7 72be 3bad 76be 676f e13e 3f04 1dbe

target_network.h3.transform.weight f4 [20, 20]
0.017902294 -0.09524867 0.5825035 -0.11518921 0.12774003 -0.91743106 -0.51244116 0.26194638
0.24879035 -0.36418745 -0.00066456944 0.32555276 -0.36368692 -0.28647992 -0.48370457 -0.3384894
-0.13924903 -0.2682491 -0.6612759 -0.18551017 -0.01650425 -0.5032218 -0.082969695 -0.44121617
0.2554946 -0.29904214 0.8535666 1.3775802 -0.02038747 -0.2900505 -0.2170661 0.54751724
-0.2999379 -0.042747863 -0.1909813 0.080823846 -0.45118496 0.013368096 0.5763258 0.547913
0.51377577 0.2554776 0.07516608 -0.17126434 -0.5331232 -0.18433858 0.2366975 0.43088612
0.3670465 0.23597515 -0.15979293 -0.07041016 0.17911977 0.23649907 -0.26982892 -0.48349816
-0.18408771 0.41828883 -0.06020529 -0.24355914 0.19361237 0.46350598 0.3640665 -0.06258092
0.9228076 -0.3212441 0.30676162 -1.0644943 -0.13103281 -0.5076379 0.19332144 -0.067033604
-0.056444824 0.3441044 -0.05373075 0.062354364 -0.34786728 -0.10976543 -0.26796964 -0.18761124
0.104462676 0.3275289 -0.17480177 0.012732749 -0.6885188 -1.5843897 0.22071633 -0.1596512
0.80609214 0.08208295 0.5097953 -0.11898321 -0.6643622 0.045052946 -0.36958873 -0.007518269
0.55803144 0.13814503 0.95383906 0.2032659 -0.11909561 0.7165396 0.433366 0.3005101
-1.8980668 -0.4211305 0.5042511 0.41488904 0.027549066 0.18637288 0.2960495 0.03711354
0.3892794 -0.2026346 0.41169143 -0.04601341 0.06531397 0.23551843 -0.34907386 0.28375804
-0.31531003 -0.35080972 0.5384068 -0.68340397 -1.9126661 -0.08275567 -0.19827494 0.59692025
-0.13015965 0.5776409 0.41705602 0.051500805 -0.68316513 0.22878966 0.84201694 0.03282883
0.058099344 -0.06709438 0.366222 0.3506867 0.16321468 -0.15320882 0.17476803 0.2870375
-0.078389525 -0.7518082 0.27555576 -0.31536222 -0.33448246 -0.0031886927 -0.339338 0.110842384
0.0013338543 0.4556386 -0.43786722 -0.18859524 0.59026426 -0.16537088 0.44256774 0.13558702
0.29550543 -0.3071517 -0.2634452 0.025691144 0.7185517 0.33619276 0.08630368 -1.4327403
0.2542541 -0.042790048 0.62289524 -0.033225797 -0.21784505 0.40895405 -1.9826008 0.30013824
0.35221735 0.41516685 2.236532 0.18399683 -0.22763723 0.16446042 -0.16287082 -0.31265706
-0.5849719 0.61921215 -0.058508854 -2.195606 0.26001543 -0.30016318 -0.0557841 0.00501648
-0.016256511 -0.114049904 -1.1508133 -0.7385584 0.43192068 -0.19911045 2.286757 0.6945546
0.35747302 -0.38224915 0.025260411 -0.49724275 0.55326384 -0.4840706 0.46557355 1.8440596
-0.07247021 0.3787146 0.02270103 -0.47722217 0.54684097 -0.054141693 0.15703773 -0.4089914
0.07832313 0.11641265 0.89026356 0.408421 0.029854633 0.09581122 0.3730036 -0.43026203
0.2572761 -0.21865503 -0.44224027 0.39262342 0.39925262 -0.055701222 -0.72773683 -0.14216924
0.08565993 -0.26986843 -0.3866424 0.7270465 0.07993736 -0.18370406 0.2470204 0.060021028
0.37103823 -0.33431104 0.26530838 -0.112999685 -0.6599195 -1.3613566 0.20457008 -0.2325686
-0.10034542 -0.6295326 0.52378315 -0.080821626 0.5523753 -0.36436287 -0.23686378 0.122958094
00000000: d5a7 923c bc11 c3bd f31e 153f 52e8 ebbd
00000010: 48ce 023e c3dc 6abf 582f 03bf d61d 863e
00000020: e6c2 7e3e c776 babe 8036 2eba daae a63e
00000030: 2c35 babe 7fad 92be 20a8 f7be 7c4e adbe
00000040: 4c97 0ebe f257 89be 6149 29bf 61f6 3dbe
00000050: ec33 87bc 25d3 00bf 04ec a9bd 16e7 e1be
00000060: 30d0 823e 0d1c 99be 5783 5a3f 8c54 b03f
00000070: a003 a7bc 8081 94be 9346 5ebe 172a 0c3f
00000080: 7691 99be 6218 2fbd 9a90 43be f986 a53d
00000090: b701 e7be dc05 5b3c 168a 133f 0744 0c3f
000000a0: cf86 033f f6cd 823e acf0 993d eb5f 2fbe
000000b0: c37a 08bf 41c3 3cbe d460 723e 1b9d dc3e
000000c0: 85ed bb3e 78a3 713e c2a0 23be 3433 90bd
000000d0: 2c6b 373e d02c 723e 0427 8abe 128d f7be
000000e0: 7d81 3cbe f429 d63e d299 76bd 9167 79be
000000f0: 5242 463e a850 ed3e ed66 ba3e 6d2a 80bd
00000100: 1e3d 6c3f 1b7a a4be dc0f 9d3e 5941 88bf
00000110: 772d 06be 8ff4 01bf 0ef6 453e ea48 89bd
00000120: b032 67bd 742e b03e c614 5cbd 4a67 7f3d
00000130: a91b b2be b3cc e0bd 5133 89be 291d 40be
00000140: 87f0 d53d deb1 a73e 3cff 32be 059d 503c
00000150: c542 30bf 48cd cabf 7603 623e 9b7b 23be
00000160: 0e5c 4e3f 1b1b a83d f281 023f 78ad f3bd
00000170: a413 2abf 7089 383d bc3a bdbe d05b f6bb
00000180: 26db 0e3f e475 0d3e cc2e 743f f024 503e
00000190: 66e8 f3bd 246f 373f 26e2 dd3e 76dc 993e
000001a0: daf3 f2bf 6b9e d7be 9a16 013f 566c d43e
000001b0: 94ae e13c 88d8 3e3e cd93 973e 5e04 183d
000001c0: a14f c73e 727f 4fbe 38c9 d23e 8f78 3cbd
000001d0: 55c3 853d be2b 713e cfb9 b2be bc48 913e
000001e0: 5170 a1be 559d b3be 07d5 093f 90f3 2ebf
000001f0: 3ed2 f4bf ce7b a9bd 9608 4bbe c4cf 183f
00000200: 9248 05be 46e0 133f 5e88 d53e 82f2 523d
00000210: e9e3 2ebf d647 6a3e 6c8e 573f 8677 063d
00000220: 94f9 6d3d c768 89bd 7381 bb3e 358d b33e
00000230: c021 273e c6e2 1cbe 64f6 323e 94f6 923e
00000240: b08a a0bd 8176 40bf a515 8d3e 2877 a1be
00000250: 4941 abbe 63f9 50bb b6bd adbe 5501 e33d
00000260: b9d4 ae3a 7649 e93e 2230 e0be 1c1f 41be
00000270: 8f1b 173f fc56 29be 3d98 e23e 53d7 0a3e
00000280: 7d4c 973e fd42 9dbe 4ae2 86be 3c76 d23c
00000290: 01f3 373f 7521 ac3e fcbf b03d 0964 b7bf
000002a0: 982d 823e 9e44 2fbd 1076 1f3f c617 08bd
000002b0: c612 5fbe 6d62 d13e ddc5 fdbf b8ab 993e
000002c0: d555 b43e c090 d43e 5723 0f40 aa69 3c3e
000002d0: bc19 69be 5068 283e 9cc7 26be 9614 a0be
000002e0: b8c0 15bf b084 1e3f fba6 6fbd cf84 0cc0
000002f0: be20 853e fdae 99be de7d 64bd 4961 a43b
00000300: 602c 85bc ff92 e9bd da4d 93bf 2a12 3dbf
00000310: b524 dd3e 9ce3 4bbe 3a5a 1240 55ce 313f
00000320: b406 b73e 29b6 c3be ecee ce3c 9a96 febe
00000330: b3a2 0d3f 1ad8 f7be a85f ee3e 250a ec3f
00000340: 436b 94bd e1e6 c13e 83f7 b93c 7756 f4be
00000350: c5fd 0b3f aec3 5dbd 80ce 203e 5267 d1be
00000360: e167 a03d c169 ee3d 50e8 633f 8f1c d13e
00000370: b491 f43c ac38 c43d 54fa be3e 4e4b dcbe
00000380: b1b9 833e 1be7 5fbe 516d e2be f005 c93e
00000390: d76a cc3e f726 64bd f64c 3abf d094 11be
000003a0: 796e af3d 322c 8abe fef5 c5be b81f 3a3f
000003b0: 33b6 a33d eb1c 3cbe eaf2 7c3e 9cd8 753d
000003c0: b9f8 bd3e d12a abbe 80d6 873e 616c e7bd
000003d0: 7cf0 28bf ef40 aebf d27a 513e 7726 6ebe
000003e0: e681 cdbd 0c29 21bf a716 063f cf85 a5bd
000003f0: 7868 0d3f c58d babe 6b8c 72be 74d1 fb3d

target_network.h3.transform.bias f4 [20]
-0.19509758 0.121719174 -0.338481 -0.3973991 0.7283228 -0.59280485 -0.6947423 -0.08528535
0.10089248 -0.10530711 0.16141021 -0.022479136 0.5540618 0.4187208 0.03293408 -0.20221506
-0.20109215 0.093396015 0.0022162097 -0.10500404
00000000: a9c7 47be e747 f93d 624d adbe e577 cbbe
00000010: 5d73 3a3f 0fc2 17bf a2da 31bf 16aa aebd
00000020: b7a0 ce3d 41ab d7bd b848 253e 2a26 b8bc
00000030: fed6 0d3f 9362 d63e e3e5 063d 7711 4fbe
00000040: 1aeb 4dbe 6946 bf3d d43d 113b 5c0c d7bd

target_network.critic_linear.weight f4 [1, 20]
-0.056849875 -0.38005486 -0.056757532 -0.5067404 -1.4185207 1.4038318 1.7974706 0.57643193
0.80524606 0.3724693 -0.585288 0.061508678 -0.7013918 -0.28090283 -0.69988215 0.04044537
-0.055957675 -0.64837694 0.4125956 0.08890098
00000000: 6adb 68bd 8d96 c2be 967a 68bd bdb9 01bf
00000010: 1692 b5bf c3b0 b33f 8413 e63f 0b91 133f
00000020: 9b24 4e3f 4cb4 be3e 6fd5 15bf 86f0 7b3d
00000030: 6a8e 33bf 7fd2 8fbe 7a2b 33bf 0baa 253d
00000040: e033 65bd 08fc 25bf bb3f d33e b811 b63d
