pz_risk/mini_1/3.pt (torch, 18513 bytes, 26 tensors)

policy_network.emb1.transform.weight f4 [20, 2]
0	0x3dd2aeec	0.1028727
1	0x3ec10dd9	0.37705877
2	0x3d993483	0.07480719
3	0xbf17d2ef	-0.59306234
4	0xbbf13fde	-0.00736235
5	0xbea9be48	-0.33152986
6	0xbe303e94	-0.17211372
7	0xbeaad970	-0.33369017
8	0x3b728b6f	0.0037009378
9	0x3e9fe3ba	0.3122843
10	0xbf1c2ebc	-0.6100881
11	0x3eccb4a7	0.39981577
12	0xbe501a9a	-0.20322648
13	0xbd8ecd33	-0.069727324
14	0xbe9340f1	-0.28760484
15	0xbe90d0c1	-0.28284267
16	0x3decb0e3	0.11557176
17	0x3e261761	0.16219856
18	0xbc782633	-0.015145826
19	0x3e8c44d5	0.27396265
20	0xbe15ba4d	-0.1462185
21	0x3cceee35	0.02526007
22	0xbdc21cf6	-0.0947818
23	0x3ec9889c	0.39362037
24	0x3eaa29a4	0.33234894
25	0xbea11581	-0.3146172
26	0xbe977449	-0.29580906
27	0x3e989907	0.2980425
28	0x3e5891f2	0.21149424
29	0x3e2553fe	0.16145322
30	0xbf3ee9a2	-0.74575245
31	0x3e764696	0.24050364
32	0xbf1b5ac9	-0.606854
33	0xbe6b58c6	-0.22983083
34	0xbeda7f61	-0.42675307
35	0xbec64ecd	-0.38731995
36	0xbd534bd0	-0.051585972
37	0x3da6712e	0.08127056
38	0xbe9e32ad	-0.30898038
39	0xbe9877c6	-0.2977888

policy_network.emb1.transform.bias f4 [20]
0	0xbca2d98e	-0.019879129
1	0x3b63d7f1	0.0034766162
2	0x00000000	0.0
3	0x00000000	0.0
4	0xbe0476b0	-0.129359
5	0xbdc0fdc5	-0.09423403
6	0x00000000	0.0
7	0x00000000	0.0
8	0xbc88717d	-0.016655678
9	0xbdb74eb5	-0.08950559
10	0x00000000	0.0
11	0x3dd0c0c1	0.10193015
12	0xbd72111c	-0.059098348
13	0xbd3ca329	-0.04605404
14	0x3d0a7341	0.03380132
15	0x00000000	0.0
16	0x00000000	0.0
17	0x00000000	0.0
18	0xbca6525b	-0.020302942
19	0x00000000	0.0

policy_network.emb2.transform.weight f4 [20, 2]
0	0x3e03895b	0.12845366
1	0x3eb6105d	0.3555936
2	0x3e33be36	0.17553028
3	0x3ef9cdf6	0.48789948
4	0xbe928e19	-0.28624037
5	0x3d038d6d	0.032117296
6	0xbd470daa	-0.048597015
7	0xbdd237d0	-0.10264552
8	0x3ec4a573	0.38407478
9	0xbe4373eb	-0.19087188
10	0xbc0486f1	-0.008088813
11	0x3e8f5cca	0.2800048
12	0x3daf5936	0.085619375
13	0x3e89627e	0.26832956
14	0xbe2d9951	-0.16953017
15	0x3ebcf2c1	0.36903957
16	0xbe68e710	-0.22744393
17	0x3eaf5914	0.3424765
18	0x3ec6f0c6	0.3885557
19	0xbe2990ab	-0.16559093
20	0x3dda9a57	0.10673969
21	0xbf0f25ae	-0.5591687
22	0xbf5db806	-0.8660892
23	0xbe3cc72c	-0.18435353
24	0xbd587fbe	-0.0528562
25	0x3d691151	0.05690128
26	0xbeab47cd	-0.33453217
27	0x3e778f93	0.24175863
28	0x3e204454	0.15651065
29	0x3f54dc0b	0.8314826
30	0xbe281dc0	-0.16417599
31	0x3e639b06	0.22227105
32	0xbf1958ce	-0.5990113
33	0x3dd36727	0.10322409
34	0x3dfd97bd	0.123824574
35	0xbf09a529	-0.5376764
36	0xbdba2cc1	-0.090905674
37	0xbdf88c61	-0.1213615
38	0x3d230650	0.039800942
39	0x3d765ec4	0.06014897

policy_network.emb2.transform.bias f4 [20]
0	0xbdb69901	-0.08915902
1	0x3c1b766e	0.009488685
2	0x00000000	0.0
3	0x00000000	0.0
4	0xbe031f14	-0.12804824
5	0xbdaa53e6	-0.083167836
6	0x3d0b2a9e	0.03397619
7	0xbc8b7c3f	-0.017027019
8	0xbc2db89a	-0.0106030945
9	0xbe0abd5e	-0.135488
10	0xbd2d028a	-0.04223875
11	0x00000000	0.0
12	0xbd08f6b1	-0.03343839
13	0xbe26f3ff	-0.16304015
14	0x3d42f483	0.047596466
15	0xbc87d0e0	-0.016579092
16	0x00000000	0.0
17	0xbd45d57e	-0.048299305
18	0x00000000	0.0
19	0xbd5261d2	-0.05136282

policy_network.emb3.transform.weight f4 [20, 2]
0	0xbf062367	-0.5239777
1	0xbe5e36bc	-0.21700567
2	0xbe96de02	-0.29466254
3	0xbd5285a7	-0.051396992
4	0xbe81d0de	-0.25354666
5	0xbd6c03a8	-0.057620674
6	0x3e674944	0.22586542
7	0x3e1c7e82	0.15282634
8	0x3e186483	0.14882092
9	0x3ebee67d	0.37285224
10	0xbeb3def8	-0.3513105
11	0x3ee29fc2	0.4426251
12	0x3e054bfe	0.1301727
13	0x3f02bc5b	0.5106866
14	0x3d3742be	0.044741385
15	0xbe4f00d1	-0.20215155
16	0xbea03b77	-0.31295368
17	0x3f072e8f	0.5280542
18	0x3d883539	0.066507764
19	0xbe8be247	-0.27321073
20	0xbd8a33c3	-0.06748154
21	0xbecda1ac	-0.40162408
22	0xbf0efc9a	-0.5585419
23	0x3e9c05d6	0.30473202
24	0x3cc8fed8	0.024535581
25	0x3e35dc5e	0.17759845
26	0x3e9f0aa1	0.31062797
27	0x3e42ecfd	0.19035716
28	0xbe513305	-0.20429619
29	0xbe108e5c	-0.14116806
30	0xbe6eaab7	-0.2330731
31	0x3e0f3e8c	0.13988703
32	0x3f2c085b	0.6720025
33	0xbec9de3b	-0.3942736
34	0x3e20bfe3	0.15698199
35	0xbe50f0be	-0.20404336
36	0x3d639e68	0.05557099
37	0x3dd17ab3	0.10228481
38	0x3e77b5fa	0.24190512
39	0x3e2cb6d5	0.1686662

policy_network.emb3.transform.bias f4 [20]
0	0x00000000	0.0
1	0x00000000	0.0
2	0x00000000	0.0
3	0xbce6ae42	-0.028159264
4	0xbdae8f29	-0.085233994
5	0xbd14c119	-0.036316965
6	0xbd57eb15	-0.052714426
7	0xbcd4ba3e	-0.025967713
8	0xbd8fa984	-0.070147544
9	0xbc999578	-0.01874803
10	0x00000000	0.0
11	0xbd51f430	-0.051258266
12	0x3d2e8c27	0.04261413
13	0xbd67f6ba	-0.05663178
14	0x00000000	0.0
15	0xbc172eb7	-0.009227446
16	0xbda8006a	-0.08203204
17	0xbd559b61	-0.052150134
18	0xbd9ba4e7	-0.07599812
19	0xbda247f7	-0.079238825

policy_network.emb4.transform.weight f4 [20, 2]
0	0x3e80770d	0.2509083
1	0x3e7cc384	0.24683958
2	0x3d7fed29	0.062482033
3	0xbe5329a7	-0.20621358
4	0x3ebb198a	0.36542922
5	0x3e67f61f	0.22652481
6	0xbec11080	-0.377079
7	0x3ec6c620	0.38823032
8	0x3e50b730	0.2038238
9	0xbe627f14	-0.22118789
10	0x3e172e3f	0.14763735
11	0x3ee037f4	0.4379269
12	0x3e91a778	0.2844808
13	0x3cc694d0	0.024240881
14	0xbe573284	-0.21015364
15	0xbe834f4b	-0.25646433
16	0xbe9ade3f	-0.30247685
17	0xbeba1a76	-0.36348313
18	0xbe1e6c6e	-0.1547105
19	0x3df3d3f3	0.119056605
20	0xbc8c9b68	-0.017163947
21	0xbeb83797	-0.35979912
22	0x3e6e3286	0.2326146
23	0x3e7a0eb5	0.24419673
24	0xbd63c82d	-0.055610824
25	0x3d33846a	0.04382745
26	0x3ca6cc6a	0.020361144
27	0x3d2cc28a	0.042177714
28	0xbe2f784a	-0.1713573
29	0x3ea7c7d6	0.3276965
30	0x3ebf0bd9	0.37313727
31	0xbef92a07	-0.48664877
32	0x3deafa23	0.11473491
33	0x3c7d72de	0.015469281
34	0xbedd9c05	-0.43283096
35	0x3f02e68e	0.5113305
36	0xbf4da341	-0.8032723
37	0x3e30d0ce	0.17267153
38	0xbf050323	-0.5195791
39	0xbf02bd98	-0.5107055

policy_network.emb4.transform.bias f4 [20]
0	0xbd2fa8a6	-0.042885445
1	0xbcacc93d	-0.021092052
2	0xbd3dd310	-0.046343863
3	0xbdd7c420	-0.10535455
4	0xbda42694	-0.08015171
5	0xbcf2f8f6	-0.02965973
6	0x3dba7ca0	0.091058016
7	0x00000000	0.0
8	0x00000000	0.0
9	0xbcb2fc96	-0.021848958
10	0x00000000	0.0
11	0x3e13a063	0.14416651
12	0xbd6040d5	-0.05474933
13	0xbd6c1c63	-0.05764426
14	0x3a3b4474	0.0007143684
15	0xbd938a32	-0.07204093
16	0xbdb0d10a	-0.08633621
17	0xbda6a961	-0.08137775
18	0x00000000	0.0
19	0x00000000	0.0

policy_network.h2.transform.weight f4 [20, 20]
0	0x3d777949	0.0604184
1	0xbd435136	-0.04768487
2	0xbe9d1b20	-0.30684757
3	0x3e31d86e	0.17367718
4	0xbcba20f3	-0.02272079
5	0x3efc147e	0.49234384
6	0xbf21d571	-0.6321631
7	0xbf389985	-0.7210925
8	0xbe3607b8	-0.17776382
9	0xbe907157	-0.2821147
10	0x3ec60153	0.38672885
11	0x3e73f40b	0.23823564
12	0x3e418851	0.18899657
13	0x3e504fd6	0.20342955
14	0xbe1d4b5b	-0.15360777
15	0xbe699207	-0.22809611
16	0xbe63fc03	-0.22264104
17	0xbd9d47c6	-0.07679705
18	0xbea97876	-0.33099717
19	0xbeb59f4c	-0.35473096
20	0x3d543b91	0.05181462
21	0x3d135041	0.035965208
22	0xbecb8167	-0.39747164
23	0x3e67c708	0.22634518
24	0x3b9b1b40	0.004733473
25	0xbf299fae	-0.66259277
26	0x3e0dc266	0.13843688
27	0xbee45a51	-0.44600156
28	0xbf267bd9	-0.65032727
29	0x3eca3c3e	0.39499086
30	0x3d9a507d	0.07534883
31	0xbe44132b	-0.19147937
32	0xbe8d984c	-0.27655256
33	0xbee40fd9	-0.4454334
34	0xbef85030	-0.48498678
35	0xbe7e7bd8	-0.2485193
36	0xbe5e427f	-0.21705054
37	0xbc465ce1	-0.012107105
38	0xbe76578f	-0.24056838
39	0x3d23ac23	0.039959084
40	0xbee80aee	-0.4532084
41	0x3ca20daa	0.019781906
42	0xbeaa446c	-0.33255327
43	0xbeef6ea1	-0.4676409
44	0xbea4a8f9	-0.32160166
45	0xbe07c3bd	-0.13258262
46	0xbecacf95	-0.39611498
47	0x3e157bb2	0.14597967
48	0x3e01956f	0.1265466
49	0x3e6661ca	0.22498241
50	0x3ccb66b5	0.024829248
51	0xbd9ad853	-0.07560792
52	0x3e8b7136	0.2723481
53	0xbe1c48d8	-0.15262163
54	0x3e00abc0	0.12565517
55	0xbedc59f8	-0.4303739
56	0x3eea4a26	0.45759696
57	0xbe3fdadf	-0.18735836
58	0xbf330111	-0.699235
59	0x3ebbd486	0.3668558
60	0xbd9a76e8	-0.07542211
61	0x3c3776b9	0.011197739
62	0x3eaa6aab	0.33284506
63	0xbe14d018	-0.14532506
64	0x3e6d83f2	0.23194864
65	0x3e993603	0.2992402
66	0xbeb912d2	-0.3614717
67	0x3e2a7d8e	0.16649458
68	0xbe1d3d6b	-0.1535546
69	0x3f545887	0.8294758
70	0xbe81364a	-0.25236732
71	0x3eec08c0	0.46100426
72	0xbced4074	-0.028961398
73	0xbd59b3b8	-0.05314991
74	0xbf13e220	-0.57766914
75	0xbe3a2795	-0.18179162
76	0xbdc08639	-0.09400601
77	0xbea4e697	-0.32207176
78	0x3de7c2a8	0.113164246
79	0x3cf1ca08	0.029515281
80	0xbe0ff74d	-0.14059182
81	0xbefac954	-0.48981726
82	0xbef7968b	-0.48357043
83	0x3eb66390	0.35622835
84	0xbf016259	-0.5054069
85	0xbd88beef	-0.06677043
86	0xbed1e2f6	-0.4099347
87	0x3e0f7326	0.1400877
88	0x3e8f6682	0.28007895
89	0x3ec179d5	0.37788263
90	0x3e9e3bc4	0.30904973
91	0xbdda5008	-0.10659796
92	0xbdc74bd5	-0.09731261
93	0x3e4c0698	0.1992439
94	0xbec60bc7	-0.3868086
95	0x3e9d154e	0.30680317
96	0x3da6e502	0.081491485
97	0x3ed57d99	0.41697386
98	0x3ebd10b0	0.36926794
99	0x3e7e2fb8	0.24822891
100	0x3d8e2cfa	0.06942172
101	0x3ea5bc4d	0.32370225
102	0x3d130c21	0.03590024
103	0x3f277e7b	0.6542737
104	0x3d13b0f5	0.03605743
105	0x3ef8e88e	0.48614925
106	0xbe6994ca	-0.22810665
107	0x3d76650f	0.06015497
108	0xbe6b189e	-0.2295861
109	0x3dfdc3e9	0.123908825
110	0x3cd45860	0.025921047
111	0xbf0c181e	-0.547243
112	0xbe04dd34	-0.12975007
113	0xbe9226b7	-0.28545162
114	0x3ec9ce84	0.3941537
115	0xbde103a0	-0.109870195
116	0x3eed54f4	0.46353877
117	0xbe49e0b8	-0.1971463
118	0x3e01503a	0.1262826
119	0xbcf27d62	-0.029600803
120	0xbac7e222	-0.0015249888
121	0xbe7e523c	-0.24836057
122	0xbee520a7	-0.44751474
123	0x3ef4a556	0.4778239
124	0x3d9eafed	0.07748399
125	0xbcfe1971	-0.03101799
126	0xbe6c1d84	-0.23058134
127	0x3ec8d165	0.39222255
128	0x3eb5dfd2	0.35522324
129	0xbf115197	-0.5676512
130	0xbf0a91b8	-0.541286
131	0x3e8088c7	0.25104353
132	0xbe004544	-0.12526423
133	0xbee6ee58	-0.45103717
134	0xbef43fec	-0.4770502
135	0xbe8bf7bf	-0.27337453
136	0xbe4e6f84	-0.20159727
137	0xbe4265be	-0.18984124
138	0xbe580581	-0.2109585
139	0x3d5ccaec	0.05390446
140	0xbea6bb05	-0.3256456
141	0xbd736806	-0.059425376
142	0xbe8943d4	-0.2680956
143	0x3b847dbc	0.004043309
144	0x3d3202da	0.04345975
145	0xbedc2b0e	-0.43001598
146	0x3dd5d900	0.1044178
147	0xbed3a924	-0.41339982
148	0x3ed147b3	0.40875015
149	0x3deb1416	0.114784405
150	0x3d1b6c12	0.03794486
151	0x3e5fbdc8	0.2184974
152	0xbcbdaaaa	-0.023152668
153	0xbe999c0c	-0.30001867
154	0xbd7f5342	-0.06233526
155	0xbdcba380	-0.099432945
156	0x3f05a1fa	0.5220028
157	0xbe95c21f	-0.29249665
158	0x3e9185d9	0.2842243
159	0xbf5bd880	-0.8587723
160	0x3f26644d	0.64996797
161	0xbf1e0c81	-0.6173783
162	0xbd9015ff	-0.070354454
163	0xbea3f4c7	-0.32022688
164	0xbf1b241d	-0.6060198
165	0x3e058a1d	0.13040967
166	0x3d9f60d2	0.07782139
167	0x3ebe3b5e	0.3715467
168	0xbe7b45ae	-0.245383
169	0xbe4c10dc	-0.19928306
170	0xbde5dfe4	-0.112243444
171	0x3e8408a2	0.25787836
172	0xbc0faf43	-0.008769813
173	0xbe3409f2	-0.17581919
174	0x3dfcae16	0.12337892
175	0xbeaccd39	-0.33750322
176	0x3e495e59	0.19664897
177	0xbea0b54a	-0.31388313
178	0x3ed0eed0	0.408072
179	0x3da2aee9	0.07943518
180	0x3d1af876	0.037834607
181	0xbe9fbaea	-0.31197292
182	0x3eee3b89	0.46529797
183	0x3dcd7b41	0.100332744
184	0xbe554f5b	-0.20831053
185	0x3e0dcc5c	0.13847488
186	0x3e105151	0.1409352
187	0xbe5d717c	-0.21625322
188	0x3d55d3ca	0.05220393
189	0x3cbe35e0	0.023219049
190	0x3e69e46f	0.22841047
191	0x3e90d8ad	0.2829031
192	0x3ee86a0c	0.45393407
193	0xbf7c6ff9	-0.98608357
194	0x3ca44bc6	0.020055663
195	0x3e9349c3	0.28767213
196	0xbcf64ceb	-0.030065974
197	0x3f093ee3	0.5361158
198	0xbe8e8b2d	-0.27840558
199	0x3ca9ce3f	0.020728229
200	0xbcb7b1c3	-0.02242363
201	0xbee9649e	-0.45584577
202	0x3ea6d30f	0.325829
203	0x3de5ff67	0.11230355
204	0x3f35ef81	0.7106858
205	0xbeb7811c	-0.3584069
206	0xbdc93aab	-0.09825643
207	0x3a895b6e	0.0010479519
208	0x39aee8a0	0.00033361185
209	0xbe366e3a	-0.17815486
210	0x3eefc5f7	0.46830723
211	0x3dad08dc	0.084489554
212	0x3d7e1b8b	0.062037986
213	0x3ea106dc	0.31450546
214	0x3dabd5e5	0.083904065
215	0x3c64c389	0.013962635
216	0x3e5112a4	0.20417267
217	0xbe5233c1	-0.20527555
218	0xbd9f7d9e	-0.077876315
219	0x3ebaf19a	0.36512452
220	0xbd4da726	-0.050208233
221	0xbef992e0	-0.4874487
222	0xbee04981	-0.4380608
223	0xbebc9d49	-0.3683875
224	0x3efaeafd	0.49007407
225	0x3f082711	0.5318461
226	0x3e98666d	0.29765645
227	0xbda17959	-0.07884473
228	0x3ea65c1d	0.32492152
229	0x3e2fb6d1	0.17159583
230	0x3e58314a	0.21112552
231	0xbf45ca60	-0.77261925
232	0x3e5cf235	0.2157677
233	0xbe768d8c	-0.24077433
234	0xbedb8989	-0.42878368
235	0xbe56eed7	-0.20989548
236	0xbe66423b	-0.22486202
237	0xbcc7f87b	-0.024410477
238	0x3e0fb7b4	0.14034921
239	0x3ca16de7	0.019705726
240	0x3ed5776f	0.41692683
241	0x3ebd3bdd	0.36959735
242	0x3d925114	0.07144371
243	0xbebe09dd	-0.371169
244	0x3e6ba2da	0.23011342
245	0xbdb8abb2	-0.09017123
246	0xbecd7bd0	-0.40133524
247	0x3eed8642	0.46391493
248	0x3ecab097	0.39587852
249	0xbe1bec25	-0.152268
250	0x3eea75d0	0.4579301
251	0x3e1ea4e4	0.15492588
252	0xbef1cef9	-0.4722822
253	0xbefb019c	-0.49024665
254	0x3dd7681c	0.10517904
255	0xbeb374e4	-0.35050118

policy_network.h2.transform.bias f4 [20]
0	0xbb36fba0	-0.0027920976
1	0xbde0c9c2	-0.10975982
2	0xbdb2cd9d	-0.08730624
3	0xbd928c6c	-0.071556896
4	0xbd91ecd8	-0.071252525
5	0xbd5ce8a3	-0.053932797
6	0xbe09e5c9	-0.13466562
7	0xbdd01a50	-0.10161269
8	0xbc23142b	-0.009953539
9	0xbc9f83e0	-0.019472063
10	0xbd6c3724	-0.057669774
11	0xbc9d04a9	-0.019167261
12	0x3def4e1e	0.116848215
13	0xbdb4996f	-0.08818328
14	0x3d823fe7	0.06359845
15	0x00000000	0.0
16	0xbe039534	-0.12849885
17	0xbdd61dfd	-0.104549386
18	0xbd1fe721	-0.03903878
19	0xbe34725e	-0.17621753

policy_network.h3.transform.weight f4 [20, 20]
0	0x3c92a7d5	0.017902294
1	0xbdc311bc	-0.09524867
2	0x3f151ef3	0.5825035
3	0xbc78dc36	-0.015189221
4	0x3dcba4b5	0.09943525
5	0xbf1a0a0b	-0.60171574
6	0xbefaf7f0	-0.49017286
7	0x3e861dd6	0.26194638
8	0x3e7ec2e6	0.24879035
9	0xbe874a66	-0.2642395
10	0xbcd4810c	-0.02594044
11	0x3e1d417a	0.15357009
12	0xbeba352c	-0.36368692
13	0xbed46601	-0.41484073
14	0x3e02ed65	0.12785871
15	0xbedfa1f0	-0.43678236
16	0xbe1906fe	-0.14944074
17	0xbe8b3cbb	-0.2719477
18	0xbf0fb042	-0.56128323
19	0xbdafc911	-0.08583272
20	0xbe2ea39b	-0.17054598
21	0xbf020782	-0.50792706
22	0xbe024ac6	-0.12723836
23	0xbdc7e71c	-0.097608775
24	0xbe019659	-0.1265501
25	0x3d4d308a	0.05009512
26	0x3f57bd87	0.8427357
27	0xbdda24d8	-0.10651559
28	0x3d5c2711	0.053748194
29	0xbe5b03b5	-0.21388133
30	0xbe0e236d	-0.13880701
31	0x3f1fb6a0	0.6238804
32	0xbe84fa30	-0.25972128
33	0xbd83f9ee	-0.06444155
34	0xbe1e7d61	-0.15477516
35	0xbc97f915	-0.018551389
36	0xbe667fc0	-0.2250967
37	0x3e389a67	0.1802765
38	0xbe9002cf	-0.28127143
39	0x3ec76072	0.3894077
40	0x3ed3e76a	0.41387492
41	0x3e2565af	0.1615207
42	0x3c43f3b9	0.0119599635
43	0xbd131f83	-0.035918724
44	0xbee8fb30	-0.4550414
45	0xbcb17163	-0.021660512
46	0x3e173a35	0.14768298
47	0x3f3183a4	0.6934149
48	0x3edba693	0.42900524
49	0x3f15be4b	0.5849349
50	0xbd616a0a	-0.055032767
51	0x3cabf5e4	0.020991273
52	0x3eb36879	0.35040644
53	0x3eb370f2	0.35047108
54	0x3e961b59	0.2931774
55	0xbef78d12	-0.48349816
56	0x3ca75887	0.020427955
57	0x3ef1ffd4	0.47265494
58	0x3e00d838	0.12582481
59	0xbdbe8c8b	-0.0930415
60	0x3e19818b	0.14990823
61	0x3eef58c0	0.46747398
62	0x3e9bd247	0.30433866
63	0xbebe1f5a	-0.37133294
64	0x3eac9571	0.33707765
65	0x3c84b5c2	0.01619995
66	0x3e588568	0.2114464
67	0xbc93f0a4	-0.018059082
68	0xbd929067	-0.07156449
69	0xbeeaca31	-0.45857385
70	0x3e9a81e3	0.3017722
71	0x3c8c820f	0.01715186
72	0x3c2482a3	0.010040912
73	0x3f0aa328	0.54155207
74	0xbd2975b2	-0.04137201
75	0xbd0cef4e	-0.034407906
76	0xbeadf3c4	-0.3397504
77	0xbdcd7d85	-0.100337066
78	0x3ed8d16a	0.4234727
79	0xbe580e5f	-0.21099232
80	0x3cc263cf	0.023729233
81	0x3e476b4a	0.19474521
82	0xbe8e849d	-0.2783555
83	0xbdb905d3	-0.09034314
84	0xbedb76f6	-0.42864197
85	0xbed769c5	-0.42072883
86	0x3d611e00	0.05496025
87	0xbf0ae67b	-0.54257935
88	0x3f2d7c58	0.6776786
89	0xbddca52c	-0.107736915
90	0x3e45455d	0.19264741
91	0xbee10ff1	-0.43957475
92	0xbf1b5c3b	-0.6068761
93	0xbe9d965b	-0.30778775
94	0xbe62164d	-0.2207882
95	0x3dbb9a1f	0.09160256
96	0x3eba647d	0.3640479
97	0xbdc8c562	-0.09803273
98	0x3e01de02	0.12682346
99	0x3da12fd0	0.07870448
100	0xbc99acf9	-0.018759238
101	0x3f4e385f	0.80554765
102	0x3efa7c87	0.48923132
103	0x3ea7473d	0.32671538
104	0xbcae998d	-0.021313453
105	0xbe16fbd6	-0.14744505
106	0x3f20cf4e	0.6281632
107	0xbe3a1aa2	-0.18174222
108	0xbc366542	-0.01113254
109	0x3e3ce784	0.18447691
110	0x3e1e9496	0.15486369
111	0x3d21be7e	0.039488308
112	0x3e98fbf1	0.29879716
113	0xbeac8235	-0.3369309
114	0x3e66c3d9	0.22535647
115	0x3d58d43b	0.052936774
116	0xbd693548	-0.05693558
117	0x3dfb4b5d	0.12270234
118	0xbe3d3a78	-0.18479335
119	0x3e51afed	0.20477267
120	0xbd5fd6d6	-0.054648243
121	0xbe86130f	-0.26186416
122	0x3f1a3996	0.6024412
123	0xbecd5ec8	-0.40111375
124	0xbe7ead1d	-0.24870725
125	0x3e782173	0.2423151
126	0xbd10b8e5	-0.03533258
127	0x3cf758a0	0.030193627
128	0xbe678e74	-0.22612935
129	0x3eb0d1e0	0.34535122
130	0x3ea6b468	0.32559514
131	0x3d3dcfc9	0.046340737
132	0xbf467691	-0.7752467
133	0x3e278f69	0.163633
134	0x3dd57ad2	0.10423817
135	0x3e06d406	0.13166818
136	0xbd662c25	-0.056194443
137	0xbe0e60ac	-0.13904065
138	0x3e9a479b	0.30132756
139	0x3e7dd1e2	0.24787095
140	0x3e86b773	0.26311836
141	0xbe1ce2c6	-0.15320882
142	0x3e32f664	0.17476803
143	0x3e954e79	0.29161432
144	0xbde64ee1	-0.11245514
145	0xbf4dce52	-0.80392945
146	0x3e8c8b54	0.2745005
147	0xbd5b3d5a	-0.053525306
148	0xbf1a2a57	-0.60220855
149	0xbe0ea8af	-0.13931535
150	0xbed5f1df	-0.41786095
151	0x3e0d7325	0.13813455
152	0xbd0cb7da	-0.034355022
153	0x3e7839ed	0.24240847
154	0xbf0ed655	-0.55795795
155	0xbdb6ea83	-0.08931448
156	0x3f15cc3b	0.58514756
157	0xbe864df5	-0.26231351
158	0x3e93d010	0.28869677
159	0x3d94b06d	0.07260213
160	0x3edbb090	0.42908144
161	0xbea1694e	-0.31525654
162	0xbe4e7e2f	-0.20165323
163	0x3d8fcffa	0.0702209
164	0x3f1e2bbe	0.61785495
165	0xbd96ab58	-0.073569
166	0x3e13c640	0.14431095
167	0x3eb8dcbc	0.36105907
168	0x3e3e0eb9	0.18560304
169	0xbe90e8f1	-0.2830272
170	0x3f126c55	0.5719655
171	0xbd3cc904	-0.04609014
172	0xbe060a41	-0.13089849
173	0x3e5be834	0.21475297
174	0xbe5dbb9c	-0.21653599
175	0x3ecc8488	0.39944863
176	0x3eaa1c33	0.3322464
177	0x3ecb8cf0	0.39755964
178	0xbe9d57e4	-0.30731118
179	0x3e05868e	0.1303961
180	0xbdb20ba5	-0.08693627
181	0x3e0fd8e2	0.14047578
182	0xbdc48596	-0.09595792
183	0xbe8b2b4b	-0.27181467
184	0x3e5ee5bc	0.21767324
185	0x3eae2f37	0.34020397
186	0xbca254d6	-0.019815844
187	0x3e3c8279	0.18409146
188	0x3dc69e44	0.096981555
189	0xbee30865	-0.44342342
190	0xbe396644	-0.18105417
191	0x3c056501	0.008141757
192	0x3e38e62c	0.18056554
193	0xbebcde78	-0.3688848
194	0xbd690dc6	-0.0568979
195	0xbf23b9a7	-0.6395516
196	0x3ef9f976	0.48823136
197	0xbe84ce17	-0.25938484
198	0x3e9b0f8e	0.30285305
199	0x3f1a2eba	0.6022755
200	0x3e5c20b5	0.21496852
201	0xbe908650	-0.28227472
202	0x3cceeeec	0.025260411
203	0xbf4bb4df	-0.7957286
204	0x3ec031fc	0.37538135
205	0xbed8a9a3	-0.42316923
206	0x3e2b9a7a	0.16758147
207	0xbef31c79	-0.4748266
208	0xbde1a924	-0.11018589
209	0x3e9129a0	0.2835207
210	0x3cb9ae1a	0.022666026
211	0xbeb944a8	-0.36185193
212	0x3ea6916f	0.32532832
213	0xbe617e87	-0.22020923
214	0xbdb8b000	-0.09017944
215	0xbecee3e6	-0.40408248
216	0xbdf8c3a6	-0.12146692
217	0x3e4dabc6	0.20085058
218	0xbdc0b93a	-0.09410329
219	0xbaa039e3	-0.0012224283
220	0x3dfcf7f8	0.12351984
221	0x3dc438ac	0.09581122
222	0x3ebefa54	0.3730036
223	0xbedc4b4e	-0.43026203
224	0x3d4b4d57	0.049634304
225	0xbe15c27b	-0.1462497
226	0x3c236b5b	0.009974326
227	0x3ea6d37e	0.3258323
228	0x3ecc6ad7	0.39925262
229	0xbdabec08	-0.08394629
230	0xbf3a4cf6	-0.72773683
231	0xbde107df	-0.109878294
232	0x3daf6e79	0.08565993
233	0xbe8a2c32	-0.26986843
234	0xbd68c0b5	-0.056824405
235	0x3f535711	0.8255473
236	0xbcc13ab7	-0.023587568
237	0x3c6f2b7e	0.014597772
238	0x3de80370	0.11328781
239	0x3e3e4c5f	0.18583821
240	0x3e8ac91f	0.27106568
241	0xbed4af77	-0.4154012
242	0x3e511259	0.20417155
243	0x3ca6854b	0.02032723
244	0xbee4d45d	-0.4469327
245	0xbd5c4ecb	-0.05378608
246	0x3d330f30	0.043715656
247	0x3da3e7ce	0.080031976
248	0xbe0f7f74	-0.14013463
249	0xbf1d904a	-0.6154829
250	0x3f1e1bcf	0.6176118
251	0xbc48a072	-0.012245284
252	0x3f191aa3	0.5980627
253	0xbec0ad8c	-0.37632406
254	0xbceb268a	-0.0287049
255	0x3e621b4f	0.2208073

policy_network.h3.transform.bias f4 [20]
0	0xbdcd163d	-0.10014007
1	0x3d3a0759	0.045417164
2	0x3c91a85d	0.017780477
3	0x3c4d0384	0.012513045
4	0xbdf69349	-0.12039811
5	0xbde6bda2	-0.11266638
6	0xbd9c4456	-0.076302215
7	0xbe242b98	-0.16032255
8	0xbd27726a	-0.040880598
9	0xbdd8994e	-0.105761155
10	0xbc65b48d	-0.014020097
11	0x00000000	0.0
12	0xbd244a90	-0.04011017
13	0xbd9ef60a	-0.07761772
14	0x00000000	0.0
15	0xbd35f64c	-0.04442434
16	0xbd03584b	-0.032066625
17	0x3ba902f8	0.0051578246
18	0xbe0dc768	-0.13845599
19	0xbdacc24a	-0.08435495

policy_network.critic_linear.weight f4 [1, 20]
0	0xbe93e6c5	-0.28887
1	0xbebc7066	-0.36804503
2	0xbe710eda	-0.23540822
3	0xbe451cba	-0.1924924
4	0xbeef949d	-0.4679307
5	0x3e88d5da	0.26725656
6	0x3e6068ba	0.2191495
7	0x3ecd47f4	0.40093958
8	0x3ee6e3ab	0.45095572
9	0x3e4b8dec	0.19878358
10	0x3d58295f	0.05277383
11	0x3cdc2da0	0.026877224
12	0xbe8fdc59	-0.280978
13	0xbd1096d4	-0.03530009
14	0xbf2c0d57	-0.67207855
15	0xbdf1803f	-0.11792039
16	0xbdbba06a	-0.09161456
17	0xbe4ae0f8	-0.19812381
18	0x3e624010	0.2209475
19	0x3e24540a	0.16047683

target_network.emb1.transform.weight f4 [20, 2]
0	0x3dd2aeec	0.1028727
1	0x3ec10dd9	0.37705877
2	0x3d993483	0.07480719
3	0xbf17d2ef	-0.59306234
4	0xbbf13fde	-0.00736235
5	0xbea9be48	-0.33152986
6	0xbe303e94	-0.17211372
7	0xbeaad970	-0.33369017
8	0x3b728b6f	0.0037009378
9	0x3e9fe3ba	0.3122843
10	0xbf1c2ebc	-0.6100881
11	0x3eccb4a7	0.39981577
12	0xbe501a9a	-0.20322648
13	0xbd8ecd33	-0.069727324
14	0xbe9340f1	-0.28760484
15	0xbe90d0c1	-0.28284267
16	0x3decb0e3	0.11557176
17	0x3e261761	0.16219856
18	0xbc782633	-0.015145826
19	0x3e8c44d5	0.27396265
20	0xbe15ba4d	-0.1462185
21	0x3cceee35	0.02526007
22	0xbdc21cf6	-0.0947818
23	0x3ec9889c	0.39362037
24	0x3eaa29a4	0.33234894
25	0xbea11581	-0.3146172
26	0xbe977449	-0.29580906
27	0x3e989907	0.2980425
28	0x3e5891f2	0.21149424
29	0x3e2553fe	0.16145322
30	0xbf3ee9a2	-0.74575245
31	0x3e764696	0.24050364
32	0xbf1b5ac9	-0.606854
33	0xbe6b58c6	-0.22983083
34	0xbeda7f61	-0.42675307
35	0xbec64ecd	-0.38731995
36	0xbd534bd0	-0.051585972
37	0x3da6712e	0.08127056
38	0xbe9e32ad	-0.30898038
39	0xbe9877c6	-0.2977888

target_network.emb1.transform.bias f4 [20]
0	0xbca2d98e	-0.019879129
1	0x3b63d7f1	0.0034766162
2	0x00000000	0.0
3	0x00000000	0.0
4	0xbe0476b0	-0.129359
5	0xbdc0fdc5	-0.09423403
6	0x00000000	0.0
7	0x00000000	0.0
8	0xbc88717d	-0.016655678
9	0xbdb74eb5	-0.08950559
10	0x00000000	0.0
11	0x3dd0c0c1	0.10193015
12	0xbd72111c	-0.059098348
13	0xbd3ca329	-0.04605404
14	0x3d0a7341	0.03380132
15	0x00000000	0.0
16	0x00000000	0.0
17	0x00000000	0.0
18	0xbca6525b	-0.020302942
19	0x00000000	0.0

target_network.emb2.transform.weight f4 [20, 2]
0	0x3e03895b	0.12845366
1	0x3eb6105d	0.3555936
2	0x3e33be36	0.17553028
3	0x3ef9cdf6	0.48789948
4	0xbe928e19	-0.28624037
5	0x3d038d6d	0.032117296
6	0xbd470daa	-0.048597015
7	0xbdd237d0	-0.10264552
8	0x3ec4a573	0.38407478
9	0xbe4373eb	-0.19087188
10	0xbc0486f1	-0.008088813
11	0x3e8f5cca	0.2800048
12	0x3daf5936	0.085619375
13	0x3e89627e	0.26832956
14	0xbe2d9951	-0.16953017
15	0x3ebcf2c1	0.36903957
16	0xbe68e710	-0.22744393
17	0x3eaf5914	0.3424765
18	0x3ec6f0c6	0.3885557
19	0xbe2990ab	-0.16559093
20	0x3dda9a57	0.10673969
21	0xbf0f25ae	-0.5591687
22	0xbf5db806	-0.8660892
23	0xbe3cc72c	-0.18435353
24	0xbd587fbe	-0.0528562
25	0x3d691151	0.05690128
26	0xbeab47cd	-0.33453217
27	0x3e778f93	0.24175863
28	0x3e204454	0.15651065
29	0x3f54dc0b	0.8314826
30	0xbe281dc0	-0.16417599
31	0x3e639b06	0.22227105
32	0xbf1958ce	-0.5990113
33	0x3dd36727	0.10322409
34	0x3dfd97bd	0.123824574
35	0xbf09a529	-0.5376764
36	0xbdba2cc1	-0.090905674
37	0xbdf88c61	-0.1213615
38	0x3d230650	0.039800942
39	0x3d765ec4	0.06014897

target_network.emb2.transform.bias f4 [20]
0	0xbdb69901	-0.08915902
1	0x3c1b766e	0.009488685
2	0x00000000	0.0
3	0x00000000	0.0
4	0xbe031f14	-0.12804824
5	0xbdaa53e6	-0.083167836
6	0x3d0b2a9e	0.03397619
7	0xbc8b7c3f	-0.017027019
8	0xbc2db89a	-0.0106030945
9	0xbe0abd5e	-0.135488
10	0xbd2d028a	-0.04223875
11	0x00000000	0.0
12	0xbd08f6b1	-0.03343839
13	0xbe26f3ff	-0.16304015
14	0x3d42f483	0.047596466
15	0xbc87d0e0	-0.016579092
16	0x00000000	0.0
17	0xbd45d57e	-0.048299305
18	0x00000000	0.0
19	0xbd5261d2	-0.05136282

target_network.emb3.transform.weight f4 [20, 2]
0	0xbf062367	-0.5239777
1	0xbe5e36bc	-0.21700567
2	0xbe96de02	-0.29466254
3	0xbd5285a7	-0.051396992
4	0xbe81d0de	-0.25354666
5	0xbd6c03a8	-0.057620674
6	0x3e674944	0.22586542
7	0x3e1c7e82	0.15282634
8	0x3e186483	0.14882092
9	0x3ebee67d	0.37285224
10	0xbeb3def8	-0.3513105
11	0x3ee29fc2	0.4426251
12	0x3e054bfe	0.1301727
13	0x3f02bc5b	0.5106866
14	0x3d3742be	0.044741385
15	0xbe4f00d1	-0.20215155
16	0xbea03b77	-0.31295368
17	0x3f072e8f	0.5280542
18	0x3d883539	0.066507764
19	0xbe8be247	-0.27321073
20	0xbd8a33c3	-0.06748154
21	0xbecda1ac	-0.40162408
22	0xbf0efc9a	-0.5585419
23	0x3e9c05d6	0.30473202
24	0x3cc8fed8	0.024535581
25	0x3e35dc5e	0.17759845
26	0x3e9f0aa1	0.31062797
27	0x3e42ecfd	0.19035716
28	0xbe513305	-0.20429619
29	0xbe108e5c	-0.14116806
30	0xbe6eaab7	-0.2330731
31	0x3e0f3e8c	0.13988703
32	0x3f2c085b	0.6720025
33	0xbec9de3b	-0.3942736
34	0x3e20bfe3	0.15698199
35	0xbe50f0be	-0.20404336
36	0x3d639e68	0.05557099
37	0x3dd17ab3	0.10228481
38	0x3e77b5fa	0.24190512
39	0x3e2cb6d5	0.1686662

target_network.emb3.transform.bias f4 [20]
0	0x00000000	0.0
1	0x00000000	0.0
2	0x00000000	0.0
3	0xbce6ae42	-0.028159264
4	0xbdae8f29	-0.085233994
5	0xbd14c119	-0.036316965
6	0xbd57eb15	-0.052714426
7	0xbcd4ba3e	-0.025967713
8	0xbd8fa984	-0.070147544
9	0xbc999578	-0.01874803
10	0x00000000	0.0
11	0xbd51f430	-0.051258266
12	0x3d2e8c27	0.04261413
13	0xbd67f6ba	-0.05663178
14	0x00000000	0.0
15	0xbc172eb7	-0.009227446
16	0xbda8006a	-0.08203204
17	0xbd559b61	-0.052150134
18	0xbd9ba4e7	-0.07599812
19	0xbda247f7	-0.079238825

target_network.emb4.transform.weight f4 [20, 2]
0	0x3e80770d	0.2509083
1	0x3e7cc384	0.24683958
2	0x3d7fed29	0.062482033
3	0xbe5329a7	-0.20621358
4	0x3ebb198a	0.36542922
5	0x3e67f61f	0.22652481
6	0xbec11080	-0.377079
7	0x3ec6c620	0.38823032
8	0x3e50b730	0.2038238
9	0xbe627f14	-0.22118789
10	0x3e172e3f	0.14763735
11	0x3ee037f4	0.4379269
12	0x3e91a778	0.2844808
13	0x3cc694d0	0.024240881
14	0xbe573284	-0.21015364
15	0xbe834f4b	-0.25646433
16	0xbe9ade3f	-0.30247685
17	0xbeba1a76	-0.36348313
18	0xbe1e6c6e	-0.1547105
19	0x3df3d3f3	0.119056605
20	0xbc8c9b68	-0.017163947
21	0xbeb83797	-0.35979912
22	0x3e6e3286	0.2326146
23	0x3e7a0eb5	0.24419673
24	0xbd63c82d	-0.055610824
25	0x3d33846a	0.04382745
26	0x3ca6cc6a	0.020361144
27	0x3d2cc28a	0.042177714
28	0xbe2f784a	-0.1713573
29	0x3ea7c7d6	0.3276965
30	0x3ebf0bd9	0.37313727
31	0xbef92a07	-0.48664877
32	0x3deafa23	0.11473491
33	0x3c7d72de	0.015469281
34	0xbedd9c05	-0.43283096
35	0x3f02e68e	0.5113305
36	0xbf4da341	-0.8032723
37	0x3e30d0ce	0.17267153
38	0xbf050323	-0.5195791
39	0xbf02bd98	-0.5107055

target_network.emb4.transform.bias f4 [20]
0	0xbd2fa8a6	-0.042885445
1	0xbcacc93d	-0.021092052
2	0xbd3dd310	-0.046343863
3	0xbdd7c420	-0.10535455
4	0xbda42694	-0.08015171
5	0xbcf2f8f6	-0.02965973
6	0x3dba7ca0	0.091058016
7	0x00000000	0.0
8	0x00000000	0.0
9	0xbcb2fc96	-0.021848958
10	0x00000000	0.0
11	0x3e13a063	0.14416651
12	0xbd6040d5	-0.05474933
13	0xbd6c1c63	-0.05764426
14	0x3a3b4474	0.0007143684
15	0xbd938a32	-0.07204093
16	0xbdb0d10a	-0.08633621
17	0xbda6a961	-0.08137775
18	0x00000000	0.0
19	0x00000000	0.0

target_network.h2.transform.weight f4 [20, 20]
0	0x3d777949	0.0604184
1	0xbd435136	-0.04768487
2	0xbe9d1b20	-0.30684757
3	0x3e31d86e	0.17367718
4	0xbcba20f3	-0.02272079
5	0x3efc147e	0.49234384
6	0xbf21d571	-0.6321631
7	0xbf389985	-0.7210925
8	0xbe3607b8	-0.17776382
9	0xbe907157	-0.2821147
10	0x3ec60153	0.38672885
11	0x3e73f40b	0.23823564
12	0x3e418851	0.18899657
13	0x3e504fd6	0.20342955
14	0xbe1d4b5b	-0.15360777
15	0xbe699207	-0.22809611
16	0xbe63fc03	-0.22264104
17	0xbd9d47c6	-0.07679705
18	0xbea97876	-0.33099717
19	0xbeb59f4c	-0.35473096
20	0x3d543b91	0.05181462
21	0x3d135041	0.035965208
22	0xbecb8167	-0.39747164
23	0x3e67c708	0.22634518
24	0x3b9b1b40	0.004733473
25	0xbf299fae	-0.66259277
26	0x3e0dc266	0.13843688
27	0xbee45a51	-0.44600156
28	0xbf267bd9	-0.65032727
29	0x3eca3c3e	0.39499086
30	0x3d9a507d	0.07534883
31	0xbe44132b	-0.19147937
32	0xbe8d984c	-0.27655256
33	0xbee40fd9	-0.4454334
34	0xbef85030	-0.48498678
35	0xbe7e7bd8	-0.2485193
36	0xbe5e427f	-0.21705054
37	0xbc465ce1	-0.012107105
38	0xbe76578f	-0.24056838
39	0x3d23ac23	0.039959084
40	0xbee80aee	-0.4532084
41	0x3ca20daa	0.019781906
42	0xbeaa446c	-0.33255327
43	0xbeef6ea1	-0.4676409
44	0xbea4a8f9	-0.32160166
45	0xbe07c3bd	-0.13258262
46	0xbecacf95	-0.39611498
47	0x3e157bb2	0.14597967
48	0x3e01956f	0.1265466
49	0x3e6661ca	0.22498241
50	0x3ccb66b5	0.024829248
51	0xbd9ad853	-0.07560792
52	0x3e8b7136	0.2723481
53	0xbe1c48d8	-0.15262163
54	0x3e00abc0	0.12565517
55	0xbedc59f8	-0.4303739
56	0x3eea4a26	0.45759696
57	0xbe3fdadf	-0.18735836
58	0xbf330111	-0.699235
59	0x3ebbd486	0.3668558
60	0xbd9a76e8	-0.07542211
61	0x3c3776b9	0.011197739
62	0x3eaa6aab	0.33284506
63	0xbe14d018	-0.14532506
64	0x3e6d83f2	0.23194864
65	0x3e993603	0.2992402
66	0xbeb912d2	-0.3614717
67	0x3e2a7d8e	0.16649458
68	0xbe1d3d6b	-0.1535546
69	0x3f545887	0.8294758
70	0xbe81364a	-0.25236732
71	0x3eec08c0	0.46100426
72	0xbced4074	-0.028961398
73	0xbd59b3b8	-0.05314991
74	0xbf13e220	-0.57766914
75	0xbe3a2795	-0.18179162
76	0xbdc08639	-0.09400601
77	0xbea4e697	-0.32207176
78	0x3de7c2a8	0.113164246
79	0x3cf1ca08	0.029515281
80	0xbe0ff74d	-0.14059182
81	0xbefac954	-0.48981726
82	0xbef7968b	-0.48357043
83	0x3eb66390	0.35622835
84	0xbf016259	-0.5054069
85	0xbd88beef	-0.06677043
86	0xbed1e2f6	-0.4099347
87	0x3e0f7326	0.1400877
88	0x3e8f6682	0.28007895
89	0x3ec179d5	0.37788263
90	0x3e9e3bc4	0.30904973
91	0xbdda5008	-0.10659796
92	0xbdc74bd5	-0.09731261
93	0x3e4c0698	0.1992439
94	0xbec60bc7	-0.3868086
95	0x3e9d154e	0.30680317
96	0x3da6e502	0.081491485
97	0x3ed57d99	0.41697386
98	0x3ebd10b0	0.36926794
99	0x3e7e2fb8	0.24822891
100	0x3d8e2cfa	0.06942172
101	0x3ea5bc4d	0.32370225
102	0x3d130c21	0.03590024
103	0x3f277e7b	0.6542737
104	0x3d13b0f5	0.03605743
105	0x3ef8e88e	0.48614925
106	0xbe6994ca	-0.22810665
107	0x3d76650f	0.06015497
108	0xbe6b189e	-0.2295861
109	0x3dfdc3e9	0.123908825
110	0x3cd45860	0.025921047
111	0xbf0c181e	-0.547243
112	0xbe04dd34	-0.12975007
113	0xbe9226b7	-0.28545162
114	0x3ec9ce84	0.3941537
115	0xbde103a0	-0.109870195
116	0x3eed54f4	0.46353877
117	0xbe49e0b8	-0.1971463
118	0x3e01503a	0.1262826
119	0xbcf27d62	-0.029600803
120	0xbac7e222	-0.0015249888
121	0xbe7e523c	-0.24836057
122	0xbee520a7	-0.44751474
123	0x3ef4a556	0.4778239
124	0x3d9eafed	0.07748399
125	0xbcfe1971	-0.03101799
126	0xbe6c1d84	-0.23058134
127	0x3ec8d165	0.39222255
128	0x3eb5dfd2	0.35522324
129	0xbf115197	-0.5676512
130	0xbf0a91b8	-0.541286
131	0x3e8088c7	0.25104353
132	0xbe004544	-0.12526423
133	0xbee6ee58	-0.45103717
134	0xbef43fec	-0.4770502
135	0xbe8bf7bf	-0.27337453
136	0xbe4e6f84	-0.20159727
137	0xbe4265be	-0.18984124
138	0xbe580581	-0.2109585
139	0x3d5ccaec	0.05390446
140	0xbea6bb05	-0.3256456
141	0xbd736806	-0.059425376
142	0xbe8943d4	-0.2680956
143	0x3b847dbc	0.004043309
144	0x3d3202da	0.04345975
145	0xbedc2b0e	-0.43001598
146	0x3dd5d900	0.1044178
147	0xbed3a924	-0.41339982
148	0x3ed147b3	0.40875015
149	0x3deb1416	0.114784405
150	0x3d1b6c12	0.03794486
151	0x3e5fbdc8	0.2184974
152	0xbcbdaaaa	-0.023152668
153	0xbe999c0c	-0.30001867
154	0xbd7f5342	-0.06233526
155	0xbdcba380	-0.099432945
156	0x3f05a1fa	0.5220028
157	0xbe95c21f	-0.29249665
158	0x3e9185d9	0.2842243
159	0xbf5bd880	-0.8587723
160	0x3f26644d	0.64996797
161	0xbf1e0c81	-0.6173783
162	0xbd9015ff	-0.070354454
163	0xbea3f4c7	-0.32022688
164	0xbf1b241d	-0.6060198
165	0x3e058a1d	0.13040967
166	0x3d9f60d2	0.07782139
167	0x3ebe3b5e	0.3715467
168	0xbe7b45ae	-0.245383
169	0xbe4c10dc	-0.19928306
170	0xbde5dfe4	-0.112243444
171	0x3e8408a2	0.25787836
172	0xbc0faf43	-0.008769813
173	0xbe3409f2	-0.17581919
174	0x3dfcae16	0.12337892
175	0xbeaccd39	-0.33750322
176	0x3e495e59	0.19664897
177	0xbea0b54a	-0.31388313
178	0x3ed0eed0	0.408072
179	0x3da2aee9	0.07943518
180	0x3d1af876	0.037834607
181	0xbe9fbaea	-0.31197292
182	0x3eee3b89	0.46529797
183	0x3dcd7b41	0.100332744
184	0xbe554f5b	-0.20831053
185	0x3e0dcc5c	0.13847488
186	0x3e105151	0.1409352
187	0xbe5d717c	-0.21625322
188	0x3d55d3ca	0.05220393
189	0x3cbe35e0	0.023219049
190	0x3e69e46f	0.22841047
191	0x3e90d8ad	0.2829031
192	0x3ee86a0c	0.45393407
193	0xbf7c6ff9	-0.98608357
194	0x3ca44bc6	0.020055663
195	0x3e9349c3	0.28767213
196	0xbcf64ceb	-0.030065974
197	0x3f093ee3	0.5361158
198	0xbe8e8b2d	-0.27840558
199	0x3ca9ce3f	0.020728229
200	0xbcb7b1c3	-0.02242363
201	0xbee9649e	-0.45584577
202	0x3ea6d30f	0.325829
203	0x3de5ff67	0.11230355
204	0x3f35ef81	0.7106858
205	0xbeb7811c	-0.3584069
206	0xbdc93aab	-0.09825643
207	0x3a895b6e	0.0010479519
208	0x39aee8a0	0.00033361185
209	0xbe366e3a	-0.17815486
210	0x3eefc5f7	0.46830723
211	0x3dad08dc	0.084489554
212	0x3d7e1b8b	0.062037986
213	0x3ea106dc	0.31450546
214	0x3dabd5e5	0.083904065
215	0x3c64c389	0.013962635
216	0x3e5112a4	0.20417267
217	0xbe5233c1	-0.20527555
218	0xbd9f7d9e	-0.077876315
219	0x3ebaf19a	0.36512452
220	0xbd4da726	-0.050208233
221	0xbef992e0	-0.4874487
222	0xbee04981	-0.4380608
223	0xbebc9d49	-0.3683875
224	0x3efaeafd	0.49007407
225	0x3f082711	0.5318461
226	0x3e98666d	0.29765645
227	0xbda17959	-0.07884473
228	0x3ea65c1d	0.32492152
229	0x3e2fb6d1	0.17159583
230	0x3e58314a	0.21112552
231	0xbf45ca60	-0.77261925
232	0x3e5cf235	0.2157677
233	0xbe768d8c	-0.24077433
234	0xbedb8989	-0.42878368
235	0xbe56eed7	-0.20989548
236	0xbe66423b	-0.22486202
237	0xbcc7f87b	-0.024410477
238	0x3e0fb7b4	0.14034921
239	0x3ca16de7	0.019705726
240	0x3ed5776f	0.41692683
241	0x3ebd3bdd	0.36959735
242	0x3d925114	0.07144371
243	0xbebe09dd	-0.371169
244	0x3e6ba2da	0.23011342
245	0xbdb8abb2	-0.09017123
246	0xbecd7bd0	-0.40133524
247	0x3eed8642	0.46391493
248	0x3ecab097	0.39587852
249	0xbe1bec25	-0.152268
250	0x3eea75d0	0.4579301
251	0x3e1ea4e4	0.15492588
252	0xbef1cef9	-0.4722822
253	0xbefb019c	-0.49024665
254	0x3dd7681c	0.10517904
255	0xbeb374e4	-0.35050118

target_network.h2.transform.bias f4 [20]
0	0xbb36fba0	-0.0027920976
1	0xbde0c9c2	-0.10975982
2	0xbdb2cd9d	-0.08730624
3	0xbd928c6c	-0.071556896
4	0xbd91ecd8	-0.071252525
5	0xbd5ce8a3	-0.053932797
6	0xbe09e5c9	-0.13466562
7	0xbdd01a50	-0.10161269
8	0xbc23142b	-0.009953539
9	0xbc9f83e0	-0.019472063
10	0xbd6c3724	-0.057669774
11	0xbc9d04a9	-0.019167261
12	0x3def4e1e	0.116848215
13	0xbdb4996f	-0.08818328
14	0x3d823fe7	0.06359845
15	0x00000000	0.0
16	0xbe039534	-0.12849885
17	0xbdd61dfd	-0.104549386
18	0xbd1fe721	-0.03903878
19	0xbe34725e	-0.17621753

target_network.h3.transform.weight f4 [20, 20]
0	0x3c92a7d5	0.017902294
1	0xbdc311bc	-0.09524867
2	0x3f151ef3	0.5825035
3	0xbc78dc36	-0.015189221
4	0x3dcba4b5	0.09943525
5	0xbf1a0a0b	-0.60171574
6	0xbefaf7f0	-0.49017286
7	0x3e861dd6	0.26194638
8	0x3e7ec2e6	0.24879035
9	0xbe874a66	-0.2642395
10	0xbcd4810c	-0.02594044
11	0x3e1d417a	0.15357009
12	0xbeba352c	-0.36368692
13	0xbed46601	-0.41484073
14	0x3e02ed65	0.12785871
15	0xbedfa1f0	-0.43678236
16	0xbe1906fe	-0.14944074
17	0xbe8b3cbb	-0.2719477
18	0xbf0fb042	-0.56128323
19	0xbdafc911	-0.08583272
20	0xbe2ea39b	-0.17054598
21	0xbf020782	-0.50792706
22	0xbe024ac6	-0.12723836
23	0xbdc7e71c	-0.097608775
24	0xbe019659	-0.1265501
25	0x3d4d308a	0.05009512
26	0x3f57bd87	0.8427357
27	0xbdda24d8	-0.10651559
28	0x3d5c2711	0.053748194
29	0xbe5b03b5	-0.21388133
30	0xbe0e236d	-0.13880701
31	0x3f1fb6a0	0.6238804
32	0xbe84fa30	-0.25972128
33	0xbd83f9ee	-0.06444155
34	0xbe1e7d61	-0.15477516
35	0xbc97f915	-0.018551389
36	0xbe667fc0	-0.2250967
37	0x3e389a67	0.1802765
38	0xbe9002cf	-0.28127143
39	0x3ec76072	0.3894077
40	0x3ed3e76a	0.41387492
41	0x3e2565af	0.1615207
42	0x3c43f3b9	0.0119599635
43	0xbd131f83	-0.035918724
44	0xbee8fb30	-0.4550414
45	0xbcb17163	-0.021660512
46	0x3e173a35	0.14768298
47	0x3f3183a4	0.6934149
48	0x3edba693	0.42900524
49	0x3f15be4b	0.5849349
50	0xbd616a0a	-0.055032767
51	0x3cabf5e4	0.020991273
52	0x3eb36879	0.35040644
53	0x3eb370f2	0.35047108
54	0x3e961b59	0.2931774
55	0xbef78d12	-0.48349816
56	0x3ca75887	0.020427955
57	0x3ef1ffd4	0.47265494
58	0x3e00d838	0.12582481
59	0xbdbe8c8b	-0.0930415
60	0x3e19818b	0.14990823
61	0x3eef58c0	0.46747398
62	0x3e9bd247	0.30433866
63	0xbebe1f5a	-0.37133294
64	0x3eac9571	0.33707765
65	0x3c84b5c2	0.01619995
66	0x3e588568	0.2114464
67	0xbc93f0a4	-0.018059082
68	0xbd929067	-0.07156449
69	0xbeeaca31	-0.45857385
70	0x3e9a81e3	0.3017722
71	0x3c8c820f	0.01715186
72	0x3c2482a3	0.010040912
73	0x3f0aa328	0.54155207
74	0xbd2975b2	-0.04137201
75	0xbd0cef4e	-0.034407906
76	0xbeadf3c4	-0.3397504
77	0xbdcd7d85	-0.100337066
78	0x3ed8d16a	0.4234727
79	0xbe580e5f	-0.21099232
80	0x3cc263cf	0.023729233
81	0x3e476b4a	0.19474521
82	0xbe8e849d	-0.2783555
83	0xbdb905d3	-0.09034314
84	0xbedb76f6	-0.42864197
85	0xbed769c5	-0.42072883
86	0x3d611e00	0.05496025
87	0xbf0ae67b	-0.54257935
88	0x3f2d7c58	0.6776786
89	0xbddca52c	-0.107736915
90	0x3e45455d	0.19264741
91	0xbee10ff1	-0.43957475
92	0xbf1b5c3b	-0.6068761
93	0xbe9d965b	-0.30778775
94	0xbe62164d	-0.2207882
95	0x3dbb9a1f	0.09160256
96	0x3eba647d	0.3640479
97	0xbdc8c562	-0.09803273
98	0x3e01de02	0.12682346
99	0x3da12fd0	0.07870448
100	0xbc99acf9	-0.018759238
101	0x3f4e385f	0.80554765
102	0x3efa7c87	0.48923132
103	0x3ea7473d	0.32671538
104	0xbcae998d	-0.021313453
105	0xbe16fbd6	-0.14744505
106	0x3f20cf4e	0.6281632
107	0xbe3a1aa2	-0.18174222
108	0xbc366542	-0.01113254
109	0x3e3ce784	0.18447691
110	0x3e1e9496	0.15486369
111	0x3d21be7e	0.039488308
112	0x3e98fbf1	0.29879716
113	0xbeac8235	-0.3369309
114	0x3e66c3d9	0.22535647
115	0x3d58d43b	0.052936774
116	0xbd693548	-0.05693558
117	0x3dfb4b5d	0.12270234
118	0xbe3d3a78	-0.18479335
119	0x3e51afed	0.20477267
120	0xbd5fd6d6	-0.054648243
121	0xbe86130f	-0.26186416
122	0x3f1a3996	0.6024412
123	0xbecd5ec8	-0.40111375
124	0xbe7ead1d	-0.24870725
125	0x3e782173	0.2423151
126	0xbd10b8e5	-0.03533258
127	0x3cf758a0	0.030193627
128	0xbe678e74	-0.22612935
129	0x3eb0d1e0	0.34535122
130	0x3ea6b468	0.32559514
131	0x3d3dcfc9	0.046340737
132	0xbf467691	-0.7752467
133	0x3e278f69	0.163633
134	0x3dd57ad2	0.10423817
135	0x3e06d406	0.13166818
136	0xbd662c25	-0.056194443
137	0xbe0e60ac	-0.13904065
138	0x3e9a479b	0.30132756
139	0x3e7dd1e2	0.24787095
140	0x3e86b773	0.26311836
141	0xbe1ce2c6	-0.15320882
142	0x3e32f664	0.17476803
143	0x3e954e79	0.29161432
144	0xbde64ee1	-0.11245514
145	0xbf4dce52	-0.80392945
146	0x3e8c8b54	0.2745005
147	0xbd5b3d5a	-0.053525306
148	0xbf1a2a57	-0.60220855
149	0xbe0ea8af	-0.13931535
150	0xbed5f1df	-0.41786095
151	0x3e0d7325	0.13813455
152	0xbd0cb7da	-0.034355022
153	0x3e7839ed	0.24240847
154	0xbf0ed655	-0.55795795
155	0xbdb6ea83	-0.08931448
156	0x3f15cc3b	0.58514756
157	0xbe864df5	-0.26231351
158	0x3e93d010	0.28869677
159	0x3d94b06d	0.07260213
160	0x3edbb090	0.42908144
161	0xbea1694e	-0.31525654
162	0xbe4e7e2f	-0.20165323
163	0x3d8fcffa	0.0702209
164	0x3f1e2bbe	0.61785495
165	0xbd96ab58	-0.073569
166	0x3e13c640	0.14431095
167	0x3eb8dcbc	0.36105907
168	0x3e3e0eb9	0.18560304
169	0xbe90e8f1	-0.2830272
170	0x3f126c55	0.5719655
171	0xbd3cc904	-0.04609014
172	0xbe060a41	-0.13089849
173	0x3e5be834	0.21475297
174	0xbe5dbb9c	-0.21653599
175	0x3ecc8488	0.39944863
176	0x3eaa1c33	0.3322464
177	0x3ecb8cf0	0.39755964
178	0xbe9d57e4	-0.30731118
179	0x3e05868e	0.1303961
180	0xbdb20ba5	-0.08693627
181	0x3e0fd8e2	0.14047578
182	0xbdc48596	-0.09595792
183	0xbe8b2b4b	-0.27181467
184	0x3e5ee5bc	0.21767324
185	0x3eae2f37	0.34020397
186	0xbca254d6	-0.019815844
187	0x3e3c8279	0.18409146
188	0x3dc69e44	0.096981555
189	0xbee30865	-0.44342342
190	0xbe396644	-0.18105417
191	0x3c056501	0.008141757
192	0x3e38e62c	0.18056554
193	0xbebcde78	-0.3688848
194	0xbd690dc6	-0.0568979
195	0xbf23b9a7	-0.6395516
196	0x3ef9f976	0.48823136
197	0xbe84ce17	-0.25938484
198	0x3e9b0f8e	0.30285305
199	0x3f1a2eba	0.6022755
200	0x3e5c20b5	0.21496852
201	0xbe908650	-0.28227472
202	0x3cceeeec	0.025260411
203	0xbf4bb4df	-0.7957286
204	0x3ec031fc	0.37538135
205	0xbed8a9a3	-0.42316923
206	0x3e2b9a7a	0.16758147
207	0xbef31c79	-0.4748266
208	0xbde1a924	-0.11018589
209	0x3e9129a0	0.2835207
210	0x3cb9ae1a	0.022666026
211	0xbeb944a8	-0.36185193
212	0x3ea6916f	0.32532832
213	0xbe617e87	-0.22020923
214	0xbdb8b000	-0.09017944
215	0xbecee3e6	-0.40408248
216	0xbdf8c3a6	-0.12146692
217	0x3e4dabc6	0.20085058
218	0xbdc0b93a	-0.09410329
219	0xbaa039e3	-0.0012224283
220	0x3dfcf7f8	0.12351984
221	0x3dc438ac	0.09581122
222	0x3ebefa54	0.3730036
223	0xbedc4b4e	-0.43026203
224	0x3d4b4d57	0.049634304
225	0xbe15c27b	-0.1462497
226	0x3c236b5b	0.009974326
227	0x3ea6d37e	0.3258323
228	0x3ecc6ad7	0.39925262
229	0xbdabec08	-0.08394629
230	0xbf3a4cf6	-0.72773683
231	0xbde107df	-0.109878294
232	0x3daf6e79	0.08565993
233	0xbe8a2c32	-0.26986843
234	0xbd68c0b5	-0.056824405
235	0x3f535711	0.8255473
236	0xbcc13ab7	-0.023587568
237	0x3c6f2b7e	0.014597772
238	0x3de80370	0.11328781
239	0x3e3e4c5f	0.18583821
240	0x3e8ac91f	0.27106568
241	0xbed4af77	-0.4154012
242	0x3e511259	0.20417155
243	0x3ca6854b	0.02032723
244	0xbee4d45d	-0.4469327
245	0xbd5c4ecb	-0.05378608
246	0x3d330f30	0.043715656
247	0x3da3e7ce	0.080031976
248	0xbe0f7f74	-0.14013463
249	0xbf1d904a	-0.6154829
250	0x3f1e1bcf	0.6176118
251	0xbc48a072	-0.012245284
252	0x3f191aa3	0.5980627
253	0xbec0ad8c	-0.37632406
254	0xbceb268a	-0.0287049
255	0x3e621b4f	0.2208073

target_network.h3.transform.bias f4 [20]
0	0xbdcd163d	-0.10014007
1	0x3d3a0759	0.045417164
2	0x3c91a85d	0.017780477
3	0x3c4d0384	0.012513045
4	0xbdf69349	-0.12039811
5	0xbde6bda2	-0.11266638
6	0xbd9c4456	-0.076302215
7	0xbe242b98	-0.16032255
8	0xbd27726a	-0.040880598
9	0xbdd8994e	-0.105761155
10	0xbc65b48d	-0.014020097
11	0x00000000	0.0
12	0xbd244a90	-0.04011017
13	0xbd9ef60a	-0.07761772
14	0x00000000	0.0
15	0xbd35f64c	-0.04442434
16	0xbd03584b	-0.032066625
17	0x3ba902f8	0.0051578246
18	0xbe0dc768	-0.13845599
19	0xbdacc24a	-0.08435495

target_network.critic_linear.weight f4 [1, 20]
0	0xbe93e6c5	-0.28887
1	0xbebc7066	-0.36804503
2	0xbe710eda	-0.23540822
3	0xbe451cba	-0.1924924
4	0xbeef949d	-0.4679307
5	0x3e88d5da	0.26725656
6	0x3e6068ba	0.2191495
7	0x3ecd47f4	0.40093958
8	0x3ee6e3ab	0.45095572
9	0x3e4b8dec	0.19878358
10	0x3d58295f	0.05277383
11	0x3cdc2da0	0.026877224
12	0xbe8fdc59	-0.280978
13	0xbd1096d4	-0.03530009
14	0xbf2c0d57	-0.67207855
15	0xbdf1803f	-0.11792039
16	0xbdbba06a	-0.09161456
17	0xbe4ae0f8	-0.19812381
18	0x3e624010	0.2209475
19	0x3e24540a	0.16047683
