pz_risk/mini_1/4.pt (torch, 18513 bytes, 26 tensors)

policy_network.emb1.transform.weight f4 [20, 2]
0	0x3dc156da	0.09440394
1	0x3ecfaeb5	0.40562978
2	0x3d8e0c7c	0.06935975
3	0xbf18d1db	-0.59695214
4	0xbbf13fde	-0.00736235
5	0xbea9be48	-0.33152986
6	0xbe303e94	-0.17211372
7	0xbeaad970	-0.33369017
8	0x3b728b6f	0.0037009378
9	0x3e9fe3ba	0.3122843
10	0xbf1c2ebc	-0.6100881
11	0x3eccb4a7	0.39981577
12	0xbe501a9a	-0.20322648
13	0xbd8ecd33	-0.069727324
14	0xbe9340f1	-0.28760484
15	0xbe90d0c1	-0.28284267
16	0x3e08874f	0.13332866
17	0x3e58a80b	0.21157853
18	0xbc97d311	-0.018533261
19	0x3e89f4bd	0.26944533
20	0xbe15ba4d	-0.1462185
21	0x3cceee35	0.02526007
22	0xbd8d76c0	-0.069074154
23	0x3eea145d	0.4571866
24	0x3e932960	0.28742504
25	0xbeb40999	-0.35163572
26	0xbe977449	-0.29580906
27	0x3e989907	0.2980425
28	0x3e5b63de	0.21424815
29	0x3e4a8a8a	0.19779411
30	0xbf3ee9a2	-0.74575245
31	0x3e764696	0.24050364
32	0xbf1b5ac9	-0.606854
33	0xbe6b58c6	-0.22983083
34	0xbeda7f61	-0.42675307
35	0xbec64ecd	-0.38731995
36	0xbd534bd0	-0.051585972
37	0x3da6712e	0.08127056
38	0xbe9e32ad	-0.30898038
39	0xbe9877c6	-0.2977888

policy_network.emb1.transform.bias f4 [20]
0	0xbca63a18	-0.020291373
1	0xbad384da	-0.0016137615
2	0x00000000	0.0
3	0x00000000	0.0
4	0xbe0476b0	-0.129359
5	0xbdc0fdc5	-0.09423403
6	0x00000000	0.0
7	0x00000000	0.0
8	0xb9314420	-0.00016905414
9	0xbdbe4377	-0.09290212
10	0x00000000	0.0
11	0x3e039e62	0.12853387
12	0xbddf6149	-0.109072275
13	0xbd3ca329	-0.04605404
14	0x3d19e0f9	0.037568066
15	0x00000000	0.0
16	0x00000000	0.0
17	0x00000000	0.0
18	0xbca6525b	-0.020302942
19	0x00000000	0.0

policy_network.emb2.transform.weight f4 [20, 2]
0	0x3d952c3b	0.07283827
1	0x3eeb6d25	0.45981708
2	0x3e227d1f	0.15868042
3	0x3f083dba	0.5321919
4	0xbe928e19	-0.28624037
5	0x3d038d6d	0.032117296
6	0xbd470daa	-0.048597015
7	0xbdd237d0	-0.10264552
8	0x3ebfb496	0.37442464
9	0xbe5ac2a2	-0.21363309
10	0xbc362e02	-0.011119368
11	0x3eaf4101	0.34229282
12	0x3e0c2b5b	0.13688414
13	0x3e356a2e	0.17716286
14	0xbe58fe7c	-0.21190828
15	0x3ef176e3	0.47161016
16	0xbe7f8c39	-0.24955834
17	0x3ee5de6f	0.44896266
18	0x3ebb95f7	0.36637852
19	0xbe3c9435	-0.18415911
20	0x3dda9a57	0.10673969
21	0xbf0f25ae	-0.5591687
22	0xbf5db806	-0.8660892
23	0xbe3cc72c	-0.18435353
24	0xbd587fbe	-0.0528562
25	0x3d691151	0.05690128
26	0xbeab47cd	-0.33453217
27	0x3e778f93	0.24175863
28	0x3da61a79	0.08110518
29	0x3f6b9a9e	0.920328
30	0xbe497363	-0.19672923
31	0x3e9c8d6a	0.3057664
32	0xbf1958ce	-0.5990113
33	0x3dd36727	0.10322409
34	0x3dfe5462	0.124184385
35	0xbf09a1ff	-0.5376281
36	0xbdba2cc1	-0.090905674
37	0xbdf88c61	-0.1213615
38	0x3d230650	0.039800942
39	0x3d765ec4	0.06014897

policy_network.emb2.transform.bias f4 [20]
0	0xbdd72a9e	-0.105061755
1	0x3bb0f65b	0.0054004616
2	0x00000000	0.0
3	0x00000000	0.0
4	0xbe0a1253	-0.13483553
5	0xbd844a46	-0.06459479
6	0x3d3b9237	0.04579374
7	0xbd0ec5b3	-0.03485651
8	0xbb05a0da	-0.0020390064
9	0xbe3148f9	-0.17312993
10	0xbd2d028a	-0.04223875
11	0x00000000	0.0
12	0xbd08f6b1	-0.03343839
13	0xbe26f3ff	-0.16304015
14	0x3b8222ff	0.003971457
15	0xbc263f51	-0.010146932
16	0x00000000	0.0
17	0xbd435fb7	-0.047698703
18	0x00000000	0.0
19	0xbd5261d2	-0.05136282

policy_network.emb3.transform.weight f4 [20, 2]
0	0xbf062367	-0.5239777
1	0xbe5e36bc	-0.21700567
2	0xbe96de02	-0.29466254
3	0xbd5285a7	-0.051396992
4	0xbe81d0de	-0.25354666
5	0xbd6c03a8	-0.057620674
6	0x3e77f64d	0.2421505
7	0x3e052d6b	0.13005607
8	0x3e1a96f0	0.1509664
9	0x3eb139d8	0.34614444
10	0xbebcfe42	-0.36912733
11	0x3ee4890b	0.44635805
12	0x3e03e97c	0.12882036
13	0x3ef1fe69	0.47264412
14	0x3d3742be	0.044741385
15	0xbe4f00d1	-0.20215155
16	0xbebad7d4	-0.3649279
17	0x3f0fc94c	0.5616653
18	0x3d883539	0.066507764
19	0xbe8be247	-0.27321073
20	0xbd8a33c3	-0.06748154
21	0xbecda1ac	-0.40162408
22	0xbf09354e	-0.5359696
23	0x3eb44e08	0.35215783
24	0x3d2a87f3	0.041633558
25	0x3e3a235f	0.18177556
26	0x3eafb6b2	0.34319073
27	0x3e3b9f6d	0.18322535
28	0xbe513305	-0.20429619
29	0xbe108e5c	-0.14116806
30	0xbe6d90c0	-0.23199749
31	0x3e36e101	0.1785927
32	0x3f28f942	0.6600534
33	0xbecd1ab5	-0.40059438
34	0x3e205740	0.15658283
35	0xbe510e07	-0.20415507
36	0xbcf0ac08	-0.029378906
37	0x3d748624	0.05969824
38	0x3e819db9	0.25315645
39	0x3e294ea9	0.16533913

policy_network.emb3.transform.bias f4 [20]
0	0x00000000	0.0
1	0x00000000	0.0
2	0x00000000	0.0
3	0xbc8412dc	-0.016122274
4	0xbdd876b8	-0.10569519
5	0xbd242cec	-0.040081903
6	0xbd8400c3	-0.06445458
7	0xbcd4ba3e	-0.025967713
8	0xbd8d6611	-0.06904233
9	0xbc999578	-0.01874803
10	0x00000000	0.0
11	0xbc3ae5bf	-0.011407315
12	0x3d4eaa27	0.05045524
13	0xbd8549ce	-0.06508218
14	0x00000000	0.0
15	0x3ccdceec	0.025123082
16	0xbdab7ec0	-0.08373785
17	0xbd58bc7c	-0.052914128
18	0xbe1153a4	-0.14192063
19	0xbd8c1d78	-0.06841558

policy_network.emb4.transform.weight f4 [20, 2]
0	0x3e5cfb80	0.21580315
1	0x3e79c2fe	0.2439079
2	0x3d7fed29	0.062482033
3	0xbe5329a7	-0.20621358
4	0x3eaece27	0.34141657
5	0x3e49c80a	0.19705215
6	0xbed02423	-0.4065257
7	0x3eabff3f	0.33593175
8	0x3e4d9600	0.20076752
9	0xbe639dd9	-0.22228183
10	0x3e21aa5e	0.15787646
11	0x3ef449e7	0.47712633
12	0x3e94487d	0.28961554
13	0x3ccef815	0.02526478
14	0xbe573284	-0.21015364
15	0xbe834f4b	-0.25646433
16	0xbe9ade3f	-0.30247685
17	0xbeba1a76	-0.36348313
18	0xbe39103c	-0.18072599
19	0x3e1a71f9	0.1508254
20	0xbc8c9b68	-0.017163947
21	0xbeb83797	-0.35979912
22	0x3e790e77	0.24321924
23	0x3e8e89b1	0.27839425
24	0xbd63c82d	-0.055610824
25	0x3d33846a	0.04382745
26	0x3ca6cc6a	0.020361144
27	0x3d2cc28a	0.042177714
28	0xbe53d67e	-0.20687291
29	0x3eb0c161	0.34522536
30	0x3ead7909	0.33881405
31	0xbf0509bc	-0.5196798
32	0x3de83b76	0.11339466
33	0x3c74be11	0.0149378935
34	0xbee47949	-0.44623783
35	0x3f0df339	0.55449253
36	0xbf4da341	-0.8032723
37	0x3e30d0ce	0.17267153
38	0xbf050323	-0.5195791
39	0xbf02bd98	-0.5107055

policy_network.emb4.transform.bias f4 [20]
0	0xbd431fde	-0.047637813
1	0xbcacc93d	-0.021092052
2	0xbdb8c59c	-0.09022066
3	0xbe20f65d	-0.1571898
4	0xbda83a33	-0.082142256
5	0xbcb1cbfa	-0.021703709
6	0x3db2fae9	0.087392636
7	0x00000000	0.0
8	0x00000000	0.0
9	0xbb3e9f3c	-0.002908661
10	0x00000000	0.0
11	0x3e2a8473	0.16652088
12	0xbd6040d5	-0.05474933
13	0xbd6c1c63	-0.05764426
14	0xbc385382	-0.011250379
15	0xbdda5171	-0.10660065
16	0xbdb1550d	-0.086588
17	0xbd39857d	-0.04529332
18	0x00000000	0.0
19	0x00000000	0.0

policy_network.h2.transform.weight f4 [20, 20]
0	0x3d76d99b	0.06026612
1	0xbd438145	-0.047730703
2	0xbe9d3fa0	-0.30712605
3	0x3e31d385	0.17365845
4	0xbcba23bd	-0.02272212
5	0x3efbeba6	0.49203223
6	0xbf21e269	-0.632361
7	0xbf38982d	-0.721072
8	0xbe3629c8	-0.17789376
9	0xbe8f3215	-0.27967897
10	0x3ec60153	0.38672885
11	0x3e73993e	0.23788926
12	0x3e417f1b	0.18896143
13	0x3e504b20	0.20341158
14	0xbe1d7689	-0.15377249
15	0xbe68f674	-0.22750264
16	0xbe63fdd6	-0.222648
17	0xbd9d3fa2	-0.076781526
18	0xbea97876	-0.33099717
19	0xbeb59fcc	-0.35473478
20	0x3d543b91	0.05181462
21	0x3d135041	0.035965208
22	0xbecb8167	-0.39747164
23	0x3e67c708	0.22634518
24	0x3b9b1b40	0.004733473
25	0xbf299fae	-0.66259277
26	0x3e0dc266	0.13843688
27	0xbee45a51	-0.44600156
28	0xbf267bd9	-0.65032727
29	0x3eca3c3e	0.39499086
30	0x3d9a507d	0.07534883
31	0xbe44132b	-0.19147937
32	0xbe8d984c	-0.27655256
33	0xbee40fd9	-0.4454334
34	0xbef85030	-0.48498678
35	0xbe7e7bd8	-0.2485193
36	0xbe5e427f	-0.21705054
37	0xbc465ce1	-0.012107105
38	0xbe76578f	-0.24056838
39	0x3d23ac23	0.039959084
40	0xbee80d0a	-0.45322448
41	0x3c9bcc07	0.019018186
42	0xbeaa446c	-0.33255327
43	0xbeefd9ba	-0.468458
44	0xbea46c01	-0.3211365
45	0xbe07c428	-0.13258421
46	0xbecb17be	-0.3966655
47	0x3e157d17	0.14598499
48	0x3e01954b	0.12654607
49	0x3e6662e1	0.22498657
50	0x3ccb66b5	0.024829248
51	0xbd9ad853	-0.07560792
52	0x3e8aca75	0.27107587
53	0xbe1c6f79	-0.15276898
54	0x3e000d3f	0.12505053
55	0xbedc59f8	-0.4303739
56	0x3ee9fc6b	0.45700392
57	0xbe3fdae0	-0.18735838
58	0xbf330111	-0.699235
59	0x3ebbe539	0.3669832
60	0xbdd59120	-0.10428071
61	0x3a9bc850	0.0011885259
62	0x3e9b7b8a	0.3036769
63	0xbe15af21	-0.14617588
64	0x3e6d4003	0.2316895
65	0x3e908c7d	0.28232184
66	0xbec269f5	-0.37971464
67	0x3e1fe190	0.15613389
68	0xbe286bce	-0.16447374
69	0x3f54513b	0.8293645
70	0xbe81364a	-0.25236732
71	0x3ed0d48d	0.40787163
72	0xbd193197	-0.03740081
73	0xbd5c8b60	-0.053843856
74	0xbf1d5cac	-0.6146953
75	0xbe3bdfc3	-0.18347077
76	0xbdc090ac	-0.09402594
77	0xbea50926	-0.32233542
78	0x3de7c29d	0.113164164
79	0x3cf12e74	0.029441096
80	0xbe1030a2	-0.14081052
81	0xbef9ad6d	-0.48765126
82	0xbef7968b	-0.48357043
83	0x3ea67820	0.32513523
84	0xbf0575f1	-0.5213309
85	0xbd88cfb4	-0.06680241
86	0xbee06c80	-0.4383278
87	0x3e0c174b	0.1368076
88	0x3e8f55bb	0.27995095
89	0x3ec14300	0.3774643
90	0x3e9e3bc4	0.30904973
91	0xbdda5008	-0.10659796
92	0xbe010bc7	-0.12602149
93	0x3e2ca792	0.16860798
94	0xbec82290	-0.3908887
95	0x3e9d0de5	0.30674663
96	0x3d5612e3	0.052264106
97	0x3ed57d92	0.41697365
98	0x3ebd10b0	0.36926794
99	0x3e66344d	0.22480889
100	0x3d43c699	0.04779682
101	0x3eaa157a	0.3321951
102	0x3c862cde	0.016378816
103	0x3f19aca8	0.6002908
104	0xbbfc32f0	-0.007696502
105	0x3eee832c	0.4658445
106	0xbe8eda08	-0.2790072
107	0x3d03fa71	0.03222126
108	0xbe7ea887	-0.24868976
109	0x3df3fd72	0.11913575
110	0x3cd45860	0.025921047
111	0xbf1331c3	-0.57497805
112	0xbe316d9e	-0.17326972
113	0xbeac27ee	-0.33624214
114	0x3ec31fac	0.381101
115	0xbe013054	-0.12616092
116	0x3eda8157	0.42676803
117	0xbe572d53	-0.21013384
118	0x3e0736b7	0.13204466
119	0xbda2c097	-0.0794689
120	0xbac7e222	-0.0015249888
121	0xbe7e523c	-0.24836057
122	0xbee520a7	-0.44751474
123	0x3ef4a556	0.4778239
124	0x3d9eafed	0.07748399
125	0xbcfe1971	-0.03101799
126	0xbe6c1d84	-0.23058134
127	0x3ec8d165	0.39222255
128	0x3eb5dfd2	0.35522324
129	0xbf115197	-0.5676512
130	0xbf0a91b8	-0.541286
131	0x3e8088c7	0.25104353
132	0xbe004544	-0.12526423
133	0xbee6ee58	-0.45103717
134	0xbef43fec	-0.4770502
135	0xbe8bf7bf	-0.27337453
136	0xbe4e6f84	-0.20159727
137	0xbe4265be	-0.18984124
138	0xbe580581	-0.2109585
139	0x3d5ccaec	0.05390446
140	0xbeab270d	-0.3342823
141	0xbd8ecc92	-0.069726124
142	0xbe8bf5fa	-0.27336103
143	0xbc7c272e	-0.015390201
144	0x3d2860e5	0.04110803
145	0xbee1edb8	-0.44126678
146	0x3da7b754	0.08189264
147	0xbed3afee	-0.4134516
148	0x3ecf9ab0	0.40547705
149	0x3de54be5	0.11196116
150	0x3d1b6c12	0.03794486
151	0x3e4883c7	0.19581519
152	0xbd9c6313	-0.076360844
153	0xbea2aecf	-0.31773993
154	0xbd96861b	-0.07349797
155	0xbdcba382	-0.09943296
156	0x3eff50b7	0.49866268
157	0xbe95c23b	-0.2924975
158	0x3e9185d9	0.2842243
159	0xbf5d2538	-0.86384916
160	0x3f2b548c	0.66925883
161	0xbf127e44	-0.57223916
162	0xbd8bc1dc	-0.06824085
163	0xbec2eca1	-0.3807116
164	0xbf244933	-0.64174193
165	0x3e29a41a	0.16566506
166	0x3d500772	0.05078835
167	0x3f082e3a	0.53195536
168	0xbe2092e9	-0.15681042
169	0xbdf37a49	-0.118885584
170	0xbde5dfe4	-0.112243444
171	0x3e835405	0.2565004
172	0xbd98c22d	-0.07458911
173	0xbe790d8a	-0.24321571
174	0x3e1c7975	0.15280707
175	0xbe1db7b8	-0.15402114
176	0x3e062c7d	0.13102908
177	0xbe400108	-0.18750393
178	0x3ece589f	0.40301988
179	0x3a8f64d8	0.0010940088
180	0x3d4c3c56	0.04986223
181	0xbe9a8b3c	-0.30184352
182	0x3ef9c044	0.487795
183	0x3d1ef805	0.03881075
184	0xbe77599b	-0.24155276
185	0x3e275118	0.16339529
186	0x3dfec94f	0.1244074
187	0xbe14e72c	-0.1454131
188	0x3ddc9f5a	0.107725814
189	0x3dbb712f	0.091524474
190	0x3e69e46f	0.22841047
191	0x3e990f6e	0.29894584
192	0x3ed41cb0	0.41428137
193	0xbf852f69	-1.0405093
194	0x3d062389	0.032748733
195	0x3ed72351	0.42019132
196	0xbdc79fdd	-0.097472884
197	0x3f2e3989	0.6805654
198	0xbe847c6f	-0.25876185
199	0xbd1d2637	-0.038366523
200	0xbcdf87ee	-0.027286496
201	0xbee05102	-0.43811804
202	0x3e978164	0.29590905
203	0x3dc33750	0.095320344
204	0x3f24c290	0.6435938
205	0xbebdff0c	-0.37108648
206	0xbddf109c	-0.1089184
207	0xbc3e68da	-0.011621678
208	0xbc9c672b	-0.019092163
209	0xbe21c159	-0.15796413
210	0x3eefc5f7	0.46830723
211	0x3d973aee	0.07384287
212	0x3d896cdf	0.06710219
213	0x3e991772	0.299007
214	0x3d9c8c95	0.076440014
215	0x3c9e9e16	0.01936249
216	0x3e551a5f	0.20810841
217	0xbe42c089	-0.19018759
218	0xbd618581	-0.05505896
219	0x3ea7ae06	0.32749957
220	0xbd698921	-0.057015542
221	0xbf06dae6	-0.5267776
222	0xbee3b65c	-0.44475067
223	0xbeca938f	-0.39565703
224	0x3ef08c4e	0.46982044
225	0x3f0e839a	0.5566956
226	0x3e8a64f3	0.27030143
227	0xbdc7803e	-0.09741257
228	0x3eb6339f	0.3558626
229	0x3e2f9fd9	0.17150821
230	0x3e58314a	0.21112552
231	0xbf37804c	-0.7168014
232	0x3e3fb3e0	0.1872096
233	0xbe8a6010	-0.27026415
234	0xbeebd779	-0.4606283
235	0xbdd602e2	-0.104497686
236	0xbe84b722	-0.2592097
237	0xbcca4f00	-0.024695873
238	0x3e0f1b7a	0.13975325
239	0xbbda494a	-0.006661569
240	0x3edd9e96	0.43285054
241	0x3ed22c13	0.4104925
242	0x3dc111cb	0.09427222
243	0xbedda4d6	-0.43289822
244	0x3e589af2	0.21152857
245	0xbd30e3d0	-0.04318601
246	0xbecc2c3b	-0.39877495
247	0x3f22d406	0.6360477
248	0x3ef4633f	0.4773197
249	0xbd9b11d0	-0.07571757
250	0x3eea75d0	0.4579301
251	0x3e31f74d	0.17379494
252	0xbf09162a	-0.53549445
253	0xbf100b1d	-0.5626696
254	0x3e0df956	0.13864645
255	0xbe005947	-0.12534057

policy_network.h2.transform.bias f4 [20]
0	0xbb66afc6	-0.0035199984
1	0xbde0c9c2	-0.10975982
2	0xbdb44915	-0.08803002
3	0xbdc56d71	-0.09640015
4	0xbdd8736a	-0.105688885
5	0xbdc9fb12	-0.09862341
6	0xbe09e5c9	-0.13466562
7	0xbe045072	-0.12921312
8	0xbcb629fd	-0.022236818
9	0xbc957bcd	-0.01824751
10	0xbd4a5b31	-0.049403373
11	0xbd2c2cff	-0.0420351
12	0x3e039910	0.12851357
13	0xbdb88d64	-0.09011343
14	0x3d89d5b7	0.06730216
15	0x00000000	0.0
16	0xbe1a220c	-0.1505205
17	0xbdf80242	-0.12109806
18	0xbd446329	-0.04794613
19	0xbe34725e	-0.17621753

policy_network.h3.transform.weight f4 [20, 20]
0	0x3c92a7d5	0.017902294
1	0xbdc311bc	-0.09524867
2	0x3f151ef3	0.5825035
3	0xbc78dc36	-0.015189221
4	0x3dcba4b5	0.09943525
5	0xbf1a0a0b	-0.60171574
6	0xbefaf7f0	-0.49017286
7	0x3e861dd6	0.26194638
8	0x3e7ec2e6	0.24879035
9	0xbe874a66	-0.2642395
10	0xbcd4810c	-0.02594044
11	0x3e1d417a	0.15357009
12	0xbeba352c	-0.36368692
13	0xbed46601	-0.41484073
14	0x3e02ed65	0.12785871
15	0xbedfa1f0	-0.43678236
16	0xbe1906fe	-0.14944074
17	0xbe8b3cbb	-0.2719477
18	0xbf0fb042	-0.56128323
19	0xbdafc911	-0.08583272
20	0xbe2ea39b	-0.17054598
21	0xbf020782	-0.50792706
22	0xbe024ac6	-0.12723836
23	0xbdc7e71c	-0.097608775
24	0xbe019659	-0.1265501
25	0x3d4f6cdf	0.050640937
26	0x3f57bd87	0.8427357
27	0xbdda24d8	-0.10651559
28	0x3d5c2711	0.053748194
29	0xbe5ceb7e	-0.21574208
30	0xbe15b588	-0.1462003
31	0x3f1f0c42	0.6212808
32	0xbe84fa30	-0.25972128
33	0xbd751f6e	-0.059844427
34	0xbe1e7d61	-0.15477516
35	0xbc97f915	-0.018551389
36	0xbe667ec9	-0.22509302
37	0x3e389a67	0.1802765
38	0xbe9002cf	-0.28127143
39	0x3ec76072	0.3894077
40	0x3ed3f515	0.4139792
41	0x3e2565af	0.1615207
42	0x3c3e3e9b	0.011611606
43	0xbd0a5796	-0.033774935
44	0xbeebe663	-0.4607421
45	0xbc7584aa	-0.014985243
46	0x3e173a35	0.14768298
47	0x3f2a630b	0.6655738
48	0x3ed898f2	0.42304188
49	0x3f1e7dc9	0.6191068
50	0xbdb740b4	-0.08947888
51	0x3c8a99e3	0.016919082
52	0x3eee7e4a	0.46580726
53	0x3eb6ff1f	0.35741517
54	0x3ecbf605	0.39836136
55	0xbef78d12	-0.48349816
56	0x3dca02dd	0.098638274
57	0x3ef20c0a	0.4727481
58	0x3e4b2a46	0.19840345
59	0xbdbe8c8b	-0.0930415
60	0x3e199517	0.1499828
61	0x3eef58c0	0.46747398
62	0x3e9b4745	0.30327812
63	0xbebd2b08	-0.36946893
64	0x3eaee036	0.34155434
65	0x3cfa815c	0.030579261
66	0x3e588568	0.2114464
67	0xbd21796c	-0.039422438
68	0xbd9ea7bf	-0.07746839
69	0xbed82ed0	-0.42223215
70	0x3e9217d3	0.285338
71	0x3cd4e93a	0.025990117
72	0x3e00e2e7	0.12586556
73	0x3f0d038c	0.5508354
74	0x3d825a57	0.06364887
75	0xbd0cef4e	-0.034407906
76	0xbe875007	-0.26428244
77	0xbdcc86b9	-0.09986634
78	0x3efd534a	0.49477607
79	0xbe580e5f	-0.21099232
80	0x3cc263cf	0.023729233
81	0x3e476b4a	0.19474521
82	0xbe93ef73	-0.28893623
83	0xbdb905d3	-0.09034314
84	0xbed0ae0c	-0.40757787
85	0xbee676d7	-0.45012543
86	0x3d611e00	0.05496025
87	0xbf0b0363	-0.5430204
88	0x3f29f2cc	0.66386104
89	0xbe3b1aa4	-0.18271881
90	0x3e37a777	0.17934977
91	0xbec8aebb	-0.3919581
92	0xbf1b85fe	-0.6075133
93	0xbec4cddd	-0.3843831
94	0xbe661789	-0.22469915
95	0x3dbb9a1f	0.09160256
96	0x3eba70c2	0.36414152
97	0xbdc8c85a	-0.09803839
98	0x3dfe36a8	0.124127686
99	0x3da12fd0	0.07870448
100	0xbc99acf9	-0.018759238
101	0x3f4e385f	0.80554765
102	0x3efabe3d	0.48973265
103	0x3ea7473d	0.32671538
104	0xbcbc44ee	-0.022982087
105	0xbe30e78b	-0.17275827
106	0x3f20cf4e	0.6281632
107	0xbe3a168d	-0.18172665
108	0xbc344034	-0.011001635
109	0x3e3d706a	0.18499914
110	0x3ddc69ee	0.10762392
111	0x3c93841a	0.018007327
112	0x3e98fbf1	0.29879716
113	0xbebb9abb	-0.36641487
114	0x3e66c3d9	0.22535647
115	0x3d58d43b	0.052936774
116	0xbd5b2354	-0.05350049
117	0x3dfb4b4f	0.12270223
118	0xbe3d3a78	-0.18479335
119	0x3e51afed	0.20477267
120	0xbd5fd84f	-0.054649647
121	0xbe86130f	-0.26186416
122	0x3f1a89ed	0.6036671
123	0xbecd5ef6	-0.40111512
124	0xbe81da3e	-0.25361818
125	0x3e623170	0.22089171
126	0xbd10b8e5	-0.03533258
127	0x3d60c13a	0.054871775
128	0xbe52d0d0	-0.20587468
129	0x3ea7bec1	0.3276272
130	0x3ea915b0	0.3302436
131	0x3d01f3c2	0.031726606
132	0xbf61400f	-0.8798837
133	0x3e277784	0.16354185
134	0x3c89b0fe	0.01680803
135	0x3e06d406	0.13166818
136	0xbe0bb34e	-0.13642618
137	0xbe0ef770	-0.13961577
138	0x3e810a19	0.25203016
139	0x3e7dd1e2	0.24787095
140	0x3e86b773	0.26311836
141	0xbe1ce2c6	-0.15320882
142	0x3e32f664	0.17476803
143	0x3e954e79	0.29161432
144	0xbde64ee1	-0.11245514
145	0xbf4d2cab	-0.8014628
146	0x3e8c8b54	0.2745005
147	0xbd5b3d5a	-0.053525306
148	0xbf1ca684	-0.6119158
149	0xbd481dc2	-0.048856504
150	0xbecacaac	-0.3960775
151	0x3e0d7325	0.13813455
152	0xbda19927	-0.078905396
153	0x3e8f7cab	0.28024802
154	0xbf1beea8	-0.60911036
155	0xbdb6ea83	-0.08931448
156	0x3f15cc3b	0.58514756
157	0xbe864df5	-0.26231351
158	0x3e802fbf	0.25036427
159	0x3d94b06d	0.07260213
160	0x3edba2a7	0.4289753
161	0xbea1694e	-0.31525654
162	0xbe4c927f	-0.19977759
163	0x3d8fb9e0	0.07017875
164	0x3f1ca316	0.6118635
165	0xbdb04a5d	-0.08607934
166	0x3e13c640	0.14431095
167	0x3ec83211	0.39100698
168	0x3e61b7f0	0.22042823
169	0xbe8d8cf8	-0.27646613
170	0x3f14d232	0.5813323
171	0xbd74bc01	-0.059749607
172	0xbe3b56b0	-0.18294787
173	0x3e77a51d	0.2418408
174	0xbe825a8d	-0.2545971
175	0x3ecc8488	0.39944863
176	0x3e840d0f	0.25791213
177	0x3ecb2ebf	0.39684102
178	0xbe9db55b	-0.30802426
179	0x3e05868e	0.1303961
180	0xbdb20ba5	-0.08693627
181	0x3e0fd8e2	0.14047578
182	0xbdc451a8	-0.09585887
183	0xbe8b2b4b	-0.27181467
184	0x3e5eeeb0	0.2177074
185	0x3eaf8222	0.3427897
186	0xbca254d6	-0.019815844
187	0x3e3e3379	0.18574323
188	0x3dc69e44	0.096981555
189	0xbee30865	-0.44342342
190	0xbe361a43	-0.17783456
191	0x3c056501	0.008141757
192	0x3e38e62c	0.18056554
193	0xbebc7423	-0.36807355
194	0xbd690dc6	-0.0568979
195	0xbf23b9a7	-0.6395516
196	0x3efa4040	0.48877144
197	0xbe84ce17	-0.25938484
198	0x3e9b0f8e	0.30285305
199	0x3f1a2eba	0.6022755
200	0x3e5c1f9b	0.21496432
201	0xbe908650	-0.28227472
202	0x3cceeeec	0.025260411
203	0xbf4bb4df	-0.7957286
204	0x3ec02b0a	0.37532836
205	0xbed97946	-0.42475337
206	0x3e2b9a7a	0.16758147
207	0xbef31c79	-0.4748266
208	0xbde1a924	-0.11018589
209	0x3e9128e4	0.2835151
210	0x3c524bea	0.012835482
211	0xbed8c979	-0.4234121
212	0x3ea6916f	0.32532832
213	0xbe646c43	-0.22306924
214	0xbdb8b000	-0.09017944
215	0xbecee3e6	-0.40408248
216	0xbcb91358	-0.022592232
217	0x3e4dabc6	0.20085058
218	0xbdc0b93a	-0.09410329
219	0xbaa039e3	-0.0012224283
220	0x3dfcf7f8	0.12351984
221	0x3dc438ac	0.09581122
222	0x3ebefa54	0.3730036
223	0xbedc4b4e	-0.43026203
224	0x3d4b4d57	0.049634304
225	0xbe15c27b	-0.1462497
226	0x3c236b5b	0.009974326
227	0x3ea6d37e	0.3258323
228	0x3ecc6ad7	0.39925262
229	0xbdabec08	-0.08394629
230	0xbf3a4cf6	-0.72773683
231	0xbde107df	-0.109878294
232	0x3daf6e79	0.08565993
233	0xbe8a2c32	-0.26986843
234	0xbd68c0b5	-0.056824405
235	0x3f535711	0.8255473
236	0xbcc13ab7	-0.023587568
237	0x3c6f2b7e	0.014597772
238	0x3de80370	0.11328781
239	0x3e3e4c5f	0.18583821
240	0x3e8ac957	0.27106735
241	0xbed4af77	-0.4154012
242	0x3e4f3ac1	0.20237257
243	0x3ca6854b	0.02032723
244	0xbee19783	-0.44060907
245	0xbd16caae	-0.036814384
246	0x3d330f30	0.043715656
247	0x3d565584	0.052327648
248	0xbe816c6d	-0.25278035
249	0xbf360e30	-0.711154
250	0x3f17e597	0.593347
251	0xbb01357f	-0.0019715724
252	0x3f0e490b	0.55580205
253	0xbedc7393	-0.43056926
254	0xbda45bc2	-0.08025314
255	0x3e621b4f	0.2208073

policy_network.h3.transform.bias f4 [20]
0	0xbdcd163d	-0.10014007
1	0x3d340fd2	0.0439604
2	0xbc9816ad	-0.0185655
3	0xbca57dfb	-0.020201674
4	0xbe3c695f	-0.18399571
5	0xbe2139af	-0.15744661
6	0xbd4ba15a	-0.049714424
7	0xbe20ff6f	-0.1572244
8	0xbb8f4f58	-0.004373472
9	0xbdd5075f	-0.104017965
10	0xbcc1ebb0	-0.023671955
11	0x00000000	0.0
12	0xbdde66d9	-0.108594604
13	0xbe18e2a5	-0.14930208
14	0x00000000	0.0
15	0xbd184fc0	-0.03718543
16	0xbd95543d	-0.07291458
17	0xbcd7fcbe	-0.026365634
18	0xbe247414	-0.16059905
19	0xbddc8018	-0.107666194

policy_network.critic_linear.weight f4 [1, 20]
0	0xbe93e6c5	-0.28887
1	0xbeba742e	-0.36416763
2	0xbe9006d8	-0.2813022
3	0xbe4aea13	-0.19815855
4	0xbeb0d446	-0.34536952
5	0x3e503dca	0.2033607
6	0x3e674d8e	0.22588179
7	0x3ec75c64	0.38937676
8	0x3eed5028	0.46350217
9	0x3e4c5004	0.19952399
10	0x3d44a6f9	0.0480108
11	0x3cdc2da0	0.026877224
12	0xbe95b053	-0.29236087
13	0xbd4199d6	-0.04726585
14	0xbf2c0d57	-0.67207855
15	0xbe02a042	-0.12756446
16	0xbcd508c9	-0.026005166
17	0xbe22c9e0	-0.15897322
18	0x3e56d085	0.20977981
19	0x3e229aaf	0.1587932

target_network.emb1.transform.weight f4 [20, 2]
0	0x3dc156da	0.09440394
1	0x3ecfaeb5	0.40562978
2	0x3d8e0c7c	0.06935975
3	0xbf18d1db	-0.59695214
4	0xbbf13fde	-0.00736235
5	0xbea9be48	-0.33152986
6	0xbe303e94	-0.17211372
7	0xbeaad970	-0.33369017
8	0x3b728b6f	0.0037009378
9	0x3e9fe3ba	0.3122843
10	0xbf1c2ebc	-0.6100881
11	0x3eccb4a7	0.39981577
12	0xbe501a9a	-0.20322648
13	0xbd8ecd33	-0.069727324
14	0xbe9340f1	-0.28760484
15	0xbe90d0c1	-0.28284267
16	0x3e08874f	0.13332866
17	0x3e58a80b	0.21157853
18	0xbc97d311	-0.018533261
19	0x3e89f4bd	0.26944533
20	0xbe15ba4d	-0.1462185
21	0x3cceee35	0.02526007
22	0xbd8d76c0	-0.069074154
23	0x3eea145d	0.4571866
24	0x3e932960	0.28742504
25	0xbeb40999	-0.35163572
26	0xbe977449	-0.29580906
27	0x3e989907	0.2980425
28	0x3e5b63de	0.21424815
29	0x3e4a8a8a	0.19779411
30	0xbf3ee9a2	-0.74575245
31	0x3e764696	0.24050364
32	0xbf1b5ac9	-0.606854
33	0xbe6b58c6	-0.22983083
34	0xbeda7f61	-0.42675307
35	0xbec64ecd	-0.38731995
36	0xbd534bd0	-0.051585972
37	0x3da6712e	0.08127056
38	0xbe9e32ad	-0.30898038
39	0xbe9877c6	-0.2977888

target_network.emb1.transform.bias f4 [20]
0	0xbca63a18	-0.020291373
1	0xbad384da	-0.0016137615
2	0x00000000	0.0
3	0x00000000	0.0
4	0xbe0476b0	-0.129359
5	0xbdc0fdc5	-0.09423403
6	0x00000000	0.0
7	0x00000000	0.0
8	0xb9314420	-0.00016905414
9	0xbdbe4377	-0.09290212
10	0x00000000	0.0
11	0x3e039e62	0.12853387
12	0xbddf6149	-0.109072275
13	0xbd3ca329	-0.04605404
14	0x3d19e0f9	0.037568066
15	0x00000000	0.0
16	0x00000000	0.0
17	0x00000000	0.0
18	0xbca6525b	-0.020302942
19	0x00000000	0.0

target_network.emb2.transform.weight f4 [20, 2]
0	0x3d952c3b	0.07283827
1	0x3eeb6d25	0.45981708
2	0x3e227d1f	0.15868042
3	0x3f083dba	0.5321919
4	0xbe928e19	-0.28624037
5	0x3d038d6d	0.032117296
6	0xbd470daa	-0.048597015
7	0xbdd237d0	-0.10264552
8	0x3ebfb496	0.37442464
9	0xbe5ac2a2	-0.21363309
10	0xbc362e02	-0.011119368
11	0x3eaf4101	0.34229282
12	0x3e0c2b5b	0.13688414
13	0x3e356a2e	0.17716286
14	0xbe58fe7c	-0.21190828
15	0x3ef176e3	0.47161016
16	0xbe7f8c39	-0.24955834
17	0x3ee5de6f	0.44896266
18	0x3ebb95f7	0.36637852
19	0xbe3c9435	-0.18415911
20	0x3dda9a57	0.10673969
21	0xbf0f25ae	-0.5591687
22	0xbf5db806	-0.8660892
23	0xbe3cc72c	-0.18435353
24	0xbd587fbe	-0.0528562
25	0x3d691151	0.05690128
26	0xbeab47cd	-0.33453217
27	0x3e778f93	0.24175863
28	0x3da61a79	0.08110518
29	0x3f6b9a9e	0.920328
30	0xbe497363	-0.19672923
31	0x3e9c8d6a	0.3057664
32	0xbf1958ce	-0.5990113
33	0x3dd36727	0.10322409
34	0x3dfe5462	0.124184385
35	0xbf09a1ff	-0.5376281
36	0xbdba2cc1	-0.090905674
37	0xbdf88c61	-0.1213615
38	0x3d230650	0.039800942
39	0x3d765ec4	0.06014897

target_network.emb2.transform.bias f4 [20]
0	0xbdd72a9e	-0.105061755
1	0x3bb0f65b	0.0054004616
2	0x00000000	0.0
3	0x00000000	0.0
4	0xbe0a1253	-0.13483553
5	0xbd844a46	-0.06459479
6	0x3d3b9237	0.04579374
7	0xbd0ec5b3	-0.03485651
8	0xbb05a0da	-0.0020390064
9	0xbe3148f9	-0.17312993
10	0xbd2d028a	-0.04223875
11	0x00000000	0.0
12	0xbd08f6b1	-0.03343839
13	0xbe26f3ff	-0.16304015
14	0x3b8222ff	0.003971457
15	0xbc263f51	-0.010146932
16	0x00000000	0.0
17	0xbd435fb7	-0.047698703
18	0x00000000	0.0
19	0xbd5261d2	-0.05136282

target_network.emb3.transform.weight f4 [20, 2]
0	0xbf062367	-0.5239777
1	0xbe5e36bc	-0.21700567
2	0xbe96de02	-0.29466254
3	0xbd5285a7	-0.051396992
4	0xbe81d0de	-0.25354666
5	0xbd6c03a8	-0.057620674
6	0x3e77f64d	0.2421505
7	0x3e052d6b	0.13005607
8	0x3e1a96f0	0.1509664
9	0x3eb139d8	0.34614444
10	0xbebcfe42	-0.36912733
11	0x3ee4890b	0.44635805
12	0x3e03e97c	0.12882036
13	0x3ef1fe69	0.47264412
14	0x3d3742be	0.044741385
15	0xbe4f00d1	-0.20215155
16	0xbebad7d4	-0.3649279
17	0x3f0fc94c	0.5616653
18	0x3d883539	0.066507764
19	0xbe8be247	-0.27321073
20	0xbd8a33c3	-0.06748154
21	0xbecda1ac	-0.40162408
22	0xbf09354e	-0.5359696
23	0x3eb44e08	0.35215783
24	0x3d2a87f3	0.041633558
25	0x3e3a235f	0.18177556
26	0x3eafb6b2	0.34319073
27	0x3e3b9f6d	0.18322535
28	0xbe513305	-0.20429619
29	0xbe108e5c	-0.14116806
30	0xbe6d90c0	-0.23199749
31	0x3e36e101	0.1785927
32	0x3f28f942	0.6600534
33	0xbecd1ab5	-0.40059438
34	0x3e205740	0.15658283
35	0xbe510e07	-0.20415507
36	0xbcf0ac08	-0.029378906
37	0x3d748624	0.05969824
38	0x3e819db9	0.25315645
39	0x3e294ea9	0.16533913

target_network.emb3.transform.bias f4 [20]
0	0x00000000	0.0
1	0x00000000	0.0
2	0x00000000	0.0
3	0xbc8412dc	-0.016122274
4	0xbdd876b8	-0.10569519
5	0xbd242cec	-0.040081903
6	0xbd8400c3	-0.06445458
7	0xbcd4ba3e	-0.025967713
8	0xbd8d6611	-0.06904233
9	0xbc999578	-0.01874803
10	0x00000000	0.0
11	0xbc3ae5bf	-0.011407315
12	0x3d4eaa27	0.05045524
13	0xbd8549ce	-0.06508218
14	0x00000000	0.0
15	0x3ccdceec	0.025123082
16	0xbdab7ec0	-0.08373785
17	0xbd58bc7c	-0.052914128
18	0xbe1153a4	-0.14192063
19	0xbd8c1d78	-0.06841558

target_network.emb4.transform.weight f4 [20, 2]
0	0x3e5cfb80	0.21580315
1	0x3e79c2fe	0.2439079
2	0x3d7fed29	0.062482033
3	0xbe5329a7	-0.20621358
4	0x3eaece27	0.34141657
5	0x3e49c80a	0.19705215
6	0xbed02423	-0.4065257
7	0x3eabff3f	0.33593175
8	0x3e4d9600	0.20076752
9	0xbe639dd9	-0.22228183
10	0x3e21aa5e	0.15787646
11	0x3ef449e7	0.47712633
12	0x3e94487d	0.28961554
13	0x3ccef815	0.02526478
14	0xbe573284	-0.21015364
15	0xbe834f4b	-0.25646433
16	0xbe9ade3f	-0.30247685
17	0xbeba1a76	-0.36348313
18	0xbe39103c	-0.18072599
19	0x3e1a71f9	0.1508254
20	0xbc8c9b68	-0.017163947
21	0xbeb83797	-0.35979912
22	0x3e790e77	0.24321924
23	0x3e8e89b1	0.27839425
24	0xbd63c82d	-0.055610824
25	0x3d33846a	0.04382745
26	0x3ca6cc6a	0.020361144
27	0x3d2cc28a	0.042177714
28	0xbe53d67e	-0.20687291
29	0x3eb0c161	0.34522536
30	0x3ead7909	0.33881405
31	0xbf0509bc	-0.5196798
32	0x3de83b76	0.11339466
33	0x3c74be11	0.0149378935
34	0xbee47949	-0.44623783
35	0x3f0df339	0.55449253
36	0xbf4da341	-0.8032723
37	0x3e30d0ce	0.17267153
38	0xbf050323	-0.5195791
39	0xbf02bd98	-0.5107055

target_network.emb4.transform.bias f4 [20]
0	0xbd431fde	-0.047637813
1	0xbcacc93d	-0.021092052
2	0xbdb8c59c	-0.09022066
3	0xbe20f65d	-0.1571898
4	0xbda83a33	-0.082142256
5	0xbcb1cbfa	-0.021703709
6	0x3db2fae9	0.087392636
7	0x00000000	0.0
8	0x00000000	0.0
9	0xbb3e9f3c	-0.002908661
10	0x00000000	0.0
11	0x3e2a8473	0.16652088
12	0xbd6040d5	-0.05474933
13	0xbd6c1c63	-0.05764426
14	0xbc385382	-0.011250379
15	0xbdda5171	-0.10660065
16	0xbdb1550d	-0.086588
17	0xbd39857d	-0.04529332
18	0x00000000	0.0
19	0x00000000	0.0

target_network.h2.transform.weight f4 [20, 20]
0	0x3d76d99b	0.06026612
1	0xbd438145	-0.047730703
2	0xbe9d3fa0	-0.30712605
3	0x3e31d385	0.17365845
4	0xbcba23bd	-0.02272212
5	0x3efbeba6	0.49203223
6	0xbf21e269	-0.632361
7	0xbf38982d	-0.721072
8	0xbe3629c8	-0.17789376
9	0xbe8f3215	-0.27967897
10	0x3ec60153	0.38672885
11	0x3e73993e	0.23788926
12	0x3e417f1b	0.18896143
13	0x3e504b20	0.20341158
14	0xbe1d7689	-0.15377249
15	0xbe68f674	-0.22750264
16	0xbe63fdd6	-0.222648
17	0xbd9d3fa2	-0.076781526
18	0xbea97876	-0.33099717
19	0xbeb59fcc	-0.35473478
20	0x3d543b91	0.05181462
21	0x3d135041	0.035965208
22	0xbecb8167	-0.39747164
23	0x3e67c708	0.22634518
24	0x3b9b1b40	0.004733473
25	0xbf299fae	-0.66259277
26	0x3e0dc266	0.13843688
27	0xbee45a51	-0.44600156
28	0xbf267bd9	-0.65032727
29	0x3eca3c3e	0.39499086
30	0x3d9a507d	0.07534883
31	0xbe44132b	-0.19147937
32	0xbe8d984c	-0.27655256
33	0xbee40fd9	-0.4454334
34	0xbef85030	-0.48498678
35	0xbe7e7bd8	-0.2485193
36	0xbe5e427f	-0.21705054
37	0xbc465ce1	-0.012107105
38	0xbe76578f	-0.24056838
39	0x3d23ac23	0.039959084
40	0xbee80d0a	-0.45322448
41	0x3c9bcc07	0.019018186
42	0xbeaa446c	-0.33255327
43	0xbeefd9ba	-0.468458
44	0xbea46c01	-0.3211365
45	0xbe07c428	-0.13258421
46	0xbecb17be	-0.3966655
47	0x3e157d17	0.14598499
48	0x3e01954b	0.12654607
49	0x3e6662e1	0.22498657
50	0x3ccb66b5	0.024829248
51	0xbd9ad853	-0.07560792
52	0x3e8aca75	0.27107587
53	0xbe1c6f79	-0.15276898
54	0x3e000d3f	0.12505053
55	0xbedc59f8	-0.4303739
56	0x3ee9fc6b	0.45700392
57	0xbe3fdae0	-0.18735838
58	0xbf330111	-0.699235
59	0x3ebbe539	0.3669832
60	0xbdd59120	-0.10428071
61	0x3a9bc850	0.0011885259
62	0x3e9b7b8a	0.3036769
63	0xbe15af21	-0.14617588
64	0x3e6d4003	0.2316895
65	0x3e908c7d	0.28232184
66	0xbec269f5	-0.37971464
67	0x3e1fe190	0.15613389
68	0xbe286bce	-0.16447374
69	0x3f54513b	0.8293645
70	0xbe81364a	-0.25236732
71	0x3ed0d48d	0.40787163
72	0xbd193197	-0.03740081
73	0xbd5c8b60	-0.053843856
74	0xbf1d5cac	-0.6146953
75	0xbe3bdfc3	-0.18347077
76	0xbdc090ac	-0.09402594
77	0xbea50926	-0.32233542
78	0x3de7c29d	0.113164164
79	0x3cf12e74	0.029441096
80	0xbe1030a2	-0.14081052
81	0xbef9ad6d	-0.48765126
82	0xbef7968b	-0.48357043
83	0x3ea67820	0.32513523
84	0xbf0575f1	-0.5213309
85	0xbd88cfb4	-0.06680241
86	0xbee06c80	-0.4383278
87	0x3e0c174b	0.1368076
88	0x3e8f55bb	0.27995095
89	0x3ec14300	0.3774643
90	0x3e9e3bc4	0.30904973
91	0xbdda5008	-0.10659796
92	0xbe010bc7	-0.12602149
93	0x3e2ca792	0.16860798
94	0xbec82290	-0.3908887
95	0x3e9d0de5	0.30674663
96	0x3d5612e3	0.052264106
97	0x3ed57d92	0.41697365
98	0x3ebd10b0	0.36926794
99	0x3e66344d	0.22480889
100	0x3d43c699	0.04779682
101	0x3eaa157a	0.3321951
102	0x3c862cde	0.016378816
103	0x3f19aca8	0.6002908
104	0xbbfc32f0	-0.007696502
105	0x3eee832c	0.4658445
106	0xbe8eda08	-0.2790072
107	0x3d03fa71	0.03222126
108	0xbe7ea887	-0.24868976
109	0x3df3fd72	0.11913575
110	0x3cd45860	0.025921047
111	0xbf1331c3	-0.57497805
112	0xbe316d9e	-0.17326972
113	0xbeac27ee	-0.33624214
114	0x3ec31fac	0.381101
115	0xbe013054	-0.12616092
116	0x3eda8157	0.42676803
117	0xbe572d53	-0.21013384
118	0x3e0736b7	0.13204466
119	0xbda2c097	-0.0794689
120	0xbac7e222	-0.0015249888
121	0xbe7e523c	-0.24836057
122	0xbee520a7	-0.44751474
123	0x3ef4a556	0.4778239
124	0x3d9eafed	0.07748399
125	0xbcfe1971	-0.03101799
126	0xbe6c1d84	-0.23058134
127	0x3ec8d165	0.39222255
128	0x3eb5dfd2	0.35522324
129	0xbf115197	-0.5676512
130	0xbf0a91b8	-0.541286
131	0x3e8088c7	0.25104353
132	0xbe004544	-0.12526423
133	0xbee6ee58	-0.45103717
134	0xbef43fec	-0.4770502
135	0xbe8bf7bf	-0.27337453
136	0xbe4e6f84	-0.20159727
137	0xbe4265be	-0.18984124
138	0xbe580581	-0.2109585
139	0x3d5ccaec	0.05390446
140	0xbeab270d	-0.3342823
141	0xbd8ecc92	-0.069726124
142	0xbe8bf5fa	-0.27336103
143	0xbc7c272e	-0.015390201
144	0x3d2860e5	0.04110803
145	0xbee1edb8	-0.44126678
146	0x3da7b754	0.08189264
147	0xbed3afee	-0.4134516
148	0x3ecf9ab0	0.40547705
149	0x3de54be5	0.11196116
150	0x3d1b6c12	0.03794486
151	0x3e4883c7	0.19581519
152	0xbd9c6313	-0.076360844
153	0xbea2aecf	-0.31773993
154	0xbd96861b	-0.07349797
155	0xbdcba382	-0.09943296
156	0x3eff50b7	0.49866268
157	0xbe95c23b	-0.2924975
158	0x3e9185d9	0.2842243
159	0xbf5d2538	-0.86384916
160	0x3f2b548c	0.66925883
161	0xbf127e44	-0.57223916
162	0xbd8bc1dc	-0.06824085
163	0xbec2eca1	-0.3807116
164	0xbf244933	-0.64174193
165	0x3e29a41a	0.16566506
166	0x3d500772	0.05078835
167	0x3f082e3a	0.53195536
168	0xbe2092e9	-0.15681042
169	0xbdf37a49	-0.118885584
170	0xbde5dfe4	-0.112243444
171	0x3e835405	0.2565004
172	0xbd98c22d	-0.07458911
173	0xbe790d8a	-0.24321571
174	0x3e1c7975	0.15280707
175	0xbe1db7b8	-0.15402114
176	0x3e062c7d	0.13102908
177	0xbe400108	-0.18750393
178	0x3ece589f	0.40301988
179	0x3a8f64d8	0.0010940088
180	0x3d4c3c56	0.04986223
181	0xbe9a8b3c	-0.30184352
182	0x3ef9c044	0.487795
183	0x3d1ef805	0.03881075
184	0xbe77599b	-0.24155276
185	0x3e275118	0.16339529
186	0x3dfec94f	0.1244074
187	0xbe14e72c	-0.1454131
188	0x3ddc9f5a	0.107725814
189	0x3dbb712f	0.091524474
190	0x3e69e46f	0.22841047
191	0x3e990f6e	0.29894584
192	0x3ed41cb0	0.41428137
193	0xbf852f69	-1.0405093
194	0x3d062389	0.032748733
195	0x3ed72351	0.42019132
196	0xbdc79fdd	-0.097472884
197	0x3f2e3989	0.6805654
198	0xbe847c6f	-0.25876185
199	0xbd1d2637	-0.038366523
200	0xbcdf87ee	-0.027286496
201	0xbee05102	-0.43811804
202	0x3e978164	0.29590905
203	0x3dc33750	0.095320344
204	0x3f24c290	0.6435938
205	0xbebdff0c	-0.37108648
206	0xbddf109c	-0.1089184
207	0xbc3e68da	-0.011621678
208	0xbc9c672b	-0.019092163
209	0xbe21c159	-0.15796413
210	0x3eefc5f7	0.46830723
211	0x3d973aee	0.07384287
212	0x3d896cdf	0.06710219
213	0x3e991772	0.299007
214	0x3d9c8c95	0.076440014
215	0x3c9e9e16	0.01936249
216	0x3e551a5f	0.20810841
217	0xbe42c089	-0.19018759
218	0xbd618581	-0.05505896
219	0x3ea7ae06	0.32749957
220	0xbd698921	-0.057015542
221	0xbf06dae6	-0.5267776
222	0xbee3b65c	-0.44475067
223	0xbeca938f	-0.39565703
224	0x3ef08c4e	0.46982044
225	0x3f0e839a	0.5566956
226	0x3e8a64f3	0.27030143
227	0xbdc7803e	-0.09741257
228	0x3eb6339f	0.3558626
229	0x3e2f9fd9	0.17150821
230	0x3e58314a	0.21112552
231	0xbf37804c	-0.7168014
232	0x3e3fb3e0	0.1872096
233	0xbe8a6010	-0.27026415
234	0xbeebd779	-0.4606283
235	0xbdd602e2	-0.104497686
236	0xbe84b722	-0.2592097
237	0xbcca4f00	-0.024695873
238	0x3e0f1b7a	0.13975325
239	0xbbda494a	-0.006661569
240	0x3edd9e96	0.43285054
241	0x3ed22c13	0.4104925
242	0x3dc111cb	0.09427222
243	0xbedda4d6	-0.43289822
244	0x3e589af2	0.21152857
245	0xbd30e3d0	-0.04318601
246	0xbecc2c3b	-0.39877495
247	0x3f22d406	0.6360477
248	0x3ef4633f	0.4773197
249	0xbd9b11d0	-0.07571757
250	0x3eea75d0	0.4579301
251	0x3e31f74d	0.17379494
252	0xbf09162a	-0.53549445
253	0xbf100b1d	-0.5626696
254	0x3e0df956	0.13864645
255	0xbe005947	-0.12534057

target_network.h2.transform.bias f4 [20]
0	0xbb66afc6	-0.0035199984
1	0xbde0c9c2	-0.10975982
2	0xbdb44915	-0.08803002
3	0xbdc56d71	-0.09640015
4	0xbdd8736a	-0.105688885
5	0xbdc9fb12	-0.09862341
6	0xbe09e5c9	-0.13466562
7	0xbe045072	-0.12921312
8	0xbcb629fd	-0.022236818
9	0xbc957bcd	-0.01824751
10	0xbd4a5b31	-0.049403373
11	0xbd2c2cff	-0.0420351
12	0x3e039910	0.12851357
13	0xbdb88d64	-0.09011343
14	0x3d89d5b7	0.06730216
15	0x00000000	0.0
16	0xbe1a220c	-0.1505205
17	0xbdf80242	-0.12109806
18	0xbd446329	-0.04794613
19	0xbe34725e	-0.17621753

target_network.h3.transform.weight f4 [20, 20]
0	0x3c92a7d5	0.017902294
1	0xbdc311bc	-0.09524867
2	0x3f151ef3	0.5825035
3	0xbc78dc36	-0.015189221
4	0x3dcba4b5	0.09943525
5	0xbf1a0a0b	-0.60171574
6	0xbefaf7f0	-0.49017286
7	0x3e861dd6	0.26194638
8	0x3e7ec2e6	0.24879035
9	0xbe874a66	-0.2642395
10	0xbcd4810c	-0.02594044
11	0x3e1d417a	0.15357009
12	0xbeba352c	-0.36368692
13	0xbed46601	-0.41484073
14	0x3e02ed65	0.12785871
15	0xbedfa1f0	-0.43678236
16	0xbe1906fe	-0.14944074
17	0xbe8b3cbb	-0.2719477
18	0xbf0fb042	-0.56128323
19	0xbdafc911	-0.08583272
20	0xbe2ea39b	-0.17054598
21	0xbf020782	-0.50792706
22	0xbe024ac6	-0.12723836
23	0xbdc7e71c	-0.097608775
24	0xbe019659	-0.1265501
25	0x3d4f6cdf	0.050640937
26	0x3f57bd87	0.8427357
27	0xbdda24d8	-0.10651559
28	0x3d5c2711	0.053748194
29	0xbe5ceb7e	-0.21574208
30	0xbe15b588	-0.1462003
31	0x3f1f0c42	0.6212808
32	0xbe84fa30	-0.25972128
33	0xbd751f6e	-0.059844427
34	0xbe1e7d61	-0.15477516
35	0xbc97f915	-0.018551389
36	0xbe667ec9	-0.22509302
37	0x3e389a67	0.1802765
38	0xbe9002cf	-0.28127143
39	0x3ec76072	0.3894077
40	0x3ed3f515	0.4139792
41	0x3e2565af	0.1615207
42	0x3c3e3e9b	0.011611606
43	0xbd0a5796	-0.033774935
44	0xbeebe663	-0.4607421
45	0xbc7584aa	-0.014985243
46	0x3e173a35	0.14768298
47	0x3f2a630b	0.6655738
48	0x3ed898f2	0.42304188
49	0x3f1e7dc9	0.6191068
50	0xbdb740b4	-0.08947888
51	0x3c8a99e3	0.016919082
52	0x3eee7e4a	0.46580726
53	0x3eb6ff1f	0.35741517
54	0x3ecbf605	0.39836136
55	0xbef78d12	-0.48349816
56	0x3dca02dd	0.098638274
57	0x3ef20c0a	0.4727481
58	0x3e4b2a46	0.19840345
59	0xbdbe8c8b	-0.0930415
60	0x3e199517	0.1499828
61	0x3eef58c0	0.46747398
62	0x3e9b4745	0.30327812
63	0xbebd2b08	-0.36946893
64	0x3eaee036	0.34155434
65	0x3cfa815c	0.030579261
66	0x3e588568	0.2114464
67	0xbd21796c	-0.039422438
68	0xbd9ea7bf	-0.07746839
69	0xbed82ed0	-0.42223215
70	0x3e9217d3	0.285338
71	0x3cd4e93a	0.025990117
72	0x3e00e2e7	0.12586556
73	0x3f0d038c	0.5508354
74	0x3d825a57	0.06364887
75	0xbd0cef4e	-0.034407906
76	0xbe875007	-0.26428244
77	0xbdcc86b9	-0.09986634
78	0x3efd534a	0.49477607
79	0xbe580e5f	-0.21099232
80	0x3cc263cf	0.023729233
81	0x3e476b4a	0.19474521
82	0xbe93ef73	-0.28893623
83	0xbdb905d3	-0.09034314
84	0xbed0ae0c	-0.40757787
85	0xbee676d7	-0.45012543
86	0x3d611e00	0.05496025
87	0xbf0b0363	-0.5430204
88	0x3f29f2cc	0.66386104
89	0xbe3b1aa4	-0.18271881
90	0x3e37a777	0.17934977
91	0xbec8aebb	-0.3919581
92	0xbf1b85fe	-0.6075133
93	0xbec4cddd	-0.3843831
94	0xbe661789	-0.22469915
95	0x3dbb9a1f	0.09160256
96	0x3eba70c2	0.36414152
97	0xbdc8c85a	-0.09803839
98	0x3dfe36a8	0.124127686
99	0x3da12fd0	0.07870448
100	0xbc99acf9	-0.018759238
101	0x3f4e385f	0.80554765
102	0x3efabe3d	0.48973265
103	0x3ea7473d	0.32671538
104	0xbcbc44ee	-0.022982087
105	0xbe30e78b	-0.17275827
106	0x3f20cf4e	0.6281632
107	0xbe3a168d	-0.18172665
108	0xbc344034	-0.011001635
109	0x3e3d706a	0.18499914
110	0x3ddc69ee	0.10762392
111	0x3c93841a	0.018007327
112	0x3e98fbf1	0.29879716
113	0xbebb9abb	-0.36641487
114	0x3e66c3d9	0.22535647
115	0x3d58d43b	0.052936774
116	0xbd5b2354	-0.05350049
117	0x3dfb4b4f	0.12270223
118	0xbe3d3a78	-0.18479335
119	0x3e51afed	0.20477267
120	0xbd5fd84f	-0.054649647
121	0xbe86130f	-0.26186416
122	0x3f1a89ed	0.6036671
123	0xbecd5ef6	-0.40111512
124	0xbe81da3e	-0.25361818
125	0x3e623170	0.22089171
126	0xbd10b8e5	-0.03533258
127	0x3d60c13a	0.054871775
128	0xbe52d0d0	-0.20587468
129	0x3ea7bec1	0.3276272
130	0x3ea915b0	0.3302436
131	0x3d01f3c2	0.031726606
132	0xbf61400f	-0.8798837
133	0x3e277784	0.16354185
134	0x3c89b0fe	0.01680803
135	0x3e06d406	0.13166818
136	0xbe0bb34e	-0.13642618
137	0xbe0ef770	-0.13961577
138	0x3e810a19	0.25203016
139	0x3e7dd1e2	0.24787095
140	0x3e86b773	0.26311836
141	0xbe1ce2c6	-0.15320882
142	0x3e32f664	0.17476803
143	0x3e954e79	0.29161432
144	0xbde64ee1	-0.11245514
145	0xbf4d2cab	-0.8014628
146	0x3e8c8b54	0.2745005
147	0xbd5b3d5a	-0.053525306
148	0xbf1ca684	-0.6119158
149	0xbd481dc2	-0.048856504
150	0xbecacaac	-0.3960775
151	0x3e0d7325	0.13813455
152	0xbda19927	-0.078905396
153	0x3e8f7cab	0.28024802
154	0xbf1beea8	-0.60911036
155	0xbdb6ea83	-0.08931448
156	0x3f15cc3b	0.58514756
157	0xbe864df5	-0.26231351
158	0x3e802fbf	0.25036427
159	0x3d94b06d	0.07260213
160	0x3edba2a7	0.4289753
161	0xbea1694e	-0.31525654
162	0xbe4c927f	-0.19977759
163	0x3d8fb9e0	0.07017875
164	0x3f1ca316	0.6118635
165	0xbdb04a5d	-0.08607934
166	0x3e13c640	0.14431095
167	0x3ec83211	0.39100698
168	0x3e61b7f0	0.22042823
169	0xbe8d8cf8	-0.27646613
170	0x3f14d232	0.5813323
171	0xbd74bc01	-0.059749607
172	0xbe3b56b0	-0.18294787
173	0x3e77a51d	0.2418408
174	0xbe825a8d	-0.2545971
175	0x3ecc8488	0.39944863
176	0x3e840d0f	0.25791213
177	0x3ecb2ebf	0.39684102
178	0xbe9db55b	-0.30802426
179	0x3e05868e	0.1303961
180	0xbdb20ba5	-0.08693627
181	0x3e0fd8e2	0.14047578
182	0xbdc451a8	-0.09585887
183	0xbe8b2b4b	-0.27181467
184	0x3e5eeeb0	0.2177074
185	0x3eaf8222	0.3427897
186	0xbca254d6	-0.019815844
187	0x3e3e3379	0.18574323
188	0x3dc69e44	0.096981555
189	0xbee30865	-0.44342342
190	0xbe361a43	-0.17783456
191	0x3c056501	0.008141757
192	0x3e38e62c	0.18056554
193	0xbebc7423	-0.36807355
194	0xbd690dc6	-0.0568979
195	0xbf23b9a7	-0.6395516
196	0x3efa4040	0.48877144
197	0xbe84ce17	-0.25938484
198	0x3e9b0f8e	0.30285305
199	0x3f1a2eba	0.6022755
200	0x3e5c1f9b	0.21496432
201	0xbe908650	-0.28227472
202	0x3cceeeec	0.025260411
203	0xbf4bb4df	-0.7957286
204	0x3ec02b0a	0.37532836
205	0xbed97946	-0.42475337
206	0x3e2b9a7a	0.16758147
207	0xbef31c79	-0.4748266
208	0xbde1a924	-0.11018589
209	0x3e9128e4	0.2835151
210	0x3c524bea	0.012835482
211	0xbed8c979	-0.4234121
212	0x3ea6916f	0.32532832
213	0xbe646c43	-0.22306924
214	0xbdb8b000	-0.09017944
215	0xbecee3e6	-0.40408248
216	0xbcb91358	-0.022592232
217	0x3e4dabc6	0.20085058
218	0xbdc0b93a	-0.09410329
219	0xbaa039e3	-0.0012224283
220	0x3dfcf7f8	0.12351984
221	0x3dc438ac	0.09581122
222	0x3ebefa54	0.3730036
223	0xbedc4b4e	-0.43026203
224	0x3d4b4d57	0.049634304
225	0xbe15c27b	-0.1462497
226	0x3c236b5b	0.009974326
227	0x3ea6d37e	0.3258323
228	0x3ecc6ad7	0.39925262
229	0xbdabec08	-0.08394629
230	0xbf3a4cf6	-0.72773683
231	0xbde107df	-0.109878294
232	0x3daf6e79	0.08565993
233	0xbe8a2c32	-0.26986843
234	0xbd68c0b5	-0.056824405
235	0x3f535711	0.8255473
236	0xbcc13ab7	-0.023587568
237	0x3c6f2b7e	0.014597772
238	0x3de80370	0.11328781
239	0x3e3e4c5f	0.18583821
240	0x3e8ac957	0.27106735
241	0xbed4af77	-0.4154012
242	0x3e4f3ac1	0.20237257
243	0x3ca6854b	0.02032723
244	0xbee19783	-0.44060907
245	0xbd16caae	-0.036814384
246	0x3d330f30	0.043715656
247	0x3d565584	0.052327648
248	0xbe816c6d	-0.25278035
249	0xbf360e30	-0.711154
250	0x3f17e597	0.593347
251	0xbb01357f	-0.0019715724
252	0x3f0e490b	0.55580205
253	0xbedc7393	-0.43056926
254	0xbda45bc2	-0.08025314
255	0x3e621b4f	0.2208073

target_network.h3.transform.bias f4 [20]
0	0xbdcd163d	-0.10014007
1	0x3d340fd2	0.0439604
2	0xbc9816ad	-0.0185655
3	0xbca57dfb	-0.020201674
4	0xbe3c695f	-0.18399571
5	0xbe2139af	-0.15744661
6	0xbd4ba15a	-0.049714424
7	0xbe20ff6f	-0.1572244
8	0xbb8f4f58	-0.004373472
9	0xbdd5075f	-0.104017965
10	0xbcc1ebb0	-0.023671955
11	0x00000000	0.0
12	0xbdde66d9	-0.108594604
13	0xbe18e2a5	-0.14930208
14	0x00000000	0.0
15	0xbd184fc0	-0.03718543
16	0xbd95543d	-0.07291458
17	0xbcd7fcbe	-0.026365634
18	0xbe247414	-0.16059905
19	0xbddc8018	-0.107666194

target_network.critic_linear.weight f4 [1, 20]
0	0xbe93e6c5	-0.28887
1	0xbeba742e	-0.36416763
2	0xbe9006d8	-0.2813022
3	0xbe4aea13	-0.19815855
4	0xbeb0d446	-0.34536952
5	0x3e503dca	0.2033607
6	0x3e674d8e	0.22588179
7	0x3ec75c64	0.38937676
8	0x3eed5028	0.46350217
9	0x3e4c5004	0.19952399
10	0x3d44a6f9	0.0480108
11	0x3cdc2da0	0.026877224
12	0xbe95b053	-0.29236087
13	0xbd4199d6	-0.04726585
14	0xbf2c0d57	-0.67207855
15	0xbe02a042	-0.12756446
16	0xbcd508c9	-0.026005166
17	0xbe22c9e0	-0.15897322
18	0x3e56d085	0.20977981
19	0x3e229aaf	0.1587932
