pz_risk/mini_1/6.pt (torch, 18513 bytes, 26 tensors)

policy_network.emb1.transform.weight f4 [20, 2]
0	0x3dfb5375	0.122717775
1	0x3ee395fa	0.4445036
2	0x3d6a5a2c	0.0572149
3	0xbf1aa815	-0.6041272
4	0xbbf13fde	-0.00736235
5	0xbea9be48	-0.33152986
6	0xbe303e94	-0.17211372
7	0xbeaad970	-0.33369017
8	0x3b728b6f	0.0037009378
9	0x3e9fe3ba	0.3122843
10	0xbf1c2ebc	-0.6100881
11	0x3eccb4a7	0.39981577
12	0xbe501a9a	-0.20322648
13	0xbd8ecd33	-0.069727324
14	0xbe9340f1	-0.28760484
15	0xbe90d0c1	-0.28284267
16	0x3e25e53d	0.16200729
17	0x3e801e05	0.25022903
18	0xbc97d311	-0.018533261
19	0x3e89f4bd	0.26944533
20	0xbe15ba4d	-0.1462185
21	0x3cceee35	0.02526007
22	0xbd10fc57	-0.0353969
23	0x3f0043a0	0.5010319
24	0x3e932960	0.28742504
25	0xbeb40999	-0.35163572
26	0xbe977449	-0.29580906
27	0x3e989907	0.2980425
28	0x3e77b0e2	0.24188569
29	0x3e7017a3	0.23446517
30	0xbf3ee9a2	-0.74575245
31	0x3e764696	0.24050364
32	0xbf1b5ac9	-0.606854
33	0xbe6b58c6	-0.22983083
34	0xbeda7f61	-0.42675307
35	0xbec64ecd	-0.38731995
36	0xbd534bd0	-0.051585972
37	0x3da6712e	0.08127056
38	0xbe9e32ad	-0.30898038
39	0xbe9877c6	-0.2977888

policy_network.emb1.transform.bias f4 [20]
0	0x3ceea0b2	0.02912936
1	0xbc616cce	-0.013758851
2	0x00000000	0.0
3	0x00000000	0.0
4	0xbe0476b0	-0.129359
5	0xbdc0fdc5	-0.09423403
6	0x00000000	0.0
7	0x00000000	0.0
8	0x3d1c751e	0.03819763
9	0xbdbe4377	-0.09290212
10	0x00000000	0.0
11	0x3e261eaf	0.16222642
12	0xbddf6149	-0.109072275
13	0xbd3ca329	-0.04605404
14	0x3d85a33d	0.06525276
15	0x00000000	0.0
16	0x00000000	0.0
17	0x00000000	0.0
18	0xbca6525b	-0.020302942
19	0x00000000	0.0

policy_network.emb2.transform.weight f4 [20, 2]
0	0xb942e880	-0.00018587895
1	0x3f054a3a	0.52066386
2	0x3e018d8b	0.1265165
3	0x3f03d5fa	0.5149838
4	0xbe928e19	-0.28624037
5	0x3d038d6d	0.032117296
6	0xbd470daa	-0.048597015
7	0xbdd237d0	-0.10264552
8	0x3ebfb496	0.37442464
9	0xbe5ac2a2	-0.21363309
10	0xbdaeb86e	-0.08531271
11	0x3ea8c647	0.32963774
12	0x3e0f73bd	0.14008994
13	0x3d9f7c37	0.07787364
14	0xbe940a70	-0.28914213
15	0x3f096448	0.5366864
16	0xbea86cd0	-0.32895517
17	0x3efcc0b4	0.4936577
18	0x3ebb95f7	0.36637852
19	0xbe3c9435	-0.18415911
20	0x3dda9a57	0.10673969
21	0xbf0f25ae	-0.5591687
22	0xbf5db806	-0.8660892
23	0xbe3cc72c	-0.18435353
24	0xbd587fbe	-0.0528562
25	0x3d691151	0.05690128
26	0xbeab47cd	-0.33453217
27	0x3e778f93	0.24175863
28	0xbd205ab3	-0.039148998
29	0x3f648aad	0.892741
30	0xbe8e96a9	-0.2784932
31	0x3ec16c99	0.37778166
32	0xbf1958ce	-0.5990113
33	0x3dd36727	0.10322409
34	0x3dfe5462	0.124184385
35	0xbf09a1ff	-0.5376281
36	0xbdba2cc1	-0.090905674
37	0xbdf88c61	-0.1213615
38	0x3d230650	0.039800942
39	0x3d765ec4	0.06014897

policy_network.emb2.transform.bias f4 [20]
0	0xbde40e1c	-0.11135504
1	0xbca17538	-0.019709215
2	0x00000000	0.0
3	0x00000000	0.0
4	0xbe0a1253	-0.13483553
5	0xbdd278e6	-0.10276966
6	0x3c435c70	0.011923894
7	0xbd2d3f38	-0.04229662
8	0xbcc5dd7e	-0.024153467
9	0xbe3148f9	-0.17312993
10	0xbd2d028a	-0.04223875
11	0x00000000	0.0
12	0xbd08f6b1	-0.03343839
13	0xbe26f3ff	-0.16304015
14	0xbdb69c6a	-0.08916552
15	0xbc61a970	-0.013773307
16	0x00000000	0.0
17	0xbd435fb7	-0.047698703
18	0x00000000	0.0
19	0xbd5261d2	-0.05136282

policy_network.emb3.transform.weight f4 [20, 2]
0	0xbf062367	-0.5239777
1	0xbe5e36bc	-0.21700567
2	0xbe96de02	-0.29466254
3	0xbd5285a7	-0.051396992
4	0xbe81d0de	-0.25354666
5	0xbd6c03a8	-0.057620674
6	0x3e97b25f	0.29628274
7	0x3e22c421	0.1589513
8	0x3e36183c	0.17782682
9	0x3eab0052	0.33398682
10	0xbee504bd	-0.44730178
11	0x3ec8b6d2	0.3920198
12	0x3e3160bd	0.17322059
13	0x3eeae1e9	0.4587548
14	0x3d3742be	0.044741385
15	0xbe4f00d1	-0.20215155
16	0xbeea7109	-0.45789364
17	0x3f099b95	0.53753024
18	0x3d883539	0.066507764
19	0xbe8be247	-0.27321073
20	0xbd8a33c3	-0.06748154
21	0xbecda1ac	-0.40162408
22	0xbf1a66fa	-0.6031338
23	0x3e8eb858	0.27875018
24	0x3d1a56a8	0.037680298
25	0x3e16846f	0.14698957
26	0x3ed297d7	0.4113147
27	0x3e6004e2	0.21876863
28	0xbe513305	-0.20429619
29	0xbe108e5c	-0.14116806
30	0xbeaa9cc5	-0.3332273
31	0x3e3c56a2	0.18392423
32	0x3f343c48	0.7040448
33	0xbeb4ffc8	-0.35351396
34	0x3dac69b9	0.084186025
35	0xbe6425d6	-0.22280058
36	0xbcf0ac08	-0.029378906
37	0x3d748624	0.05969824
38	0x3e91a7a3	0.2844821
39	0x3e25fc4a	0.16209522

policy_network.emb3.transform.bias f4 [20]
0	0x00000000	0.0
1	0x00000000	0.0
2	0x00000000	0.0
3	0xbc34ebc7	-0.011042542
4	0xbdc56717	-0.096388035
5	0xbd84dd82	-0.06487562
6	0xbc085434	-0.008320857
7	0xbcd4ba3e	-0.025967713
8	0xbdb232fc	-0.08701131
9	0xbc999578	-0.01874803
10	0x00000000	0.0
11	0xbda9c13f	-0.08288812
12	0x3ccb32ed	0.024804557
13	0xbd62f254	-0.055406883
14	0x00000000	0.0
15	0x3d18e8a2	0.03733123
16	0xbd97ef42	-0.07418682
17	0xbe0df474	-0.13862783
18	0xbe1153a4	-0.14192063
19	0xbd807f6a	-0.06274302

policy_network.emb4.transform.weight f4 [20, 2]
0	0x3e4237b4	0.18966562
1	0x3e6c1670	0.23055434
2	0x3d7fed29	0.062482033
3	0xbe5329a7	-0.20621358
4	0x3e9777e5	0.2958366
5	0x3e229acb	0.15879361
6	0xbed02423	-0.4065257
7	0x3eabff3f	0.33593175
8	0x3e4b785a	0.19870129
9	0xbe654bcf	-0.223922
10	0x3e08d4aa	0.13362375
11	0x3ee2a012	0.4426275
12	0x3e8e714d	0.27820817
13	0x3afa04a4	0.0019074869
14	0xbe573284	-0.21015364
15	0xbe834f4b	-0.25646433
16	0xbe9ade3f	-0.30247685
17	0xbeba1a76	-0.36348313
18	0xbe91ea99	-0.28499296
19	0x3e314b71	0.17313935
20	0xbc8c9b68	-0.017163947
21	0xbeb83797	-0.35979912
22	0x3e7348ba	0.23758212
23	0x3e9264c2	0.28592497
24	0xbd63c82d	-0.055610824
25	0x3d33846a	0.04382745
26	0x3ca6cc6a	0.020361144
27	0x3d2cc28a	0.042177714
28	0xbe8f4b0a	-0.27986938
29	0x3ea94518	0.33060527
30	0x3ea498e7	0.32147905
31	0xbf07d00c	-0.5305183
32	0x3de9822e	0.11401783
33	0x3c64e884	0.013971452
34	0xbf0ea958	-0.5572715
35	0x3f0d69c6	0.5523952
36	0xbf4da341	-0.8032723
37	0x3e30d0ce	0.17267153
38	0xbf050323	-0.5195791
39	0xbf02bd98	-0.5107055

policy_network.emb4.transform.bias f4 [20]
0	0xbc925b34	-0.017865755
1	0xbcacc93d	-0.021092052
2	0xbe3465ac	-0.1761691
3	0xbe20f65d	-0.1571898
4	0xbdab41ea	-0.083621815
5	0x3c3e204f	0.011604383
6	0x3d446587	0.047948387
7	0x00000000	0.0
8	0x00000000	0.0
9	0x3d046b45	0.032328863
10	0x00000000	0.0
11	0x3e4ac5a6	0.1980196
12	0xbd6040d5	-0.05474933
13	0xbd6c1c63	-0.05764426
14	0xbc9c24a4	-0.01906044
15	0xbdfc3223	-0.1231425
16	0xbe036a37	-0.12833486
17	0xbb3f2358	-0.0029165354
18	0x00000000	0.0
19	0x00000000	0.0

policy_network.h2.transform.weight f4 [20, 20]
0	0x3d7e4ba7	0.062083866
1	0xbd73b8dc	-0.059502468
2	0xbe97345b	-0.29532132
3	0x3e0b37a4	0.13595444
4	0xbd323e90	-0.043516695
5	0x3efb647a	0.49100095
6	0xbf26c668	-0.65146494
7	0xbf3a2ef9	-0.72727925
8	0xbe37a976	-0.17935738
9	0xbe7ad9e5	-0.24497183
10	0x3ec60153	0.38672885
11	0x3e68a2e9	0.22718395
12	0x3e30a47d	0.17250247
13	0x3e25d955	0.16196187
14	0xbe27b214	-0.16376525
15	0xbe80360d	-0.25041237
16	0xbe836cf5	-0.25669065
17	0xbdb005ad	-0.085948326
18	0xbea97876	-0.33099717
19	0xbec82e7a	-0.3909796
20	0x3d543b91	0.05181462
21	0x3d135041	0.035965208
22	0xbecb8167	-0.39747164
23	0x3e67c708	0.22634518
24	0x3b9b1b40	0.004733473
25	0xbf299fae	-0.66259277
26	0x3e0dc266	0.13843688
27	0xbee45a51	-0.44600156
28	0xbf267bd9	-0.65032727
29	0x3eca3c3e	0.39499086
30	0x3d9a507d	0.07534883
31	0xbe44132b	-0.19147937
32	0xbe8d984c	-0.27655256
33	0xbee40fd9	-0.4454334
34	0xbef85030	-0.48498678
35	0xbe7e7bd8	-0.2485193
36	0xbe5e427f	-0.21705054
37	0xbc465ce1	-0.012107105
38	0xbe76578f	-0.24056838
39	0x3d23ac23	0.039959084
40	0xbee80d0a	-0.45322448
41	0x3c9c3c73	0.019071793
42	0xbeaa446c	-0.33255327
43	0xbeefcbaa	-0.4683507
44	0xbea45d59	-0.3210247
45	0xbe07c428	-0.13258421
46	0xbecb1549	-0.39664677
47	0x3e157d17	0.14598499
48	0x3e01954b	0.12654607
49	0x3e6662e1	0.22498657
50	0x3ccb66b5	0.024829248
51	0xbd9ad853	-0.07560792
52	0x3e8ad0ec	0.2711252
53	0xbe1c55e3	-0.15267138
54	0x3e001b8d	0.1251051
55	0xbedc59f8	-0.4303739
56	0x3eea07d1	0.45709088
57	0xbe3fdae0	-0.18735838
58	0xbf330111	-0.699235
59	0x3ebbf280	0.3670845
60	0xbdedb21c	-0.11606237
61	0xbbffd182	-0.0078069577
62	0x3e974d61	0.29551223
63	0xbe18acb7	-0.14909635
64	0x3e6d4003	0.2316895
65	0x3e8acdca	0.2711013
66	0xbec77902	-0.3895951
67	0x3e1fe190	0.15613389
68	0xbe341dd0	-0.17589498
69	0x3f540e9a	0.8283478
70	0xbe81364a	-0.25236732
71	0x3ecafabb	0.39644417
72	0xbd3bebab	-0.045879047
73	0xbd60c055	-0.054870922
74	0xbf204baf	-0.62615484
75	0xbe3d7ad2	-0.18503883
76	0xbdc1af2f	-0.09457242
77	0xbea50926	-0.32233542
78	0x3de7c29d	0.113164164
79	0x3cf12e74	0.029441096
80	0xbe1047ee	-0.14089939
81	0xbf15148f	-0.58234495
82	0xbef7968b	-0.48357043
83	0x3e6d44ba	0.23170748
84	0xbf1be997	-0.60903305
85	0xbd99a118	-0.07501429
86	0xbefdb6b6	-0.4955346
87	0x3e0c174b	0.1368076
88	0x3e880464	0.2656585
89	0x3ec14300	0.3774643
90	0x3e9e3bc4	0.30904973
91	0xbdda5008	-0.10659796
92	0xbe5ad239	-0.21369256
93	0x3d9a5d69	0.07537348
94	0xbef47eae	-0.477529
95	0x3e93e39c	0.2888459
96	0xbd208921	-0.039193276
97	0x3ed57d92	0.41697365
98	0x3ebd10b0	0.36926794
99	0x3e061c86	0.13096818
100	0x3d30ed6e	0.04319518
101	0x3e9f9ee6	0.31175917
102	0x3c24e6d6	0.010064801
103	0x3f0fc78e	0.5616387
104	0xbd2f7344	-0.042834535
105	0x3eecdc3e	0.4626178
106	0xbe9626d8	-0.2932651
107	0x3cfb5fc6	0.030685317
108	0xbe810caf	-0.2520499
109	0x3df3fd72	0.11913575
110	0x3cd45860	0.025921047
111	0xbf15678f	-0.5836114
112	0xbe4c57e1	-0.19955398
113	0xbebeb440	-0.37246895
114	0x3ebc2db9	0.36753634
115	0xbe1c3127	-0.15253125
116	0x3ecce0ff	0.40015408
117	0xbe572a36	-0.21012196
118	0x3e0736b7	0.13204466
119	0xbdf3c2ec	-0.11902413
120	0xbac7e222	-0.0015249888
121	0xbe7e523c	-0.24836057
122	0xbee520a7	-0.44751474
123	0x3ef4a556	0.4778239
124	0x3d9eafed	0.07748399
125	0xbcfe1971	-0.03101799
126	0xbe6c1d84	-0.23058134
127	0x3ec8d165	0.39222255
128	0x3eb5dfd2	0.35522324
129	0xbf115197	-0.5676512
130	0xbf0a91b8	-0.541286
131	0x3e8088c7	0.25104353
132	0xbe004544	-0.12526423
133	0xbee6ee58	-0.45103717
134	0xbef43fec	-0.4770502
135	0xbe8bf7bf	-0.27337453
136	0xbe4e6f84	-0.20159727
137	0xbe4265be	-0.18984124
138	0xbe580581	-0.2109585
139	0x3d5ccaec	0.05390446
140	0xbeab270d	-0.3342823
141	0xbd8ecc92	-0.069726124
142	0xbe8bf5fa	-0.27336103
143	0xbc7c272e	-0.015390201
144	0x3d2860e5	0.04110803
145	0xbee1edb8	-0.44126678
146	0x3da7b754	0.08189264
147	0xbed3afee	-0.4134516
148	0x3ecf9ab0	0.40547705
149	0x3de54be5	0.11196116
150	0x3d1b6c12	0.03794486
151	0x3e4883c7	0.19581519
152	0xbd9c6313	-0.076360844
153	0xbea2aecf	-0.31773993
154	0xbd96861b	-0.07349797
155	0xbdcba382	-0.09943296
156	0x3eff50b7	0.49866268
157	0xbe95c23b	-0.2924975
158	0x3e9185d9	0.2842243
159	0xbf5d2538	-0.86384916
160	0x3f228c18	0.63495016
161	0xbf17b5ce	-0.59261787
162	0xbdebdd45	-0.11516813
163	0xbf01b2ca	-0.50663435
164	0xbf3fe6e9	-0.74961716
165	0x3dfbe10a	0.12298782
166	0x3bd89f7a	0.006610808
167	0x3f187f60	0.5956936
168	0xbe200134	-0.15625459
169	0xbdb47f6c	-0.08813366
170	0xbde5dfe4	-0.112243444
171	0x3e7a9d5d	0.24474092
172	0xbe2ec9ba	-0.1706914
173	0xbec10f2c	-0.37706888
174	0x3e17b4c5	0.14815052
175	0xbdd5fd98	-0.1044876
176	0x3b7d9119	0.0038691221
177	0xbe3d87f5	-0.18508895
178	0x3ece589f	0.40301988
179	0xbe036c06	-0.12834176
180	0x3ceb5a47	0.028729571
181	0xbea01ef7	-0.31273624
182	0x3f03ad36	0.51436174
183	0xbd806890	-0.06269944
184	0xbea90dcd	-0.33018342
185	0x3e108bca	0.14115825
186	0x3df08ca5	0.11745576
187	0x3beacdb8	0.007165637
188	0x3dfc5423	0.12320735
189	0x3dc9a65d	0.098461844
190	0x3e69e46f	0.22841047
191	0x3ea0a134	0.31372988
192	0x3eb1d588	0.34733224
193	0xbf947103	-1.1596988
194	0x3d483c5e	0.048885696
195	0x3f05bd09	0.5224157
196	0xbe63ce12	-0.22246578
197	0x3f39fd99	0.72652584
198	0xbe847c6f	-0.25876185
199	0xbe1b0d56	-0.15141806
200	0x3c3fe7aa	0.011712948
201	0xbebe25f7	-0.3713834
202	0x3e9c7715	0.30559602
203	0x3db9853d	0.09058616
204	0x3f12ea69	0.5738893
205	0xbea42c81	-0.32065204
206	0xbe003a33	-0.12522201
207	0xbbbc184a	-0.0057402
208	0xbcd23071	-0.025657864
209	0xbe15f6ab	-0.14644878
210	0x3eefc5f7	0.46830723
211	0x3d5ae400	0.053440094
212	0x3dd1a3ba	0.102363065
213	0x3e96c06d	0.29443684
214	0x3d90a51e	0.070627436
215	0xbdb8a22c	-0.09015307
216	0x3e66f6b7	0.22555052
217	0xbe32b552	-0.1745198
218	0xbd618581	-0.05505896
219	0x3e96c60d	0.29447976
220	0xbe24cfb8	-0.16094863
221	0xbf20886e	-0.62708175
222	0xbf0cef60	-0.5505276
223	0xbee4b3e9	-0.4466851
224	0x3ed8ba6a	0.42329723
225	0x3f0772de	0.5290965
226	0x3e624bf2	0.22099283
227	0xbdd5d0ba	-0.10440202
228	0x3eaa5b68	0.33272862
229	0x3e2ec075	0.17065604
230	0x3e58314a	0.21112552
231	0xbf39a6be	-0.72520053
232	0x3e0c3d6c	0.13695306
233	0xbea6e626	-0.32597464
234	0xbf119bab	-0.56878155
235	0xbdd9875c	-0.10621521
236	0xbea5b43f	-0.3236408
237	0xbde2f245	-0.110813655
238	0x3e0f1b7a	0.13975325
239	0xbd7b097f	-0.061288353
240	0x3ecc8b0f	0.39949843
241	0x3ec7f932	0.39057308
242	0x3dc42f6a	0.09579356
243	0xbf105776	-0.56383455
244	0x3ded096e	0.11574064
245	0xbd99774a	-0.07493456
246	0xbed1efbd	-0.41003218
247	0x3f40e247	0.7534527
248	0x3ef7d9e2	0.4840842
249	0xbd991dc0	-0.074763775
250	0x3eea75d0	0.4579301
251	0x3e4206d1	0.18947913
252	0xbf22921c	-0.63504195
253	0xbf357345	-0.7087901
254	0x3e1e61c4	0.15466982
255	0xbd046bf6	-0.032329522

policy_network.h2.transform.bias f4 [20]
0	0xbd5e8638	-0.05432722
1	0xbde0c9c2	-0.10975982
2	0xbdb41d70	-0.08794677
3	0xbddb46b1	-0.10706843
4	0xbe4eed58	-0.20207727
5	0xbe075e95	-0.13219674
6	0xbe09e5c9	-0.13466562
7	0xbe045072	-0.12921312
8	0xbcf24b00	-0.029576778
9	0x3c5c7f8c	0.013458144
10	0xbd1aedc0	-0.037824392
11	0xbd8b7061	-0.06808544
12	0x3e248115	0.16064866
13	0xbd970a45	-0.07375006
14	0x3dbee716	0.0932142
15	0x00000000	0.0
16	0xbe1a220c	-0.1505205
17	0xbdf9f1fc	-0.12204358
18	0xbc964f6a	-0.018348414
19	0xbe34725e	-0.17621753

policy_network.h3.transform.weight f4 [20, 20]
0	0x3c92a7d5	0.017902294
1	0xbdc311bc	-0.09524867
2	0x3f151ef3	0.5825035
3	0xbc78dc36	-0.015189221
4	0x3dcba4b5	0.09943525
5	0xbf1a0a0b	-0.60171574
6	0xbefaf7f0	-0.49017286
7	0x3e861dd6	0.26194638
8	0x3e7ec2e6	0.24879035
9	0xbe874a66	-0.2642395
10	0xbde97017	-0.113983326
11	0x3d84fe17	0.06493776
12	0xbeba352c	-0.36368692
13	0xbf02cb8e	-0.5109185
14	0x3e02ed65	0.12785871
15	0xbedfa1f0	-0.43678236
16	0xbe1906fe	-0.14944074
17	0xbe8b3cbb	-0.2719477
18	0xbf0fb042	-0.56128323
19	0xbdafc911	-0.08583272
20	0xbe2ea39b	-0.17054598
21	0xbf020782	-0.50792706
22	0xbe024ac6	-0.12723836
23	0xbdc7e71c	-0.097608775
24	0xbe019659	-0.1265501
25	0x3d4f6cdf	0.050640937
26	0x3f57bd87	0.8427357
27	0xbdda24d8	-0.10651559
28	0x3d5c2711	0.053748194
29	0xbe3899f6	-0.18027481
30	0xbe405235	-0.1878136
31	0x3f171185	0.5901111
32	0xbe84fa30	-0.25972128
33	0xbd9c7d47	-0.07641082
34	0xbdf28256	-0.11841266
35	0xbc97f915	-0.018551389
36	0xbe667ec9	-0.22509302
37	0x3e389a67	0.1802765
38	0xbe9002cf	-0.28127143
39	0x3ec76072	0.3894077
40	0x3ee1c976	0.44099015
41	0x3e2565af	0.1615207
42	0x3c3e3e9b	0.011611606
43	0xbd0896df	-0.033347007
44	0xbee1e139	-0.44117144
45	0xbc04e227	-0.00811056
46	0x3e173a35	0.14768298
47	0x3f2a630b	0.6655738
48	0x3edca603	0.43095407
49	0x3f2e01d7	0.6797156
50	0xbdf2f338	-0.118627965
51	0xbb991892	-0.0046721185
52	0x3f1239b2	0.57119286
53	0x3ebed24c	0.3726982
54	0x3ef55f8b	0.47924456
55	0xbef78d12	-0.48349816
56	0x3dca02dd	0.098638274
57	0x3ef20c0a	0.4727481
58	0x3e7763c8	0.24159157
59	0xbdbe8c8b	-0.0930415
60	0x3e345aba	0.17612734
61	0x3eef58c0	0.46747398
62	0x3e9b4799	0.30328062
63	0xbebd07dd	-0.36920062
64	0x3ec34462	0.3813811
65	0x3d6e7b84	0.058223262
66	0x3e588568	0.2114464
67	0xbd21796c	-0.039422438
68	0xbd975e16	-0.07390992
69	0xbebc83fc	-0.36819446
70	0x3e88383d	0.26605406
71	0x3b82b4c0	0.0039888322
72	0x3e643031	0.22284009
73	0x3f0ab5a5	0.5418342
74	0x3e0dd88f	0.13852142
75	0xbd0cef4e	-0.034407906
76	0xbe875007	-0.26428244
77	0xbdcc8401	-0.09986115
78	0x3f08b286	0.53397405
79	0xbe580e5f	-0.21099232
80	0x3cc6d947	0.024273528
81	0x3e476b4a	0.19474521
82	0xbe93ef73	-0.28893623
83	0xbdb905d3	-0.09034314
84	0xbea22aec	-0.31673372
85	0xbed0d0f5	-0.40784422
86	0x3d611e00	0.05496025
87	0xbf0b0363	-0.5430204
88	0x3f29f5ed	0.6639088
89	0xbe3b15f7	-0.18270098
90	0x3e5358a8	0.20639288
91	0xbec3dcc5	-0.3825437
92	0xbf1b85fe	-0.6075133
93	0xbeeae153	-0.45875034
94	0xbe661789	-0.22469915
95	0x3dbb9a1f	0.09160256
96	0x3eba70c2	0.36414152
97	0xbdc8c85a	-0.09803839
98	0x3dfe36a8	0.124127686
99	0x3da12fd0	0.07870448
100	0xbc9a6b51	-0.01885
101	0x3f4e385f	0.80554765
102	0x3efabe3d	0.48973265
103	0x3ea7473d	0.32671538
104	0xbd161aa8	-0.036646515
105	0xbe459c32	-0.19297865
106	0x3f20cf4e	0.6281632
107	0xbe3a168d	-0.18172665
108	0xbc344034	-0.011001635
109	0x3e3d706a	0.18499914
110	0x3d850312	0.06494726
111	0x3cdbb3cc	0.026819132
112	0x3e98fbf1	0.29879716
113	0xbebd4c98	-0.369725
114	0x3e66c3d9	0.22535647
115	0x3d58d43b	0.052936774
116	0xbd5b2354	-0.05350049
117	0x3dfb4b4f	0.12270223
118	0xbe3d3a78	-0.18479335
119	0x3e51afed	0.20477267
120	0xbd82ee87	-0.06393152
121	0xbe86130f	-0.26186416
122	0x3f1a89bc	0.60366416
123	0xbecd5ef6	-0.40111512
124	0xbe95a38d	-0.29226342
125	0x3e42e562	0.19032815
126	0xbd10b8e5	-0.03533258
127	0x3d60c13a	0.054871775
128	0xbe365a76	-0.17807946
129	0x3ea3c2e5	0.3198463
130	0x3e9efe2c	0.31053293
131	0x3d4ffe1f	0.050779458
132	0xbf7804b7	-0.96882194
133	0x3e19dc5d	0.15025468
134	0x3c115fe8	0.0088729635
135	0x3e06d406	0.13166818
136	0xbe0bb34e	-0.13642618
137	0xbe0ef909	-0.13962187
138	0x3e5f87c0	0.21829128
139	0x3e7dd1e2	0.24787095
140	0x3e60e2f7	0.2196158
141	0xbe1ce2c6	-0.15320882
142	0x3e32f664	0.17476803
143	0x3e954e79	0.29161432
144	0xbde64ee1	-0.11245514
145	0xbf4d2cab	-0.8014628
146	0x3e8c8b54	0.2745005
147	0xbd5b3d5a	-0.053525306
148	0xbf274057	-0.6533255
149	0xbd664c1d	-0.05622493
150	0xbefa5859	-0.4889553
151	0x3e735cfa	0.23765936
152	0xbde93ec7	-0.11388927
153	0x3e78a5f9	0.24282064
154	0xbf1ff380	-0.62480927
155	0xbdb6ea83	-0.08931448
156	0x3f15cc3b	0.58514756
157	0xbe864df5	-0.26231351
158	0x3e697bf1	0.22801186
159	0x3d94b06d	0.07260213
160	0x3ecb9a9e	0.397664
161	0xbea1694e	-0.31525654
162	0xbe4c933e	-0.19978043
163	0x3d8fb9e0	0.07017875
164	0x3f120927	0.57045215
165	0xbdf095db	-0.11747333
166	0x3e13c640	0.14431095
167	0x3ec83211	0.39100698
168	0x3e6ca9ec	0.23111695
169	0xbe9ea463	-0.30984792
170	0x3f1b507b	0.6066968
171	0xbd240faf	-0.04005402
172	0xbe832f2b	-0.25621924
173	0x3e832ba8	0.25619245
174	0xbe95cf3f	-0.2925968
175	0x3ecc8488	0.39944863
176	0x3e840d0f	0.25791213
177	0x3ecb2db9	0.3968332
178	0xbe9d258f	-0.30692717
179	0x3e05868e	0.1303961
180	0xbdb20ba5	-0.08693627
181	0x3e0fd8e2	0.14047578
182	0xbdc451a8	-0.09585887
183	0xbe8b2b4b	-0.27181467
184	0x3e5eeeb0	0.2177074
185	0x3eaf8222	0.3427897
186	0xbca254d6	-0.019815844
187	0x3e3e3379	0.18574323
188	0x3dc69e44	0.096981555
189	0xbee30865	-0.44342342
190	0xbe361a43	-0.17783456
191	0x3c056501	0.008141757
192	0x3e38e62c	0.18056554
193	0xbebc7423	-0.36807355
194	0xbd690dc6	-0.0568979
195	0xbf23b9a7	-0.6395516
196	0x3efa4040	0.48877144
197	0xbe84ce17	-0.25938484
198	0x3e9b0f8e	0.30285305
199	0x3f1a2eba	0.6022755
200	0x3e5b01d0	0.2138741
201	0xbe908650	-0.28227472
202	0x3cceeeec	0.025260411
203	0xbf4bb4df	-0.7957286
204	0x3ec01eac	0.375234
205	0xbed9a010	-0.4250493
206	0x3e2b9a7a	0.16758147
207	0xbef31c79	-0.4748266
208	0xbde1a924	-0.11018589
209	0x3e9128e4	0.2835151
210	0xbbf26b30	-0.0073980317
211	0xbed8c979	-0.4234121
212	0x3ea6916f	0.32532832
213	0xbe646ebb	-0.22307865
214	0xbdb8b000	-0.09017944
215	0xbecee3e6	-0.40408248
216	0xbcb91358	-0.022592232
217	0x3e4dabc6	0.20085058
218	0xbdc0b93a	-0.09410329
219	0xbaa039e3	-0.0012224283
220	0x3dfcf7f8	0.12351984
221	0x3dc438ac	0.09581122
222	0x3ebefa54	0.3730036
223	0xbedc4b4e	-0.43026203
224	0x3d4b4d57	0.049634304
225	0xbe15c27b	-0.1462497
226	0x3c236b5b	0.009974326
227	0x3ea6d37e	0.3258323
228	0x3ecc6ad7	0.39925262
229	0xbdabec08	-0.08394629
230	0xbf3a4cf6	-0.72773683
231	0xbde107df	-0.109878294
232	0x3daf6e79	0.08565993
233	0xbe8a2c32	-0.26986843
234	0xbd68c0b5	-0.056824405
235	0x3f535711	0.8255473
236	0xbcc13ab7	-0.023587568
237	0x3c6f2b7e	0.014597772
238	0x3de80370	0.11328781
239	0x3e3e4c5f	0.18583821
240	0x3e8bd86b	0.2731355
241	0xbed4af77	-0.4154012
242	0x3e4f3b6c	0.20237511
243	0x3ca6854b	0.02032723
244	0xbec8f118	-0.3924644
245	0xba69d701	-0.00089202827
246	0x3d330f30	0.043715656
247	0x3d565584	0.052327648
248	0xbe9826a9	-0.29716995
249	0xbf41cc5c	-0.7570245
250	0x3f178e62	0.59201634
251	0xbcf80f4d	-0.030280733
252	0x3ef68ced	0.48154393
253	0xbee9a306	-0.4563219
254	0xbe0260a7	-0.12732182
255	0x3e621b4f	0.2208073

policy_network.h3.transform.bias f4 [20]
0	0xbe418064	-0.18896633
1	0x3ce3ccb8	0.027807578
2	0xbce15504	-0.027506359
3	0xbd1bd2f2	-0.03804297
4	0xbe292ce6	-0.16521034
5	0xbe49ebfc	-0.19718927
6	0xbd63e69d	-0.05563985
7	0xbe3f5c30	-0.1868751
8	0xbc0dbc6d	-0.008650881
9	0xbdd5075f	-0.104017965
10	0xbd2d220a	-0.04226879
11	0x00000000	0.0
12	0xbdfee074	-0.12445155
13	0xbe888fb9	-0.26672152
14	0x00000000	0.0
15	0xbd862d96	-0.065516636
16	0xbdcb74c6	-0.09934382
17	0xbac62ac9	-0.0015118952
18	0xbe348b72	-0.17631319
19	0xbdfb77ef	-0.12278735

policy_network.critic_linear.weight f4 [1, 20]
0	0xbe619fb0	-0.22033572
1	0xbeaaaa72	-0.33333164
2	0xbeadedf6	-0.33970612
3	0xbe393d3f	-0.1808977
4	0xbeacce80	-0.33751297
5	0x3e33bbd5	0.17552121
6	0x3e6e9e88	0.23302662
7	0x3ec5f9a1	0.38667014
8	0x3f015cf2	0.5053245
9	0x3e4c5004	0.19952399
10	0x3d40ff03	0.047118198
11	0x3cdc2da0	0.026877224
12	0xbe9364e0	-0.287879
13	0xbcc5f7b0	-0.024165958
14	0xbf2c0d57	-0.67207855
15	0xbda3b459	-0.07993383
16	0xbcdbdc1b	-0.026838353
17	0xbe2194cb	-0.15779416
18	0x3e807a4f	0.25093314
19	0x3e225bfc	0.15855402

target_network.emb1.transform.weight f4 [20, 2]
0	0x3deabfd5	0.1146237
1	0x3ed7c001	0.42138675
2	0x3d6a5a2c	0.0572149
3	0xbf1aa815	-0.6041272
4	0xbbf13fde	-0.00736235
5	0xbea9be48	-0.33152986
6	0xbe303e94	-0.17211372
7	0xbeaad970	-0.33369017
8	0x3b728b6f	0.0037009378
9	0x3e9fe3ba	0.3122843
10	0xbf1c2ebc	-0.6100881
11	0x3eccb4a7	0.39981577
12	0xbe501a9a	-0.20322648
13	0xbd8ecd33	-0.069727324
14	0xbe9340f1	-0.28760484
15	0xbe90d0c1	-0.28284267
16	0x3e1db631	0.15401532
17	0x3e67af5a	0.22625485
18	0xbc97d311	-0.018533261
19	0x3e89f4bd	0.26944533
20	0xbe15ba4d	-0.1462185
21	0x3cceee35	0.02526007
22	0xbd354651	-0.044256512
23	0x3ef45de8	0.47727895
24	0x3e932960	0.28742504
25	0xbeb40999	-0.35163572
26	0xbe977449	-0.29580906
27	0x3e989907	0.2980425
28	0x3e718b5d	0.23588319
29	0x3e586482	0.2113209
30	0xbf3ee9a2	-0.74575245
31	0x3e764696	0.24050364
32	0xbf1b5ac9	-0.606854
33	0xbe6b58c6	-0.22983083
34	0xbeda7f61	-0.42675307
35	0xbec64ecd	-0.38731995
36	0xbd534bd0	-0.051585972
37	0x3da6712e	0.08127056
38	0xbe9e32ad	-0.30898038
39	0xbe9877c6	-0.2977888

target_network.emb1.transform.bias f4 [20]
0	0x3c0cffcd	0.0086059095
1	0xbc616cce	-0.013758851
2	0x00000000	0.0
3	0x00000000	0.0
4	0xbe0476b0	-0.129359
5	0xbdc0fdc5	-0.09423403
6	0x00000000	0.0
7	0x00000000	0.0
8	0x3cc02e91	0.023459705
9	0xbdbe4377	-0.09290212
10	0x00000000	0.0
11	0x3e1d0b82	0.15336421
12	0xbddf6149	-0.109072275
13	0xbd3ca329	-0.04605404
14	0x3d72adab	0.059247654
15	0x00000000	0.0
16	0x00000000	0.0
17	0x00000000	0.0
18	0xbca6525b	-0.020302942
19	0x00000000	0.0

target_network.emb2.transform.weight f4 [20, 2]
0	0x3c496fc4	0.012294713
1	0x3eefe86b	0.46857008
2	0x3e0ac469	0.13551487
3	0x3f00df36	0.5034059
4	0xbe928e19	-0.28624037
5	0x3d038d6d	0.032117296
6	0xbd470daa	-0.048597015
7	0xbdd237d0	-0.10264552
8	0x3ebfb496	0.37442464
9	0xbe5ac2a2	-0.21363309
10	0xbd83596f	-0.064135425
11	0x3eada7dd	0.33917132
12	0x3ded66c9	0.1159187
13	0x3de95624	0.11393383
14	0xbe87c53f	-0.26517674
15	0x3ef8150b	0.48453555
16	0xbe9e8100	-0.30957794
17	0x3ee17f41	0.440424
18	0x3ebb95f7	0.36637852
19	0xbe3c9435	-0.18415911
20	0x3dda9a57	0.10673969
21	0xbf0f25ae	-0.5591687
22	0xbf5db806	-0.8660892
23	0xbe3cc72c	-0.18435353
24	0xbd587fbe	-0.0528562
25	0x3d691151	0.05690128
26	0xbeab47cd	-0.33453217
27	0x3e778f93	0.24175863
28	0x3bb35617	0.005472909
29	0x3f5ec7be	0.8702353
30	0xbe836757	-0.2566478
31	0x3ea172f5	0.31533018
32	0xbf1958ce	-0.5990113
33	0x3dd36727	0.10322409
34	0x3dfe5462	0.124184385
35	0xbf09a1ff	-0.5376281
36	0xbdba2cc1	-0.090905674
37	0xbdf88c61	-0.1213615
38	0x3d230650	0.039800942
39	0x3d765ec4	0.06014897

target_network.emb2.transform.bias f4 [20]
0	0xbdfff095	-0.12497059
1	0xbc681648	-0.0141654685
2	0x00000000	0.0
3	0x00000000	0.0
4	0xbe0a1253	-0.13483553
5	0xbdaea55a	-0.08527632
6	0xbac04810	-0.0014669914
7	0xbd3ed7bd	-0.046592463
8	0xbd00930d	-0.03139024
9	0xbe3148f9	-0.17312993
10	0xbd2d028a	-0.04223875
11	0x00000000	0.0
12	0xbd08f6b1	-0.03343839
13	0xbe26f3ff	-0.16304015
14	0xbd6b84d8	-0.057499737
15	0xbcb01d9e	-0.021498498
16	0x00000000	0.0
17	0xbd435fb7	-0.047698703
18	0x00000000	0.0
19	0xbd5261d2	-0.05136282

target_network.emb3.transform.weight f4 [20, 2]
0	0xbf062367	-0.5239777
1	0xbe5e36bc	-0.21700567
2	0xbe96de02	-0.29466254
3	0xbd5285a7	-0.051396992
4	0xbe81d0de	-0.25354666
5	0xbd6c03a8	-0.057620674
6	0x3e8b60f9	0.27222422
7	0x3e22d373	0.15900974
8	0x3e2c2115	0.16809495
9	0x3ea96e97	0.33092186
10	0xbee26df3	-0.4422451
11	0x3eca288f	0.3948407
12	0x3e246a83	0.16056256
13	0x3eeb8550	0.46000147
14	0x3d3742be	0.044741385
15	0xbe4f00d1	-0.20215155
16	0xbee573fb	-0.4481505
17	0x3efdd1f7	0.49574253
18	0x3d883539	0.066507764
19	0xbe8be247	-0.27321073
20	0xbd8a33c3	-0.06748154
21	0xbecda1ac	-0.40162408
22	0xbf1a66fa	-0.6031338
23	0x3e8eb858	0.27875018
24	0x3cc5a1b2	0.024124954
25	0x3e15dbb8	0.14634597
26	0x3eca0520	0.39457035
27	0x3e5f0716	0.21780047
28	0xbe513305	-0.20429619
29	0xbe108e5c	-0.14116806
30	0xbe90d92e	-0.28290695
31	0x3e28c96e	0.1648309
32	0x3f2e9f96	0.6821226
33	0xbebfc8c9	-0.37457874
34	0x3dac69b9	0.084186025
35	0xbe6425d6	-0.22280058
36	0xbcf0ac08	-0.029378906
37	0x3d748624	0.05969824
38	0x3e8b8fd1	0.2725816
39	0x3e2417d4	0.16024715

target_network.emb3.transform.bias f4 [20]
0	0x00000000	0.0
1	0x00000000	0.0
2	0x00000000	0.0
3	0xbca5aa06	-0.020222675
4	0xbdc7fa3c	-0.09764525
5	0xbd7590ac	-0.059952423
6	0xbc713cfe	-0.014724014
7	0xbcd4ba3e	-0.025967713
8	0xbdebccc4	-0.11513665
9	0xbc999578	-0.01874803
10	0x00000000	0.0
11	0xbda9c13f	-0.08288812
12	0x3c84d8c4	0.016216643
13	0xbd6a3b51	-0.057185475
14	0x00000000	0.0
15	0x3d335632	0.043783374
16	0xbdbac79b	-0.09120103
17	0xbe0df474	-0.13862783
18	0xbe1153a4	-0.14192063
19	0xbd8b8532	-0.06812514

target_network.emb4.transform.weight f4 [20, 2]
0	0x3e3cf2d4	0.18452007
1	0x3e606724	0.21914345
2	0x3d7fed29	0.062482033
3	0xbe5329a7	-0.20621358
4	0x3e9cd4f4	0.3063122
5	0x3e2ed134	0.17071992
6	0xbed02423	-0.4065257
7	0x3eabff3f	0.33593175
8	0x3e4b785a	0.19870129
9	0xbe654bcf	-0.223922
10	0x3e023cf3	0.12718563
11	0x3ee17c5c	0.4404019
12	0x3e8e8acd	0.27840272
13	0x3c35b839	0.011091285
14	0xbe573284	-0.21015364
15	0xbe834f4b	-0.25646433
16	0xbe9ade3f	-0.30247685
17	0xbeba1a76	-0.36348313
18	0xbe7fe218	-0.24988592
19	0x3e1357a2	0.14388898
20	0xbc8c9b68	-0.017163947
21	0xbeb83797	-0.35979912
22	0x3e6bf7a9	0.23043694
23	0x3e8b9d61	0.27268508
24	0xbd63c82d	-0.055610824
25	0x3d33846a	0.04382745
26	0x3ca6cc6a	0.020361144
27	0x3d2cc28a	0.042177714
28	0xbe82b816	-0.2553107
29	0x3ea18720	0.31548405
30	0x3ea498e7	0.32147905
31	0xbf07d00c	-0.5305183
32	0x3de9822e	0.11401783
33	0x3c64e884	0.013971452
34	0xbf07efef	-0.53100485
35	0x3f03efa7	0.51537555
36	0xbf4da341	-0.8032723
37	0x3e30d0ce	0.17267153
38	0xbf050323	-0.5195791
39	0xbf02bd98	-0.5107055

target_network.emb4.transform.bias f4 [20]
0	0xbcf2078f	-0.02954462
1	0xbcacc93d	-0.021092052
2	0xbe2820df	-0.1641879
3	0xbe20f65d	-0.1571898
4	0xbdab41ea	-0.083621815
5	0x3be16f24	0.006879704
6	0x3d4c6b86	0.04990723
7	0x00000000	0.0
8	0x00000000	0.0
9	0x3cfb8cc0	0.030706763
10	0x00000000	0.0
11	0x3e44d931	0.19223477
12	0xbd6040d5	-0.05474933
13	0xbd6c1c63	-0.05764426
14	0xbca4b17f	-0.020104168
15	0xbdfc3223	-0.1231425
16	0xbe036a37	-0.12833486
17	0xbcd87bb2	-0.02642617
18	0x00000000	0.0
19	0x00000000	0.0

target_network.h2.transform.weight f4 [20, 20]
0	0x3da42cef	0.08016383
1	0xbd07f7ba	-0.033195235
2	0xbe94deff	-0.29076383
3	0x3e20aef1	0.15691735
4	0xbce78220	-0.02826029
5	0x3f031b87	0.5121388
6	0xbf1ef7ed	-0.62097055
7	0xbf3a7214	-0.7283032
8	0xbe2721f6	-0.16321549
9	0xbe859bbf	-0.26095387
10	0x3ec60153	0.38672885
11	0x3e81459e	0.25248426
12	0x3e403ffc	0.18774408
13	0x3e3de9d1	0.18546225
14	0xbe1341a3	-0.14380507
15	0xbe7ec108	-0.24878323
16	0xbe81af55	-0.2532908
17	0xbdb29f6e	-0.08721815
18	0xbea97876	-0.33099717
19	0xbebef34f	-0.37295005
20	0x3d543b91	0.05181462
21	0x3d135041	0.035965208
22	0xbecb8167	-0.39747164
23	0x3e67c708	0.22634518
24	0x3b9b1b40	0.004733473
25	0xbf299fae	-0.66259277
26	0x3e0dc266	0.13843688
27	0xbee45a51	-0.44600156
28	0xbf267bd9	-0.65032727
29	0x3eca3c3e	0.39499086
30	0x3d9a507d	0.07534883
31	0xbe44132b	-0.19147937
32	0xbe8d984c	-0.27655256
33	0xbee40fd9	-0.4454334
34	0xbef85030	-0.48498678
35	0xbe7e7bd8	-0.2485193
36	0xbe5e427f	-0.21705054
37	0xbc465ce1	-0.012107105
38	0xbe76578f	-0.24056838
39	0x3d23ac23	0.039959084
40	0xbee80d0a	-0.45322448
41	0x3c9c3c73	0.019071793
42	0xbeaa446c	-0.33255327
43	0xbeefcbaa	-0.4683507
44	0xbea45d59	-0.3210247
45	0xbe07c428	-0.13258421
46	0xbecb1549	-0.39664677
47	0x3e157d17	0.14598499
48	0x3e01954b	0.12654607
49	0x3e6662e1	0.22498657
50	0x3ccb66b5	0.024829248
51	0xbd9ad853	-0.07560792
52	0x3e8ad0ec	0.2711252
53	0xbe1c55e3	-0.15267138
54	0x3e001b8d	0.1251051
55	0xbedc59f8	-0.4303739
56	0x3eea07d1	0.45709088
57	0xbe3fdae0	-0.18735838
58	0xbf330111	-0.699235
59	0x3ebbf280	0.3670845
60	0xbdedb21c	-0.11606237
61	0xbbffd182	-0.0078069577
62	0x3e974d61	0.29551223
63	0xbe18acb7	-0.14909635
64	0x3e6d4003	0.2316895
65	0x3e8acdca	0.2711013
66	0xbec77902	-0.3895951
67	0x3e1fe190	0.15613389
68	0xbe341dd0	-0.17589498
69	0x3f540e9a	0.8283478
70	0xbe81364a	-0.25236732
71	0x3ecafabb	0.39644417
72	0xbd3bebab	-0.045879047
73	0xbd60c055	-0.054870922
74	0xbf204baf	-0.62615484
75	0xbe3d7ad2	-0.18503883
76	0xbdc1af2f	-0.09457242
77	0xbea50926	-0.32233542
78	0x3de7c29d	0.113164164
79	0x3cf12e74	0.029441096
80	0xbe1047ee	-0.14089939
81	0xbf15148f	-0.58234495
82	0xbef7968b	-0.48357043
83	0x3e6d44ba	0.23170748
84	0xbf1be997	-0.60903305
85	0xbd99a118	-0.07501429
86	0xbefdb6b6	-0.4955346
87	0x3e0c174b	0.1368076
88	0x3e880464	0.2656585
89	0x3ec14300	0.3774643
90	0x3e9e3bc4	0.30904973
91	0xbdda5008	-0.10659796
92	0xbe5ad239	-0.21369256
93	0x3d9a5d69	0.07537348
94	0xbef47eae	-0.477529
95	0x3e93e39c	0.2888459
96	0xbd208921	-0.039193276
97	0x3ed57d92	0.41697365
98	0x3ebd10b0	0.36926794
99	0x3e061c86	0.13096818
100	0x3d30ed6e	0.04319518
101	0x3e9f47f6	0.3110959
102	0x3c24e6d6	0.010064801
103	0x3f0fb12a	0.56129706
104	0xbd3077c3	-0.043082964
105	0x3eecdc3e	0.4626178
106	0xbe965641	-0.29362682
107	0x3cfb5fc6	0.030685317
108	0xbe810caf	-0.2520499
109	0x3df3fd72	0.11913575
110	0x3cd45860	0.025921047
111	0xbf15678f	-0.5836114
112	0xbe4c92d9	-0.19977893
113	0xbebee4d5	-0.3728396
114	0x3ebc221d	0.36744776
115	0xbe1c3127	-0.15253125
116	0x3ecca7dc	0.39971817
117	0xbe572a36	-0.21012196
118	0x3e0736b7	0.13204466
119	0xbdf47f9a	-0.119384006
120	0xbac7e222	-0.0015249888
121	0xbe7e523c	-0.24836057
122	0xbee520a7	-0.44751474
123	0x3ef4a556	0.4778239
124	0x3d9eafed	0.07748399
125	0xbcfe1971	-0.03101799
126	0xbe6c1d84	-0.23058134
127	0x3ec8d165	0.39222255
128	0x3eb5dfd2	0.35522324
129	0xbf115197	-0.5676512
130	0xbf0a91b8	-0.541286
131	0x3e8088c7	0.25104353
132	0xbe004544	-0.12526423
133	0xbee6ee58	-0.45103717
134	0xbef43fec	-0.4770502
135	0xbe8bf7bf	-0.27337453
136	0xbe4e6f84	-0.20159727
137	0xbe4265be	-0.18984124
138	0xbe580581	-0.2109585
139	0x3d5ccaec	0.05390446
140	0xbeab270d	-0.3342823
141	0xbd8ecc92	-0.069726124
142	0xbe8bf5fa	-0.27336103
143	0xbc7c272e	-0.015390201
144	0x3d2860e5	0.04110803
145	0xbee1edb8	-0.44126678
146	0x3da7b754	0.08189264
147	0xbed3afee	-0.4134516
148	0x3ecf9ab0	0.40547705
149	0x3de54be5	0.11196116
150	0x3d1b6c12	0.03794486
151	0x3e4883c7	0.19581519
152	0xbd9c6313	-0.076360844
153	0xbea2aecf	-0.31773993
154	0xbd96861b	-0.07349797
155	0xbdcba382	-0.09943296
156	0x3eff50b7	0.49866268
157	0xbe95c23b	-0.2924975
158	0x3e9185d9	0.2842243
159	0xbf5d2538	-0.86384916
160	0x3f24ee50	0.64426136
161	0xbf17b964	-0.5926726
162	0xbddf5fa1	-0.10906912
163	0xbefaf7de	-0.49017233
164	0xbf3a41f9	-0.72756916
165	0x3e00f4b0	0.12593341
166	0x3c21df47	0.009879894
167	0x3f18d4a7	0.5969948
168	0xbe187c4b	-0.14891164
169	0xbd9e906e	-0.077423915
170	0xbde5dfe4	-0.112243444
171	0x3e80048a	0.25003463
172	0xbe298a46	-0.16556653
173	0xbeb4a341	-0.35280803
174	0x3e20dda2	0.15709546
175	0xbdadf93d	-0.08494804
176	0x3d01c7c2	0.031684645
177	0xbe35e161	-0.17761756
178	0x3ece589f	0.40301988
179	0xbdd1a277	-0.10236066
180	0x3c5ec820	0.013597518
181	0xbeaebd8e	-0.34128994
182	0x3ef571c5	0.47938362
183	0xbd6f56a7	-0.058432247
184	0xbeaba2ec	-0.33522737
185	0x3df7228b	0.120671354
186	0x3dd02a88	0.10164362
187	0xbdb7053a	-0.08936544
188	0x3dc4130d	0.09573946
189	0x3dd0ab5e	0.10188936
190	0x3e69e46f	0.22841047
191	0x3e9a9dd3	0.30198535
192	0x3eaa240c	0.33230627
193	0xbf92b0d2	-1.1460211
194	0x3ce449de	0.027867254
195	0x3eeee619	0.46659926
196	0xbe44534b	-0.19172399
197	0x3f238706	0.63877904
198	0xbe847c6f	-0.25876185
199	0xbe0c6a88	-0.13712513
200	0x3c5c68be	0.013452707
201	0xbebb3d2b	-0.36570105
202	0x3ea0462f	0.31303546
203	0x3dafbf42	0.085814014
204	0x3f12e5fd	0.57382184
205	0xbea37d30	-0.31931448
206	0xbe02aec4	-0.1276198
207	0x3d8a9668	0.06766969
208	0xbc99baec	-0.01876589
209	0xbe2b31ba	-0.16718188
210	0x3eefc5f7	0.46830723
211	0x3d6a023f	0.05713105
212	0x3dcf6f5b	0.10128661
213	0x3e937039	0.28796557
214	0x3d97a88b	0.07405194
215	0xbdbd47a1	-0.09242178
216	0x3e5def7d	0.21673389
217	0xbe1a98b6	-0.15097317
218	0xbd618581	-0.05505896
219	0x3e946e20	0.2899027
220	0xbe24cfb8	-0.16094863
221	0xbf20886e	-0.62708175
222	0xbf0cef60	-0.5505276
223	0xbee59f66	-0.44848174
224	0x3ed7a6d1	0.42119458
225	0x3f071a22	0.5277425
226	0x3e5fc133	0.21851043
227	0xbdd5d0ba	-0.10440202
228	0x3ea9140f	0.33023116
229	0x3e2ec075	0.17065604
230	0x3e58314a	0.21112552
231	0xbf39a6be	-0.72520053
232	0x3e0b2264	0.13587338
233	0xbea7ca68	-0.3277161
234	0xbf119bab	-0.56878155
235	0xbde32de7	-0.110927396
236	0xbea5b43f	-0.3236408
237	0xbde2f245	-0.110813655
238	0x3e0f1b7a	0.13975325
239	0xbd8072cc	-0.06271896
240	0x3ecaf5de	0.39640707
241	0x3ec1122a	0.3770917
242	0x3da13f69	0.07873423
243	0xbf0c89f8	-0.54898024
244	0x3e00bd6e	0.12572262
245	0xbda90cd1	-0.08254398
246	0xbed34a7e	-0.4126777
247	0x3f2bb4f7	0.67073005
248	0x3ef0d9c9	0.47041157
249	0xbd845abf	-0.06462621
250	0x3eea75d0	0.4579301
251	0x3e400d24	0.18755013
252	0xbf2331fd	-0.6374815
253	0xbf2f5cdb	-0.6850106
254	0x3e16ad76	0.14714608
255	0xbd978be7	-0.07399731

target_network.h2.transform.bias f4 [20]
0	0xbcdb0fb5	-0.026740888
1	0xbde0c9c2	-0.10975982
2	0xbdb41d70	-0.08794677
3	0xbddb46b1	-0.10706843
4	0xbe4eed58	-0.20207727
5	0xbe07af57	-0.1325048
6	0xbe09e5c9	-0.13466562
7	0xbe045072	-0.12921312
8	0xbcee4005	-0.029083261
9	0xbb0875eb	-0.0020822238
10	0xbd304ba4	-0.043040887
11	0xbd90a801	-0.07063294
12	0x3e1f37ca	0.15548626
13	0xbda638d0	-0.08116305
14	0x3da89be5	0.082328595
15	0x00000000	0.0
16	0xbe1a220c	-0.1505205
17	0xbdf9f1fc	-0.12204358
18	0xbcd0a2c6	-0.025468241
19	0xbe34725e	-0.17621753

target_network.h3.transform.weight f4 [20, 20]
0	0x3c92a7d5	0.017902294
1	0xbdc311bc	-0.09524867
2	0x3f151ef3	0.5825035
3	0xbc78dc36	-0.015189221
4	0x3dcba4b5	0.09943525
5	0xbf1a0a0b	-0.60171574
6	0xbefaf7f0	-0.49017286
7	0x3e861dd6	0.26194638
8	0x3e7ec2e6	0.24879035
9	0xbe874a66	-0.2642395
10	0xbde97017	-0.113983326
11	0x3d84fe17	0.06493776
12	0xbeba352c	-0.36368692
13	0xbf02cb8e	-0.5109185
14	0x3e02ed65	0.12785871
15	0xbedfa1f0	-0.43678236
16	0xbe1906fe	-0.14944074
17	0xbe8b3cbb	-0.2719477
18	0xbf0fb042	-0.56128323
19	0xbdafc911	-0.08583272
20	0xbe2ea39b	-0.17054598
21	0xbf020782	-0.50792706
22	0xbe024ac6	-0.12723836
23	0xbdc7e71c	-0.097608775
24	0xbe019659	-0.1265501
25	0x3d4f6cdf	0.050640937
26	0x3f57bd87	0.8427357
27	0xbdda24d8	-0.10651559
28	0x3d5c2711	0.053748194
29	0xbe3899f6	-0.18027481
30	0xbe405235	-0.1878136
31	0x3f171185	0.5901111
32	0xbe84fa30	-0.25972128
33	0xbd9c7d47	-0.07641082
34	0xbdf28256	-0.11841266
35	0xbc97f915	-0.018551389
36	0xbe667ec9	-0.22509302
37	0x3e389a67	0.1802765
38	0xbe9002cf	-0.28127143
39	0x3ec76072	0.3894077
40	0x3ed57124	0.41687882
41	0x3e2565af	0.1615207
42	0x3c3e3e9b	0.011611606
43	0xbd0896df	-0.033347007
44	0xbee1e139	-0.44117144
45	0xbc072100	-0.008247614
46	0x3e173a35	0.14768298
47	0x3f2a630b	0.6655738
48	0x3edfb346	0.43691462
49	0x3f2980fc	0.6621244
50	0xbde00538	-0.109384954
51	0xbb9c8530	-0.0047766194
52	0x3f0c65b0	0.5484266
53	0x3eb99d7d	0.36252967
54	0x3ee96dae	0.4559149
55	0xbef78d12	-0.48349816
56	0x3dca02dd	0.098638274
57	0x3ef20c0a	0.4727481
58	0x3e6fa4be	0.23402688
59	0xbdbe8c8b	-0.0930415
60	0x3e1ccfd3	0.15313654
61	0x3eef58c0	0.46747398
62	0x3e9b4799	0.30328062
63	0xbebd07dd	-0.36920062
64	0x3ec34462	0.3813811
65	0x3d6e0613	0.05811126
66	0x3e588568	0.2114464
67	0xbd21796c	-0.039422438
68	0xbd8d2fce	-0.06893884
69	0xbec5d6d0	-0.3864045
70	0x3e8b4073	0.27197608
71	0x3b182890	0.0023217537
72	0x3e4bdff9	0.19909658
73	0x3f09e1e5	0.5386031
74	0x3de99628	0.11405593
75	0xbd0cef4e	-0.034407906
76	0xbe875007	-0.26428244
77	0xbdcc8401	-0.09986115
78	0x3f067079	0.5251537
79	0xbe580e5f	-0.21099232
80	0x3cc6d947	0.024273528
81	0x3e476b4a	0.19474521
82	0xbe93ef73	-0.28893623
83	0xbdb905d3	-0.09034314
84	0xbea22aec	-0.31673372
85	0xbed0d0f5	-0.40784422
86	0x3d611e00	0.05496025
87	0xbf0b0363	-0.5430204
88	0x3f29f5ed	0.6639088
89	0xbe3b15f7	-0.18270098
90	0x3e4d9c78	0.2007922
91	0xbec3e53b	-0.38260826
92	0xbf1b85fe	-0.6075133
93	0xbeec2109	-0.46118954
94	0xbe661789	-0.22469915
95	0x3dbb9a1f	0.09160256
96	0x3eba70c2	0.36414152
97	0xbdc8c85a	-0.09803839
98	0x3dfe36a8	0.124127686
99	0x3da12fd0	0.07870448
100	0xbc9a6b51	-0.01885
101	0x3f4e385f	0.80554765
102	0x3efabe3d	0.48973265
103	0x3ea7473d	0.32671538
104	0xbd161aa8	-0.036646515
105	0xbe459c32	-0.19297865
106	0x3f20cf4e	0.6281632
107	0xbe3a168d	-0.18172665
108	0xbc344034	-0.011001635
109	0x3e3d706a	0.18499914
110	0x3d850312	0.06494726
111	0x3cdbb3cc	0.026819132
112	0x3e98fbf1	0.29879716
113	0xbebd4c98	-0.369725
114	0x3e66c3d9	0.22535647
115	0x3d58d43b	0.052936774
116	0xbd5b2354	-0.05350049
117	0x3dfb4b4f	0.12270223
118	0xbe3d3a78	-0.18479335
119	0x3e51afed	0.20477267
120	0xbd82ed8b	-0.06392964
121	0xbe86130f	-0.26186416
122	0x3f1a89bc	0.60366416
123	0xbecd5ef6	-0.40111512
124	0xbe95a38d	-0.29226342
125	0x3e43063e	0.1904535
126	0xbd10b8e5	-0.03533258
127	0x3d60c13a	0.054871775
128	0xbe4e37b8	-0.20138443
129	0x3ea0acb0	0.3138175
130	0x3e9c96f1	0.3058391
131	0x3d57bcf6	0.05267044
132	0xbf7b62ba	-0.9819752
133	0x3e14a333	0.1451538
134	0xbc950106	-0.018188965
135	0x3e06d406	0.13166818
136	0xbe0bb34e	-0.13642618
137	0xbe0ef909	-0.13962187
138	0x3e38e47a	0.18055907
139	0x3e7dd1e2	0.24787095
140	0x3e8a6f7c	0.2703818
141	0xbe1ce2c6	-0.15320882
142	0x3e32f664	0.17476803
143	0x3e954e79	0.29161432
144	0xbde64ee1	-0.11245514
145	0xbf4d2cab	-0.8014628
146	0x3e8c8b54	0.2745005
147	0xbd5b3d5a	-0.053525306
148	0xbf1d4c65	-0.61444694
149	0xbd308361	-0.043094043
150	0xbef43600	-0.4769745
151	0x3e735cfa	0.23765936
152	0xbdd1e21f	-0.10248207
153	0x3e865608	0.26237512
154	0xbf1e0577	-0.6172709
155	0xbdb6ea83	-0.08931448
156	0x3f15cc3b	0.58514756
157	0xbe864df5	-0.26231351
158	0x3e72ab28	0.23698103
159	0x3d94b06d	0.07260213
160	0x3eda32c0	0.42616844
161	0xbea1694e	-0.31525654
162	0xbe4c933e	-0.19978043
163	0x3d8fb9e0	0.07017875
164	0x3f120927	0.57045215
165	0xbdf04e88	-0.11733729
166	0x3e13c640	0.14431095
167	0x3ec83211	0.39100698
168	0x3e71c3ea	0.23609892
169	0xbe91eab6	-0.28499383
170	0x3f19a939	0.6002384
171	0xbd1bf55f	-0.0380758
172	0xbe67c8ec	-0.2263524
173	0x3e827b79	0.25484827
174	0xbe834a81	-0.2564278
175	0x3ecc8488	0.39944863
176	0x3e840d0f	0.25791213
177	0x3ecb2db9	0.3968332
178	0xbe92b7cd	-0.28655854
179	0x3e05868e	0.1303961
180	0xbdb20ba5	-0.08693627
181	0x3e0fd8e2	0.14047578
182	0xbdc451a8	-0.09585887
183	0xbe8b2b4b	-0.27181467
184	0x3e5eeeb0	0.2177074
185	0x3eaf8222	0.3427897
186	0xbca254d6	-0.019815844
187	0x3e3e3379	0.18574323
188	0x3dc69e44	0.096981555
189	0xbee30865	-0.44342342
190	0xbe361a43	-0.17783456
191	0x3c056501	0.008141757
192	0x3e38e62c	0.18056554
193	0xbebc7423	-0.36807355
194	0xbd690dc6	-0.0568979
195	0xbf23b9a7	-0.6395516
196	0x3efa4040	0.48877144
197	0xbe84ce17	-0.25938484
198	0x3e9b0f8e	0.30285305
199	0x3f1a2eba	0.6022755
200	0x3e5b01d0	0.2138741
201	0xbe908650	-0.28227472
202	0x3cceeeec	0.025260411
203	0xbf4bb4df	-0.7957286
204	0x3ec01eac	0.375234
205	0xbed9a010	-0.4250493
206	0x3e2b9a7a	0.16758147
207	0xbef31c79	-0.4748266
208	0xbde1a924	-0.11018589
209	0x3e9128e4	0.2835151
210	0xbbf26b30	-0.0073980317
211	0xbed8c979	-0.4234121
212	0x3ea6916f	0.32532832
213	0xbe646ebb	-0.22307865
214	0xbdb8b000	-0.09017944
215	0xbecee3e6	-0.40408248
216	0xbcb91358	-0.022592232
217	0x3e4dabc6	0.20085058
218	0xbdc0b93a	-0.09410329
219	0xbaa039e3	-0.0012224283
220	0x3dfcf7f8	0.12351984
221	0x3dc438ac	0.09581122
222	0x3ebefa54	0.3730036
223	0xbedc4b4e	-0.43026203
224	0x3d4b4d57	0.049634304
225	0xbe15c27b	-0.1462497
226	0x3c236b5b	0.009974326
227	0x3ea6d37e	0.3258323
228	0x3ecc6ad7	0.39925262
229	0xbdabec08	-0.08394629
230	0xbf3a4cf6	-0.72773683
231	0xbde107df	-0.109878294
232	0x3daf6e79	0.08565993
233	0xbe8a2c32	-0.26986843
234	0xbd68c0b5	-0.056824405
235	0x3f535711	0.8255473
236	0xbcc13ab7	-0.023587568
237	0x3c6f2b7e	0.014597772
238	0x3de80370	0.11328781
239	0x3e3e4c5f	0.18583821
240	0x3e8bd86b	0.2731355
241	0xbed4af77	-0.4154012
242	0x3e4f3b6c	0.20237511
243	0x3ca6854b	0.02032723
244	0xbec8f118	-0.3924644
245	0xba87157c	-0.0010306085
246	0x3d330f30	0.043715656
247	0x3d565584	0.052327648
248	0xbe95da7a	-0.29268247
249	0xbf41f1eb	-0.7575976
250	0x3f19b376	0.6003946
251	0xbd0437cc	-0.032279775
252	0x3ef68ced	0.48154393
253	0xbee1bf6d	-0.4409136
254	0xbe03e6da	-0.12881032
255	0x3e621b4f	0.2208073

target_network.h3.transform.bias f4 [20]
0	0xbe418064	-0.18896633
1	0x3ce3ccb8	0.027807578
2	0xbcf316e9	-0.02967401
3	0xbd1f1ea6	-0.038847588
4	0xbe327605	-0.17427833
5	0xbe49ebfc	-0.19718927
6	0xbd72db45	-0.059291143
7	0xbe29b212	-0.16571835
8	0xbc0319fe	-0.0080018025
9	0xbdd5075f	-0.104017965
10	0xbd2d220a	-0.04226879
11	0x00000000	0.0
12	0xbdea072f	-0.114271514
13	0xbe888605	-0.2666475
14	0x00000000	0.0
15	0xbd90499c	-0.0704529
16	0xbdcd4796	-0.100234196
17	0xbc049bc2	-0.008093776
18	0xbe348b72	-0.17631319
19	0xbdfb77ef	-0.12278735

target_network.critic_linear.weight f4 [1, 20]
0	0xbe619fb0	-0.22033572
1	0xbeaaaa72	-0.33333164
2	0xbea00e14	-0.3126074
3	0xbe34b259	-0.17646159
4	0xbeab892a	-0.33503085
5	0x3e33bbd5	0.17552121
6	0x3e6a8635	0.22902758
7	0x3ed4e026	0.41577262
8	0x3efdb816	0.4955451
9	0x3e4c5004	0.19952399
10	0x3d40ff03	0.047118198
11	0x3cdc2da0	0.026877224
12	0xbe9658e0	-0.2936468
13	0xbcc25ea1	-0.023726763
14	0xbf2c0d57	-0.67207855
15	0xbda2f361	-0.07956577
16	0xbcdb41e9	-0.026764827
17	0xbe1ac71b	-0.15115015
18	0x3e807a4f	0.25093314
19	0x3e225bfc	0.15855402
